code/log/dqn/ckpt/1111000.pth (torch, 15775 bytes, 4 tensors)

linear.weight f4 [512, 4]
00000000: 3b40 953e 4044 1b3e 5388 80bf 95ae bc3d
00000010: 838b ea3d 8949 153f da7d 0440 7479 e53e
00000020: 05df ca3e fa17 6d3e 1171 bc3f c370 153f
00000030: cf09 89be c166 0e3e 304f c4be 7c6a 41bc
00000040: dec4 783f d044 333f b9a8 e9be 80b9 d43e
00000050: ed15 c43e 7422 863f d7ec 6040 4bf4 5e3f
00000060: 37c9 fa3e 54f0 893e 7ee6 7a3f b683 dc3e
00000070: 67bb 12bf b780 723f 5892 213c 0404 6f3f
00000080: e1b0 9fbe 4cd2 1dbe 4a74 05bf 6a2f 97be
00000090: 3416 9bbe cb11 213f f216 a9bd 16f8 6a3d
000000a0: 8cc3 a43e 38b6 1d3e 2a60 133e f18d 8cbe
000000b0: a9ec 57be ea17 553d f6ef bfbd 0d41 203e
000000c0: 507c 5bbe 8a5e 543e bd48 dabd 6033 613e
000000d0: 0848 f53d 0ca2 c8bd 3f5a eebd 8753 48be
000000e0: 8fd1 77bf 4a13 66bf 0ae5 dcbf 1b78 16bf
000000f0: 9ea4 da3f ea69 4b3f e86e d73f ddab 803f
00000100: ae08 59bd 0810 9bbe 9063 05c0 6e2c 9ebe
00000110: 313e cd3d 61a0 a53e 5927 3ebf 161d 303c
00000120: 95b1 843d 6c7a b4bf e716 2c40 ec34 3c3f
00000130: cf60 bfbe 1135 1cbf aedf a3bf 9706 45bf
00000140: 3fd1 44be 515a 83be b86f 9abf d868 8abe
00000150: d2ae 123f 2fba 833e 2866 6e3e 515a 8d3e
00000160: 78f7 933d 3ae8 3cbe 4951 64be d323 06bd
00000170: 811c 563e 3893 7dbd 843f 83bf b853 08be
00000180: dd13 3c3f eb20 cbbc d83a 84bf 5f33 08be
00000190: 518f f73c ec17 9f3f cceb 2c3f 3c35 183f
000001a0: 45d5 19bf 8910 22bf caa0 03bf e570 a3be
000001b0: ea0e 893e 7fb9 ab3e fa39 fc3f fdf7 013f
000001c0: 32f2 acbd 8f22 2c3e 60aa fa3e 640c 19bf
000001d0: cc09 edbe af23 da3d be3f 0a3f ace0 743d
000001e0: 72f1 b33d b172 ad3c 4fa6 32bf c6ab 463d
000001f0: 9c7f 2d3d b8d4 33be 9bee 40c0 ac4c 12bf
00000200: 401c 81be 339d a4bd 6de7 b2bf ad60 7dbf
00000210: eaf4 65be be9e debe 7a0e 6bbf d8fb e6be
00000220: 087f b9be 4b7c 31be d783 033f d80d f3bd
00000230: b560 e23d 7b1d 593e e00a a33d c7a9 63be
00000240: 67cc 253d 4049 16bf 19f0 a3be bf54 9cbe
00000250: fb32 fcbd 0d89 dabe 5b69 3cbf 2f5a d6be
00000260: fbf3 ae3c d883 e6be 2299 16c0 0b32 d0be
00000270: 7e27 993e aef6 e8be dac1 1abf 5459 83be
00000280: 65f7 323d fc7d e8be 33df 8fc0 3532 7abf
00000290: 33ed 09be 96a6 4fbe 8a21 36bf f40e 82be
000002a0: 4e7b abbf ef77 76be 888b 11bf 25b3 70be
000002b0: 3f2a cbbd 865a 663e 8553 f8bc e7c0 073f
000002c0: 160e 68be 66c9 c5be c293 f1bc 837f c8be
000002d0: dfb1 8dbe 9fb6 6fbe d356 863f 36ff ed3d
000002e0: ff07 7d3f 447c 443f c486 1c3e dbc7 bd3e
000002f0: 3000 00bf dba8 053e 9ce6 583f fdcb e13d
00000300: 02aa eabe 10f2 3dbf 4428 08bf 858e 67be
00000310: d3a0 71be e95c 523e aa31 08bf 792f 29bb
00000320: 2ea4 de3e c12e 5e3e 9091 f3bd 1aba 683e
00000330: 481f 9fbe 4e88 be3e ecd0 f8be 8a1a ce3e
00000340: a106 803e fb3e 1c3d dfcd fa3e 30dd 823e
00000350: 0594 a9bd a442 43be 2136 eebe 242f 6abd
00000360: d878 143e 6c7e 80be 094a 49c0 6b29 89be
00000370: ccc9 b0bd 7673 023f 1588 d73f 2c58 353f
00000380: ea77 bdbe 7f0a 8d3e 1373 1bbf ca9d 13bc
00000390: 32c3 5dbe e625 4f3e 3628 8ebe 9b98 7f3e
000003a0: 4502 6a3d 377b 0cbd ba41 d03e 6464 aabe
000003b0: 7e8b c13c ba7e d2be 4866 643f 8cbe 9abe
000003c0: 9637 48bd cec2 cc3e 2082 b3be b76b 5ebc
000003d0: ae22 973e 4bd4 0bbf b517 a8bd 2f2f bdbe
000003e0: d1c2 e2bd 4221 39be 558b 35bf ca49 94bd
000003f0: 2da6 193f abf3 45bf e6bb c1bf bef2 67bf
0.29150566 0.15162754 -1.0041603 0.092129864 0.11452391 0.5831533 2.0701814 0.44819224
0.39623275 0.23153678 1.4722005 0.58375186 -0.26765296 0.13906385 -0.38341665 -0.011805173
0.97175395 0.70026875 -0.45636538 0.41547775 0.38297978 1.0479264 3.5144556 0.8709151
0.4898164 0.26941168 0.98007953 0.43069237 -0.57317203 0.94727653 0.009861551 0.933655
-0.31189635 -0.15412253 -0.5213057 -0.29528362 -0.30290377 0.62917775 -0.082563296 0.0573655
0.3218044 0.15401542 0.14392152 -0.27452043 -0.21086372 0.05202476 -0.09371941 0.15649815
-0.2143414 0.20739189 -0.10658405 0.21992254 0.119766295 -0.09796533 -0.11638307 -0.19563113
-0.96804136 -0.8987318 -1.7257397 -0.58777016 1.7081487 0.7945849 1.6830721 1.0052449
-0.052986793 -0.30285668 -2.0842018 -0.30893272 0.10021628 0.32348922 -0.7427879 0.010749122
0.064791836 -1.409986 2.6888978 0.7351825 -0.37378547 -0.6101847 -1.2802637 -0.7696318
-0.19220446 -0.25654843 -1.2065344 -0.27033114 0.57298005 0.25727984 0.23281157 0.27607968
0.07224935 -0.18447962 -0.22296633 -0.03274901 0.20909311 -0.061907977 -1.0253758 -0.13313186
0.7346781 -0.02479597 -1.0330458 -0.13300847 0.030219706 1.2429175 0.675473 0.5945623
-0.6009105 -0.6330648 -0.5141722 -0.3192207 0.2676919 0.3353996 1.9705193 0.50769025
-0.084446326 0.16810058 0.4895811 -0.5978453 -0.46296537 0.10651337 0.5400351 0.059784576
0.087862864 0.021172853 -0.69785017 0.04850366 0.042358026 -0.17561615 -3.0145633 -0.5714824
-0.25216866 -0.08037796 -1.3976876 -0.9897564 -0.22456709 -0.43480486 -0.91818964 -0.45114017
-0.3622973 -0.1733257 0.51373047 -0.11867875 0.11053602 0.21202652 0.079610586 -0.22232734
0.040478136 -0.5870552 -0.32019117 -0.30533406 -0.12314411 -0.42682686 -0.7359826 -0.4186568
0.021356573 -0.45022464 -2.3530965 -0.4066318 0.29912943 -0.45500702 -0.60452044 -0.2565409
0.043692965 -0.45408618 -4.495996 -0.9773286 -0.1346939 -0.20278391 -0.71144927 -0.25402033
-1.3397005 -0.24069189 -0.5685353 -0.23505838 -0.09920167 0.2249547 -0.030313263 0.5302872
-0.22661623 -0.38630217 -0.029489402 -0.39159784 -0.27674767 -0.23409508 1.0495247 0.11620943
0.98840326 0.76752114 0.15285784 0.3706654 -0.50000286 0.13052694 0.8472688 0.11025236
-0.4583283 -0.74197483 -0.5318644 -0.2261296 -0.23596506 0.20543255 -0.5320078 -0.002581565
0.43484634 0.21697523 -0.11892998 0.22727242 -0.31078553 0.37213367 -0.48596895 0.40254623
0.25005057 0.038146 0.48985192 0.25559378 -0.082801856 -0.1906839 -0.46525672 -0.057173863
0.14499223 -0.25096452 -3.1451437 -0.26789412 -0.0863224 0.5095743 1.6838404 0.70837665
-0.3700555 0.2754707 -0.60722464 -0.009009788 -0.21656492 0.20229301 -0.27765054 0.24960558
0.05713107 -0.034297194 0.40675145 -0.33279717 0.023626085 -0.4111231 0.8921857 -0.302235
-0.048881136 0.39992374 -0.35060215 -0.013575486 0.29518646 -0.5462081 -0.08207647 -0.3695006
-0.110723145 -0.18079093 -0.7091573 -0.07240637 0.6001919 -0.7732493 -1.5135467 -0.9060477

linear.bias f4 [512]
00000000: 8911 44bf 43f4 c93e 0c33 e43d d9e3 593f
00000010: fed5 7d3f 8aaf 69bf a5f3 95bf 2e5b 99bf
00000020: abd8 8b3f fcbb 833f 968f 213f 3b4b 663f
00000030: 4f2d 543f a4dd 593f 8f6f 733e 6feb 89be
00000040: 515e 433f 70ff 9a3f 7329 5dbf 5f1c ce3e
00000050: 8633 00bf 8842 abbf 2d66 153f 366c 803f
00000060: cb83 5bbe 512b 993f b08f 0a3f a1c2 173f
00000070: 7794 8e3f 1424 8dbf 0646 373f 98c2 103f
00000080: b85c 043f c9e7 2bbf daaa a0bf 71bb 943f
00000090: 7703 e13e fd4d 423f 1cdb 6fbf 3157 6c3f
000000a0: 9ee0 173f 74fd cbbe 3200 6f3e 3d92 6a3f
000000b0: 483b 783f 3d52 9bbf 09cc d2be 63c5 9bbf
000000c0: 2fe8 d83e c7db 3d3f 002b 84bf 8a4d 823f
000000d0: dca8 24bf 1e62 143f 2a61 2dbf c27c 263f
000000e0: 4623 843f d054 663f 9e8f 893f e544 083f
000000f0: 6c2e 853f 21a2 6b3f 3957 1f3f 57bd 7a3e
00000100: 0993 6d3f 1afb 6d3f df9b 1c3f 71ac 8abf
00000110: 8102 d73e 5cce 913f b5d7 6f3f 7971 333f
00000120: e9b2 0dbf e7a0 5a3f dd7b 073f b03a b5be
00000130: a290 00bf 92bb 573f f246 873f d4b6 fa3e
00000140: da17 793f 54a6 413f 8612 293f 2643 c0be
00000150: 5d35 9ebf 233c 0a3f a5c3 5a3f 03d2 4e3f
00000160: 361d 653f d04f 8b3e 37b6 783f b17c 983f
00000170: b8e0 88bf da04 843f 2d89 adbf 13d5 b7bf
00000180: 04de a63e d2e5 9b3e ffd0 3e3f 3cfb 353f
00000190: 94a4 96bf e3cb 253f 5f4f 7c3f aa27 853f
000001a0: 87c3 293f 68e1 243f 4da8 5e3f 3b3b 693e
000001b0: f08d 643f 8314 40bf 560f 593e 01da 593f
000001c0: 1a96 743f a731 b3be 7106 9abf aeaf fa3e
000001d0: 138b a0bf 51d2 81bf 0efd 6e3f 416f 413f
000001e0: 0b13 8cbc a666 7f3f 30d0 4cbf e8a6 1c3f
000001f0: c6c0 5c3f 1f4a 0c3f 7c77 2fbf 9330 493f
00000200: 3ef7 5b3f 0078 59bf 7cb0 383f a139 f33e
00000210: 8ff2 283f 6574 f33e 0cfb 5d3f 6c7e fcbe
00000220: 0aa8 a43f 1953 9d3f 449b 4a3f 8fce 2b3f
00000230: aa85 563f 6486 ff3e f654 c1bd ec79 82bf
00000240: b4c0 1fbf feb2 4bbf 2b83 a93e d10a 923f
00000250: ed54 483f 9ca0 96bf c4de aabd d91c 3cbf
00000260: ef53 763f fb2b c1bf 333a 783f e788 913f
00000270: 3ff8 5ebf 55fd 673f b4dc 03bf c665 3dbf
00000280: c815 42bf 8dd3 0e3f ceb8 b73e 01d7 8b3f
00000290: ad54 8a3f 56b7 67bc 44a9 823f fb82 713f
000002a0: 2f3e 5c3f 3c8f 52bd be61 013f e975 a5bf
000002b0: 4959 873f e393 d5bf 1c92 733c 9105 923b
000002c0: 769e fa3e 466d 0bbf 8f35 813f 77df d43d
000002d0: 1d62 943f 53ac 89bf a2bf 2f3f 8210 1f3f
000002e0: 69e4 2f3f 09ef 0c3f 26fa e0bf 7c97 5b3f
000002f0: ca71 8f3f 6bc7 833f dd53 873f ae1e 293f
00000300: 8576 fbbe 4881 a4bf 4c95 6fbf 2216 c73e
00000310: 3e9e 24bf 4fb2 5a3f 9132 903f f554 063f
00000320: 8f26 273f 8922 c7bf 301f 3d3f 0291 7c3f
00000330: 2eb2 813f 36f0 8b3f 8576 a03f b902 7f3e
00000340: ec9f 623f 0de0 bd3e da60 633f 42b5 893f
00000350: 59a9 bb3e 38f3 25bf 0c8c 713f 2765 893f
00000360: 7e34 733f ed79 ed3e 72af 473f 876e 803f
00000370: 9984 1abf 12e0 a6be 36db 8b3f a2db 6f3f
00000380: 10d9 483f 31f5 7b3f ca52 b9be e750 553f
00000390: 603a 70bc 0b3b 933e d42d 343f 72f9 603f
000003a0: cc1f 8f3f 906d 7cbf de25 b13e b761 193f
000003b0: 0936 643f c6eb c3be aa05 acbf 7212 e83e
000003c0: b67a f33d 307a 4bbf 3f6e 653f fc2f d4bd
000003d0: 9d9f 743f 011a 2f3f 820d 4c3f 0575 cc3e
000003e0: 7bdb 2b3f 912f 433f 7da9 623f 80de 1bbf
000003f0: 7b13 9c3d cfa4 f4be 57a9 823d 160d 753f
-0.76589257 0.3944417 0.11142549 0.8511329 0.9915465 -0.91283476 -1.171498 -1.1980951
1.0925497 1.0291743 0.6310972 0.8995854 0.82881635 0.8510382 0.23773025 -0.26937434
0.7631579 1.2109203 -0.8639137 0.4025602 -0.5007862 -1.3379679 0.5835903 1.0033023
-0.21436994 1.1966344 0.541255 0.59281355 1.1139058 -1.1026635 0.7159122 0.56546926
0.5170398 -0.6715055 -1.255214 1.1619703 0.43947956 0.7590025 -0.9369371 0.92320544
0.59327114 -0.39841807 0.23339918 0.9162939 0.96965456 -1.2134472 -0.4117129 -1.2169613
0.42364642 0.7416348 -1.0325623 1.0179913 -0.6432016 0.57962215 -0.67726386 0.65034115
1.0323265 0.89973164 1.0746953 0.53230125 1.0404792 0.92044264 0.62242466 0.2448629
0.9280248 0.92961276 0.6117534 -1.0833875 0.41994098 1.1391101 0.9368852 0.7009502
-0.5535112 0.8540177 0.52923375 -0.35396338 -0.5022069 0.84270585 1.0568526 0.48967612
0.9730202 0.7564442 0.6604389 -0.3755123 -1.2360035 0.5399801 0.8545478 0.807892
0.894977 0.2720933 0.9715304 1.1913053 -1.0693579 1.031398 -1.3557488 -1.43619
0.3259126 0.30448776 0.7453765 0.7108648 -1.1768975 0.6476423 0.9855861 1.040273
0.66313976 0.6440644 0.86975557 0.22776501 0.8927908 -0.750313 0.21197256 0.8509827
0.95541537 -0.3499882 -1.2033216 0.48962158 -1.2542442 -1.0142308 0.9335488 0.75560385
-0.017098924 0.99766004 -0.8000517 0.6119218 0.8623165 0.548006 -0.68541694 0.78589743
0.85924137 -0.8494873 0.72144294 0.47504905 0.65995115 0.4754974 0.8671119 -0.49315202
1.2863781 1.2290984 0.79143167 0.6711206 0.83797705 0.4990722 -0.09440033 -1.0193458
-0.62403417 -0.79569995 0.33107886 1.1409551 0.78254586 -1.1767764 -0.083432704 -0.7348152
0.9622182 -1.5091547 0.96963805 1.1369904 -0.87097543 0.9062093 -0.5150864 -0.7398342
-0.75814486 0.5579155 0.35883182 1.0924989 1.0807091 -0.014142832 1.0207906 0.94340485
0.86032385 -0.05140613 0.5053977 -1.2926608 1.0574123 -1.6685756 0.014866378 0.00445623
0.4894902 -0.54463613 1.009447 0.10394185 1.1592442 -1.0755714 0.68651783 0.62134564
0.687079 0.5505224 -1.7576339 0.8577802 1.1206601 1.0295233 1.0572468 0.6606244
-0.4911386 -1.2851954 -0.93587184 0.38884073 -0.6430396 0.8542833 1.1265432 0.52473384
0.6529321 -1.5557414 0.73875713 0.98658764 1.0132501 1.0932682 1.2536169 0.24903382
0.8852527 0.37085 0.8881966 1.075844 0.3665264 -0.6482425 0.9435432 1.0733994
0.9500197 0.46382084 0.78002083 1.003373 -0.6035858 -0.32592827 1.0926273 0.9369451
0.7845621 0.9842101 -0.36195976 0.8332657 -0.014662355 0.28755984 0.7038243 0.87880623
1.1181579 -0.9860468 0.34599203 0.59914726 0.8914495 -0.38265818 -1.3439229 0.45326573
0.1188864 -0.7948332 0.8962135 -0.10360715 0.9555605 0.68399054 0.7970811 0.3993303
0.67131776 0.76244456 0.8853987 -0.60886383 0.07620903 -0.4778199 0.06379955 0.9572309

linear2.weight f4 [2, 512]
00000000: e26b e7bf cc0a 3dc0 bd97 94bf f2e7 f73e
00000010: 25af 853f 176a 44c0 763e 52bf 1aee d73f
00000020: ef78 343f 720f 243f d1c4 b7bf 502d e33e
00000030: eb3f c93e f18d 333f ac47 f73e aa2d da3e
00000040: 53f9 0bbe e3ce 2d3f e30f aa3f bf1b e63f
00000050: 719a b6bf ef2d f0bf cb87 893e e51b 2d3f
00000060: a578 2f3f f8cf 923f cdd5 323f 2907 19c0
00000070: d215 4d3f 3263 3bc0 9bcd c03e 75f6 c8be
00000080: f13f 73bf 88a4 b2bf 12ed 07c0 6559 213f
00000090: 0b5f 7f3f 742f 3f3f a8b2 8e3f 6751 b23e
000000a0: 0118 cabf 5007 c1bf a883 843f 2849 f1be
000000b0: fbb7 203f 12e9 0fc0 b979 cdbf d717 6ac0
000000c0: 7b8a 5d3f 61bf 333f b1a4 ebbf 83f9 ed3e
000000d0: 4f00 c0be fb73 ec3e 74d6 c6bf dfba febe
000000e0: eade 253f 4b78 c53e 7dd5 543f 36be d53f
000000f0: e096 283f 68e3 b83e c261 033f 69c3 6d3f
00000100: 5f85 583f e284 af3e 5aa1 b93e 4ad8 8dbf
00000110: a772 d0bf 9ede 3bbf 325c cb3e c5cd 1e3f
00000120: cebf 69bf 0541 1a3f 298b cabf 66a4 a43f
00000130: c901 94bf 59e5 1e3f b067 a23e 0fe3 463f
00000140: 85bd 0a3f 73d2 f8bf 21c1 dfbf f7b1 2b3f
00000150: 6d1f c4bf 87f4 8c3f 6dcf dabf 1f3f cf3e
00000160: b01d 073f 69be 0040 247c e93e 513e 4e3f
00000170: 736d 2fbf 31a5 1b3f 93df 1ac0 b114 17c0
00000180: 4e5f c5bd e7bb b1bf 4bd9 d43e 694a ec3f
00000190: 3798 0ec0 617b 7b3f 9dbc 2d3f 7c21 1e3f
000001a0: d8f6 3e3f 8793 dc3e f370 d13e c910 cebf
000001b0: 294f e33e 20e9 a1bf 521a debe 6893 0bbf
000001c0: 45aa c73e 2d37 ff3e 3910 d1bf b135 ba3f
000001d0: 062e 15c0 c787 17c0 107f 243f 227b fd3e
000001e0: 1a04 88bf 53d6 263f 1f19 42bf f742 0ec0
000001f0: 6673 96bf 47a8 293f 6baf 0cbf 84c3 e93e
00000200: caf0 063f d000 3cc0 2a1e a9bf aa8f 85be
00000210: 210a afbf 5717 923f 501a 083f d567 04c0
00000220: e625 d7bf 56ed 3e3f 2faf b73e 6929 703f
00000230: 1cab dd3e e185 1dbf df41 4dbf 28cd 92be
00000240: 4c28 4c3f ee19 d63f 3a45 163f 1dfa 533f
00000250: 9b97 1fbe 9705 70c0 0ea0 81bf bab9 dfbf
00000260: 755a 393f 59c5 30c0 f963 f23e 2de4 413f
00000270: be7c 58bf 90bd e33e a841 1bbc e6d7 d1be
00000280: 360e 87bf 86d2 61bf 6c72 7a3f 71ca dfbf
00000290: 5d72 293f fd57 80bf 4cd1 0a3f 70bc 263f
000002a0: 9b07 db3e 5c2d b2bf 561d 823f 6242 17c0
000002b0: 6c66 2c3f 48bd 1ac0 da45 91bf 0e22 0940
000002c0: 2f3c 40c0 6536 d3bf 2160 193f 46d8 cdbf
000002d0: 468c f43e fda9 86bf a081 293f 20de ebbf
000002e0: d9a2 303f 8441 4fbf 9fe5 f2bf 40d0 013f
000002f0: c7ce 6d3f fd7e 573f 33d1 b43e 20c0 833e
00000300: 7bb3 bdbf 4a14 2ec0 88e5 9cbf 7ab7 a23f
00000310: cb24 82be a015 cf3e 7c2f 92bf ace1 753f
00000320: 5216 4dbf 1de3 19c0 3143 473f 7ff3 9e3e
00000330: 987d 2e3f b49a b13e 32c8 b5bf 6d27 703f
00000340: 247b c93e d75b cdbe b5c1 c9bf 2af4 ac3e
00000350: bba3 a5bf f0c7 c13f eac7 233f 0a56 323f
00000360: c6ca b53e 95ad d8bf 1856 f73e e726 7d3f
00000370: d938 a9bf 7f39 f0bf cc04 e43e 1db6 1b3f
00000380: b3e5 e23e b124 2e3f 60fe 9b3f b21c 0d3f
00000390: b41c 20c0 0bea 7bbf f1e2 403f e966 033f
000003a0: 563b 433f bab2 a4bf 2b64 29bf b55c b93e
000003b0: 89d6 423f 9f33 753f 515b 6ebf 5acb 093f
000003c0: bffe 08c0 f0da 98bf d3ba 333f 6e48 cd3f
000003d0: 70db a33f bcc4 143f 35b3 d93e a4df f1bf
000003e0: 5425 c43e ba2f 033f 0e80 283f 5c9a 27c0
000003f0: a0cd c5bf 7e80 a0bf 93b7 5bbe bee9 a43e
-1.8079798 -2.953784 -1.1608807 0.48419148 1.0444075 -3.0689752 -0.8212656 1.6869538
0.7049703 0.6408607 -1.4356939 0.44370508 0.39306578 0.7013846 0.4829687 0.42612964
-0.13669328 0.6789381 1.3286098 1.7977217 -1.4265882 -1.8764018 0.26861414 0.6762069
0.68543464 1.1469717 0.69857484 -2.391062 0.8011142 -2.9279294 0.37656865 -0.39250532
-0.9501944 -1.3956461 -2.1238446 0.6302703 0.997544 0.7468178 1.1148272 0.3482773
-1.5788575 -1.5080357 1.0352678 -0.47126126 0.6278073 -2.2486005 -1.6052772 -3.657705
0.8653943 0.70213896 -1.8409635 0.46479425 -0.37500235 0.46182236 -1.5534196 -0.49751946
0.64793265 0.3856834 0.8313826 1.6698673 0.65855217 0.36110997 0.5132104 0.928763
0.8457851 0.3428107 0.36255914 -1.1081631 -1.6284989 -0.7338656 0.39718777 0.6203273
-0.91308296 0.6025546 -1.5823718 1.286267 -1.1563045 0.62068707 0.31719732 0.77690214
0.54195434 -1.9439224 -1.7480813 0.6706843 -1.532209 1.1012124 -1.7094551 0.40477845
0.52779675 2.0116217 0.45602524 0.8056384 -0.6852638 0.6079894 -2.419896 -2.360638
-0.096373186 -1.3885468 0.4157203 1.8460208 -2.2280405 0.98235136 0.67865926 0.61769843
0.74595404 0.43081304 0.40906486 -1.6098872 0.44396332 -1.2649269 -0.43379456 -0.545218
0.38997093 0.49846783 -1.6333076 1.4547635 -2.330934 -2.3676622 0.6425638 0.49508005
-1.0626252 0.6517078 -0.7581958 -2.2228372 -1.1753967 0.66272396 -0.54955167 0.4565698
0.52711165 -2.9375496 -1.321233 -0.2608617 -1.3674966 1.1413373 0.5316515 -2.0688374
-1.6808441 0.74580896 0.35875842 0.93813187 0.4329461 -0.6153241 -0.80178636 -0.28672147
0.7974899 1.6726663 0.5869938 0.8280352 -0.15585177 -3.7503412 -1.012697 -1.7478554
0.7240365 -2.7620451 0.47341898 0.75738794 -0.8456534 0.44480562 -0.009476103 -0.4098503
-1.0551212 -0.8821186 0.97830844 -1.7483655 0.6619013 -1.0026852 0.5422561 0.6513128
0.4277924 -1.3920093 1.0165203 -2.3634267 0.67343783 -2.4178028 -1.1349442 2.1427035
-3.0036733 -1.6500975 0.59912306 -1.6081626 0.4776327 -1.0520626 0.6621342 -1.8427162
0.68998486 -0.80959344 -1.8976325 0.5070839 0.9289364 0.84178144 0.35315856 0.25732517
-1.4820398 -2.7199883 -1.2257547 1.2712243 -0.25418696 0.40446186 -1.1420741 0.9604747
-0.80112183 -2.404487 0.778369 0.31045148 0.6816039 0.34688342 -1.420172 0.9381016
0.3935176 -0.4010913 -1.576224 0.33780032 -1.2940592 1.5139141 0.6397692 0.69662535
0.35506266 -1.6927973 0.48307872 0.98887485 -1.3220474 -1.8767546 0.4453491 0.6082476
0.44315872 0.68024737 1.2187004 0.5512191 -2.501752 -0.98403996 0.75346285 0.51328903
0.76262414 -1.2867043 -0.6616847 0.36203542 0.76108605 0.9578189 -0.9310809 0.53825915
-2.1405485 -1.1941814 0.70206946 1.6037729 1.2801342 0.5811269 0.42519537 -1.8896375
0.3830973 0.512447 0.65820396 -2.6187963 -1.5453377 -1.2539213 -0.21456747 0.3220958

linear2.bias f4 [2]
00000000: 64bd ba3e 3e20 9a3e
0.3647262 0.30102724
