code/log/dqn/ckpt/1129000.pth (torch, 15775 bytes, 4 tensors)

linear.weight f4 [512, 4]
00000000: 3b40 953e 4044 1b3e 5388 80bf 95ae bc3d
00000010: 2431 bc3d 59f8 fb3e 41c2 1740 d758 ea3e
00000020: 5b2f f43e e545 743e 89a7 8a3f ef74 063f
00000030: fdf0 86be 4be2 1b3e 5e76 b6be da43 f8ba
00000040: 1e80 5c3f e22b 293f 32c0 93be b7c4 c33e
00000050: ed15 c43e 7422 863f d7ec 6040 4bf4 5e3f
00000060: 37c9 fa3e 54f0 893e 7ee6 7a3f b683 dc3e
00000070: 12aa 2abf 0ea4 4d3f a869 c539 b9a1 213f
00000080: 7bbb 9dbe 38f1 0fbe 2a64 fdbe 27f8 91be
00000090: 4203 99be 8b1c 243f 18ad 5cbd ff50 883d
000000a0: ffa2 913e 2564 5b3e 541f cb3e c8a4 12be
000000b0: b3b3 53be f908 863d de47 89bd b280 2a3e
000000c0: 1bf2 56be d7a9 603e cbaa 9fbd 987b 6a3e
000000d0: 1ff2 fc3d 2c05 acbd eab2 b9bd aa96 3dbe
000000e0: 7102 77bf 473b 61bf c238 dbbf 162f 13bf
000000f0: 9ea4 da3f ea69 4b3f e86e d73f ddab 803f
00000100: 3911 4cbd a86d 8fbe 6e1f 05c0 a20c 97be
00000110: 7efd d43d 4aaa ac3e 5f78 37bf 3e5a ad3c
00000120: 470d f73d 996a afbf 6461 2240 63c3 123f
00000130: fb84 bdbe ff68 1abf 9530 a0bf 1188 43bf
00000140: f686 69be f252 a7be c874 a1bf 07fc 81be
00000150: d2ae 123f 2fba 833e 2866 6e3e 515a 8d3e
00000160: 2da0 9c3d bc80 2dbe e5eb 4bbe 15f5 b3bc
00000170: fad5 593e 8007 41bd 422a 80bf a529 fabd
00000180: dd13 3c3f eb20 cbbc d83a 84bf 5f33 08be
00000190: a019 0a3d 0ff5 a03f 8827 333f 4805 1b3f
000001a0: b7eb 18bf 7710 1ebf 08f4 fbbe c5a2 9dbe
000001b0: 8e36 933e d19e d83e ffbe 0440 7978 cf3e
000001c0: 2ea5 a6bd ae34 2b3e 9e82 013f efa8 18bf
000001d0: cbc0 e6be 8fe1 e13d 400a 073f 02ec 683d
000001e0: 7a8b bb3d b1c3 183d 424d 2dbf 4348 763d
000001f0: 5a51 143d 7787 52be b993 40c0 fb09 10bf
00000200: a9f4 83be 76c2 dbbd e1d5 b4bf a815 7abf
00000210: aada 92be e013 02bf b758 7fbf ffe0 cdbe
00000220: 087f b9be 4b7c 31be d783 033f d80d f3bd
00000230: 841b ea3d 0084 673e e331 d73d bccb 58be
00000240: 0ab9 183d 447f ffbe 3802 adbe 66c1 b3be
00000250: d773 f4bd 8c89 d3be c8b0 35bf 901e d1be
00000260: fbf3 ae3c d883 e6be 2299 16c0 0b32 d0be
00000270: bf06 9b3e e58a e0be d88d 15bf 67c0 7abe
00000280: 477a e63c 472e edbe 1b67 8fc0 34a9 72bf
00000290: 532e 32be c381 90be 38c6 45bf 56a0 5abe
000002a0: 620b abbf a340 66be 390f 0cbf 02e1 64be
000002b0: a39e d0bd cb60 573e 00e0 5ebd d2e5 043f
000002c0: 4a18 64be 02c8 bebe 1bcb 57bb c844 c3be
000002d0: dfb1 8dbe 9fb6 6fbe d356 863f 36ff ed3d
000002e0: ff07 7d3f 447c 443f c486 1c3e dbc7 bd3e
000002f0: 81ef fbbe 8fca 0d3e 3dde 563f 8788 d13d
00000300: 20f1 e8be 79ca 39bf ee91 02bf 03e6 5bbe
00000310: de8c 6dbe 6abd 5e3e fee6 00bf 7526 db3b
00000320: 2ea4 de3e c12e 5e3e 9091 f3bd 1aba 683e
00000330: 5ffb 9cbe 7c11 c53e 72a4 eabe 6709 d33e
00000340: a106 803e fb3e 1c3d dfcd fa3e 30dd 823e
00000350: d886 a1bd 5873 34be 9381 e1be cdb7 3ebd
00000360: d878 143e 6c7e 80be 094a 49c0 6b29 89be
00000370: a43b b6bd 1fd1 fe3e dfde d33f c3ef 323f
00000380: df7b bbbe d9ed 933e e3a6 14bf 8474 963a
00000390: ec6e 59be d7f3 5c3e 488a 80be 9ff1 843e
000003a0: c15d 783d 5cd1 03bd a2bd db3e e4e0 a8be
000003b0: 93e8 df3c 7b41 cebe adfd 6b3f 8756 97be
000003c0: 5b59 38bd 1988 d33e 9eb4 a5be 65b7 64bb
000003d0: 7a0b 993e e6ba 07bf 3c5f 78bd a555 b7be
000003e0: 2007 dbbd bfbe 29be 8d83 2fbf 9b91 7bbd
000003f0: 7130 cb3e cebe 73bf c872 d7bf feb1 51bf
0.29150566 0.15162754 -1.0041603 0.092129864 0.0918906 0.49212912 2.3712313 0.45770904
0.4769238 0.23854788 1.0832378 0.52522177 -0.26355734 0.15223043 -0.35637182 -0.001894112
0.8613299 0.66082585 -0.2885757 0.3823602 0.38297978 1.0479264 3.5144556 0.8709151
0.4898164 0.26941168 0.98007953 0.43069237 -0.66665757 0.8032845 0.00037653488 0.63137394
-0.308071 -0.14056861 -0.49490482 -0.28509638 -0.29885298 0.64106053 -0.053876013 0.06656074
0.2844467 0.21424921 0.3967234 -0.14320672 -0.20674019 0.0654468 -0.06703161 0.16650656
-0.20990793 0.21939789 -0.07796248 0.2289871 0.123508684 -0.08399424 -0.09067328 -0.18514505
-0.964881 -0.87981075 -1.7126696 -0.5749372 1.7081487 0.7945849 1.6830721 1.0052449
-0.049821112 -0.2801335 -2.0800433 -0.29501826 0.10399912 0.3372367 -0.71668047 0.021161195
0.12063079 -1.3704406 2.5371943 0.57329386 -0.3701552 -0.6031646 -1.2514826 -0.76379496
-0.2280539 -0.3268047 -1.2613764 -0.25387594 0.57298005 0.25727984 0.23281157 0.27607968
0.076477386 -0.1694364 -0.19914205 -0.02196745 0.21273032 -0.047126293 -1.0012896 -0.12214974
0.7346781 -0.02479597 -1.0330458 -0.13300847 0.033715844 1.2574786 0.69982195 0.60554934
-0.5973467 -0.61743873 -0.4920962 -0.30788246 0.2875256 0.42308667 2.0741575 0.405216
-0.08136974 0.16719314 0.5058993 -0.5963277 -0.45068964 0.1102935 0.52750015 0.0568657
0.091574624 0.037296 -0.6769601 0.060127508 0.036210395 -0.20559488 -3.0090163 -0.5626523
-0.25772598 -0.1073045 -1.4127771 -0.97689295 -0.28682452 -0.50811577 -0.99744743 -0.4021072
-0.3622973 -0.1733257 0.51373047 -0.11867875 0.114310294 0.22608948 0.10507562 -0.21171468
0.037285842 -0.49901783 -0.33790755 -0.3510849 -0.11936157 -0.41315877 -0.7097287 -0.4084363
0.021356573 -0.45022464 -2.3530965 -0.4066318 0.30278584 -0.43855968 -0.5841956 -0.24487458
0.028134478 -0.4632437 -4.481336 -0.94789433 -0.17400484 -0.28224 -0.7725558 -0.21350226
-1.3362849 -0.22485594 -0.5471073 -0.22351459 -0.101865076 0.21033017 -0.05441284 0.5191318
-0.2227489 -0.3726197 -0.0032927457 -0.38138413 -0.27674767 -0.23409508 1.0495247 0.11620943
0.98840326 0.76752114 0.15285784 0.3706654 -0.49206164 0.13846801 0.8393286 0.10231119
-0.45496464 -0.72574574 -0.5100392 -0.21474461 -0.23198268 0.21751943 -0.50352466 0.006687934
0.43484634 0.21697523 -0.11892998 0.22727242 -0.3066053 0.38489902 -0.45828587 0.4121811
0.25005057 0.038146 0.48985192 0.25559378 -0.078870475 -0.17622125 -0.4404417 -0.046562005
0.14499223 -0.25096452 -3.1451437 -0.26789412 -0.08898094 0.49768922 1.655239 0.698971
-0.36617944 0.288924 -0.5806715 0.0011478816 -0.2123372 0.21577393 -0.251055 0.25965592
0.060636286 -0.032182083 0.42918116 -0.32984078 0.02733258 -0.40284333 0.92183954 -0.29558203
-0.04500709 0.41314772 -0.32364362 -0.003489935 0.29891568 -0.5301956 -0.060637698 -0.3580753
-0.10694718 -0.1657667 -0.68560106 -0.061418157 0.39685395 -0.9521302 -1.6831903 -0.8191222

linear.bias f4 [512]
00000000: 8911 44bf 0854 cb3e b17f be3d ee95 5b3f
00000010: f9b3 863f 8aaf 69bf a5f3 95bf ed93 99bf
00000020: 80bb 8c3f 3e9b 843f d886 263f c3f7 673f
00000030: 35ca 553f 55a1 5b3f 36ee 793e 6feb 89be
00000040: 5ab3 443f 11e1 9b3f 2176 6abf 4d9b d13e
00000050: 6f86 f4be 8842 abbf 41ee 163f 4b4c 813f
00000060: cb83 5bbe b813 9a3f e54f 0c3f 3636 173f
00000070: 912e 8f3f 1bb6 8ebf c5e6 383f 627f 103f
00000080: 9fec 033f 3ed5 21bf daaa a0bf 219b 953f
00000090: 0871 eb3e e215 443f 1cdb 6fbf 5ef3 6d3f
000000a0: 3f1a 193f 26ed c0be e821 763e d575 683f
000000b0: dafb 793f 3d52 9bbf 09cc d2be 99c9 9cbf
000000c0: 0e77 dc3e b29f 3f3f 002b 84bf c724 833f
000000d0: dca8 24bf 9412 163f 2a61 2dbf d944 243f
000000e0: 6904 853f e9f7 673f e43e 8a3f 3d0f 0a3f
000000f0: 7c0f 863f 6641 6d3f 220c 213f 632b b23e
00000100: 3a30 6f3f 8298 6f3f 013b 1e3f 71ac 8abf
00000110: d062 db3e 69c9 903f f2a0 713f f45d 343f
00000120: 05a7 07bf f75d 5c3f fbf2 0a3f 48bb 9ebe
00000130: 05e0 00bf 6279 593f 3b12 883f a42f fe3e
00000140: c0cf 7a3f 70a2 3f3f b205 2e3f 2643 c0be
00000150: 5d35 9ebf 5509 0c3f cbca 583f 9276 503f
00000160: b6d4 663f d3fc 8e3e a065 7a3f 8b5a 993f
00000170: bf20 82bf bce3 843f 2d89 adbf 13d5 b7bf
00000180: 24ca a93e 5262 a13e a078 403f d7dc 373f
00000190: 94a4 96bf c87a 273f 1612 7e3f 0006 863f
000001a0: 6699 2b3f 708d 263f d74b 603f e774 623e
000001b0: 0738 663f 5fec 43bf 1ccd 543e c0d8 573f
000001c0: 883b 763f a731 b3be 7106 9abf 8d41 fe3e
000001d0: 138b a0bf 42cb 90bf 44bb 703f b41d 433f
000001e0: deeb 8bbc 3394 803f ca2f 5dbf 9ea5 1a3f
000001f0: c114 5b3f 6e11 0c3f 7c77 2fbf 19e0 4a3f
00000200: d2ad 5d3f a2c0 4fbf 7e07 343f 8cc6 ca3e
00000210: ece6 273f 1f23 f73e 40b3 5f3f 6c7e fcbe
00000220: 1627 a43f 072d 9e3f c03a 4c3f a08f 2d3f
00000230: d62a 583f aebe ff3e 83b5 ecbd ec79 82bf
00000240: b4c0 1fbf feb2 4bbf 68f8 ac3e dde0 923f
00000250: 5023 463f 7d99 89bf d42d 35bd cf6d 51bf
00000260: 5311 783f fb2b c1bf 13e9 793f fa35 923f
00000270: b100 61bf 31ab 693f b4dc 03bf 92ec 3ebf
00000280: bc8e 45bf f3de 0c3f 194d bb3e b6d5 8a3f
00000290: d035 8b3f f8b1 55be cb85 833f b443 733f
000002a0: 89e9 5d3f 9612 e1bd 301a 033f e975 a5bf
000002b0: dc3a 883f e393 d5bf 9869 c4bc 05b9 2f3c
000002c0: bbcc f93e 36d2 febe a414 823f df29 0b3d
000002d0: 013a 953f 53ac 89bf 87cf 313f d49f 173f
000002e0: 6ca9 313f e8f9 0d3f 26fa e0bf f44c 5d3f
000002f0: f256 903f e0a4 843f 2d23 883f e026 2a3f
00000300: 86e9 0ebf 4881 a4bf 4c95 6fbf 5eb8 ca3e
00000310: eb11 28bf d259 5c3f 312b 8f3f fc26 083f
00000320: 1b39 1e3f 8922 c7bf 41e8 3e3f 9525 7e3f
00000330: 9e90 823f 59bc 8c3f aa80 9f3f 0d8d 6e3e
00000340: 8545 643f 509e d13e 9fb1 613f e382 8a3f
00000350: 99c5 bd3e 8884 42bf 0c4d 733f cc3d 8a3f
00000360: 644e 743f 3d1f ea3e 8562 493f 583f 693f
00000370: 056f 20bf 12e0 a6be 7ab0 8c3f 9899 713f
00000380: 3b84 4a3f dcb8 7d3f ca52 b9be 4f0b 573f
00000390: fc24 d6bd 2b7d 8f3e d4f6 2e3f 5cab 623f
000003a0: 3cfd 8f3f 7290 7fbf 5c40 f43e c701 1b3f
000003b0: fffd 653f c6eb c3be 96c3 a5bf d576 eb3e
000003c0: 8f2a e43d 61b8 38bf 0a33 673f fc2f d4bd
000003d0: 1416 6a3f 78d6 303f 68b6 4d3f abc5 063f
000003e0: a67e 2d3f 71e4 443f 986b 643f 980a 16bf
000003f0: 0c4a 923d f1bf dfbe ebd2 693d 9fa4 763f
-0.76589257 0.39712548 0.09301699 0.8577565 1.0523673 -0.91283476 -1.171498 -1.1998268
1.099472 1.0359876 0.65049505 0.9061243 0.8351167 0.8579305 0.24407277 -0.26937434
0.7683617 1.217806 -0.915865 0.40938798 -0.47758815 -1.3379679 0.58957297 1.0101408
-0.21436994 1.2037268 0.5480941 0.59067094 1.1186086 -1.1149324 0.72227126 0.5644437
0.5153293 -0.63216007 -1.255214 1.1687967 0.45984674 0.7659589 -0.9369371 0.92949474
0.59805673 -0.3768093 0.24036372 0.908048 0.9764992 -1.2134472 -0.4117129 -1.2249023
0.43059582 0.7485305 -1.0325623 1.0245599 -0.6432016 0.586221 -0.67726386 0.64167553
1.0391971 0.90612656 1.0800443 0.539295 1.0473475 0.92677915 0.6290914 0.34798726
0.9343296 0.93592083 0.6180878 -1.0833875 0.42848825 1.1311466 0.9438621 0.7045586
-0.52989227 0.8608088 0.5427701 -0.3100226 -0.50341827 0.8495084 1.0630563 0.49645722
0.9797325 0.74857235 0.6797744 -0.3755123 -1.2360035 0.5470174 0.8468444 0.81430924
0.9016832 0.27927265 0.9781132 1.1980757 -1.0166243 1.0381999 -1.3557488 -1.43619
0.33162034 0.31520325 0.7518406 0.7182135 -1.1768975 0.65421724 0.99246347 1.0470581
0.6703094 0.65059566 0.8761572 0.22114907 0.8992924 -0.7653255 0.20781368 0.8431511
0.9618459 -0.3499882 -1.2033216 0.49659386 -1.2542442 -1.1312029 0.94035745 0.762172
-0.017080244 1.0045227 -0.86401045 0.6040896 0.8557854 0.54714096 -0.68541694 0.79248196
0.86593354 -0.8115331 0.7032393 0.39604604 0.65586734 0.48268983 0.8738289 -0.49315202
1.2824428 1.2357491 0.79777145 0.6779728 0.8444036 0.49950165 -0.11558058 -1.0193458
-0.62403417 -0.79569995 0.3378327 1.1474873 0.7739763 -1.0749966 -0.04423316 -0.8180818
0.96901435 -1.5091547 0.9762127 1.1422722 -0.8789168 0.9127684 -0.5150864 -0.7457973
-0.7717092 0.55027694 0.36582258 1.0846469 1.0875797 -0.20868671 1.0275205 0.9502518
0.8668447 -0.10989873 0.51211834 -1.2926608 1.0642962 -1.6685756 -0.023976132 0.010725264
0.4878901 -0.49769753 1.0162549 0.03397548 1.1658326 -1.0755714 0.69457287 0.59228253
0.6939914 0.5545945 -1.7576339 0.86445546 1.1276534 1.0362816 1.0635735 0.6646557
-0.5582508 -1.2851954 -0.93587184 0.39593786 -0.6565234 0.86074555 1.1185056 0.53184485
0.61805886 -1.5557414 0.7457314 0.99276096 1.0200384 1.0994979 1.246114 0.23295994
0.8916858 0.40941095 0.88161653 1.0821193 0.37064818 -0.75983477 0.9503944 1.0800109
0.95432115 0.45726958 0.78665954 0.9111228 -0.626694 -0.32592827 1.0991356 0.9437499
0.7910802 0.991102 -0.36195976 0.8400163 -0.10456273 0.28025183 0.6834538 0.88542724
1.1249156 -0.9982978 0.47705352 0.60549587 0.8984069 -0.38265818 -1.2950313 0.459891
0.1114093 -0.7215634 0.90312254 -0.10360715 0.9143994 0.69077253 0.80356455 0.5264537
0.67771375 0.76911074 0.89226675 -0.58609915 0.071430296 -0.43701127 0.057085913 0.9634494

linear2.weight f4 [2, 512]
00000000: e26b e7bf c9ec 3bc0 8ebf 81bf 9fe9 f83e
00000010: 488d 8a3f 176a 44c0 763e 52bf 814a ec3f
00000020: 8a3d 353f 183e 243f e807 b7bf 3254 e43e
00000030: db09 ca3e 3686 343f e17c f93e aa2d da3e
00000040: 55a3 06be a95b 2e3f 4227 b03f eab3 e63f
00000050: 0234 bebf ef2d f0bf 9de1 8b3e 1129 2e3f
00000060: a578 2f3f 47a7 923f 53d7 333f 9ed1 18c0
00000070: b796 4d3f 3263 3bc0 c67f c23e 9d18 c6be
00000080: 4f3d 72bf 53fa bcbf 12ed 07c0 6dfa 213f
00000090: 5bea 7f3f 0c59 403f a8b2 8e3f 0127 b63e
000000a0: 8912 c9bf d32d d1bf 66c3 843f 7021 f0be
000000b0: cfaf 213f 12e9 0fc0 b979 cdbf d717 6ac0
000000c0: 96c9 5e3f f627 343f b1a4 ebbf 54a3 ee3e
000000d0: 4f00 c0be e157 ee3e 74d6 c6bf 01af febe
000000e0: 0652 263f db5c c63e 0d88 553f 1b65 d63f
000000f0: 01f9 283f 14e4 bc3e ea4d 043f 68ce 593f
00000100: b521 593f 3a06 b03e 7ce9 bb3e 4ad8 8dbf
00000110: 77ab cfbf 3aaa 3abf 8c89 cd3e 37ef 1e3f
00000120: 3423 60bf b148 1b3f aa74 c2bf 264a a43f
00000130: 926d 05bf 26dc 1f3f 8749 a43e f948 473f
00000140: 875e 0b3f e9b0 f8bf 33b5 debf f7b1 2b3f
00000150: 6d1f c4bf 2b35 8d3f 9aad dabf d6d4 cf3e
00000160: 05b3 073f 5cd0 0040 0838 eb3e 4aea 4e3f
00000170: 86ea 3fbf 525f 1c3f 93df 1ac0 b114 17c0
00000180: 005d c5bd 7a02 b0bf d6ea d53e 5624 ec3f
00000190: 3798 0ec0 a40f 7d3f 322d 2e3f b127 1f3f
000001a0: c0f6 3f3f 4bb5 de3e 405d d53e 2ccb cdbf
000001b0: bd5d e63e a642 a6bf 6eaf 03bf e653 0bbf
000001c0: e002 ca3e 2d37 ff3e 3910 d1bf 329e ba3f
000001d0: 062e 15c0 9455 1cc0 3503 263f 1fdc fd3e
000001e0: 3f6e 87bf 0819 273f 4248 27bf 1a13 0ec0
000001f0: 0c35 96bf 825b 293f 6baf 0cbf 58b3 ea3e
00000200: 3aa4 073f 44ce 42c0 f765 a8bf df14 57be
00000210: 6db8 aebf 7a5d 923f 0b01 093f d567 04c0
00000220: 5d22 d6bf 2b75 3f3f 3de7 bb3e b738 713f
00000230: 377d de3e 32df 1cbf 17f5 60bf 28cd 92be
00000240: 4c28 4c3f ee19 d63f 3895 173f 4fde 543f
00000250: e236 1dbe 956c 51c0 0acb 76bf 84ec d8bf
00000260: 0018 3a3f 59c5 30c0 3e90 f33e 8757 423f
00000270: be7c 58bf fc7f e43e a841 1bbc 5513 b9be
00000280: 6907 86bf 95ad 61bf 941f 7b3f a22c dfbf
00000290: 51be 293f e805 69bf 6a1e 0b3f 0628 273f
000002a0: 44f8 db3e 4863 97bf 0dab 823f 6242 17c0
000002b0: 622f 2d3f 48bd 1ac0 2dee 94bf ea31 0940
000002c0: 3a09 40c0 9c25 d4bf ad1d 1a3f 1bb1 c4bf
000002d0: 169e f73e fda9 86bf 6fba 2f3f 1d63 ecbf
000002e0: 0e06 323f d7f2 4dbf 9fe5 f2bf d1cf 023f
000002f0: 2dac 6d3f b300 583f c1cf b53e e933 853e
00000300: ee9e a5bf 4a14 2ec0 88e5 9cbf 32eb a23f
00000310: c64e 7abe ec5a d03e f08c 91bf 9db0 763f
00000320: 5d86 4abf 1de3 19c0 db6a 483f 9e02 a13e
00000330: f1b2 2e3f 8b7a b33e d042 b5bf 1241 563f
00000340: 0d59 cb3e 7e65 cbbe ec8f c9bf 27d1 ae3e
00000350: 8169 9bbf a9d6 c43f ebcd 243f ae49 333f
00000360: 0ed6 b93e 9b72 d8bf 3a05 f83e bb99 7e3f
00000370: 317a 55bf 7f39 f0bf 6eb8 e43e f20e 1c3f
00000380: 608b e33e 7387 2e3f 60fe 9b3f ec18 0e3f
00000390: 6a0f 21c0 b975 7bbf ebba 3f3f 9440 053f
000003a0: c036 443f bab2 a4bf c72b 31bf 50dc bb3e
000003b0: 7acd 433f 9f33 753f 16da 8abf a0fd 0a3f
000003c0: ccc9 08c0 49a2 86bf 7b24 343f 6e48 cd3f
000003d0: a464 a43f 0d02 163f 631a dc3e 3ab2 c8bf
000003e0: 3941 c63e 9830 043f a7cd 293f e32e 31c0
000003f0: 3c76 c5bf 780d 37bf 4e53 76be 12bb a73e
-1.8079798 -2.9363272 -1.0136583 0.4861574 1.0824366 -3.0689752 -0.8212656 1.8460237
0.70797026 0.6415725 -1.4299288 0.44595486 0.39460644 0.7051729 0.48728088 0.42612964
-0.13148244 0.6810861 1.376198 1.8023655 -1.4859622 -1.8764018 0.27320567 0.6803141
0.68543464 1.1457299 0.70250434 -2.387794 0.803081 -2.9279294 0.37988108 -0.38690653
-0.946248 -1.4763893 -2.1238446 0.63272744 0.99966973 0.75135875 1.1148272 0.35576633
-1.5708781 -1.634211 1.0372131 -0.4690051 0.6315889 -2.2486005 -1.6052772 -3.657705
0.87026346 0.70373476 -1.8409635 0.46608984 -0.37500235 0.4655142 -1.5534196 -0.49742892
0.6496891 0.38742718 0.8341072 1.6749605 0.6600495 0.3689276 0.5168139 0.85080576
0.8481706 0.3437975 0.36701572 -1.1081631 -1.6224202 -0.72915995 0.40144002 0.6208376
-0.87553716 0.60657793 -1.5191853 1.2835128 -0.52120316 0.62445295 0.32087347 0.7784572
0.5444111 -1.9428989 -1.7399048 0.6706843 -1.532209 1.103185 -1.7084229 0.40592068
0.5300754 2.0127172 0.45941186 0.80826247 -0.7496723 0.6108295 -2.419896 -2.360638
-0.09636879 -1.3750756 0.41780728 1.8448589 -2.2280405 0.9885199 0.6803771 0.6216994
0.74985886 0.4349769 0.41672707 -1.6077628 0.44993392 -1.298909 -0.5143956 -0.54424894
0.39455318 0.49846783 -1.6333076 1.4579527 -2.330934 -2.4427233 0.64848644 0.49582002
-1.058052 0.6527257 -0.6534463 -2.2199159 -1.1734939 0.66155255 -0.54955167 0.45839953
0.52984965 -3.0438395 -1.3156117 -0.21004055 -1.3650032 1.1434777 0.53517216 -2.0688374
-1.6729237 0.7478816 0.36699858 0.94227165 0.43454906 -0.6127807 -0.8787398 -0.28672147
0.7974899 1.6726663 0.59212065 0.83151716 -0.15352967 -3.2722523 -0.96403563 -1.6947179
0.7269287 -2.7620451 0.47570986 0.75914806 -0.8456534 0.44628894 -0.009476103 -0.36147562
-1.0471011 -0.8815549 0.9809506 -1.7435496 0.66306025 -0.9102464 0.54343283 0.65295446
0.4296285 -1.1827173 1.020845 -2.3634267 0.67650425 -2.4178028 -1.1635185 2.1436715
-3.0005631 -1.6573977 0.6020153 -1.5366548 0.48362797 -1.0520626 0.6864385 -1.8467747
0.6954049 -0.8044867 -1.8976325 0.5109835 0.92840844 0.84376067 0.35510066 0.26016167
-1.2939126 -2.7199883 -1.2257547 1.2728026 -0.24444112 0.40694368 -1.1371136 0.9636324
-0.7911127 -2.404487 0.7828805 0.3144731 0.6824179 0.3505443 -1.4161015 0.8369304
0.39716378 -0.3972587 -1.5747046 0.34143946 -1.2141572 1.5378009 0.64376706 0.700343
0.36296123 -1.6909975 0.48441488 0.99453324 -0.83389574 -1.8767546 0.4467196 0.60960305
0.44442272 0.6817543 1.2187004 0.5550678 -2.5165658 -0.98226506 0.7489459 0.52051663
0.7664604 -1.2867043 -0.69207424 0.36691523 0.7648541 0.9578189 -1.0847805 0.5429325
-2.1373167 -1.0518275 0.70368165 1.6037729 1.2843213 0.5859688 0.4298888 -1.567939
0.38721636 0.5163665 0.66329426 -2.7684867 -1.5426707 -0.71504927 -0.24055216 0.3275991

linear2.bias f4 [2]
00000000: 3f64 bc3e bd36 9d3e
0.36795232 0.30705824
