code/log/dqn/ckpt/1145000.pth (torch, 15775 bytes, 4 tensors)

linear.weight f4 [512, 4]
0.29150566 0.15162754 -1.0041603 0.092129864 0.093643695 0.50098056 2.37156 0.45409304
0.46885225 0.17276548 1.0778035 0.44908792 -0.26510793 0.15120898 -0.36660278 1.0569678e-05
0.8682341 0.7394559 -0.24703212 0.37209624 0.38297978 1.0479264 3.5144556 0.8709151
0.4898164 0.26941168 0.98007953 0.43069237 -0.6848363 0.7197386 0.19141933 0.5583564
-0.309716 -0.14156976 -0.5056847 -0.28337532 -0.30042648 0.6399442 -0.062434647 0.06905888
0.25245026 0.22088832 0.3933553 -0.09748852 -0.20828514 0.06446075 -0.07761549 0.16826242
-0.21134815 0.21833253 -0.08652602 0.23142616 0.12182647 -0.0849724 -0.10221462 -0.18368894
-0.96673363 -0.88058466 -1.7320876 -0.57648224 1.7081487 0.7945849 1.6830721 1.0052449
-0.0516972 -0.28063694 -2.1047149 -0.2992126 0.102328286 0.3362324 -0.7280117 0.02269959
0.25373444 -1.3352512 2.690836 0.598075 -0.371763 -0.6046151 -1.2538664 -0.7593631
-0.21495719 -0.3226977 -1.2330512 -0.2920067 0.57298005 0.25727984 0.23281157 0.27607968
0.074969314 -0.17027587 -0.21202861 -0.021085888 0.21101291 -0.048065685 -1.0141339 -0.12116301
0.7346781 -0.02479597 -1.0330458 -0.13300847 0.031949148 1.2564888 0.68702877 0.60658586
-0.5990662 -0.6183329 -0.50607073 -0.30730492 0.26594663 0.44334802 2.0524943 0.40668312
-0.08274969 0.16505681 0.50965947 -0.5902601 -0.45068964 0.1102935 0.52750015 0.0568657
0.089893356 0.036424678 -0.69197804 0.060299713 0.0359107 -0.20385465 -2.9821434 -0.5533538
-0.25852 -0.13976264 -1.4091159 -0.9373123 -0.28009367 -0.51642746 -0.9838881 -0.408907
-0.3622973 -0.1733257 0.51373047 -0.11867875 0.112637185 0.22509117 0.093229845 -0.21033862
0.035587907 -0.49998483 -0.34855556 -0.34934247 -0.12102037 -0.41414306 -0.72057253 -0.40674603
0.021356573 -0.45022464 -2.3530965 -0.4066318 0.30108023 -0.43935475 -0.5994573 -0.24483386
0.01603579 -0.4668927 -4.430504 -0.9067049 -0.16650546 -0.28916362 -0.7579816 -0.22670682
-1.3380624 -0.22576325 -0.56158006 -0.22310375 -0.09981475 0.21133673 -0.041784786 0.51799464
-0.22437698 -0.37360263 -0.014194468 -0.37971395 -0.27674767 -0.23409508 1.0495247 0.11620943
0.98840326 0.76752114 0.15285784 0.3706654 -0.49206164 0.13846801 0.8393286 0.10231119
-0.4575415 -0.7177719 -0.52581996 -0.22288658 -0.23357558 0.21642888 -0.5122184 0.009120936
0.43484634 0.21697523 -0.11892998 0.22727242 -0.30813247 0.38386726 -0.46798325 0.41424412
0.25005057 0.038146 0.48985192 0.25559378 -0.080474325 -0.17714393 -0.4524939 -0.04532522
0.14499223 -0.25096452 -3.1451437 -0.26789412 -0.086944714 0.49883756 1.6632425 0.6962422
-0.3678067 0.28790727 -0.59138954 0.002894548 -0.21384698 0.21478704 -0.26178983 0.26135972
0.059200894 -0.034029115 0.43081963 -0.3243119 0.025703527 -0.40417647 0.9180473 -0.29158995
-0.0466451 0.4121066 -0.33417445 -0.0016653341 0.29723015 -0.5310026 -0.07513617 -0.35774297
-0.108602285 -0.16667709 -0.6986162 -0.060510222 0.41419116 -0.9342065 -1.8322893 -0.82413214
00000000: 3b40 953e 4044 1b3e 5388 80bf 95ae bc3d
00000010: 44c8 bf3d 4340 003f a4c7 1740 e27e e83e
00000020: 670d f03e 6fe9 303e 77f5 893f daee e53e
00000030: 3abc 87be 87d6 1a3e 5cb3 bbbe 6c54 3137
00000040: 9744 5e3f fb4c 3d3f fdf5 7cbe 6683 be3e
00000050: ed15 c43e 7422 863f d7ec 6040 4bf4 5e3f
00000060: 37c9 fa3e 54f0 893e 7ee6 7a3f b683 dc3e
00000070: 6f51 2fbf ca40 383f 6e03 443e 72f0 0e3f
00000080: 1893 9ebe aaf7 10be 8d74 01bf 9216 91be
00000090: 80d1 99be 62d3 233f 79bb 7fbd be6e 8d3d
000000a0: 2941 813e 8c30 623e de65 c93e 10a8 c7bd
000000b0: b348 55be ff03 843d dff4 9ebd fc4c 2c3e
000000c0: a66b 58be 9092 5f3e 8e34 b1bd fbfa 6c3e
000000d0: 2880 f93d 0206 aebd e655 d1bd f418 3cbe
000000e0: db7b 77bf ff6d 61bf 0cb5 ddbf 5794 13bf
000000f0: 9ea4 da3f ea69 4b3f e86e d73f ddab 803f
00000100: 71c0 53bd a5af 8fbe a6b3 06c0 6532 99be
00000110: 7e91 d13d a726 ac3e fa5e 3abf 7ef4 b93c
00000120: 7be9 813e 83e9 aabf a836 2c40 711b 193f
00000130: b857 bebe 0ec8 1abf b27e a0bf 9f65 42bf
00000140: bd1d 5cbe a238 a5be 9fd4 9dbf e781 95be
00000150: d2ae 123f 2fba 833e 2866 6e3e 515a 8d3e
00000160: 8389 993d cc5c 2ebe 071e 59be 50bc acbc
00000170: c513 583e 86e0 44bd 24cf 81bf 5024 f8bd
00000180: dd13 3c3f eb20 cbbc d83a 84bf 5f33 08be
00000190: 1cdd 023d a0d4 a03f 1ee1 2f3f 3649 1b3f
000001a0: 675c 19bf 114b 1ebf da8d 01bf 1257 9dbe
000001b0: 282a 883e 83fe e23e 115c 0340 c538 d03e
000001c0: ab78 a9bd a704 293e 0b79 023f 491b 17bf
000001d0: cbc0 e6be 8fe1 e13d 400a 073f 02ec 683d
000001e0: 021a b83d 0b32 153d 7925 31bf d5fc 763d
000001f0: 1917 133d 46bf 50be 70db 3ec0 98a8 0dbf
00000200: bc5c 84be f01d 0fbe e95d b4bf b3f3 6fbf
00000210: 7068 8fbe 9734 04bf 17e0 7bbf 425c d1be
00000220: 087f b9be 4b7c 31be d783 033f d80d f3bd
00000230: 53ae e63d 4d7e 663e 4aef be3d 0263 57be
00000240: a0c4 113d 03fe ffbe e075 b2be 04dd b2be
00000250: 87d9 f7bd 8f0a d4be 7177 38bf 0441 d0be
00000260: fbf3 ae3c d883 e6be 2299 16c0 0b32 d0be
00000270: 3027 9a3e 1bf3 e0be 0976 19bf bab5 7abe
00000280: 7d5d 833c 8f0c efbe b0c6 8dc0 d01d 68bf
00000290: 6880 2abe 410d 94be 150b 42bf d525 68be
000002a0: a145 abbf 7b2e 67be b6c3 0fbf 4f75 64be
000002b0: ad6b ccbd a868 583e 8626 2bbd 4c9b 043f
000002c0: 14c3 65be d848 bfbe ea8f 68bc de69 c2be
000002d0: dfb1 8dbe 9fb6 6fbe d356 863f 36ff ed3d
000002e0: ff07 7d3f 447c 443f c486 1c3e dbc7 bd3e
000002f0: 81ef fbbe 8fca 0d3e 3dde 563f 8788 d13d
00000300: e142 eabe e6bf 37bf 239c 06bf 613c 64be
00000310: 702e 6fbe 889f 5d3e bf20 03bf fa6f 153c
00000320: 2ea4 de3e c12e 5e3e 9091 f3bd 1aba 683e
00000330: 8ac3 9dbe 408a c43e 809b efbe ce17 d43e
00000340: a106 803e fb3e 1c3d dfcd fa3e 30dd 823e
00000350: b9cf a4bd 3865 35be 48ad e7be f0a6 39bd
00000360: d878 143e 6c7e 80be 094a 49c0 6b29 89be
00000370: 1210 b2bd a367 ff3e 21e5 d43f ee3c 323f
00000380: 2951 bcbe 9568 933e 4e65 17bf 75b2 3d3b
00000390: b4fa 5abe 22f1 5b3e 5109 86be f1d0 853e
000003a0: a37c 723d 1d62 0bbd 6494 dc3e 360c a6be
000003b0: 3490 d23c 38f0 cebe 2605 6b3f 474b 95be
000003c0: ef0e 3fbd a3ff d23e ea18 abbe 5747 daba
000003d0: 8d2e 983e c9ef 07bf fee0 99bd 162a b7be
000003e0: e06a debd 66ad 2abe 83d8 32bf 91d9 77bd
000003f0: dd10 d43e 2828 6fbf 7588 eabf 53fa 52bf

linear.bias f4 [512]
-0.76589257 0.40027234 0.13465396 0.85387886 1.0117776 -0.91283476 -1.171498 -1.1939807
1.0957332 1.0321192 0.68013066 0.9022322 0.8310698 0.8542045 0.2408312 -0.26937434
0.76556516 1.214062 -0.90171576 0.40563273 -0.49604878 -1.3379679 0.5856083 1.006467
-0.21436994 1.2001342 0.54452145 0.61425275 1.1147989 -1.1149324 0.7185949 0.57040274
0.5286435 -0.6440542 -1.255214 1.1650538 0.4561621 0.7622321 -0.9369371 0.9258204
0.61732566 -0.38925412 0.23686953 0.9112161 0.9727323 -1.2134472 -0.4117129 -1.2249023
0.42863718 0.74469167 -1.0325623 1.0206317 -0.6432016 0.58243304 -0.67726386 0.6448862
1.0354326 0.9021911 1.0761558 0.5355131 1.0435661 0.92305666 0.62538296 0.21865326
0.9304078 0.93206805 0.61436254 -1.0833875 0.43866074 1.1344066 0.9406097 0.7007824
-0.54083425 0.8570546 0.5697798 -0.2843213 -0.48282516 0.8457886 1.0591745 0.4929865
0.9759366 0.7520559 0.70108074 -0.3755123 -1.2360035 0.54320323 0.85034156 0.81034374
0.8978528 0.27578977 0.9742807 1.1941588 -1.040232 1.0345052 -1.3557488 -1.43619
0.32880464 0.3297262 0.74790657 0.7145309 -1.1768975 0.6503284 0.9886248 1.0433606
0.6745347 0.64681226 0.8725695 0.22609083 0.89562565 -0.77992296 0.29949299 0.8463266
0.95805997 -0.3499882 -1.2033216 0.49317014 -1.2542442 -1.15716 0.9366811 0.7586028
-0.0037975954 1.0007308 -0.8818859 0.60764015 0.86327904 0.5449072 -0.68541694 0.78866196
0.8620672 -0.82327944 0.72821283 0.36215785 0.6584949 0.47899276 0.8700563 -0.49315202
1.2702549 1.2318211 0.7942253 0.6745127 0.8404068 0.50354326 -0.10637477 -1.0193458
-0.62403417 -0.79569995 0.33394554 1.1435479 0.7766978 -1.0648584 -0.025931029 -0.82597685
0.9651127 -1.5091547 0.97251064 1.138365 -0.8789168 0.90890473 -0.5150864 -0.75703603
-0.7717092 0.5535314 0.36227003 1.0881172 1.083771 -0.20868671 1.0237643 0.9464104
0.8629921 -0.13455145 0.5087826 -1.2926608 1.0605448 -1.6685756 -0.033231948 0.006870754
0.48644197 -0.52568847 1.0124332 0.034436326 1.162113 -1.0755714 0.71773815 0.614699
0.6902262 0.5627062 -1.7576339 0.8606946 1.1240525 1.0323801 1.0597132 0.6651495
-0.6207113 -1.2851954 -0.93587184 0.39215347 -0.6577055 0.85692114 1.1219028 0.52811974
0.6197551 -1.5557414 0.7419853 0.98886615 1.0161296 1.0960188 1.2494327 0.26027292
0.8879011 0.4140523 0.88699013 1.0783235 0.39745003 -0.75235534 0.9466652 1.0760394
0.9439527 0.46206927 0.78283817 0.8327649 -0.64049166 -0.32592827 1.0954821 0.9400067
0.78714913 0.9873209 -0.36195976 0.8361984 -0.12368006 0.2838009 0.6787419 0.8817769
1.120994 -0.9982978 0.4613625 0.60171705 0.8946273 -0.38265818 -1.3186042 0.45636338
0.114776075 -0.7485994 0.8993564 -0.10360715 0.97768676 0.6869444 0.79987186 0.53735095
0.6740069 0.76530737 0.88855547 -0.61200863 0.08058005 -0.40391117 0.093824625 0.95969594
00000000: 8911 44bf 7ff0 cc3e bae2 093e ce97 5a3f
00000010: ee81 813f 8aaf 69bf a5f3 95bf 5cd4 98bf
00000020: fc40 8c3f 7b1c 843f 0b1d 2e3f b1f8 663f
00000030: fec0 543f 25ad 5a3f 749c 763e 6feb 89be
00000040: 14fc 433f 6266 9b3f d8d6 66bf 18af cf3e
00000050: 1bfa fdbe 8842 abbf 6dea 153f e9d3 803f
00000060: cb83 5bbe ff9d 993f c265 0b3f ab3f 1d3f
00000070: bbb1 8e3f 1bb6 8ebf d6f5 373f ea05 123f
00000080: 2e55 073f bce0 24bf daaa a0bf 7c20 953f
00000090: 148e e93e a521 433f 1cdb 6fbf 9102 6d3f
000000a0: 0e09 1e3f 514c c7be ed8d 723e 7545 693f
000000b0: fc04 793f 3d52 9bbf 09cc d2be 99c9 9cbf
000000c0: 5576 db3e 1da4 3e3f 002b 84bf 0fa4 823f
000000d0: dca8 24bf 551a 153f 2a61 2dbf 4317 253f
000000e0: 0e89 843f fff5 663f 79bf 893f 6317 093f
000000f0: 9393 853f 714d 6c3f 1919 203f a4e6 5f3e
00000100: 352f 6e3f 039c 6e3f dd46 1d3f 71ac 8abf
00000110: 2498 e03e 3c34 913f cccb 703f 7a66 333f
00000120: 1d74 0abf ee67 5b3f 17dd 113f 9092 91be
00000130: dc34 f7be 9a85 583f 0893 873f ba68 fc3e
00000140: fbd6 793f bc86 403f 077a 333f 2643 c0be
00000150: 5d35 9ebf 5e0f 0b3f fcaf 593f b072 4f3f
00000160: aed9 653f 5134 8d3e 766a 793f 32da 983f
00000170: 5226 85bf ab6a 843f 2d89 adbf 13d5 b7bf
00000180: 1559 a83e dfd1 a83e ce76 3f3f 7feb 363f
00000190: 94a4 96bf ec7b 263f 8416 7d3f d78c 853f
000001a0: 4eae 2c3f 7d95 253f b760 5f3f 5b84 673e
000001b0: b947 653f 08a9 47bf 2557 993e dca8 583f
000001c0: 6b43 753f a731 b3be 7106 9abf cc80 fc3e
000001d0: 138b a0bf d21d 94bf 55ca 6f3f cb33 423f
000001e0: 14e1 78bb f217 803f 46c3 61bf 4e8e 1b3f
000001f0: dbff 5c3f 0a7f 0b3f 7c77 2fbf c0e5 493f
00000200: 70b0 5c3f 71c2 52bf 286c 3a3f c16c b93e
00000210: 1f93 283f 8a3e f53e 02bc 5e3f 6c7e fcbe
00000220: b697 a23f 50ac 9d3f 5952 4b3f ddac 2c3f
00000230: e624 573f 36e8 003f 04db d9bd ec79 82bf
00000240: b4c0 1fbf feb2 4bbf e9fa aa3e c75f 923f
00000250: abd5 463f 484d 88bf 4f6d d4bc 3873 53bf
00000260: a011 773f fb2b c1bf 75f6 783f f2b5 913f
00000270: b100 61bf fbad 683f b4dc 03bf 1dcd 41bf
00000280: bc8e 45bf 3cb4 0d3f 757b b93e 6d47 8b3f
00000290: 02b9 8a3f f8b1 55be b50a 833f f447 723f
000002a0: 0ded 5c3f dbc7 09be 943f 023f e975 a5bf
000002b0: efbf 873f e393 d5bf 391e 08bd 1024 e13b
000002c0: ec0e f93e 8593 06bf 6997 813f 1b0d 0d3d
000002d0: 1ec0 943f 53ac 89bf b0bd 373f ea5c 1d3f
000002e0: aab2 303f 830d 103f 26fa e0bf 7b56 5c3f
000002f0: f4e0 8f3f 0825 843f afa4 873f 3d47 2a3f
00000300: f0e6 1ebf 4881 a4bf 4c95 6fbf 57c8 c83e
00000310: 635f 28bf 2f5f 5b3f 839a 8f3f db32 073f
00000320: 45a8 1e3f 8922 c7bf c0f2 3d3f 5526 7d3f
00000330: 8910 823f 584a 8c3f 69ed 9f3f 7e42 853e
00000340: 7d4d 633f aafe d33e c911 633f 8106 8a3f
00000350: 927e cb3e 5c9a 40bf a758 723f a9bb 893f
00000360: e2a6 713f 5894 ec3e 1568 483f 1530 553f
00000370: 43f7 23bf 12e0 a6be c238 8c3f 47a4 703f
00000380: 9b82 493f 10c1 7c3f ca52 b9be 1911 563f
00000390: f94b fdbd 5a4e 913e 07c2 2d3f 22bc 613f
000003a0: bb7c 8f3f 7290 7fbf b537 ec3e 210a 1a3f
000003b0: 4b06 653f c6eb c3be 06c8 a8bf 76a8 e93e
000003c0: b80f eb3d 36a4 3fbf 393c 663f fc2f d4bd
000003d0: ae49 7a3f 97db 2f3f 67c4 4c3f d58f 093f
000003e0: b78b 2c3f 2feb 433f 5f78 633f 99ac 1cbf
000003f0: 2707 a53d 72cd cebe 2027 c03d a2ae 753f

linear2.weight f4 [2, 512]
-1.8079798 -2.936309 -0.5095339 0.484263 1.070228 -3.0689752 -0.8212656 2.0570111
0.7058336 0.63956684 -1.4361626 0.44417626 0.39288855 0.7008874 0.48753837 0.42612964
-0.13475296 0.67736775 1.4536017 1.8001842 -1.5834115 -1.8764018 0.26934603 0.67537194
0.68543464 1.1430364 0.70195186 -2.3967075 0.7996168 -2.9279294 0.3759986 -0.39239708
-0.94926727 -1.5909119 -2.1238446 0.6288105 0.99519336 0.74844533 1.1148272 0.34956416
-1.5770055 -1.7646961 1.0379938 -0.4703824 0.62927806 -2.2486005 -1.6052772 -3.657705
0.8696618 0.7017275 -1.8409635 0.46461904 -0.37500235 0.46302336 -1.5534196 -0.4974735
0.6478932 0.38569403 0.83026725 1.6712754 0.65703976 0.36276284 0.5143946 0.78792346
0.84592295 0.34210065 0.36263463 -1.1081631 -1.6279861 -0.7330832 0.39932826 0.6185831
-1.0079123 0.60238445 -1.520729 1.2829312 -0.8717907 0.62001103 0.31730762 0.7776744
0.5406106 -1.9431971 -1.7448754 0.6706843 -1.532209 1.1027756 -1.7084733 0.40421018
0.5286124 2.0130806 0.45789832 0.8044749 -0.83077097 0.6087024 -2.419896 -2.360638
-0.09566145 -1.3714944 0.41583416 1.8445506 -2.2280405 0.9838928 0.67830914 0.6168266
0.74734145 0.43210664 0.41029233 -1.6079888 0.44397843 -1.2975359 -0.4052862 -0.54527086
0.39175355 0.49846783 -1.6333076 1.4574939 -2.330934 -2.473973 0.6430611 0.49363866
-1.0578494 0.65014565 -0.6448766 -2.2194204 -1.1729565 0.6611718 -0.54955167 0.45691648
0.5280047 -3.1672409 -1.322309 -0.1694899 -1.3661106 1.1429023 0.53304046 -2.0688374
-1.6684124 0.7456055 0.36033782 0.9404581 0.43273407 -0.61646396 -0.88200736 -0.28672147
0.7974899 1.6726663 0.5891349 0.82703286 -0.15406825 -3.0786781 -0.89089906 -1.6871943
0.72366226 -2.7620451 0.47165763 0.7562383 -0.8456534 0.4445068 -0.009476103 -0.48942545
-1.0471011 -0.8827492 0.9796256 -1.7459078 0.66029555 -0.9102464 0.5410419 0.6507067
0.4283119 -1.1686095 1.0203465 -2.3634267 0.67241853 -2.4178028 -1.1762172 2.144672
-3.003001 -1.5900667 0.60013676 -1.5367932 0.47780463 -1.0520626 0.6799568 -1.8562845
0.69256693 -0.81017774 -1.8976325 0.5085766 0.9260672 0.84090817 0.35244527 0.25015855
-1.1733606 -2.7199883 -1.2257547 1.2725407 -0.2273358 0.40413114 -1.1415825 0.9620577
-0.86438155 -2.404487 0.77859724 0.31111005 0.6801862 0.34524807 -1.4179211 0.8417325
0.39411747 -0.40169325 -1.5742002 0.33771977 -1.2331171 1.4932034 0.6413861 0.69622314
0.35512704 -1.6947308 0.48250854 0.8932635 -0.9040671 -1.8767546 0.44398943 0.6066146
0.4425328 0.6786555 1.2187004 0.5535427 -2.5165658 -0.98071045 0.6698186 0.51453114
0.76182765 -1.2867043 -0.7627243 0.36289686 0.76077044 0.9578189 -1.1224294 0.54246587
-2.1373668 -1.2181859 0.70065635 1.6037729 1.2286524 0.58327055 0.42612815 -1.5349827
0.38390496 0.5123302 0.6603237 -2.8412802 -1.5426424 -1.132791 -0.23367052 0.32260436
00000000: e26b e7bf 7dec 3bc0 d070 02bf 52f1 f73e
00000010: 3bfd 883f 176a 44c0 763e 52bf 12a6 0340
00000020: 83b1 343f a7ba 233f 2dd4 b7bf 126b e33e
00000030: b028 c93e 5b6d 333f a19e f93e aa2d da3e
00000040: aefc 09be f967 2d3f 9f0f ba3f 706c e63f
00000050: 3aad cabf ef2d f0bf b9e7 893e 2de5 2c3f
00000060: a578 2f3f 044f 923f 1eb3 333f a863 19c0
00000070: b0b3 4c3f 3263 3bc0 e382 c03e 45e8 c8be
00000080: 2e03 73bf 00a3 cbbf 12ed 07c0 baf9 203f
00000090: fec4 7e3f 1d9a 3f3f a8b2 8e3f 13fa b23e
000000a0: 51db c9bf 90e1 e1bf fbdc 843f f6d5 f0be
000000b0: 5e18 213f 12e9 0fc0 b979 cdbf d717 6ac0
000000c0: 28a2 5e3f 6aa4 333f b1a4 ebbf 8ce2 ed3e
000000d0: 4f00 c0be 6611 ed3e 74d6 c6bf d9b4 febe
000000e0: 54dc 253f b079 c53e 658c 543f 5aec d53f
000000f0: c233 283f 0dbc b93e 5daf 033f 5ab5 493f
00000100: 688e 583f d127 af3e 3fab b93e 4ad8 8dbf
00000110: d961 d0bf 57ab 3bbf c174 cc3e 765b 1e3f
00000120: 4503 81bf de35 1a3f 3fa7 c2bf 1737 a43f
00000130: ad2d 5fbf 0bb9 1e3f 2576 a23e ab15 473f
00000140: 7565 0a3f afba f8bf 1458 dfbf f7b1 2b3f
00000150: 6d1f c4bf c027 8d3f 41af dabf a3f4 ce3e
00000160: 2453 073f 50d6 0040 a671 ea3e 11f2 4d3f
00000170: 68ad 54bf ecd3 1b3f 93df 1ac0 b114 17c0
00000180: 26ea c3bd 218d afbf 37e8 d43e 3c1a ec3f
00000190: 3798 0ec0 66e0 7b3f aba5 2d3f 59e8 1d3f
000001a0: c551 3f3f 153d dd3e d611 d23e 94d2 cdbf
000001b0: 2451 e33e a815 a6bf ac81 cfbe df96 0bbf
000001c0: ec93 c83e 2d37 ff3e 3910 d1bf 298f ba3f
000001d0: 062e 15c0 9355 1ec0 a79f 243f 35be fc3e
000001e0: 9c67 87bf f26f 263f a216 25bf fc0a 0ec0
000001f0: 7023 96bf 8e42 293f 6baf 0cbf f5f0 e93e
00000200: 512b 073f 13b4 4ac0 6c41 a9bf c38e 2dbe
00000210: b6dc aebf 9f4a 923f 5775 083f d567 04c0
00000220: 8a8e d5bf 01e0 3e3f 337e b83e ddc1 703f
00000230: 528f dd3e 95d0 1dbf 3ccb 61bf 28cd 92be
00000240: 4c28 4c3f ee19 d63f 8bd1 163f 6db8 533f
00000250: 11c4 1dbe 1009 45c0 f611 64bf fcf5 d7bf
00000260: ee41 393f 59c5 30c0 1c7d f13e d598 413f
00000270: be7c 58bf 6596 e33e a841 1bbc f995 fabe
00000280: 6907 86bf dafb 61bf bec8 7a3f e879 dfbf
00000290: 2109 293f e805 69bf b981 0a3f b794 263f
000002a0: b34b db3e ff94 95bf b79a 823f 6242 17c0
000002b0: 9f23 2c3f 48bd 1ac0 498e 96bf 4e42 0940
000002c0: 2b31 40c0 4e87 cbbf 90a2 193f a4b5 c4bf
000002d0: cfa2 f43e fda9 86bf a611 2e3f bb9a edbf
000002e0: 114c 313f cf67 4fbf 9fe5 f2bf 1332 023f
000002f0: bd12 6d3f c245 573f b573 b43e c814 803e
00000300: ae30 96bf 4a14 2ec0 88e5 9cbf 9de2 a23f
00000310: b7ca 68be 47ea ce3e 601f 92bf 6a49 763f
00000320: 1c48 5dbf 1de3 19c0 2652 473f d149 9f3e
00000330: af20 2e3f 5bc4 b03e 707e b5bf c87b 573f
00000340: c4c9 c93e bdaa cdbe 647f c9bf 9be9 ac3e
00000350: c8d6 9dbf 4a21 bf3f e131 243f ae3b 323f
00000360: 36d3 b53e f0ec d8bf 5c0b f73e ebac 643f
00000370: f170 67bf 7f39 f0bf 9552 e33e 184b 1b3f
00000380: a993 e23e 5ebc 2d3f 60fe 9b3f f9b4 0d3f
00000390: 6a0f 21c0 d70f 7bbf 3b79 2b3f 50b8 033f
000003a0: 2307 433f bab2 a4bf e641 43bf 9ecd b93e
000003b0: dac1 423f 9f33 753f c4ab 8fbf 0bdf 0a3f
000003c0: 9eca 08c0 84ed 9bbf 375e 333f 6e48 cd3f
000003d0: 7b44 9d3f 3851 153f 782d da3e 507a c4bf
000003e0: 318f c43e 1228 033f f90a 293f 89d7 35c0
000003f0: 4e75 c5bf 4cff 90bf 5347 6fbe 662c a53e

linear2.bias f4 [2]
0.36514083 0.30427197
00000000: bdf3 ba3e 89c9 9b3e
