code/log/dqn/ckpt/1187000.pth (torch, 15775 bytes, 4 tensors)

linear.weight f4 [512, 4]
00000000: 3b40 953e 4044 1b3e 5388 80bf 95ae bc3d
00000010: 1a4a 893d 706e f13e da47 1240 dfb7 e63e
00000020: 63ea ec3e af23 193e 5e73 843f 486d d23e
00000030: 6cb0 88be 006e 153e 0f72 b6be 3283 dd3b
00000040: b1d4 503f 2a3e 473f 9ad3 e3bd 4095 cf3e
00000050: ed15 c43e 7422 863f d7ec 6040 4bf4 5e3f
00000060: 37c9 fa3e 54f0 893e 7ee6 7a3f b683 dc3e
00000070: 900d 30bf 7a27 0b3f be2a bd3e d8c4 d43e
00000080: 4c9a 9fbe 97a9 16be 75b4 fdbe 477d 8dbe
00000090: 57e1 9abe 54af 223f 7158 54bd 4da9 993d
000000a0: 6221 703e e751 5b3e 0ff5 c53e 5d85 b4bd
000000b0: 9726 57be 0c00 723d 9b0b 8abd 7e4b 333e
000000c0: 1e48 5abe c028 5b3e d074 9bbd e5f2 723e
000000d0: 0852 f53d 164a babd 96c8 bcbd 9380 34be
000000e0: ecc3 77bf ce2b 64bf f6c8 dcbf 60a7 10bf
000000f0: 4e19 b03f b758 503f 4a80 0f40 7042 7e3f
00000100: 7620 53bd 6aec 96be ee78 06c0 052d 92be
00000110: aa66 cd3d 5f20 a93e 5dca 37bf 37dc f53c
00000120: ce61 bf3e d3a7 9ebf 9b68 2c40 5db7 2f3f
00000130: 29a4 bfbe d40d 1bbf 4007 9fbf 77b5 41bf
00000140: 07ea 4dbe 22a5 a9be f2b4 9bbf 9f13 91be
00000150: d2ae 123f 2fba 833e 2866 6e3e 515a 8d3e
00000160: ee5a 963d 0016 35be 5c19 4fbe 033c 57bc
00000170: 0710 563e ff77 60bd 0590 80bf ec99 e7bd
00000180: dd13 3c3f eb20 cbbc d83a 84bf 5f33 08be
00000190: b7f1 f43c dbf7 9f3f 2759 323f 8857 1d3f
000001a0: 4bce 19bf 8e29 20bf 835a febe 7af0 98be
000001b0: 62bc 803e 14b4 e43e 4d08 0240 2647 c93e
000001c0: e19a aebd 53f5 293e da74 053f 49e0 16bf
000001d0: cbc0 e6be 8fe1 e13d 400a 073f 02ec 683d
000001e0: 58cf b43d b8f2 e83c 41d2 2ebf 4039 8e3d
000001f0: fd3a 123c 0bc8 56be 1170 3bc0 f6c3 0cbf
00000200: 8f84 82be 3496 43be 08a6 afbf 7f12 63bf
00000210: 34d2 87be 0ac8 07bf be56 7abf 1b0d cabe
00000220: 087f b9be 4b7c 31be d783 033f d80d f3bd
00000230: 31a0 e23d 9a1d 603e 3242 d33d ff95 4fbe
00000240: 0a5d e13c 824d febe 6891 adbe 1a8a b0be
00000250: f007 fcbd 9ee4 d6be fddb 35bf 12a3 ccbe
00000260: fbf3 ae3c d883 e6be 2299 16c0 0b32 d0be
00000270: 0e50 993e 9b13 e5be 9323 17bf 9632 71be
00000280: 8510 c7bc 23c2 f2be 13a6 87c0 5b19 59bf
00000290: d55e 22be a506 90be 5c0a 40bf 830c 60be
000002a0: 7d7e abbf 0d0a 6fbe 2071 0dbf 7359 5bbe
000002b0: 33f7 c6bd 6946 5f3e 2ee6 52bd cf88 023f
000002c0: c3c5 67be 4127 c2be 4bfd 84bb b8c9 bebe
000002d0: dfb1 8dbe 9fb6 6fbe d356 863f 36ff ed3d
000002e0: ff07 7d3f 447c 443f c486 1c3e dbc7 bd3e
000002f0: 81ef fbbe 8fca 0d3e 3dde 563f 8788 d13d
00000300: 938c ebbe e85e 37bf 57b5 04bf b44b 63be
00000310: 3b56 71be e70e 593e f868 00bf e39e 773c
00000320: 2ea4 de3e c12e 5e3e 9091 f3bd 1aba 683e
00000330: b9b8 9ebe 2e05 c23e 2c48 eabe 575c d73e
00000340: a106 803e fb3e 1c3d dfcd fa3e 30dd 823e
00000350: 147d a8bd 48b9 3bbe fc9a e2be 9f90 1abd
00000360: d878 143e 6c7e 80be 094a 49c0 6b29 89be
00000370: 0fce abbd 91c6 003f ad7f d33f 58bb 303f
00000380: 2d53 bdbe 0c90 903e b1cb 14bf f721 223c
00000390: e1c0 5cbe a354 563e 30d4 80be 8e59 893e
000003a0: ac1e 683d c835 0abd f992 e23e 1c45 a5be
000003b0: 9a7d bd3c 91ea cfbe 40ef 6d3f 626d 93be
000003c0: 6e6a 47bd bd2f d03e c5db a5be 839c ac3b
000003d0: ff4e 973e 06e2 09bf 77d6 86bd 6e99 b2be
000003e0: 2610 e2bd 689a 31be e360 30bf 37a7 56bd
000003f0: e0a7 653e e0a1 5abf d88d 00c0 ae7a 68bf
0.29150566 0.15162754 -1.0041603 0.092129864 0.06703587 0.4715457 2.2856355 0.45062158
0.46272573 0.14955018 1.0347707 0.41099 -0.266971 0.14592743 -0.35633895 0.0067600245
0.8157454 0.7782923 -0.11124344 0.40543556 0.38297978 1.0479264 3.5144556 0.8709151
0.4898164 0.26941168 0.98007953 0.43069237 -0.68770695 0.5435711 0.36946672 0.4155643
-0.31172407 -0.14713131 -0.4955174 -0.27634642 -0.30250046 0.6354878 -0.051842157 0.07502995
0.23450235 0.21417962 0.38663527 -0.088144995 -0.21010815 0.059082076 -0.06740495 0.17509267
-0.21316573 0.21402264 -0.075906396 0.2372547 0.11978537 -0.09096162 -0.09217946 -0.17627172
-0.9678333 -0.8912934 -1.7248828 -0.56505394 1.3757722 0.8138537 2.2422051 0.99320126
-0.05154463 -0.29477245 -2.101131 -0.28549972 0.10029347 0.3303251 -0.71793157 0.030012233
0.37379307 -1.2394966 2.6938846 0.68639165 -0.37429932 -0.60567975 -1.2424088 -0.7566752
-0.20108806 -0.331338 -1.2164595 -0.28335282 0.57298005 0.25727984 0.23281157 0.27607968
0.07341562 -0.17684174 -0.20224518 -0.0131368665 0.20904551 -0.054801937 -1.0043951 -0.11308655
0.7346781 -0.02479597 -1.0330458 -0.13300847 0.029900415 1.2497514 0.69667286 0.6146169
-0.60080403 -0.6256341 -0.4967843 -0.2987097 0.25143725 0.4466864 2.0317566 0.39312094
-0.085256346 0.1659749 0.52131426 -0.5893598 -0.45068964 0.1102935 0.52750015 0.0568657
0.0882861 0.02843605 -0.6828957 0.06944513 0.008925197 -0.20974748 -2.928715 -0.5498651
-0.2549176 -0.19100267 -1.3722544 -0.887001 -0.2652756 -0.5303961 -0.9778861 -0.39463124
-0.3622973 -0.1733257 0.51373047 -0.11867875 0.1106571 0.21886292 0.1031536 -0.20272063
0.027510185 -0.4966851 -0.339 -0.34480363 -0.123062015 -0.41971296 -0.710388 -0.39968163
0.021356573 -0.45022464 -2.3530965 -0.4066318 0.2994389 -0.4474152 -0.59038657 -0.23554453
-0.02429987 -0.4741374 -4.2390227 -0.84804314 -0.15856488 -0.2813007 -0.7501581 -0.21879773
-1.3397976 -0.23343678 -0.5525074 -0.21420841 -0.09715118 0.21804203 -0.051489048 0.50990003
-0.22634034 -0.37920573 -0.004058515 -0.37263274 -0.27674767 -0.23409508 1.0495247 0.11620943
0.98840326 0.76752114 0.15285784 0.3706654 -0.49206164 0.13846801 0.8393286 0.10231119
-0.46005687 -0.7162919 -0.518392 -0.22196847 -0.2356805 0.21197091 -0.5016017 0.015113565
0.43484634 0.21697523 -0.11892998 0.22727242 -0.31000307 0.37894577 -0.45758188 0.42062637
0.25005057 0.038146 0.48985192 0.25559378 -0.08226982 -0.18332398 -0.4425887 -0.037735578
0.14499223 -0.25096452 -3.1451437 -0.26789412 -0.08388912 0.5030299 1.6523339 0.69035864
-0.3697752 0.282349 -0.5812331 0.009895793 -0.21557952 0.20930724 -0.25161886 0.26826137
0.056669876 -0.033742696 0.44252756 -0.3227929 0.02313118 -0.40608647 0.9294319 -0.2879439
-0.048685484 0.4066142 -0.32394233 0.005267681 0.29552457 -0.5386051 -0.06583875 -0.34882683
-0.11038236 -0.17344058 -0.6889784 -0.052405562 0.2242732 -0.8540325 -2.0086575 -0.90812194

linear.bias f4 [512]
00000000: 8911 44bf 6c83 d43e d454 213e 653d 5b3f
00000010: 3676 823f 8aaf 69bf a5f3 95bf b23f 9bbf
00000020: 939b 8c3f 7670 843f baca 2e3f 939c 673f
00000030: 4153 553f fd63 5b3f 6dd6 793e 4c44 9fbe
00000040: d198 443f dcc0 9b3f ea00 58bf 8deb d03e
00000050: 7e93 02bf 8842 abbf 657d 163f a031 813f
00000060: cb83 5bbe 7b01 9a3f 5129 0c3f c073 1e3f
00000070: 33ec 8e3f 1bb6 8ebf 48a7 383f 68e5 123f
00000080: 003e 0a3f 59ac 28bf daaa a0bf 237b 953f
00000090: cad6 eb3e 09d9 433f 1cdb 6fbf 5ab1 6d3f
000000a0: ab59 263f f95c cbbe b8c7 753e bd46 683f
000000b0: 79b7 793f 3d52 9bbf 09cc d2be 99c9 9cbf
000000c0: 2cbc dd3e 924f 3f3f 002b 84bf 7df4 823f
000000d0: dca8 24bf cec6 153f 2a61 2dbf 9e21 243f
000000e0: bde1 843f 3793 673f d8fe 893f 93bf 093f
000000f0: 13ec 853f 3bfa 6c3f cecd 203f 9d85 d03d
00000100: 02c1 6e3f dd3e 6f3f 38f3 1d3f 71ac 8abf
00000110: 9c64 e93e bdbb 903f 9ec0 713f d4c6 333f
00000120: 393f 0cbf e81a 5c3f 081a 133f d730 8dbe
00000130: af61 fabe f73b 593f d6e1 873f 2fff fd3e
00000140: eb85 7a3f 86af 3f3f 8338 393f 2643 c0be
00000150: 5d35 9ebf f3ba 0b3f 86ec 583f ad0d 503f
00000160: 8f84 663f c93c 8d3e 0613 7a3f 242a 993f
00000170: 57de 83bf 92c6 843f 2d89 adbf 13d5 b7bf
00000180: d5d1 a93e 2e84 a73e ff14 403f c2aa 373f
00000190: 94a4 96bf 3b15 273f 8bc1 7d3f cde8 853f
000001a0: f527 2e3f 1c41 263f fa18 603f 4b20 803e
000001b0: 9bfc 653f 90b0 49bf 9221 723e f7af 573f
000001c0: 28ed 753f a731 b3be 7106 9abf 4527 fe3e
000001d0: 138b a0bf 687b 98bf 2284 703f 13f2 423f
000001e0: f05a 7e3d 0f70 803f 46c3 61bf f3c3 1a3f
000001f0: 8349 5c3f 5ca6 0b3f 7c77 2fbf 9a8f 4a3f
00000200: db57 5d3f 7c5f 56bf 2e46 3b3f f9bf 9b3e
00000210: 4c02 283f c7b7 f63e 076c 5f3f 6c7e fcbe
00000220: e310 a33f 7bfa 9d3f e309 4c3f f079 2d3f
00000230: dabc 573f b57d 023f 7fb1 73bd ec79 82bf
00000240: b4c0 1fbf feb2 4bbf 3a43 ac3e b7ab 923f
00000250: 05a4 453f 19a8 8bbf ec36 a3bb 81e4 56bf
00000260: e6b3 773f fb2b c1bf 4fab 793f 00f4 913f
00000270: b100 61bf fb53 693f b4dc 03bf 8e3e 44bf
00000280: bc8e 45bf 48c6 0c3f a20b bb3e ead9 8a3f
00000290: 5a10 8b3f a2d3 5dbe b263 833f 2ff3 723f
000002a0: 3e93 5d3f bfa5 29be fb12 033f e975 a5bf
000002b0: 5c1a 883f e393 d5bf 51d7 42bd 7442 003c
000002c0: 2c29 f73e ee93 0bbf aeed 813f da8e 0fbc
000002d0: d519 953f 53ac 89bf 864d 393f 42d8 1d3f
000002e0: 6965 313f 7e02 143f 26fa e0bf 0607 5d3f
000002f0: 5f43 903f 2b75 843f c1f5 873f fdb6 2b3f
00000300: 21c6 26bf 4881 a4bf 4c95 6fbf d825 ca3e
00000310: 635f 28bf 2007 5c3f 292a 8f3f cceb 073f
00000320: 0c27 1f3f 8922 c7bf 55a8 3e3f 45c2 7d3f
00000330: c362 823f 11a8 8c3f 057a 9f3f 1225 8c3e
00000340: 18f7 633f 3a4a d43e 3a62 623f ec59 8a3f
00000350: da63 c13e 9bbf 36bf 630e 733f 3008 8a3f
00000360: 898d 733f ffa9 eb3e e712 493f 3753 593f
00000370: 43f7 23bf 12e0 a6be 5394 8c3f 6e58 713f
00000380: 2622 4a3f 1374 7d3f c176 cbbe 79bd 563f
00000390: 1efd 5dbe 3f45 963e 0295 2c3f 1475 623f
000003a0: cecc 8f3f 7290 7fbf a301 d73e 9fb2 1a3f
000003b0: eeb8 653f c6eb c3be 443e abbf 622e eb3e
000003c0: 800b 243e c054 46bf 06f0 663f 09a5 01be
000003d0: e406 803f b486 303f bc76 4d3f d335 093f
000003e0: f83a 2d3f 8f97 443f 862f 643f e5cd 21bf
000003f0: 627b f73d 884b a4be fff8 0c3e e856 763f
-0.76589257 0.41506517 0.15755016 0.85640556 1.0192325 -0.91283476 -1.171498 -1.2128813
1.0984977 1.034682 0.68278086 0.9047329 0.8333016 0.85699445 0.24398203 -0.31106794
0.7679568 1.2168231 -0.84376395 0.4080471 -0.51006305 -1.3379679 0.58785087 1.0093269
-0.21436994 1.2031702 0.54750544 0.6189537 1.1165832 -1.1149324 0.7213025 0.57381296
0.54000854 -0.6588798 -1.255214 1.1678203 0.4606231 0.76503044 -0.9369371 0.9284874
0.6498057 -0.3971937 0.24001968 0.9073294 0.9754558 -1.2134472 -0.4117129 -1.2249023
0.43307626 0.7473079 -1.0325623 1.0230862 -0.6432016 0.58506477 -0.67726386 0.64113796
1.038139 0.9045901 1.0780897 0.53807944 1.0462669 0.9256932 0.62814033 0.10181735
0.93263257 0.93455297 0.6169925 -1.0833875 0.4558457 1.1307293 0.94434536 0.7022526
-0.5478397 0.85978556 0.57461596 -0.27576324 -0.48902652 0.84857124 1.0615795 0.49608752
0.9786059 0.748772 0.72351855 -0.3755123 -1.2360035 0.54582137 0.84735906 0.8127087
0.9004602 0.27585438 0.9768528 1.1965985 -1.0302228 1.0373099 -1.3557488 -1.43619
0.33167902 0.32718033 0.7503204 0.7174493 -1.1768975 0.6526677 0.9912345 1.046167
0.6802972 0.649431 0.8753811 0.25024638 0.8983857 -0.7878504 0.23645619 0.84252876
0.96064997 -0.3499882 -1.2033216 0.49639335 -1.2542442 -1.1912661 0.9395162 0.76150626
0.062098444 1.0034198 -0.8818859 0.60455245 0.8604967 0.5455072 -0.68541694 0.7912537
0.8646218 -0.8373945 0.7315396 0.304199 0.65628505 0.48187086 0.8727421 -0.49315202
1.2739528 1.2342066 0.79702586 0.67764187 0.8427254 0.50973064 -0.059495445 -1.0193458
-0.62403417 -0.79569995 0.3364504 1.1458653 0.772034 -1.0910674 -0.0049809124 -0.8394242
0.9675888 -1.5091547 0.9752702 1.1402588 -0.8789168 0.9114377 -0.5150864 -0.7665795
-0.7717092 0.54990053 0.36532313 1.0847752 1.0864365 -0.21662763 1.02648 0.9490232
0.865528 -0.16567133 0.51200837 -1.2926608 1.0633044 -1.6685756 -0.047568623 0.007828344
0.482736 -0.545226 1.0150659 -0.008762086 1.1648508 -1.0755714 0.72383916 0.6165811
0.69295365 0.578163 -1.7576339 0.8633884 1.127056 1.0348257 1.0621873 0.6707609
-0.6514607 -1.2851954 -0.93587184 0.39481997 -0.6577055 0.8594837 1.1184741 0.5309417
0.62168956 -1.5557414 0.74475604 0.99124557 1.018639 1.098879 1.2459112 0.27372032
0.8904891 0.4146288 0.8843113 1.0808692 0.37771493 -0.71386117 0.9494383 1.0783749
0.9513784 0.46028134 0.7854447 0.848926 -0.64049166 -0.32592827 1.0982765 0.9427556
0.78958356 0.9900524 -0.3973904 0.8388286 -0.21678588 0.29349706 0.6741487 0.884599
1.1234376 -0.9982978 0.41993436 0.60428804 0.89735305 -0.38265818 -1.3378377 0.45933825
0.16020012 -0.7747307 0.90209997 -0.12660612 1.0002103 0.6895554 0.802593 0.53597754
0.67668104 0.7679376 0.89135015 -0.63204795 0.1208408 -0.32088876 0.1376686 0.9622636

linear2.weight f4 [2, 512]
00000000: e26b e7bf ed73 3bc0 7b50 3ebe 9ae4 f83e
00000010: 7374 8b3f 176a 44c0 763e 52bf 860f fb3f
00000020: 7c28 353f ca47 243f 3099 b7bf 424c e43e
00000030: a70d ca3e 60ae 333f ffaa fa3e 3a1b ee3e
00000040: 6143 08be b4c4 2d3f 5e5d 963f 1c93 e63f
00000050: ac37 c8bf ef2d f0bf d735 8a3e bd15 2d3f
00000060: a578 2f3f be95 923f 992d 343f 472b 19c0
00000070: c922 4d3f 3263 3bc0 5b03 c13e 8275 c8be
00000080: 7c51 72bf 6cc3 c9bf 12ed 07c0 fa5b 213f
00000090: 33a3 7e3f 57eb 3f3f a8b2 8e3f 9afe b23e
000000a0: b9ad c9bf 2034 e1bf f730 853f 559c efbe
000000b0: 8585 213f 12e9 0fc0 b979 cdbf d717 6ac0
000000c0: bdfb 5e3f 7918 343f b1a4 ebbf f2da ee3e
000000d0: 4f00 c0be 50a5 ed3e 74d6 c6bf 77e9 fcbe
000000e0: 0f61 263f ea61 c63e 45dd 543f b4fd d53f
000000f0: f9a4 283f 9fc5 b93e c601 043f 06df 363f
00000100: 2df8 583f 4d41 b03e 52fb b93e 4ad8 8dbf
00000110: ab39 d0bf 7e39 3bbf 5fed cc3e 9bc7 1e3f
00000120: 9a05 80bf d371 1a3f aa98 c1bf 13df a53f
00000130: 1ec2 95bf 08f1 1e3f 8303 a33e 20be 473f
00000140: bfbb 0a3f e13d f8bf 732d dfbf f7b1 2b3f
00000150: 6d1f c4bf 186b 8d3f 0b3e dabf cede cf3e
00000160: 20b6 073f 2d05 0140 ae0f eb3e 0544 4e3f
00000170: e31a 23bf 2c4c 1c3f 93df 1ac0 b114 17c0
00000180: 9950 bdbd fe43 aebf 00ab d53e 576a ec3f
00000190: 3798 0ec0 5cec 7b3f f720 2e3f f81c 1e3f
000001a0: a789 3f3f 02d2 dd3e b416 d23e 1f55 cdbf
000001b0: 236e e33e d315 a5bf 1b5a ebbe 2cde 0abf
000001c0: 771a c93e 2d37 ff3e 3910 d1bf 0ed5 ba3f
000001d0: 062e 15c0 b7a2 1cc0 8bba 243f 05d7 fd3e
000001e0: b664 87bf 23f3 263f a216 25bf add7 0dc0
000001f0: 55b4 95bf a4b7 293f 6baf 0cbf 98a5 ea3e
00000200: c091 073f 5959 4ac0 1e18 a9bf e472 72be
00000210: 5a69 aebf 8490 923f 84d3 083f d567 04c0
00000220: ed9b d3bf 0355 3f3f bb6f b83e cf32 713f
00000230: 8e7b de3e e308 1dbf 0bdc 5ebf 28cd 92be
00000240: 4c28 4c3f ee19 d63f 89fa 163f c6ee 533f
00000250: 761e 1bbe e6a6 38c0 0cd7 52bf a7e4 d6bf
00000260: 35a1 393f 59c5 30c0 ca4b f23e 8514 423f
00000270: be7c 58bf 3aa3 e43e a841 1bbc a769 f7be
00000280: 6907 86bf 523a 61bf ab51 7b3f 5f34 dfbf
00000290: 5a80 293f 67ff 66bf 9c0d 0b3f 6d06 273f
000002a0: ca1a dc3e bc76 3dbf 2dd7 823f 6242 17c0
000002b0: 4e78 2c3f 48bd 1ac0 03bb 9cbf 1a75 0840
000002c0: d7ef 3fc0 6463 cabf 2719 1a3f df10 03c0
000002d0: 48d9 f43e fda9 86bf 8a4f 2e3f 622e edbf
000002e0: 4d90 313f af2a 4fbf 9fe5 f2bf 5188 023f
000002f0: 6c9f 6d3f 82b1 573f 292e b53e 5fc5 7d3e
00000300: 8f19 7ebf 4a14 2ec0 88e5 9cbf e12b a33f
00000310: b7ca 68be fd9f cf3e 30e9 91bf d3c0 763f
00000320: c49e 61bf 1de3 19c0 1377 473f cbd9 9f3e
00000330: 6ea5 2e3f e568 b13e 7739 b5bf cd8f 563f
00000340: 265c ca3e 9dc1 cbbe 010b c9bf 8b75 ad3e
00000350: 1093 9abf 3c99 b93f 159b 243f e365 323f
00000360: 5ccb b53e 418e d8bf 390b f83e 52f8 613f
00000370: f170 67bf 7f39 f0bf 144f e43e 92be 1b3f
00000380: 9a92 e33e 8536 2e3f 295e a83f a106 0e3f
00000390: 6a0f 21c0 3e0b 7abf 9bb8 263f 12c5 033f
000003a0: 8d40 433f bab2 a4bf 9921 4bbf b912 ba3e
000003b0: 8407 433f 9f33 753f 7e50 8fbf c256 0b3f
000003c0: a29d 08c0 c9bb 99bf a7ca 333f a487 ef3f
000003d0: d7cb 9f3f a098 153f 7fa0 da3e 6bdb c5bf
000003e0: 0322 c53e ae62 033f 275e 293f 28d3 34c0
000003f0: 3cef c4bf 644a 8fbf c70f 74be 9661 a53e
-1.8079798 -2.9289505 -0.18585388 0.4861191 1.0894912 -3.0689752 -0.8212656 1.9614112
0.707649 0.6417204 -1.4343624 0.4458943 0.3946354 0.7018795 0.48958585 0.46505147
-0.13306953 0.6787827 1.1747243 1.8013644 -1.564199 -1.8764018 0.26994202 0.67611295
0.68543464 1.1451948 0.70382077 -2.3932664 0.801312 -2.9279294 0.37697873 -0.3915215
-0.94655585 -1.5762763 -2.1238446 0.6303097 0.9946777 0.74968475 1.1148272 0.3495987
-1.5756141 -1.7594032 1.0405568 -0.4679896 0.6309436 -2.2486005 -1.6052772 -3.657705
0.8710287 0.7034984 -1.8409635 0.46651417 -0.37500235 0.46415186 -1.5534196 -0.4939687
0.6499185 0.38746578 0.8315013 1.6718049 0.6587673 0.36283585 0.51565206 0.71434057
0.84753686 0.3442482 0.36324555 -1.1081631 -1.6267599 -0.731346 0.4002485 0.62023324
-1.000171 0.6032993 -1.5124714 1.2958702 -1.1699865 0.62086535 0.31838617 0.7802448
0.5419273 -1.9393884 -1.7435745 0.6706843 -1.532209 1.1048307 -1.7050184 0.40599674
0.53012276 2.015941 0.459104 0.8057254 -0.637129 0.6105373 -2.419896 -2.360638
-0.092438884 -1.36145 0.41732025 1.8469952 -2.2280405 0.9840753 0.6801905 0.6176295
0.74819416 0.43324286 0.41032946 -1.6041602 0.44419965 -1.2897285 -0.45967183 -0.5424526
0.39278004 0.49846783 -1.6333076 1.4596269 -2.330934 -2.4474313 0.6434714 0.4957811
-1.057761 0.6521475 -0.6448766 -2.2162888 -1.1695658 0.6629584 -0.54955167 0.45829463
0.5295677 -3.1617033 -1.3210485 -0.2367664 -1.3625901 1.1450353 0.5344775 -2.0688374
-1.653196 0.7473909 0.36022744 0.9421815 0.4345364 -0.61341685 -0.8705451 -0.28672147
0.7974899 1.6726663 0.58976036 0.82786214 -0.15148339 -2.8851867 -0.82359385 -1.6788529
0.7251161 -2.7620451 0.47323447 0.7581256 -0.8456534 0.44655782 -0.009476103 -0.48322794
-1.0471011 -0.87979615 0.9817149 -1.7437857 0.66211474 -0.90233463 0.5431764 0.6524418
0.42989188 -0.740093 1.0221916 -2.3634267 0.6737107 -2.4178028 -1.2244571 2.1321473
-2.9990137 -1.5811582 0.6019463 -2.0479047 0.47822022 -1.0520626 0.68090117 -1.852978
0.6936081 -0.80924505 -1.8976325 0.5098925 0.92821383 0.8425523 0.3538678 0.24782322
-0.9925775 -2.7199883 -1.2257547 1.2747766 -0.2273358 0.4055175 -1.1399288 0.96387976
-0.8813288 -2.404487 0.7791607 0.3122085 0.68221176 0.3465034 -1.4158162 0.8381317
0.3952343 -0.39796153 -1.5706483 0.3387874 -1.207613 1.4499888 0.64299136 0.69686717
0.35506713 -1.6918412 0.48446062 0.8826953 -0.9040671 -1.8767546 0.44591582 0.6083766
0.44447786 0.6805194 1.3153735 0.55478865 -2.5165658 -0.97673404 0.65125436 0.5147258
0.7627037 -1.2867043 -0.7934814 0.3634241 0.7618334 0.9578189 -1.1196439 0.54429257
-2.1346211 -1.2010432 0.702311 1.8713269 1.2484082 0.5843601 0.42700574 -1.5457586
0.3850251 0.5132245 0.6615929 -2.825388 -1.5385509 -1.1194577 -0.23834144 0.32301015

linear2.bias f4 [2]
00000000: 74e5 bb3e 3665 9d3e
0.36698496 0.3074128
