code/log/dqn/ckpt/1190000.pth (torch, 15775 bytes, 4 tensors)

linear.weight f4 [512, 4]
00000000: 3b40 953e 4044 1b3e 5388 80bf 95ae bc3d
00000010: 579b 893d c110 f23e 7d70 1240 565f e63e
00000020: 94af ef3e 3761 1f3e 424a 813f f7b5 d13e
00000030: 9abe 88be 365b 143e cf85 b8be 0b1f dd3b
00000040: 32a3 4d3f 11c0 463f 369c f2bd d781 ce3e
00000050: ed15 c43e 7422 863f d7ec 6040 4bf4 5e3f
00000060: 37c9 fa3e 54f0 893e 7ee6 7a3f b683 dc3e
00000070: a8ed 2dbf cb95 043f dfed cb3e 85e2 ca3e
00000080: 75aa 9fbe c3b5 17be 4cdb ffbe 8988 8dbe
00000090: 7cf0 9abe cd65 223f 9119 63bd 4c18 9a3d
000000a0: 5edd 6a3e 2fc9 573e 221c c93e bba1 a8bd
000000b0: aa42 57be 67cd 6d3d 1c8d 92bd be39 333e
000000c0: 5161 5abe ea06 5a3e ecdc a2bd 2425 733e
000000d0: 030d f53d 9b50 bcbd 9bcd c5bd d4b2 34be
000000e0: 18cb 77bf 2e4d 64bf 1b96 ddbf 6802 11bf
000000f0: 8765 a53f 466d 513f 2d90 1340 aedb 7e3f
00000100: 0866 53bd e9de 96be f8ec 06c0 0767 93be
00000110: e022 cd3d cf9c a83e f7e6 38bf c192 f43c
00000120: a69e b43e 2980 9cbf 9fd7 2d40 d2ed 2f3f
00000130: 1b9c bfbe 19d8 1abf 6455 9fbf 5957 42bf
00000140: 07ea 4dbe 22a5 a9be f2b4 9bbf 9f13 91be
00000150: d2ae 123f 2fba 833e 2866 6e3e 515a 8d3e
00000160: 7e24 963d 2202 36be 59fb 53be 62ec 5dbc
00000170: 07ed 553e ad43 64bd 572b 81bf fd5e e8bd
00000180: dd13 3c3f eb20 cbbc d83a 84bf 5f33 08be
00000190: efd0 f33c efd8 9f3f 8a24 313f b940 1d3f
000001a0: fcd5 19bf 4262 20bf 2776 00bf 6536 99be
000001b0: fe43 803e 0c74 e53e 473b 0240 71a9 c83e
000001c0: 5ad3 aebd e786 283e b350 053f 2985 16bf
000001d0: cbc0 e6be 8fe1 e13d 400a 073f 02ec 683d
000001e0: c190 b43d 0153 e23c 192c 30bf 13cd 8c3d
000001f0: 2b92 143c 4365 56be 9704 3bc0 0e57 0cbf
00000200: 1865 82be 9483 44be e417 aebf 3a65 62bf
00000210: 34d2 87be 0ac8 07bf be56 7abf 1b0d cabe
00000220: 087f b9be 4b7c 31be d783 033f d80d f3bd
00000230: dd5c e23d b61b 5f3e 4b18 ca3d 0ed0 4fbe
00000240: d03f e03c b6d2 febe f9b5 afbe 4395 b0be
00000250: 504a fcbd c169 d7be e8f0 36bf 4eb0 ccbe
00000260: fbf3 ae3c d883 e6be 2299 16c0 0b32 d0be
00000270: 7f3f 993e a979 e5be e782 18bf 57f8 71be
00000280: 7cf6 d9bc 28ec f5be aa5c 87c0 a082 56bf
00000290: d55e 22be a506 90be 5c0a 40bf 830c 60be
000002a0: 9482 abbf 3de8 6fbe dec1 0ebf 09f6 5bbe
000002b0: 3996 c6bd 0340 603e d1be 3fbd 1b9e 023f
000002c0: 51e5 67be 31ac c2be 63ed 07bc 81d7 bebe
000002d0: dfb1 8dbe 9fb6 6fbe d356 863f 36ff ed3d
000002e0: ff07 7d3f 447c 443f c486 1c3e dbc7 bd3e
000002f0: 81ef fbbe 8fca 0d3e 3dde 563f 8788 d13d
00000300: 1e85 ebbe 8f5f 38bf 39ce 05bf 671a 61be
00000310: 8975 71be 49ec 573e f957 01bf efa3 7a3c
00000320: 2ea4 de3e c12e 5e3e 9091 f3bd 1aba 683e
00000330: 7bc6 9ebe a279 c13e 5449 ecbe dc62 d73e
00000340: a106 803e fb3e 1c3d dfcd fa3e 30dd 823e
00000350: d3b8 a8bd a5b3 3cbe 4eee e4be adae 1bbd
00000360: d878 143e 6c7e 80be 094a 49c0 6b29 89be
00000370: 0569 abbd ea10 013f 87f1 d33f f7a9 303f
00000380: b862 bdbe 1e09 903e d1dd 15bf 28ee 203c
00000390: 48db 5cbe fe48 553e 8af9 82be 424e 893e
000003a0: 18a5 673d 07c8 0fbd a00e e23e 7da4 a4be
000003b0: c25f bc3c 368e d0be 9055 6d3f 900d 93be
000003c0: 4bed 47bd 2da7 cf3e f6f8 a7be d221 ab3b
000003d0: 483e 973e cf17 0abf 3170 91bd 0aed b2be
000003e0: 144e e2bd ae89 32be 6e9a 31bf 2b4d 58bd
000003f0: 0f52 5d3e 10ac 60bf a1ca 00c0 3ff8 62bf
0.29150566 0.15162754 -1.0041603 0.092129864 0.06719082 0.47278407 2.2881157 0.4499461
0.46813643 0.15564428 1.0100787 0.4095914 -0.26707917 0.14487919 -0.36039588 0.0067480854
0.8032714 0.7763682 -0.11846201 0.40333435 0.38297978 1.0479264 3.5144556 0.8709151
0.4898164 0.26941168 0.98007953 0.43069237 -0.6794076 0.51791066 0.3982992 0.39625946
-0.31184736 -0.1481543 -0.49971998 -0.2764323 -0.302616 0.63436586 -0.055444304 0.075241655
0.22936007 0.21072839 0.39279276 -0.08233973 -0.21021524 0.058057215 -0.07155821 0.17502496
-0.21326186 0.212917 -0.07952294 0.23744637 0.119653724 -0.09195062 -0.09658357 -0.17646343
-0.9679427 -0.89180267 -1.7311434 -0.56644297 1.2921609 0.81807363 2.3056748 0.99553955
-0.051610976 -0.29466942 -2.1082134 -0.2878954 0.100164175 0.32932135 -0.72227424 0.029855134
0.3527729 -1.2226611 2.7162855 0.6872226 -0.37423787 -0.6048599 -1.2447934 -0.7591453
-0.20108806 -0.331338 -1.2164595 -0.28335282 0.57298005 0.25727984 0.23281157 0.27607968
0.07331179 -0.17774251 -0.2070135 -0.013545128 0.208912 -0.055728603 -1.0091351 -0.113462426
0.7346781 -0.02479597 -1.0330458 -0.13300847 0.029762713 1.2488078 0.6919638 0.61426884
-0.6009214 -0.6264993 -0.50180286 -0.29924312 0.25051874 0.448151 2.034868 0.39191774
-0.08536406 0.16457711 0.5207626 -0.58796936 -0.45068964 0.1102935 0.52750015 0.0568657
0.08816672 0.02762747 -0.6881729 0.06875052 0.009068052 -0.20937066 -2.9221551 -0.54820335
-0.25467753 -0.19190818 -1.3601041 -0.8843571 -0.2652756 -0.5303961 -0.9778861 -0.39463124
-0.3622973 -0.1733257 0.51373047 -0.11867875 0.110528685 0.21787915 0.09867915 -0.2029421
0.027374178 -0.49770135 -0.34318522 -0.34488878 -0.123188615 -0.4207287 -0.71461344 -0.3997826
0.021356573 -0.45022464 -2.3530965 -0.4066318 0.29931256 -0.44819382 -0.5957474 -0.2362989
-0.02660679 -0.48031735 -4.2300615 -0.8379307 -0.15856488 -0.2813007 -0.7501581 -0.21879773
-1.3399224 -0.23428436 -0.5576457 -0.21480574 -0.096966214 0.21899419 -0.046812836 0.510225
-0.22646071 -0.38021997 -0.0082963435 -0.3727379 -0.27674767 -0.23409508 1.0495247 0.11620943
0.98840326 0.76752114 0.15285784 0.3706654 -0.49206164 0.13846801 0.8393286 0.10231119
-0.45999998 -0.7202081 -0.52267796 -0.21982728 -0.23579992 0.2108623 -0.5052486 0.015297874
0.43484634 0.21697523 -0.11892998 0.22727242 -0.31010804 0.3778811 -0.46149695 0.4206761
0.25005057 0.038146 0.48985192 0.25559378 -0.082383774 -0.18427904 -0.44713062 -0.03800838
0.14499223 -0.25096452 -3.1451437 -0.26789412 -0.0836964 0.50416434 1.6558083 0.69009346
-0.3698938 0.28131956 -0.5854159 0.009822406 -0.21568024 0.20828626 -0.25581008 0.26817518
0.05655393 -0.03510287 0.44151783 -0.32156745 0.02299488 -0.40733498 0.92708683 -0.28721285
-0.048810285 0.40557232 -0.3280713 0.0052225376 0.29539704 -0.5394258 -0.07101477 -0.3494647
-0.110500485 -0.17435333 -0.69376266 -0.052807968 0.21613334 -0.87762547 -2.0123675 -0.88660043

linear.bias f4 [512]
00000000: 8911 44bf f158 d43e f0de 213e 184d 5b3f
00000010: a2e2 823f 8aaf 69bf a5f3 95bf d22b 9dbf
00000020: ffa3 8c3f 1779 843f 5d22 2f3f f4ab 673f
00000030: 7762 553f 4a74 5b3f 9305 7a3e ce0e adbe
00000040: 5b9a 443f e6c8 9b3f e8d5 58bf 03b0 d03e
00000050: 7e93 02bf 8842 abbf fe89 163f 6339 813f
00000060: cb83 5bbe c509 9a3f dc38 0c3f 4679 1e3f
00000070: 4cf5 8e3f 1bb6 8ebf a0b4 383f fed8 123f
00000080: d426 0a3f 59ac 28bf daaa a0bf 2583 953f
00000090: 5cf9 eb3e dee9 433f 1cdb 6fbf 3ebe 6d3f
000000a0: 73f2 263f f95c cbbe 2108 763e 8331 683f
000000b0: b1c7 793f 3d52 9bbf 09cc d2be 99c9 9cbf
000000c0: 5f89 dd3e b760 3f3f 002b 84bf 5dfc 823f
000000d0: dca8 24bf edd5 153f 2a61 2dbf 510a 243f
000000e0: 11ea 843f f8a1 673f fa07 8a3f f6d2 093f
000000f0: 4cf4 853f 9f07 6d3f f3dc 203f e8af e33d
00000100: 6bd3 6e3f bd4c 6f3f 9f00 1e3f 71ac 8abf
00000110: d142 e93e a4b1 903f 0bcf 713f f1d7 333f
00000120: 393f 0cbf e72a 5c3f 1f01 133f b22d 8ebe
00000130: ce87 fdbe c14b 593f 82e8 873f 131d fe3e
00000140: 9795 7a3f fa9a 3f3f 8070 393f 2643 c0be
00000150: 5d35 9ebf 84cd 0b3f 7cd6 583f dc1c 503f
00000160: 9994 663f 1572 8d3e 6722 7a3f 3d33 993f
00000170: cef0 83bf 87ce 843f 2d89 adbf 13d5 b7bf
00000180: 5ddc a93e 2411 a83e 3b24 403f 8fbd 373f
00000190: 94a4 96bf ff27 273f 9ad2 7d3f 82f0 853f
000001a0: 073a 2e3f d24f 263f 4526 603f 2ae5 803e
000001b0: 940a 663f 90b0 49bf 2efe 6c3e b79c 573f
000001c0: 51fb 753f a731 b3be 7106 9abf c046 fe3e
000001d0: 138b a0bf 687b 98bf e993 703f 3000 433f
000001e0: 7aa1 823d 6f78 803f 46c3 61bf dfae 1a3f
000001f0: 2233 5c3f 81b6 0b3f 7c77 2fbf c19e 4a3f
00000200: 0568 5d3f 7c5f 56bf 20a5 3b3f c68e 963e
00000210: 06ec 273f c6db f63e bf7b 5f3f 6c7e fcbe
00000220: 1bc9 a23f 6303 9e3f 3a16 4c3f 2b89 2d3f
00000230: a1cc 573f 71d0 023f c9e4 66bd ec79 82bf
00000240: b4c0 1fbf feb2 4bbf a764 ac3e b5b4 923f
00000250: 198e 453f a61e 8cbf 2be5 4cbb 81e4 56bf
00000260: 78c5 773f fb2b c1bf bdb9 793f 0bfd 913f
00000270: b100 61bf 5063 693f b4dc 03bf 8e3e 44bf
00000280: bc8e 45bf c0b3 0c3f f82b bb3e ebcf 8a3f
00000290: b018 8b3f 4630 70be 8e6b 833f 0504 733f
000002a0: 59a2 5d3f 8472 34be 2e21 033f e975 a5bf
000002b0: 9722 883f e393 d5bf f8ba 49bd eb51 103c
000002c0: 7dc5 f73e cf99 0ebf e0f5 813f 3bd5 e5bb
000002d0: 4921 953f 53ac 89bf 2d32 3a3f 39e6 1d3f
000002e0: 2476 313f b7f5 133f 26fa e0bf 6116 5d3f
000002f0: 844b 903f 3b7e 843f bcfc 873f 3e1d 2c3f
00000300: 179a 28bf 4881 a4bf 4c95 6fbf e64b ca3e
00000310: 635f 28bf 8e15 5c3f b01f 8f3f 73fd 073f
00000320: ac77 1e3f 8922 c7bf 32b9 3e3f bfcf 7d3f
00000330: 786b 823f 0cae 8c3f 0d71 9f3f 7d47 8b3e
00000340: 4405 643f 973d d43e f54b 623f a660 8a3f
00000350: 7acd c03e 2e60 37bf 871e 733f 0011 8a3f
00000360: 69f1 733f d6ba eb3e 6c22 493f 7bd7 593f
00000370: 43f7 23bf 12e0 a6be 449b 8c3f 4568 713f
00000380: 9e31 4a3f cc84 7d3f c176 cbbe 99cd 563f
00000390: 1efd 5dbe 6253 963e ec86 2c3f 8c83 623f
000003a0: a2d5 8f3f 7290 7fbf aa8f d63e 30c0 1a3f
000003b0: efc9 653f c6eb c3be 443e abbf 304b eb3e
000003c0: 7345 233e c054 46bf a800 673f 3dbb e4bd
000003d0: 1968 803f f996 303f c984 4d3f 494f 083f
000003e0: a748 2d3f 16a7 443f 923f 643f e5cd 21bf
000003f0: cd1c fc3d 4537 a2be 3af6 0f3e c963 763f
-0.76589257 0.41474107 0.158077 0.8566451 1.0225413 -0.91283476 -1.171498 -1.2278998
1.0987548 1.0349454 0.6841181 0.90496755 0.8335337 0.8572432 0.24416189 -0.33800358
0.7679803 1.2170684 -0.84701395 0.40759286 -0.51006305 -1.3379679 0.5880431 1.0095638
-0.21436994 1.2034231 0.5477426 0.619038 1.1168609 -1.1149324 0.7215061 0.57362354
0.53965497 -0.6588798 -1.255214 1.1680647 0.46088684 0.7652873 -0.9369371 0.9286841
0.652137 -0.3971937 0.24026538 0.9070055 0.9757033 -1.2134472 -0.4117129 -1.2249023
0.43268868 0.7475695 -1.0325623 1.0233265 -0.6432016 0.5852955 -0.67726386 0.6407824
1.0383931 0.9048152 1.0783684 0.53837526 1.0465178 0.92589754 0.6283714 0.11117536
0.9329135 0.9347647 0.617197 -1.0833875 0.4555879 1.1304212 0.9445655 0.70251375
-0.5478397 0.86002964 0.57423586 -0.27769238 -0.49517673 0.84881216 1.0617831 0.49631557
0.97884506 0.7484585 0.72437286 -0.3755123 -1.2360035 0.54610467 0.8470228 0.81294036
0.9007049 0.276261 0.97708744 1.1968762 -1.0307863 1.0375527 -1.3557488 -1.43619
0.33175936 0.32825577 0.75055283 0.7177362 -1.1768975 0.65295404 0.9914948 1.0464022
0.6805729 0.64965546 0.87558395 0.25174838 0.8985989 -0.7878504 0.23143837 0.842235
0.96086603 -0.3499882 -1.2033216 0.49663353 -1.2542442 -1.1912661 0.93975693 0.7617216
0.063784555 1.0036753 -0.8818859 0.6042308 0.8601552 0.54575354 -0.68541694 0.7914849
0.86486846 -0.8373945 0.73298836 0.29405802 0.6559452 0.4821455 0.87298197 -0.49315202
1.2717623 1.2344784 0.79721415 0.67787427 0.84296614 0.51099306 -0.05637053 -1.0193458
-0.62403417 -0.79569995 0.33670542 1.1461397 0.7716995 -1.0946853 -0.0031264524 -0.8394242
0.9678569 -1.5091547 0.9754904 1.1405348 -0.8789168 0.91167164 -0.5150864 -0.7665795
-0.7717092 0.54961777 0.36556983 1.0844702 1.0866909 -0.23455915 1.0267198 0.9492801
0.8657585 -0.17621809 0.51222503 -1.2926608 1.0635556 -1.6685756 -0.049250573 0.008808593
0.4839286 -0.55703443 1.015316 -0.0070139444 1.1650783 -1.0755714 0.7273281 0.61679417
0.69320893 0.57796806 -1.7576339 0.8636227 1.1273046 1.0351022 1.0624003 0.6723212
-0.6586012 -1.2851954 -0.93587184 0.3951103 -0.6577055 0.8597039 1.1181545 0.5312111
0.61901355 -1.5557414 0.74501336 0.9914512 1.0189047 1.0990615 1.2456375 0.2720298
0.89070535 0.4145324 0.8839715 1.0810745 0.37656766 -0.71631134 0.94968456 1.0786438
0.9529024 0.46040982 0.7856815 0.8509442 -0.64049166 -0.32592827 1.0984883 0.9429973
0.7898196 0.99030757 -0.3973904 0.8390747 -0.21678588 0.2936049 0.67393374 0.88481975
1.123707 -0.9982978 0.41906482 0.60449505 0.8976125 -0.38265818 -1.3378377 0.459558
0.15944462 -0.7747307 0.90235376 -0.11168525 1.0031768 0.68980366 0.8028074 0.5324598
0.67688984 0.7681745 0.891595 -0.63204795 0.12310181 -0.31682792 0.14058772 0.9624601

linear2.weight f4 [2, 512]
00000000: e26b e7bf 4e67 3bc0 7fbc 40be 7000 f93e
00000010: 4d7f 8b3f 176a 44c0 763e 52bf c33e fa3f
00000020: 3735 353f d14f 243f 3293 b7bf a078 e43e
00000030: b536 ca3e fabb 333f 01c1 fa3e 3a1b ee3e
00000040: 2e06 08be c4d1 2d3f b63a 943f 6c8f e63f
00000050: ac37 c8bf ef2d f0bf e665 8a3e f724 2d3f
00000060: a578 2f3f 939c 923f 7b40 343f 7421 19c0
00000070: 9721 4d3f 3263 3bc0 342c c13e f382 c8be
00000080: 7c46 72bf 6cc3 c9bf 12ed 07c0 0165 213f
00000090: 33b1 7e3f 00f7 3f3f a8b2 8e3f 152a b33e
000000a0: fdb0 c9bf 2034 e1bf 0a35 853f 6a54 efbe
000000b0: 9c93 213f 12e9 0fc0 b979 cdbf d717 6ac0
000000c0: 1d18 5f3f e623 343f b1a4 ebbf 4007 ef3e
000000d0: 4f00 c0be f8ce ed3e 74d6 c6bf d58c fcbe
000000e0: 5b6d 263f 798d c63e d8e5 543f a305 d63f
000000f0: e8ae 283f 9fed b93e 3115 043f e269 383f
00000100: 7c05 593f e45b b03e 1724 ba3e 4ad8 8dbf
00000110: 3939 d0bf 9d19 3bbf c03b cd3e face 1e3f
00000120: 9a05 80bf 0281 1a3f 4583 c1bf fbda a53f
00000130: 0bed 97bf 37ff 1e3f 6336 a33e 62c2 473f
00000140: c6c6 0a3f 5c2c f8bf ed2f dfbf f7b1 2b3f
00000150: 6d1f c4bf 4879 8d3f 9027 dabf 9c05 d03e
00000160: 25d8 073f ff04 0140 885f eb3e 2e53 4e3f
00000170: 7f8c 22bf aa58 1c3f 93df 1ac0 b114 17c0
00000180: 11cf bcbd 563a aebf 46d6 d53e ec74 ec3f
00000190: 3798 0ec0 20fe 7b3f 0c2d 2e3f 8a2c 1e3f
000001a0: f3ab 3f3f b5f3 dd3e 5a3c d23e 3756 cdbf
000001b0: c591 e33e d315 a5bf cb2c edbe d0c6 0abf
000001c0: 325c c93e 2d37 ff3e 3910 d1bf 5fda ba3f
000001d0: 062e 15c0 b7a2 1cc0 becb 243f b0d9 fd3e
000001e0: 4057 87bf 3df9 263f a216 25bf 15d2 0dc0
000001f0: 9499 95bf d8cf 293f 6baf 0cbf d8ef ea3e
00000200: 9ea9 073f 5959 4ac0 ff11 a9bf 498b 74be
00000210: 3e5e aebf b792 923f ffe9 083f d567 04c0
00000220: e586 d3bf 4862 3f3f 709a b83e 293e 713f
00000230: 589b de3e 7a10 1dbf f2ba 5fbf 28cd 92be
00000240: 4c28 4c3f ee19 d63f 0108 173f 1aff 533f
00000250: 61ba 1abe c1dc 36c0 97a0 50bf a7e4 d6bf
00000260: 83a9 393f 59c5 30c0 2d53 f23e 9f14 423f
00000270: be7c 58bf c0bc e43e a841 1bbc a769 f7be
00000280: 6907 86bf 7a15 61bf 2a60 7b3f 5631 dfbf
00000290: 948a 293f 36fd 62bf 0510 0b3f 5114 273f
000002a0: d060 dc3e f14e 3cbf 1be0 823f 6242 17c0
000002b0: f881 2c3f 48bd 1ac0 2575 9cbf 7166 0840
000002c0: 97ef 3fc0 f6c2 c8bf fe2a 1a3f 7af0 05c0
000002d0: b6fa f43e fda9 86bf 3038 2e3f 721b edbf
000002e0: 30a1 313f 2c2f 4fbf 9fe5 f2bf 079d 023f
000002f0: 70af 6d3f 50ba 573f 7562 b53e c767 7e3e
00000300: bb65 80bf 4a14 2ec0 88e5 9cbf 732c a33f
00000310: b7ca 68be beca cf3e 77da 91bf 7ad0 763f
00000320: f683 61bf 1de3 19c0 338a 473f 5e0a a03e
00000330: 0bad 2e3f b26e b13e 9a31 b5bf 6d25 563f
00000340: d28b ca3e 969d cbbe 97f0 c8bf bfa8 ad3e
00000350: 454a 9abf 42ef b73f bba9 243f 6582 323f
00000360: 4ee2 b53e 7a8e d8bf 3b23 f83e 74da 613f
00000370: f170 67bf 7f39 f0bf ac61 e43e 27c6 1b3f
00000380: d4aa e33e 7839 2e3f 295e a83f 9a2a 0e3f
00000390: 6a0f 21c0 0ff7 79bf ae79 263f 3ed5 033f
000003a0: 154f 433f bab2 a4bf 2a41 4bbf ce41 ba3e
000003b0: 6010 433f 9f33 753f 7e50 8fbf 9d6d 0b3f
000003c0: 1c9d 08c0 c9bb 99bf 15d5 333f 7f21 f33f
000003d0: 4ed1 9f3f b6ab 153f 28ca da3e c2cd c5bf
000003e0: f748 c53e 1773 033f b96a 293f 28d3 34c0
000003f0: 7feb c4bf a016 91bf 84de 73be c297 a53e
-1.8079798 -2.9281802 -0.18821906 0.48633146 1.0898224 -3.0689752 -0.8212656 1.9550403
0.70784324 0.6418429 -1.4341795 0.4462328 0.39494863 0.70208704 0.48975375 0.46505147
-0.13283607 0.678982 1.1580417 1.8012519 -1.564199 -1.8764018 0.27030867 0.6763453
0.68543464 1.1454033 0.7041089 -2.3926668 0.8012938 -2.9279294 0.37729037 -0.39162406
-0.946388 -1.5762763 -2.1238446 0.63044745 0.99489135 0.7498627 1.1148272 0.34993044
-1.5757138 -1.7594032 1.0406811 -0.4674409 0.6311586 -2.2486005 -1.6052772 -3.657705
0.8714617 0.70367277 -1.8409635 0.4668522 -0.37500235 0.46446967 -1.5534196 -0.49326196
0.65010613 0.3877981 0.83163214 1.672047 0.65891886 0.36314103 0.51594836 0.72036564
0.84773993 0.34445107 0.3635566 -1.1081631 -1.6267463 -0.7308596 0.40084648 0.6203457
-1.000171 0.603531 -1.5118185 1.2957453 -1.1869215 0.62108177 0.3187743 0.7803098
0.54209554 -1.9388537 -1.7436501 0.6706843 -1.532209 1.1052637 -1.7043324 0.4062928
0.53064185 2.01593 0.45971322 0.8059567 -0.6349563 0.6107279 -2.419896 -2.360638
-0.09219182 -1.3611553 0.4176504 1.8473182 -2.2280405 0.9843464 0.68037486 0.6178671
0.7487175 0.43349996 0.4106167 -1.6041936 0.4444715 -1.2897285 -0.46323237 -0.54209614
0.39328152 0.49846783 -1.6333076 1.4597892 -2.330934 -2.4474313 0.64373386 0.49580145
-1.0573502 0.6522406 -0.6448766 -2.2159474 -1.1687493 0.6633277 -0.54955167 0.4588611
0.5299319 -3.1617033 -1.3208617 -0.23881258 -1.362251 1.1451024 0.5348205 -2.0688374
-1.6525542 0.7475934 0.36055326 0.94235474 0.43477893 -0.61353266 -0.8739463 -0.28672147
0.7974899 1.6726663 0.5899659 0.8281113 -0.1511016 -2.8572237 -0.8149504 -1.6788529
0.7252428 -2.7620451 0.47329083 0.75812715 -0.8456534 0.44675255 -0.009476103 -0.48322794
-1.0471011 -0.87923396 0.9819361 -1.7436931 0.6622708 -0.8866762 0.5432132 0.65265375
0.43042612 -0.73557955 1.0224642 -2.3634267 0.67385817 -2.4178028 -1.222325 2.1312525
-2.9989984 -1.5684497 0.6022185 -2.0928025 0.47847527 -1.0520626 0.68054485 -1.8524001
0.6938658 -0.80931354 -1.8976325 0.51020855 0.9284582 0.84268665 0.3542668 0.24844275
-1.0031046 -2.7199883 -1.2257547 1.274794 -0.2273358 0.40584368 -1.1394795 0.9641186
-0.8809198 -2.404487 0.7794525 0.3125791 0.6823279 0.34654766 -1.4155762 0.8365086
0.395598 -0.39768666 -1.5698422 0.33917806 -1.2053915 1.4369891 0.6432149 0.69730216
0.3552422 -1.691848 0.4846438 0.8822396 -0.9040671 -1.8767546 0.44605768 0.6084923
0.4446627 0.6805644 1.3153735 0.55533755 -2.5165658 -0.97642606 0.6502942 0.51497257
0.76292545 -1.2867043 -0.7939631 0.3637833 0.7619686 0.9578189 -1.1196439 0.5446413
-2.1345892 -1.2010432 0.7024701 1.8994597 1.248575 0.58465135 0.42732358 -1.5453417
0.3853223 0.5134749 0.6617847 -2.825388 -1.5384368 -1.133503 -0.23815352 0.32342345

linear2.bias f4 [2]
00000000: b20e bc3e a973 9d3e
0.36729962 0.30752304
