code/log/dqn/ckpt/1209000.pth (torch, 15775 bytes, 4 tensors)

linear.weight f4 [512, 4]
0.29150566 0.15162754 -1.0041603 0.092129864 0.063073985 0.46767443 2.2702353 0.44407174
0.46817943 0.16822325 1.0401661 0.40845284 -0.267356 0.14791235 -0.3583832 0.011419452
0.79400516 0.7771169 0.06461733 0.4292311 0.38297978 1.0479264 3.5144556 0.8709151
0.4898164 0.26941168 0.98007953 0.43069237 -0.66899806 0.39639243 0.12583345 0.35940042
-0.31225392 -0.14515612 -0.4979614 -0.27179295 -0.30285168 0.63748735 -0.052686628 0.08000758
0.22804393 0.20574002 0.3933092 -0.08375318 -0.21050958 0.06111777 -0.069699496 0.17962624
-0.21336809 0.21612382 -0.07677791 0.24212086 0.11910149 -0.089020655 -0.0951478 -0.17184953
-0.9570918 -0.964453 -1.8925128 -0.6020923 1.2378839 1.1259905 2.6542175 0.97476494
-0.05303465 -0.29429612 -2.1137943 -0.28573087 0.09964776 0.33225372 -0.7207182 0.034496754
0.24203841 -1.1091398 2.618984 0.7529316 -0.40521777 -0.59687805 -1.237743 -0.8055967
-0.20108806 -0.331338 -1.2164595 -0.28335282 0.57298005 0.25727984 0.23281157 0.27607968
0.0728059 -0.17483404 -0.20620868 -0.00911395 0.2082565 -0.05292227 -1.0083096 -0.10892785
0.7760357 0.012209276 -0.64957124 -0.09270822 0.029124018 1.2515992 0.6928096 0.6188374
-0.59242475 -0.5461327 -0.50327486 -0.4031384 0.23565732 0.43798512 1.9809147 0.39085683
-0.085088715 0.168148 0.52705353 -0.5832989 -0.45068964 0.1102935 0.52750015 0.0568657
0.087450646 0.030203959 -0.68843794 0.07310049 -0.009873917 -0.2254764 -2.868216 -0.52661926
-0.23501542 -0.20534165 -1.3618306 -0.8756351 -0.2652756 -0.5303961 -0.9778861 -0.39463124
-0.3622973 -0.1733257 0.51373047 -0.11867875 0.10998489 0.22073878 0.09997913 -0.19829683
0.026856564 -0.49464542 -0.34137902 -0.34028798 -0.12363857 -0.41772252 -0.71288526 -0.3951616
0.021356573 -0.45022464 -2.3530965 -0.4066318 0.29847297 -0.44561696 -0.59618044 -0.23201127
-0.032499786 -0.49815634 -4.195969 -0.8096418 -0.15856488 -0.2813007 -0.7501581 -0.21879773
-1.321406 -0.3223144 -0.71998364 -0.23077033 -0.09604042 0.21622887 -0.04766107 0.5056312
-0.22686526 -0.37721953 -0.006610531 -0.3681153 -0.27674767 -0.23409508 1.0495247 0.11620943
0.74622226 0.8090908 0.661349 0.3367306 -0.49206164 0.13846801 0.8393286 0.10231119
-0.49414453 -0.70114076 -0.46239406 -0.23110135 -0.23606417 0.21401751 -0.5025485 0.020015614
0.43484634 0.21697523 -0.11892998 0.22727242 -0.31033045 0.3810055 -0.45922345 0.42531824
0.25005057 0.038146 0.48985192 0.25559378 -0.08282867 -0.18133958 -0.44596717 -0.033490356
0.14499223 -0.25096452 -3.1451437 -0.26789412 -0.082979165 0.50099397 1.6528199 0.68532306
-0.37026197 0.28430566 -0.5836218 0.014479196 -0.21593778 0.21132609 -0.25400516 0.2727794
0.056702692 -0.03149541 0.44743404 -0.31690463 0.022832796 -0.40383735 0.9315866 -0.28251362
-0.049235415 0.40855753 -0.32615423 0.0099167805 0.29461074 -0.53676355 -0.07107544 -0.34509626
-0.111028224 -0.17153025 -0.6930657 -0.048330195 0.20270808 -0.90899223 -2.2603495 -0.8576814
00000000: 3b40 953e 4044 1b3e 5388 80bf 95ae bc3d
00000010: ef2c 813d 0673 ef3e 894b 1140 5f5d e33e
00000020: 37b5 ef3e b742 2c3e 2a24 853f bb20 d13e
00000030: e3e2 88be 5676 173e 017e b7be a718 3b3c
00000040: ec43 4b3f 22f1 463f 1756 843d 2ec4 db3e
00000050: ed15 c43e 7422 863f d7ec 6040 4bf4 5e3f
00000060: 37c9 fa3e 54f0 893e 7ee6 7a3f b683 dc3e
00000070: 7543 2bbf f3f3 ca3e 7cda 003e 5503 b83e
00000080: bfdf 9fbe cea3 14be ccf4 febe 7228 8bbe
00000090: 600f 9bbe 5f32 233f efcd 57bd 04db a33d
000000a0: 5984 693e 83ad 523e d35f c93e ca86 abbd
000000b0: d38f 57be a056 7a3d 9cbe 8ebd f1ef 373e
000000c0: 2a7d 5abe 904f 5d3e bd3d 9dbd 88ee 773e
000000d0: 7beb f33d 7650 b6bd dadc c2bd 53f9 2fbe
000000e0: f803 75bf 64e6 76bf dc3d f2bf b922 1abf
000000f0: fb72 9e3f 7520 903f b3de 2940 328a 793f
00000100: dc3a 59bd fbad 96be 6848 07c0 514b 92be
00000110: 2014 cc3d 291d aa3e fd80 38bf 784c 0d3d
00000120: ebd8 773e 4bf8 8dbf 6f9d 2740 20c0 403f
00000130: b478 cfbe 00cd 18bf 5d6e 9ebf 963b 4ebf
00000140: 07ea 4dbe 22a5 a9be f2b4 9bbf 9f13 91be
00000150: d2ae 123f 2fba 833e 2866 6e3e 515a 8d3e
00000160: 421b 953d b207 33be 5e28 53be ad52 15bc
00000170: 3141 553e 06c5 58bd 4a10 81bf 9115 dfbd
00000180: 47aa 463f 6a09 483c 4d4a 26bf cfdd bdbd
00000190: 7e95 ee3c 6734 a03f f85b 313f 216c 1e3f
000001a0: 26a9 17bf 5acf 0bbf 9fd6 00bf 2868 cebe
000001b0: 2750 713e 963f e03e 9d8e fd3f 631e c83e
000001c0: fe42 aebd fd2e 2c3e fbec 063f 1453 15bf
000001d0: cbc0 e6be 8fe1 e13d 400a 073f 02ec 683d
000001e0: 5319 b33d 4b6e f73c 783d 30bf b6b5 953d
000001f0: 36c6 21bc 49e3 66be da90 37c0 85d0 06bf
00000200: e2a7 70be 1545 52be 7750 aebf 9f29 60bf
00000210: 34d2 87be 0ac8 07bf be56 7abf 1b0d cabe
00000220: 087f b9be 4b7c 31be d783 033f d80d f3bd
00000230: c23f e13d 5909 623e dcc1 cc3d 530e 4bbe
00000240: 4c02 dc3c 2a42 fdbe 3bc9 aebe 3a3a aebe
00000250: 3836 fdbd badf d5be a67f 36bf 9f52 cabe
00000260: fbf3 ae3c d883 e6be 2299 16c0 0b32 d0be
00000270: 73d1 983e e827 e4be 489f 18bf 5d94 6dbe
00000280: 7f1e 05bd 590e ffbe 6145 86c0 af44 4fbf
00000290: d55e 22be a506 90be 5c0a 40bf 830c 60be
000002a0: d523 a9bf 6506 a5be d950 38bf 0f4f 6cbe
000002b0: d7b0 c4bd 1a6b 5d3e 4138 43bd 0c71 013f
000002c0: 5e4f 68be eb22 c1be 279d d8bb 9c79 bcbe
000002d0: dfb1 8dbe 9fb6 6fbe d356 863f 36ff ed3d
000002e0: 6c08 3f3f 9320 4f3f 2b4e 293f f467 ac3e
000002f0: 81ef fbbe 8fca 0d3e 3dde 563f 8788 d13d
00000300: 8300 fdbe f67d 33bf eabe ecbe d5a5 6cbe
00000310: ceba 71be 6827 5b3e 05a7 00bf c9f7 a33c
00000320: 2ea4 de3e c12e 5e3e 9091 f3bd 1aba 683e
00000330: a2e3 9ebe 2713 c33e 561f ebbe 50c3 d93e
00000340: a106 803e fb3e 1c3d dfcd fa3e 30dd 823e
00000350: 14a2 a9bd 15b1 39be cf55 e4be 2f2d 09bd
00000360: d878 143e 6c7e 80be 094a 49c0 6b29 89be
00000370: fbf0 a9bd 2441 003f 9a8f d33f 5571 2f3f
00000380: fa92 bdbe 8390 913e 3d68 15bf 263a 6d3c
00000390: cb1e 5dbe de65 583e f70c 82be bea9 8b3e
000003a0: 1541 683d 5501 01bd 1316 e53e 5341 a2be
000003b0: d80b bb3c c5c3 cebe 767c 6e3f a0a5 90be
000003c0: 13ab 49bd 742e d13e b0fd a6be fe79 223c
000003d0: 38d7 963e 5669 09bf 0090 91bd 75b0 b0be
000003e0: c462 e3bd a0a5 2fbe c16c 31bf e2f5 45bd
000003f0: b592 4f3e b7b3 68bf 91a9 10c0 0291 5bbf

linear.bias f4 [512]
-0.76589257 0.41689515 0.14472994 0.8573825 1.0300139 -0.91283476 -1.171498 -1.2553169
1.0996302 1.0356952 0.6836181 0.9056813 0.83409417 0.858139 0.23892212 -0.35657555
0.7690726 1.2179513 -0.86071247 0.3558632 -0.51006305 -1.3379679 0.58861184 1.0105131
-0.14423113 1.2044755 0.5565627 0.62748563 1.117187 -1.1149324 0.72237796 0.58285373
0.554397 -0.6588798 -1.255214 1.168953 0.46182215 0.7661733 -0.9369371 0.9295414
0.663829 -0.3971937 0.28662685 0.90545964 0.9765441 -1.2134472 -0.5679089 -1.2249023
0.38914317 0.74835485 -1.0325623 1.0240186 -0.6432016 0.58609706 -0.67726386 0.6393348
1.0392574 0.9054765 1.0787696 0.53912675 1.0473508 0.92671937 0.62925637 0.06694664
0.9334748 0.9354958 0.6180182 -1.0833875 0.4589354 1.1289916 0.95148224 0.7026822
-0.5557803 0.8608864 0.5686464 -0.28320283 -0.46932143 0.84970164 1.0624702 0.49659783
0.9796654 0.74728316 0.7396315 -0.39416555 -1.2360035 0.54801047 0.84601694 0.8135796
0.9014898 0.34553996 0.9833482 1.1975546 -1.0259101 1.0384673 -1.3557488 -1.43619
0.30436483 0.34293872 0.7512238 0.7272073 -1.1768975 0.6535713 0.99227554 1.04732
0.6759523 0.6504434 0.8765299 0.22589901 0.8995037 -0.7947326 0.1817219 0.84072477
0.9616487 -0.33477625 -1.2033216 0.46850726 -1.2542442 -1.1912661 0.9406797 0.76062065
0.046010174 1.0045009 -0.952138 0.6166958 0.864919 0.53799075 -0.68541694 0.79265755
0.8656124 -0.8373945 0.7326547 0.206927 0.6553378 0.505365 0.87380725 -0.5784263
1.2584746 1.2351215 0.79818 0.67899936 0.84357727 0.51527023 -0.038067732 -1.0193458
-0.48922205 -0.78693974 0.33740845 1.1467527 0.76966053 -1.1164578 0.01991898 -0.8533598
0.9685538 -1.5091547 0.97637635 1.1409141 -0.8789168 0.9124165 -0.5150864 -0.7665795
-0.8525311 0.54820365 0.36663276 1.0856197 1.0874974 -0.19713837 1.0275741 0.950066
0.866512 -0.27474087 0.4826233 -1.2926608 1.0644255 -1.6685756 -0.05497514 -0.042058963
0.49245754 -0.61110973 1.0160979 0.02516768 1.1659507 -1.0755714 0.7399896 0.62848896
0.6940551 0.58366495 -1.7576339 0.8644591 1.1283388 1.0357807 1.0631247 0.6742194
-0.6918526 -1.2851954 -0.93587184 0.41014922 -0.66557354 0.860463 1.1168827 0.5321114
0.6087772 -1.5557414 0.745889 0.9921064 1.0196261 1.1000735 1.2442964 0.26264176
0.89148754 0.4153715 0.8902358 1.0818417 0.3710748 -0.7441643 0.95055985 1.0792766
0.9577504 0.46212116 0.78646517 0.8582009 -0.52374285 -0.60251373 1.0993937 0.9438722
0.7905027 0.9911552 -0.4892667 0.84542286 -0.2660393 0.23050445 0.6660003 0.8857461
1.1243778 -0.9982978 0.3981206 0.6052713 0.8984578 -0.44321105 -1.3420027 0.48335686
0.17841902 -0.79047436 0.9032167 -0.19995229 1.0148442 0.6905746 0.8036781 0.5163243
0.6777282 0.76896834 0.89248645 -0.6868357 0.11191355 -0.23092811 0.16801457 0.96325064
00000000: 8911 44bf 4873 d53e 1634 143e 6b7d 5b3f
00000010: 7fd7 833f 8aaf 69bf a5f3 95bf 39ae a0bf
00000020: afc0 8c3f a991 843f 9901 2f3f bbda 673f
00000030: 3287 553f ffae 5b3f 00a8 743e 1291 b6be
00000040: f1e1 443f d4e5 9b3f a757 5cbf b433 b63e
00000050: 7e93 02bf 8842 abbf 44af 163f 7e58 813f
00000060: 53b1 13be 412c 9a3f e57a 0e3f e6a2 203f
00000070: fcff 8e3f 1bb6 8ebf c3ed 383f e735 153f
00000080: f6ec 0d3f 59ac 28bf daaa a0bf 40a0 953f
00000090: f473 ec3e ef23 443f 1cdb 6fbf 6df6 6d3f
000000a0: b3f0 293f f95c cbbe c1c0 923e 34cc 673f
000000b0: cbfe 793f 3d52 9bbf 7a62 11bf 99c9 9cbf
000000c0: c63d c73e 2f94 3f3f 002b 84bf 0b13 833f
000000d0: dca8 24bf 750a 163f 2a61 2dbf 72ab 233f
000000e0: 6306 853f 4fcd 673f 1f15 8a3f 3604 0a3f
000000f0: 970f 863f 7b3d 6d3f f216 213f 521b 893d
00000100: 34f8 6e3f a77c 6f3f 7136 1e3f 71ac 8abf
00000110: 95f9 ea3e cc82 903f 5794 733f fbe2 333f
00000120: 9e47 0ebf 0d63 5c3f cf92 113f f6ff 90be
00000130: e64a f0be 0c86 593f 06ff 873f 1242 fe3e
00000140: 5acb 7a3f f34d 3f3f 7d58 3d3f 11d0 c9be
00000150: 5d35 9ebf 6a4a 0c3f 9194 583f c146 503f
00000160: 09c8 663f 9dea b03e b5bc 7b3f 7849 993f
00000170: 0651 83bf 7fec 843f 2d89 adbf 13d5 b7bf
00000180: b5d5 9b3e aa95 af3e 3450 403f 422a 3a3f
00000190: 94a4 96bf 7350 273f c505 7e3f 950e 863f
000001a0: 360b 2d3f 7583 263f 4364 603f 1252 673e
000001b0: e045 663f 9873 4bbf 4e15 3a3e bd39 573f
000001c0: 9c2e 763f cb67 abbe 7106 9abf 2fe0 ef3e
000001d0: 138b a0bf 687b 98bf 63d0 703f 09b8 423f
000001e0: 2a75 3c3d 7c93 803f 51bf 73bf c7df 1d3f
000001f0: 556b 5d3f c3b9 093f 7c77 2fbf 9beb 4a3f
00000200: c698 5d3f 7c5f 56bf 428f 3b3f ace4 533e
00000210: 38c4 273f 9a5f 013f d5b1 5f3f bf13 14bf
00000220: b215 a13f 7618 9e3f 8655 4c3f e7d2 2d3f
00000230: aef4 573f c0e8 033f e9ec 1bbd ec79 82bf
00000240: 507b fabe e274 49bf cdc0 ac3e cbc8 923f
00000250: 7908 453f 17e8 8ebf 212d a33c ca75 5abf
00000260: 24f3 773f fb2b c1bf cdf3 793f 7909 923f
00000270: b100 61bf 2194 693f b4dc 03bf 8e3e 44bf
00000280: 7a3f 5abf 1357 0c3f 4ab7 bb3e 96f5 8a3f
00000290: 1d33 8b3f a4de 49be 8c87 833f 8637 733f
000002a0: bbd3 5d3f d6aa 8cbe 671a f73e e975 a5bf
000002b0: 183f 883f e393 d5bf 9d2d 61bd 0546 2cbd
000002c0: 6523 fc3e b071 1cbf 7f0f 823f 732c ce3c
000002d0: df3d 953f 53ac 89bf f56f 3d3f a7e4 203f
000002e0: 98ad 313f 116b 153f 26fa e0bf 314d 5d3f
000002f0: 686d 903f 7694 843f 7814 883f a599 2c3f
00000300: 411d 31bf 4881 a4bf 4c95 6fbf 14ff d13e
00000310: 0763 2abf 4e47 5c3f 03f6 8e3f 7438 083f
00000320: d3d8 1b3f 8922 c7bf 95f2 3e3f affa 7d3f
00000330: 1c83 823f 35cf 8c3f 1b45 9f3f fb78 863e
00000340: 8738 643f 93ab d43e 7ee6 633f ca79 8a3f
00000350: 84fd bd3e 8d81 3ebf e457 733f bc25 8a3f
00000360: 212f 753f 259b ec3e c855 493f 0eb3 5b3f
00000370: 0314 06bf 573e 1abf efb8 8c3f 9ca1 713f
00000380: 635e 4a3f 59bc 7d3f 2a81 fabe a26d 583f
00000390: 4e36 88be 5c09 6c3e ff7e 2a3f 42c0 623f
000003a0: 9deb 8f3f 7290 7fbf 77d6 cb3e 0ff3 1a3f
000003b0: 5501 663f 8fec e2be bfc6 abbf 8d7a f73e
000003c0: 7ab3 363e 875c 4abf 3639 673f 4bc0 4cbe
000003d0: 6ae6 813f 7fc9 303f d9bd 4d3f d42d 043f
000003e0: 987f 2d3f 1cdb 443f fe79 643f 77d4 2fbf
000003f0: ee32 e53d 6b78 6cbe 030c 2c3e 9897 763f

linear2.weight f4 [2, 512]
-1.8079798 -2.9216669 -0.14060134 0.48600543 1.0956771 -3.0689752 -0.8212656 1.9605803
0.70720345 0.6419192 -1.4321939 0.44618803 0.3950062 0.7021011 0.508975 0.5887396
-0.133507 0.6795634 0.9578481 1.8015509 -1.564199 -1.8764018 0.27021572 0.6766489
0.7216592 1.1473165 0.70456004 -2.386589 0.8007878 -2.9279294 0.37777406 -0.39336
-0.94627094 -1.5762763 -2.1238446 0.6308184 0.9926484 0.74859416 1.1148272 0.34984106
-1.5778044 -1.7594032 1.0397891 -0.46615157 0.63031304 -2.2486005 -1.4633638 -3.657705
0.86958146 0.70331377 -1.8409635 0.46704412 -0.37500235 0.46380082 -1.5534196 -0.4902734
0.6498262 0.3879169 0.8313977 1.6706961 0.65923446 0.3627542 0.5152598 0.7395964
0.8471883 0.34455252 0.36364144 -1.1081631 -1.6280962 -0.7290222 0.3997967 0.6199883
-0.99232316 0.6034417 -1.5010833 1.2988876 -1.1879894 0.6211465 0.3194025 0.7799303
0.5423463 -1.9366773 -1.7460994 0.767201 -1.532209 1.1058182 -1.7018448 0.40645602
0.53106904 2.0162559 0.4581702 0.8064076 -0.47014657 0.6101428 -2.419896 -2.360638
-0.08327119 -1.3590744 0.41755226 1.8467394 -2.2280405 0.9831062 0.68015623 0.61826354
0.7473444 0.43263572 0.41034734 -1.5992965 0.44458392 -1.2820711 -0.49796188 -0.54127896
0.39346683 0.5582694 -1.6333076 1.4667741 -2.330934 -2.4474313 0.643551 0.49558127
-1.041889 0.65238774 -0.70675075 -2.2052608 -1.1663237 0.66396594 -0.54955167 0.4596408
0.5297295 -3.1617033 -1.3189694 -0.30592614 -1.3610222 1.1494781 0.5343265 -1.7619102
-1.6381627 0.74737555 0.36038184 0.9410005 0.4346018 -0.6138987 -0.8587681 -0.28672147
0.9640488 1.5729684 0.5881396 0.82841367 -0.15119916 -2.902129 -0.7419799 -1.7898461
0.7248025 -2.7620451 0.47348624 0.7576185 -0.8456534 0.4466208 -0.009476103 -0.48322794
-1.0646918 -0.8767115 0.9813157 -1.7450311 0.6626175 -0.7579492 0.54302764 0.6525928
0.43104532 -0.6419249 1.0268672 -2.3634267 0.6739687 -2.4178028 -1.1977111 2.1192703
-2.9975364 -1.558541 0.60178024 -2.1644151 0.47854912 -1.0520626 0.6879967 -1.8458953
0.69239724 -0.81077033 -1.8976325 0.5095409 0.9299479 0.8424906 0.3551692 0.24889714
-1.0656723 -2.7199883 -1.2257547 1.2831074 -0.18371959 0.40621805 -1.1376158 0.96330297
-0.865154 -2.404487 0.7792274 0.31277236 0.68239754 0.34674412 -1.416394 0.83569336
0.39562595 -0.39435598 -1.5670105 0.33997357 -1.1823343 1.4613794 0.6423222 0.698267
0.35496312 -1.6910063 0.48451826 0.8922984 -0.884874 -1.7913595 0.44633806 0.60870343
0.44454774 0.6805486 1.3454585 0.55378014 -2.4122896 -0.9825113 0.64559525 0.51440686
0.7631268 -1.2867043 -0.76821387 0.3635748 0.7614784 1.0864145 -1.1478678 0.5439793
-2.1249168 -1.1885085 0.7027207 1.8918635 1.2595894 0.583512 0.4270438 -1.5330546
0.38504303 0.5133828 0.66043395 -2.823044 -1.5364984 -1.059187 -0.22129102 0.3240509
00000000: e26b e7bf 97fc 3ac0 ccf9 0fbe b4d5 f83e
00000010: 263f 8c3f 176a 44c0 763e 52bf 4cf4 fa3f
00000020: 490b 353f d154 243f 2152 b7bf c272 e43e
00000030: 413e ca3e e6bc 333f 304c 023f a3b7 163f
00000040: 0fb6 08be def7 2d3f 8835 753f 3899 e63f
00000050: ac37 c8bf ef2d f0bf b759 8a3e dd38 2d3f
00000060: a8be 383f 44db 923f 0c5e 343f e0bd 18c0
00000070: 6e00 4d3f 3263 3bc0 9a6b c13e 7b66 c9be
00000080: d03e 72bf 6cc3 c9bf 12ed 07c0 517d 213f
00000090: 351e 7e3f dea3 3f3f a8b2 8e3f 5e1e b33e
000000a0: 7ff5 c9bf 2034 e1bf cf17 853f 6bab eebe
000000b0: 325c 213f 12e9 0fc0 814f bbbf d717 6ac0
000000c0: e49c 5e3f 5f0c 343f b1a4 ebbf 6820 ef3e
000000d0: 4f00 c0be 4d77 ed3e 74d6 c6bf 1d05 fbbe
000000e0: 035b 263f 0b9d c63e 7bd6 543f 5fd9 d53f
000000f0: 97c3 283f ebba b93e 11e8 033f 3156 3d3f
00000100: 55e1 583f 3069 b03e 362f ba3e 4ad8 8dbf
00000110: 7565 d0bf 33a1 3abf 27b2 cc3e 8eb7 1e3f
00000120: e408 7ebf 287b 1a3f 7f23 c0bf f341 a63f
00000130: 0910 98bf 7503 1f3f b988 a33e 83a9 473f
00000140: 35d7 0a3f 0be5 f7bf 2f80 dfbf 4967 443f
00000150: 6d1f c4bf 738b 8d3f 0dd6 d9bf 011b d03e
00000160: 24f4 073f 560a 0140 4995 ea3e ba70 4e3f
00000170: 0db7 f0be 5232 1c3f 93df 1ac0 b114 17c0
00000180: 168a aabd 26f6 adbf 69c9 d53e f561 ec3f
00000190: 3798 0ec0 d9ac 7b3f b81e 2e3f 8546 1e3f
000001a0: f651 3f3f 6e82 dd3e 0c19 d23e bfb5 ccbf
000001b0: 81a0 e33e e81a a4bf dcf4 febe 4291 0abf
000001c0: 7c74 c93e beea 0e3f 3910 d1bf 41bf bb3f
000001d0: 062e 15c0 b7a2 1cc0 c2bf 243f d4bc fd3e
000001e0: 9e5c 85bf e202 273f 9eed 34bf fe22 0dc0
000001f0: 184a 95bf acf9 293f 6baf 0cbf 0a56 eb3e
00000200: 5a9c 073f 5959 4ac0 fdd3 a8bf 5aa2 9cbe
00000210: fa35 aebf 1922 933f 9fc9 083f 4686 e1bf
00000220: 51af d1bf 0154 3f3f f883 b83e 69e5 703f
00000230: 2184 de3e 7728 1dbf 3ad8 5bbf 28cd 92be
00000240: e7cb 763f 0757 c93f 5190 163f eb12 543f
00000250: f4d3 1abe 7bbc 39c0 65f2 3dbf ad19 e5bf
00000260: a88c 393f 59c5 30c0 ca6c f23e 49f3 413f
00000270: be7c 58bf 7bab e43e a841 1bbc a769 f7be
00000280: d247 88bf 2a70 60bf 8137 7b3f 2e5d dfbf
00000290: 4da1 293f f508 42bf dc03 0b3f 5210 273f
000002a0: f9b1 dc3e 3155 24bf 6270 833f 6242 17c0
000002b0: 3689 2c3f 48bd 1ac0 994e 99bf 20a2 0740
000002c0: a3d7 3fc0 467e c7bf 450e 1a3f c785 0ac0
000002d0: 6404 f53e fda9 86bf 8d20 303f 4c46 ecbf
000002e0: f240 313f a58e 4fbf 9fe5 f2bf 4671 023f
000002f0: 1111 6e3f 77ad 573f bdd8 b53e e4de 7e3e
00000300: f367 88bf 4a14 2ec0 88e5 9cbf dd3c a43f
00000310: fd20 3cbe d0fb cf3e 659d 91bf 069b 763f
00000320: bc7a 5dbf 1de3 19c0 727b 473f b323 a03e
00000330: 9bb1 2e3f 7288 b13e 664c b5bf 00f0 553f
00000340: 7c8f ca3e 07e9 c9be cd93 c8bf 0411 ae3e
00000350: bb56 97bf 7b0e bb3f 3a6f 243f a0c1 323f
00000360: babd b53e e572 d8bf c712 f83e ab6d 643f
00000370: 1a87 62bf 454b e5bf 6c86 e43e fdd3 1b3f
00000380: c39b e33e 6f38 2e3f fc37 ac3f 89c4 0d3f
00000390: f462 1ac0 dc85 7bbf bb45 253f 2bb0 033f
000003a0: 475c 433f bab2 a4bf aaa9 44bf 7a26 ba3e
000003b0: 40f0 423f a10f 8b3f 55ed 92bf 3a42 0b3f
000003c0: a3fe 07c0 0c21 98bf 81e5 333f 9528 f23f
000003d0: 3a3a a13f 0b61 153f 7ca5 da3e 223b c4bf
000003e0: 5c24 c53e 0e6d 033f 3312 293f c1ac 34c0
000003f0: fbab c4bf 7193 87bf 1d9a 62be 00ea a53e

linear2.bias f4 [2]
0.36770037 0.30893922
00000000: 3943 bc3e 482d 9e3e
