code/log/dqn/ckpt/170000.pth (torch, 15775 bytes, 4 tensors)

linear.weight f4 [512, 4]
-0.1448043 -0.5726101 -2.268944 -0.79369915 -0.5094492 -0.09300357 0.38059267 0.15140161
1.0284202 0.19562691 -0.09835114 0.5477341 -0.2829126 -0.16543922 -0.018485732 -0.017307421
0.07190243 -0.09815467 -0.6162485 -0.06326038 0.14137456 0.76319927 1.5932144 0.5394311
-0.0077918707 -0.35744664 -1.6656896 -0.87096775 -0.060259853 0.06631571 -0.087176464 0.18747942
-0.31679216 -0.2787888 -0.18577565 -0.21368426 -0.4133759 0.516266 0.12192877 0.013491251
-0.20143221 -0.74411255 -1.8995032 -0.75719017 -0.18084455 -0.1531595 0.3661284 0.20733373
-0.16830169 0.05264166 0.32423526 0.2725758 0.03377153 -0.12597403 0.14069188 -0.23488523
-0.033661127 -0.70889515 -2.384479 -0.76527613 0.14966635 0.04897488 2.0173912 0.13603093
-0.11267025 0.031596858 0.12957768 -0.12625623 -0.07340688 0.19377545 -0.59558207 -0.068057604
0.3267067 0.6721323 1.2146053 0.49775338 0.060172565 -0.40773752 0.14897801 -0.05437053
-0.44209564 -0.3794134 -1.1614107 -0.42604628 0.47577006 -0.31094682 -1.1848174 -0.35401437
0.15576002 -0.30327943 0.19229862 0.027321082 0.14719841 -0.12390332 -0.73704326 -0.15163775
0.58246 -0.09438884 -1.085569 -0.69757974 0.5197272 0.46985662 -0.8823079 0.151014
-0.40639785 -0.06422334 -0.2207187 -0.111795485 0.18786317 0.53673583 1.3459648 0.45584765
-0.20334238 0.010779031 0.1431536 -0.15891132 -0.43366662 -0.29748392 0.29895458 0.018812727
0.23666129 -0.16780123 0.6624735 -0.33918098 -0.31751916 -0.64835197 -1.7304175 -0.51066667
-0.5037402 -0.82814354 -0.8749629 -0.11112485 -0.48148534 -0.40120202 -0.8334199 -0.2812441
-0.26678613 -0.22161147 1.225124 0.22612204 0.48494902 0.59587544 0.042276304 -0.010081564
-0.5061005 -0.5031007 -0.93843997 -0.30695453 -0.0699689 -0.39941633 -0.29365703 -0.070351765
-0.27818027 -0.29285946 -1.1417941 -0.91240865 0.2869565 -0.5194686 -0.09552804 -0.12719792
-0.03278047 -0.79160786 -2.3603287 -0.7142247 -0.40640506 -0.33682144 -0.1935839 -0.13146038
-0.6655425 0.007962406 0.20740737 -0.40193397 0.51559544 0.3708846 0.3840995 0.5079453
-0.17764509 -0.4010103 0.42740157 -0.35811904 -0.2622034 -0.30317003 1.481362 0.11557476
1.3255032 0.108084604 -0.10394018 0.50555056 -0.756153 0.009319946 0.102207504 0.21294525
-0.29426038 -0.087094724 -0.25226036 -0.06606883 -0.29925358 0.17288728 -0.35243502 0.03352217
0.17204452 -0.14156702 -1.9337689 -0.6447534 -0.3157231 0.29005855 -0.06806428 0.46228972
0.17434801 0.105134614 -0.019187428 -0.15966964 0.00035817368 -0.1758246 0.07290198 0.051771794
-0.41660798 -0.679119 -0.945838 -0.4262974 0.8220318 0.43771324 0.42828247 0.2101599
-0.40888304 0.12704268 -0.25086483 -0.07164332 -0.24739292 -0.0076663746 0.2141512 0.28813255
-0.0077122315 0.006490065 0.09629756 -0.19755903 0.27745897 -0.5151683 -0.52993786 0.55258566
-0.17713083 0.23063369 -0.26446036 -0.026995003 0.23423739 -0.62699777 0.33169213 -0.348409
-0.06292496 -0.17769332 -0.20814799 0.044975083 0.47308695 -0.060852773 0.07232243 -0.111171186
00000000: 9447 14be 9396 12bf 6136 11c0 de2f 4bbf
00000010: 436b 02bf a878 bebd 0bdd c23e 0609 1b3e
00000020: 46a3 833f 6c52 483e 536c c9bd 4d38 0c3f
00000030: ecd9 90be e668 29be 646f 97bc 4bc8 8dbc
00000040: 9541 933d 5105 c9bd 76c2 1dbf a88e 81bd
00000050: 7ec4 103e 0761 433f 73ee cb3f 2818 0a3f
00000060: f352 ffbb 3f03 b7be 5135 d5bf bef7 5ebf
00000070: 09d3 76bd 88d0 873d 9389 b2bd 9bfa 3f3e
00000080: 9532 a2be 68bd 8ebe f93b 3ebe 0cd0 5abe
00000090: 02a6 d3be 022a 043f cab5 f93d 680a 5d3c
000000a0: 3f44 4ebe 297e 3ebf ec22 f3bf 37d7 41bf
000000b0: 502f 39be d8d5 1cbe 2f75 bb3e 4b4f 543e
000000c0: 4757 2cbe c89e 573d 2a02 a63e 0e8f 8b3e
000000d0: 0454 0a3d 56ff 00be 8811 103e c185 70be
000000e0: 40e0 09bd 277a 35bf 4e9b 18c0 23e9 43bf
000000f0: 2342 193e e299 483d f01c 0140 b14b 0b3e
00000100: a9bf e6bd b56b 013d 03b0 043e 5049 01be
00000110: 5956 96bd 126d 463e 1178 18bf c961 8bbd
00000120: 1a46 a73e dd10 2c3f 3078 9b3f 88d9 fe3e
00000130: 8277 763d f9c2 d0be b18d 183e a2b3 5ebd
00000140: 5c5a e2be 7942 c2be 1ba9 94bf bd22 dabe
00000150: 2298 f33e 6c34 9fbe 19a8 97bf 5f41 b5be
00000160: 8e7f 1f3e 7147 9bbe eee9 443e 76d0 df3c
00000170: 2ebb 163e 06c1 fdbd deae 3cbf ed46 1bbe
00000180: 191c 153f f04e c1bd edf3 8abf 9694 32bf
00000190: d70c 053f 0c91 f03e eede 61bf 6aa3 1a3e
000001a0: 6113 d0be 8787 83bd 1504 62be 08f5 e4bd
000001b0: 345f 403e 8567 093f 9348 ac3f dd64 e93e
000001c0: fc38 50be 889a 303c db96 123e a6b9 22be
000001d0: 8d09 debe d04f 98be 9310 993e 261d 9a3c
000001e0: 5657 723e 16d4 2bbe dd97 293f 21a9 adbe
000001f0: df91 a2be 65fa 25bf 527e ddbf 0dbb 02bf
00000200: 1ef5 00bf 3701 54bf 92fd 5fbf 6d95 e3bd
00000210: 3f85 f6be 5a6a cdbe 025b 55bf 3aff 8fbe
00000220: 3198 88be 1eee 62be ddd0 9c3f 898c 673e
00000230: 3d4b f83e 4b8b 183f eb29 2d3d 252d 25bc
00000240: cd8f 01bf 35cb 00bf 9a3d 70bf 2529 9dbe
00000250: db4b 8fbd 4c80 ccbe 375a 96be 9614 90bd
00000260: a56d 8ebe adf1 95be 4f26 92bf 9d93 69bf
00000270: f6eb 923e e5fb 04bf 34a4 c3bd 2c40 02be
00000280: d044 06bd d0a6 4abf a00f 17c0 6ed7 36bf
00000290: 5314 d0be dc73 acbe dc3a 46be 8d9d 06be
000002a0: fe60 2abf c074 023c 9962 543e 4aca cdbe
000002b0: 10fe 033f 96e4 bd3e b1a8 c43e b408 023f
000002c0: 98e8 35be 3951 cdbe 61d4 da3e 615b b7be
000002d0: 863f 86be 1a39 9bbe 459d bd3f 76b2 ec3d
000002e0: 17aa a93f 765b dd3d 97de d4bd c36b 013f
000002f0: 3e93 41bf b0b2 183c 2b52 d13d 520e 5a3e
00000300: 4ca9 96be b85e b2bd 4528 81be 184f 87bd
00000310: c437 99be 5d09 313e 5d72 b4be 8b4e 093d
00000320: 702c 303e f2f6 10be bd85 f7bf 8f0e 25bf
00000330: 75a6 a1be 8e82 943e 4965 8bbd 3db1 ec3e
00000340: 4988 323e d150 d73d f42e 9dbc 7080 23be
00000350: 42c9 bb39 5d0b 34be a24d 953d a90e 543d
00000360: a44d d5be beda 2dbf 7022 72bf a743 dabe
00000370: ad70 523f f31b e03e d747 db3e 2834 573e
00000380: 1e59 d1be 7a17 023e 5b71 80be bcb9 92bd
00000390: 9254 7dbe 3636 fbbb 744a 5b3e 1c86 933e
000003a0: e3b6 fcbb 9caa d43b a837 c53d ea4c 4abe
000003b0: 1a0f 8e3e 12e2 03bf 02aa 07bf 4176 0d3f
000003c0: c961 35be 3d2b 6c3e 5967 87be a024 ddbc
000003d0: eddb 6f3e ed82 20bf 8dd3 a93e aa62 b2be
000003e0: cdde 80bd 3df5 35be bf24 55be cb37 383d
000003f0: 7438 f23e c240 79bd c81d 943d b8ad e3bd

linear.bias f4 [512]
-0.61753416 -0.832875 -0.27453342 0.9063099 0.7868804 -0.49576896 -0.3960103 0.3271005
1.0854131 0.9176947 -0.5857719 0.69331443 0.73166615 0.7781302 -0.465957 0.38818488
0.43587866 1.0887427 -0.7586071 0.5414064 -0.8370235 -0.50077194 0.552636 0.9219234
-0.8942398 0.78489685 1.0820346 -0.5015629 0.8980781 -0.8632287 0.47695273 -0.6730985
0.07195164 0.68130773 -0.70125216 0.7237528 0.46945673 0.8238206 0.10575163 0.8089714
0.43569452 -0.72692347 -0.09128574 -0.7934874 0.91760004 -0.70324326 -0.17418599 0.5306127
0.8270745 0.64019 0.31234872 0.9249931 -0.6823843 0.52543914 0.33767685 -0.47666568
0.93003565 0.6842225 0.8448478 0.02573563 0.9109889 0.77965987 0.54254144 -0.56154037
0.7416546 0.7869637 0.5375335 0.25872213 -0.71219885 -0.05103853 0.83596194 0.56266934
-0.19290343 0.75341374 0.0045625637 0.026317053 -0.79064983 0.7719555 0.95429176 0.77239376
0.898147 -0.8361878 0.41670966 0.61292684 -0.82797027 0.6227371 0.27884588 0.6925614
0.86833715 -0.43492427 0.9575613 0.9768222 -1.1013701 1.0330545 -0.82825625 -0.7663572
-0.5804985 -0.63714695 0.528368 -0.6294416 -0.6983665 -0.65619236 0.8695764 0.95237315
0.7438996 0.41110888 0.66366833 -0.436383 0.79638267 -0.6777574 -0.94598484 -0.2830004
0.85030335 0.58122844 0.19758011 0.8705629 -0.8460925 -1.0380177 0.7773265 0.05008385
-0.0465273 0.83704364 -0.6962352 -0.6087927 0.7373516 0.76625824 -0.6079754 0.7443962
0.78500485 0.061858166 -0.07975979 0.29616588 -0.6350125 0.13472962 0.76601577 -0.48368955
-0.5889844 1.0636253 0.49440172 0.5555864 0.7522753 -0.6021725 -0.5545821 0.42380476
-0.7713874 -0.16526407 0.48582926 0.9191316 0.14145494 -1.0564293 -0.49593222 -0.7086434
0.82324845 -0.7482052 0.7624181 0.9472586 -0.08251666 0.13339241 -0.6236039 -0.4069624
0.57624555 -0.53768164 0.70055366 0.4480727 0.8915328 -0.7704655 0.92780966 0.83131
0.82201576 0.68141437 0.363279 -0.6983016 0.9650959 -0.9285016 -0.6063907 0.27537653
0.29307398 -0.5656469 1.043636 -0.8920011 0.9701831 -0.40865412 -0.1368054 -0.6506632
0.73121786 0.7097585 -0.9212448 0.81252205 0.88321966 0.89452577 1.0024942 0.5174761
0.3531445 -0.8370954 -0.9343653 -1.0182966 0.4598757 0.76718074 -0.36964256 0.68615013
0.60429925 -0.8540314 0.61448336 0.86001873 0.9060253 0.9528345 -0.4877778 0.34969965
0.76563406 0.2267725 0.23886468 0.97827065 -0.74528617 -0.48135588 0.8963232 0.5868014
0.8117597 -0.37542233 0.086895674 0.8176347 -0.35913458 -0.81869054 0.9066293 0.71615344
0.082384914 0.6352964 0.6171827 0.7850801 0.5983417 -0.5709415 0.5483819 0.5396835
0.91414106 0.86275357 -0.5240535 0.23456348 0.7917097 -0.39162046 -1.2417827 0.61954576
-0.8553696 0.22711314 0.70255053 0.73442733 0.86310226 0.7519921 0.6193071 -0.8866228
0.56830883 0.6866037 0.89391977 -0.7058206 -0.62827176 -0.78795487 -0.5754874 0.837385
00000000: b816 1ebf 4c37 55bf a58f 8cbe ed03 683f
00000010: fe70 493f 6ed5 fdbe ddc1 cabe b779 a73e
00000020: d1ee 8a3f 0aee 6a3f 26f5 15bf 0e7d 313f
00000030: 794e 3b3f 8a33 473f ea91 eebe 2bc0 c63e
00000040: 7d2b df3e ec5b 8b3f 1334 42bf 9c99 0a3f
00000050: 2c47 56bf 9732 00bf 8e79 0d3f 2c03 6c3f
00000060: e6ec 64bf 00ef 483f 1c80 8a3f 6d66 00bf
00000070: 72e8 653f 8efc 5cbf 2633 f43e 2f50 2cbf
00000080: 625b 933d 2f6a 2e3f 4385 33bf dd47 393f
00000090: a25c f03e e8e5 523f 5094 d83d c018 4f3f
000000a0: 5a13 df3e a817 3abf 05f4 babd fe21 4bbf
000000b0: d6e7 6a3f c007 34bf d05d 32be 3cd6 073f
000000c0: 28bb 533f 7ee3 233f 2cec 9f3e 59cc 6c3f
000000d0: bdb0 2ebf 2e83 063f fbe3 ac3e 860d f4be
000000e0: d116 6e3f 3529 2f3f f247 583f 87d3 d23c
000000f0: 9236 693f ca97 473f ffe3 0a3f 1cc1 0fbf
00000100: 13dd 3d3f 7476 493f cc9b 093f 3a77 843e
00000110: aa52 36bf c70d 51bd 9a01 563f 190b 103f
00000120: 7a88 45be b9df 403f 8f81 953b dc96 d73c
00000130: 0768 4abf e09e 453f 774c 743f 99bb 453f
00000140: f6ec 653f 6710 56bf f85a d53e c6e8 1c3f
00000150: dcf5 53bf b36b 1f3f e3c4 8e3e b44b 313f
00000160: 584b 5e3f 65ae debe bd22 753f 0511 7a3f
00000170: b2f9 8cbf 213b 843f 9a08 54bf fc2f 44bf
00000180: 8d9b 14bf 101c 23bf 2043 073f 1623 21bf
00000190: 26c8 32bf 39fc 27bf 8f9c 5e3f bace 733f
000001a0: 3470 3e3f dd7c d23e 2be6 293f 986d dfbe
000001b0: bcdf 4b3f 8281 2dbf 102c 72bf 6ee5 90be
000001c0: 7bad 593f 63cb 143f 7152 4a3e 36dd 5e3f
000001d0: 8599 58bf c4dd 84bf dffe 463f b924 4d3d
000001e0: 6993 3ebd 7e48 563f 783c 32bf d7d9 1bbf
000001f0: 13c3 3c3f 8029 443f 47a4 1bbf c090 3e3f
00000200: 14f6 483f fd5e 7d3d 1a59 a3bd 0ea3 973e
00000210: 2e90 22bf 90f6 093e 9c19 443f 28a6 f7be
00000220: aec7 16bf e024 883f 3922 fd3e e93a 0e3f
00000230: 1d95 403f fa27 1abf 18f9 0dbf f0fc d83e
00000240: a579 45bf fc3a 29be 9dbe f83e 354c 6b3f
00000250: 90d9 103e 1339 87bf d4ea fdbe a769 35bf
00000260: 69c0 523f 608a 3fbf d52d 433f 8a7f 723f
00000270: 7ffe a8bd 0598 083e 81a4 1fbf 605d d0be
00000280: d484 133f 81a5 09bf 7c57 333f c969 e53e
00000290: 7e3b 643f 3a3d 45bf ef84 6d3f bbd0 543f
000002a0: a06f 523f 2c71 2e3f b5ff b93e e5c3 32bf
000002b0: 8610 773f 48b2 6dbf 6c3c 1bbf 27fe 8c3e
000002c0: cb0d 963e 3cce 10bf dd95 853f 2f5a 64bf
000002d0: eb5d 783f 1d3b d1be b716 0cbe dd91 26bf
000002e0: 1831 3b3f bcb2 353f b3d6 6bbf 7201 503f
000002f0: af1a 623f a4ff 643f bb51 803f 5079 043f
00000300: 5bcf b43e e24b 56bf 9032 6fbf 8b57 82bf
00000310: d474 eb3e f565 443f ca41 bdbe 89a7 2f3f
00000320: 5bb3 1a3f cda1 5abf c84e 1d3f 302a 5c3f
00000330: 46f1 673f f6ec 733f 03be f9be d50b b33e
00000340: 9800 443f 0d37 683e f198 743e f26f 7a3f
00000350: 13cb 3ebf 4774 f6be 7075 653f 9e38 163f
00000360: 7ccf 4f3f 5b37 c0be 5cf6 b13d 8250 513f
00000370: 7de0 b7be b495 51bf dc18 683f d555 373f
00000380: 6cb9 a83d c9a2 223f afff 1d3f 02fb 483f
00000390: ec2c 193f 3929 12bf c262 0c3f b328 0a3f
000003a0: 2605 6a3f 6bdd 5c3f 5f28 06bf 6931 703e
000003b0: 7dad 4a3f 7a82 c8be bcf2 9ebf 8d9a 1e3f
000003c0: 81f9 5abf 5990 683e 5ada 333f 6e03 3c3f
000003d0: 45f4 5c3f 8e82 403f e98a 1e3f b6f9 62bf
000003e0: b07c 113f 43c5 2f3f edd7 643f a9b0 34bf
000003f0: 6bd6 20bf 69b7 49bf 2453 13bf dd5e 563f

linear2.weight f4 [2, 512]
-1.4583696 -0.31832197 -0.37392053 0.26304424 0.5738454 -0.8452369 -0.7047464 -0.108954415
0.4606079 0.33407956 -1.7144877 0.1390125 0.24040411 0.5363929 -1.0115552 -0.464713
0.15681122 0.44731444 -0.55699 0.31512403 -1.1998625 -0.81052536 0.21559793 0.46183503
-0.8837496 0.49221668 0.4728196 -0.68939155 0.5866979 -0.7158221 -0.19409454 -0.8811689
-0.21859266 -0.4841422 -0.6385862 0.20312947 -0.24670048 0.45258924 -0.48300824 0.31543383
-0.7276977 -0.6038219 -0.31779683 -0.4337947 0.43383032 -0.9853326 -0.50504756 -0.40033492
0.4536873 0.4029234 -0.6599421 0.29901952 -0.07507688 0.3082699 -0.22392762 -0.10735132
0.36720902 0.0831885 0.6501321 0.3268561 0.3969845 0.39082283 0.3260312 -0.43290693
0.5744929 0.27323148 0.28663102 -0.6084978 -1.2274852 -0.02316995 0.23101325 0.33910435
-0.28165677 0.44749877 0.34930876 0.23953418 -1.0353992 0.41310152 0.29418322 0.34657446
0.35464957 -0.45391238 -0.68222433 0.3431701 -0.4005209 0.28289708 -0.91078866 0.25894827
0.35332844 0.002456726 0.18970999 0.5988121 -1.3415225 0.35646445 -0.36931068 -0.6445024
-1.265378 -1.3267729 0.12641598 -0.4825182 -0.69020486 -0.27168888 0.40939248 0.4125584
0.21466969 0.18848042 0.406688 0.83875436 0.43591124 -0.714502 -0.37509266 0.34710497
0.30292708 -0.3753846 -0.4644619 0.49045426 -0.44243583 -0.8610781 0.51141167 0.34482208
-0.18146372 0.34923273 -1.0281194 -0.33881107 -0.030811863 0.3416014 -0.5376449 0.2929816
0.31973356 0.0959048 0.49794036 -0.2719285 -0.7972501 -0.40404072 0.30483496 -1.0410022
-0.25795776 0.45947635 0.34229383 0.3737675 0.16143991 -0.54642266 -0.79388773 -0.19326451
-1.0084301 -0.22725785 0.15552874 0.6146893 0.28632113 -0.3879291 -0.22544359 -1.3901544
0.4313596 -0.54402465 0.22131361 0.50091034 -0.25466034 0.22692576 -0.17329146 -0.1917779
-0.50346917 -0.19680354 0.5108724 -0.7916609 0.29367307 -2.0195837 0.21103013 0.39920473
0.2760673 -0.6630077 -0.42731336 0.64239985 0.49728766 -0.23104274 -0.62319267 -0.4808411
-0.16584003 -0.8667758 0.37271208 -2.3501108 0.3018149 -0.7985376 0.8857667 -0.3250262
0.4692627 -0.50577956 -0.28344482 0.30944523 0.32596385 0.52631956 0.28724295 0.21043475
-0.5671298 -0.37364683 -0.70732486 -1.290876 -0.68231064 0.35029057 -0.15447736 0.23784162
0.5838799 -0.26195988 0.5737983 0.25086936 0.34160537 0.3844844 -0.5855096 1.0902882
0.2758067 -0.20135707 -0.61829597 0.3149379 -0.49145326 -0.8494156 0.4422644 1.0311216
0.4407278 0.94176924 0.3038599 0.5766474 -0.16841498 -0.38577813 0.17037225 0.24584341
0.24510631 0.49638847 0.47647068 0.32506135 -0.79353535 -0.24149632 0.23563804 0.4130261
0.58144075 -0.6598097 0.7000418 0.2765665 0.5004197 0.016415624 -0.70638394 0.30895734
-1.6533688 -0.5849129 0.42548966 0.99926394 0.42155373 0.3600893 0.3212593 -0.75256747
0.33363548 0.37583908 0.4290056 -1.5364026 -0.52808404 -0.012658388 -0.5574074 0.2511421
00000000: dbab babf 19fb a2be 8372 bfbe bcad 863e
00000010: 88e7 123f 7261 58bf 436a 34bf 7e23 dfbd
00000020: ccd4 eb3e 7a0c ab3e 5574 dbbf 4b59 0e3e
00000030: 7f2c 763e 0c51 093f a47a 81bf ddee edbe
00000040: 1f93 203e 6606 e53e e696 0ebf f057 a13e
00000050: 1895 99bf 977e 4fbf b4c5 5c3e a475 ec3e
00000060: 6a3d 62bf d303 fc3e 6915 f23e f77b 30bf
00000070: d531 163f 1e40 37bf b8c0 46be 4994 61bf
00000080: c1d6 5fbe 7de1 f7be 637a 23bf 2c01 503e
00000090: 0d9f 7cbe c7b9 e73e db4c f7be 8b80 a13e
000000a0: 654a 3abf 1294 1abf 44b6 a2be 571a debe
000000b0: 021f de3e c23e 7cbf cc4a 01bf b3f8 ccbe
000000c0: b449 e83e fa4b ce3e f7f1 28bf 1619 993e
000000d0: e8c1 99bd 8dd5 9d3e 484d 65be 02db dbbd
000000e0: d202 bc3e bb5e aa3d 0f6f 263f af59 a73e
000000f0: 8d41 cb3e ee19 c83e 90ed a63e faa5 ddbe
00000100: f711 133f ffe4 8b3e 4dc1 923e 83c6 1bbf
00000110: 3c1e 9dbf e8ce bdbc bd8e 6c3e 169f ad3e
00000120: 5135 90be 8f1e e53e 99d8 b23e 7348 753e
00000130: f687 84bf 0b82 d33e 2f9f 963e 3572 b13e
00000140: a194 b53e 3467 e8be 41a6 2ebf feb3 af3e
00000150: 1311 cdbe e3d7 903e 7229 69bf de94 843e
00000160: 77e7 b43e 0601 213b 5643 423e c04b 193f
00000170: 02b7 abbf 8282 b63e 4a16 bdbe 1cfe 24bf
00000180: e8f7 a1bf b2d3 a9bf 3173 013e a00c f7be
00000190: 44b1 30bf ce1a 8bbe e49b d13e db3a d33e
000001a0: 5fd2 5b3e 0301 413e 6939 d03e 9bb8 563f
000001b0: c22f df3e 9ae9 36bf 250c c0be beb7 b13e
000001c0: 4219 9b3e 6932 c0be f3cd edbe d21c fb3e
000001d0: f386 e2be 9d6f 5cbf e0eb 023f 858c b03e
000001e0: a0d1 39be a2ce b23e 6b99 83bf a578 adbe
000001f0: 2969 fcbc 61e6 ae3e 19a3 09bf af01 963e
00000200: 1eb4 a33e bc69 c43d 0af2 fe3e 363a 8bbe
00000210: 9518 4cbf 6dde cebe 5413 9c3e 8f3f 85bf
00000220: 0a13 84be 7c40 eb3e 2341 af3e 745e bf3e
00000230: 8150 253e 5be2 0bbf 3a3c 4bbf 22e7 45be
00000240: 3d14 81bf 48b6 68be ed42 1f3e 475c 1d3f
00000250: af98 923e a59e c6be afda 66be 94f0 b1bf
00000260: 2adb dc3e 3345 0bbf 09a0 623e a93b 003f
00000270: d762 82be 3a5f 683e 5173 31be 6d61 44be
00000280: 5be3 00bf de86 49be 89c8 023f 4aaa 4abf
00000290: 515c 963e dc40 01c0 4818 583e 9064 cc3e
000002a0: b158 8d3e dfba 29bf d1c8 dabe 5174 243f
000002b0: 7d9c fe3e 7896 6cbe 8e89 1fbf ce30 f6be
000002c0: f8d1 29be 05e5 5dbf 1ed4 be3e 3768 16c0
000002d0: 7c87 9a3e f66c 4cbf 9bc1 623f d669 a6be
000002e0: 3343 f03e c57a 01bf ae1f 91be 9b6f 9e3e
000002f0: bce4 a63e e1bc 063f 8211 933e 357c 573e
00000300: 6b2f 11bf a34e bfbe 3e13 35bf 6d3b a5bf
00000310: e9ab 2ebf 4959 b33e 502f 1ebe c18c 733e
00000320: 2779 153f 9b1f 86be 72e4 123f f371 803e
00000330: e6e6 ae3e 24db c43e f5e3 15bf 908e 8b3f
00000340: 8936 8d3e 8c30 4ebe a548 1ebf 8a3f a13e
00000350: c39f fbbe 4d73 59bf 7b70 e23e cbfb 833f
00000360: 13a7 e13e ca17 713f 8693 9b3e 2a9f 133f
00000370: fa74 2cbe b684 c5be 1076 2e3e 60be 7b3e
00000380: 26fd 7a3e a126 fe3e f7f3 f33e 716e a63e
00000390: 2225 4bbf d04a 77be 194b 713e 2878 d33e
000003a0: 4dd9 143f 4ae9 28bf f035 333f 209a 8d3e
000003b0: 811b 003f 0f7a 863c 94d5 34bf a82f 9e3e
000003c0: 97a1 d3bf dabc 15bf c8d9 d93e c3cf 7f3f
000003d0: e4d5 d73e a05d b83e 197c a43e 43a8 40bf
000003e0: 45d2 aa3e fb6d c03e 9fa6 db3e d7a8 c4bf
000003f0: 8430 07bf 2165 4fbc 40b2 0ebf b395 803e

linear2.bias f4 [2]
0.26984996 0.2787148
00000000: c629 8a3e b5b3 8e3e
