code/log/dqn/ckpt/213000.pth (torch, 15775 bytes, 4 tensors)

linear.weight f4 [512, 4]
00000000: 35d4 d8bd 4300 1ebf aa12 0fc0 82e9 41bf
00000010: b33a e5be 60e1 91bd 5ffc d93e 1a6b 09be
00000020: 5628 803f 2ccb 41bd d4b8 e6be c21c 073f
00000030: ad56 7bbe eea8 44be bb8d a3bd e96d 34bd
00000040: beb8 e43d c86b f3bd 0ab2 2abf 77b8 8dbd
00000050: 31ed d23d dbb4 3b3f 10b1 d03f 4982 1f3f
00000060: 3446 1dbe 992d b5be dec0 dcbf 36d2 22bf
00000070: d7b3 bebd 0e42 db3c 251a d0bd ba46 1b3e
00000080: 4f9f 8ebe 0335 9bbe 4eec 7bbe ba29 6fbe
00000090: bf54 c1be 2167 fb3e 32cf 7d3d 4392 32bc
000000a0: 0755 05be 37f2 30bf ded3 e1bf be8b 55bf
000000b0: f5e5 12be 13a1 3fbe a58b 9e3e f8a6 2d3e
000000c0: dfa6 06be 1e56 df3c 96e4 863e c0a2 7f3e
000000d0: 8b97 933d 0de5 18be 9f92 aa3d 0102 80be
000000e0: 9606 2abd bfdb 35bf 9542 16c0 e0b6 6abf
000000f0: d73e 9f3d d065 223d 67a7 fe3f bfd0 dd3d
00000100: 603c 9bbd 0eeb c939 2b10 933d 15de 23be
00000110: 0ef5 10bd f93a 2e3e 1b4e 27bf 4f6b acbd
00000120: 1684 8f3e 1e5b 223f 2b0f 9e3f 9c7d 1c3f
00000130: 075c c83d 2782 dcbe 966c b83d 1185 99bd
00000140: e1cb b5be 3e8f b5be b486 84bf a920 12bf
00000150: 2515 f73e 4178 b4be ce25 96bf aa6c 9cbe
00000160: bbe6 453e 27d5 a8be 65cc 093e 10ce 3a3c
00000170: 290f 3e3e 0d24 16be a810 4bbf 750b 28be
00000180: 467b f43e c68b 1bbe 6479 6dbf 2471 b0be
00000190: daf8 e53e 51bd 333f 282e 603e e3cd c13e
000001a0: 1016 bcbe 40c0 b2bd 1a6c 8fbe eef9 03be
000001b0: d0b5 203e 8c38 063f 4496 b53f 02d2 f33e
000001c0: 585b 24be f124 83bb a87a fd3d 3b44 1cbe
000001d0: 91bb c6be 8a58 82be 59c5 be3e 8090 bfbe
000001e0: 6f37 483e 8370 5abe 8e10 2e3f 666f adbe
000001f0: b019 7abe 39fa 19bf 80d8 cebf 1269 6abf
00000200: e842 78be 7e54 54bf 688b a4bf a725 dfbb
00000210: be18 a5be f0c3 98be 67e1 80bf 33db 9dbe
00000220: b7f6 69be 0703 3bbe e8c8 a33f bc94 463e
00000230: fb65 c53e 770f 343f 28ae 783f d778 433e
00000240: 03d1 5abe 03b5 b9be 5df5 8fbf 6d20 abbe
00000250: 0d7d 01bd 0f5e d8be 955b b4be a4ab afbd
00000260: a185 edbd 5533 4cbe 5b57 b5bf 1c4b 6cbf
00000270: 0d9d a63e 8471 0bbf 2567 1cbe 0f87 0dbe
00000280: 375e 14bd cb89 44bf 3847 1ec0 8a25 2ebf
00000290: ea12 aebe e47b 93be 7cd6 c9bd 4e90 e9be
000002a0: cb61 0ebf 41b7 b2bc bd4a 53be 6d4b 9dbe
000002b0: 4cc2 d73e 34dd a33e 697b e13e df96 143f
000002c0: 8ae2 0ebe 74b2 d9be 2128 bc3e c81b c1be
000002d0: b3ec 64be 9c5c 87be 4423 c23f 71c5 a53d
000002e0: 4027 a73f 59a6 b8bd 84ec b7be e3a5 e93e
000002f0: 1a5c afbe d1f1 333e e743 0ebe 037d 033e
00000300: 29bd 82be dbd7 e3bd dd94 9fbe 8578 b6bd
00000310: 58a2 85be 3d3d 193e 6155 d3be fd12 8a3c
00000320: ec1f 013e 59e7 c8bd d745 f3bf 1212 31bf
00000330: 3094 8ebe 879a 873e 4422 04be 0319 e13e
00000340: 4988 323e d150 d73d f42e 9dbc 7080 23be
00000350: e570 1a3d 997c 4dbe 5ffb 5d3c 344a 003d
00000360: a6a4 c8bd cc1e 09bf 425a 8ebf 5176 ddbe
00000370: b412 3f3f 4df6 d13e 7a0b b23e c9ea 0a3e
00000380: c9a4 bdbe e359 d03d 757f 9fbe 42fd c2bd
00000390: a5df 56be 616d 4fbd 31b7 263e f75f 7a3e
000003a0: 2f73 0f3d ea41 05bc 9215 a33d e748 43be
000003b0: 57a3 9f3e 6324 26be 2352 1bbe d964 003f
000003c0: d8c3 0ebe 2b01 533e d5b7 a5be a637 3ebd
000003d0: 1970 8b3e e979 26bf 8c77 8c3e bea5 b9be
000003e0: 25f2 cfbc 1f52 4fbe 835a 89be 2b19 c73c
000003f0: 2946 c73e 0848 c5bd e412 b03d d540 d7bd
-0.1058735 -0.6171915 -2.2355142 -0.7574693 -0.44771346 -0.07123065 0.42575356 -0.13419762
1.001231 -0.0473129 -0.45062888 0.52778256 -0.24544783 -0.19205067 -0.07986017 -0.04405013
0.11168049 -0.11885792 -0.66677916 -0.069199495 0.10299147 0.7332284 1.6304035 0.62308174
-0.15358812 -0.3538635 -1.7246358 -0.63602006 -0.093116455 0.026764896 -0.10161237 0.15163699
-0.27855918 -0.30313882 -0.24601862 -0.23355761 -0.3775997 0.4910212 0.061965175 -0.010899129
-0.13020717 -0.6911959 -1.7642782 -0.83416355 -0.14345534 -0.18713789 0.30965915 0.16958225
-0.13149594 0.027262744 0.26346272 0.24964428 0.07206639 -0.14931126 0.08328747 -0.2500153
-0.041510187 -0.7103843 -2.3478138 -0.91685295 0.077756576 0.039647877 1.9894837 0.10830831
-0.07579875 0.00038512837 0.07180818 -0.16002686 -0.035389952 0.17014684 -0.65353554 -0.08418905
0.2803046 0.63420284 1.2348379 0.61129165 0.09783178 -0.43068048 0.09005086 -0.074960835
-0.3550711 -0.35460848 -1.0353608 -0.57081085 0.4825832 -0.35247996 -1.1730287 -0.30551654
0.19326298 -0.32975122 0.13456877 0.011401668 0.1856047 -0.1466219 -0.7932229 -0.1641062
0.477503 -0.15190038 -0.9276335 -0.3446132 0.4491642 0.7021075 0.21892607 0.37852392
-0.36735582 -0.08728075 -0.28012162 -0.1288831 0.15694356 0.52430034 1.4186482 0.4762116
-0.1605047 -0.0040022065 0.123769104 -0.15260403 -0.38814977 -0.25458175 0.3725994 -0.37414932
0.19552396 -0.21331982 0.6799401 -0.33874053 -0.24423862 -0.60147434 -1.615982 -0.91566575
-0.24244273 -0.82941425 -1.2855043 -0.0068099084 -0.3224544 -0.29836988 -1.0068787 -0.30831298
-0.2284802 -0.18262874 1.2795687 0.19392675 0.38554367 0.703361 0.9714074 0.19089065
-0.21368794 -0.36270913 -1.1246754 -0.33423176 -0.0316134 -0.4225926 -0.35226122 -0.0857766
-0.11597753 -0.19941457 -1.4167284 -0.9230211 0.32541695 -0.54470086 -0.15273722 -0.13821052
-0.036222663 -0.76772755 -2.4730968 -0.6802603 -0.33998805 -0.2880546 -0.09855363 -0.45617908
-0.5561797 -0.021815898 -0.20633979 -0.30721608 0.42140424 0.32004702 0.44039467 0.5804271
-0.13953605 -0.4251896 0.36749366 -0.37716508 -0.22355919 -0.26437843 1.5167012 0.080942996
1.3058853 -0.09016103 -0.35922635 0.45634374 -0.34249955 0.17572714 -0.1389309 0.12840657
-0.25534943 -0.111251555 -0.3116826 -0.08909706 -0.2610042 0.14964767 -0.41276076 0.016854757
0.12609833 -0.09809751 -1.9005688 -0.691682 -0.27847433 0.26485083 -0.12903696 0.43964395
0.17434801 0.105134614 -0.019187428 -0.15966964 0.03770532 -0.20067061 0.013548701 0.031320766
-0.09797029 -0.5356262 -1.1121294 -0.4325433 0.74637914 0.41008225 0.3477438 0.13566126
-0.37039784 0.101733945 -0.3115193 -0.09520961 -0.20983751 -0.05064142 0.1628082 0.2445067
0.035021957 -0.008133391 0.079630986 -0.19070779 0.31179306 -0.16224818 -0.15168051 0.5015388
-0.13941896 0.20605914 -0.32366815 -0.04643979 0.2723396 -0.6502977 0.27434957 -0.36259264
-0.025384018 -0.2024617 -0.26826867 0.024303993 0.38920715 -0.096328795 0.08597353 -0.105104126

linear.bias f4 [512]
00000000: cfbf 27bf fb82 6cbf ee2d 3dbe 1c33 693f
00000010: 33fa 4a3f 3e48 16bf bf1f 05bf 5bf6 9b3e
00000020: 3ebd 8b3f 89f4 6b3f ed0d 36bf 4ff7 313f
00000030: ec51 3c3f 1ddf 483f 5508 07bf 5041 cb3e
00000040: fe72 e03e ae22 8c3f aad3 5bbf 15f9 0b3f
00000050: 5849 73bf 8b41 0abf 3354 0e3f 4586 6d3f
00000060: 4926 89bf e492 743f 3c57 8b3f 1ad6 14bf
00000070: 6280 673f a901 6dbf 9cb4 ef3e e350 46bf
00000080: cf95 083e eae9 453f bffc 3cbf ddc9 653f
00000090: 2680 173f dc63 543f ed96 773e b035 503f
000000a0: def0 ff3e c4d1 51bf 40ab 4fbe 2167 73bf
000000b0: db73 6c3f 21a1 3dbf 690f e2bd f178 333f
000000c0: 9688 553f c743 253f e790 973e 4e10 6e3f
000000d0: bdb0 2ebf 72db 073f 9080 ed3e 020b 0dbf
000000e0: a0b5 6f3f cfeb 2e3f 1eff 593f 21d9 17bd
000000f0: 34bd 6a3f 4a06 493f 683e 0c3f 345e 37bf
00000100: 2e84 3f3f e445 483f a9de 0a3f eb0b bc3e
00000110: 1844 55bf 28b9 953b b725 573f 3b3e 0c3f
00000120: 891e 9abe 8354 423f a3a4 b5bc 0c0c 143e
00000130: fcae 63bf 33fd 463f 73ac 753f f426 473f
00000140: ce35 673f 1d60 73bf aa68 f63e a0b9 593f
00000150: a0cd 71bf 66a4 203f e9c7 be3e 4159 323f
00000160: 91cf 5f3f 65ae debe 6ad0 753f 929f 7b3f
00000170: bb61 94bf e210 853f a83e 75bf ceef 67bf
00000180: 8d9b 14bf 0551 3ebf 5b9d 093f 15a1 3cbf
00000190: 8832 46bf 39fc 27bf 1611 603f 0a45 753f
000001a0: 656b 3f3f c357 d83e f684 2b3f 8f27 03bf
000001b0: 0d6b 4d3f 0c27 48bf d67b 8abf 5526 3abe
000001c0: b3f0 5a3f 4f0f 1b3f 4f49 223e a991 603f
000001d0: 2374 8dbf 2595 8bbf 95a0 483f 63ba c7bc
000001e0: 03af 57be bbcd 573f 336d 4ebf 0efe 20bf
000001f0: b751 3a3f 4c0b 413f ad55 63bf 3dd8 3f3f
00000200: ce37 4a3f c248 4b3e 1b72 46be 0ca4 923e
00000210: b4a7 3fbf a718 423e 5971 453f 31c4 16bf
00000220: 1f07 2abf 30cc 883f 0dbe 1a3f a8bd 0f3f
00000230: 2924 413f 69e3 31bf 8f41 2ebf 81e6 fb3e
00000240: 0c85 6bbf 9eab 0cbe 642b fa3e e7e6 6c3f
00000250: 28a5 b73e 9ccc 84bf 6b39 0dbf d03f 52bf
00000260: e604 543f 2d6c 5ebf a457 443f b3d7 733f
00000270: a8b2 79be dcc8 a33e 81a4 1fbf ab66 edbe
00000280: d4db 2d3f 81a5 09bf 100a 353f 2708 0b3f
00000290: 3783 653f 13dc 63bf dc90 6e3f 6729 563f
000002a0: ccc2 533f 6cc2 313f 4273 cc3e 2d14 44bf
000002b0: 34aa 783f db2f 93bf 7847 42bf e702 cd3e
000002c0: e2f2 9c3e 6d0e 2abf b659 863f 9c42 6abf
000002d0: 1cc0 793f ba93 d1be 98f3 85be 83f9 2cbf
000002e0: 34ce 3c3f 225a 493f 4dd0 8cbf 314b 513f
000002f0: 9f8a 973f a368 663f 99f9 803f 7a16 053f
00000300: 1652 e63e 18e0 6bbf c834 89bf cef5 83bf
00000310: 13ad 073f 39e5 453f 2455 8dbe 18a7 303f
00000320: d276 1c3f 71d0 94bf 52db 1e3f d64c 5d3f
00000330: 1049 693f 9080 753f b1a3 2bbf 7263 063f
00000340: 9034 453f 7ce9 553e 7f8d a43e baee 7b3f
00000350: 13cb 3ebf 8fe3 07bf 3813 673f 86e3 153f
00000360: f967 513f 42bd 00bf c188 0c3e 8c99 6f3f
00000370: b99a efbe 8b87 86bf 39ed 683f 2c7f 383f
00000380: 08d3 a33e 4709 493f ac7b 1f3f 7259 4a3f
00000390: 1fa4 2c3f 9225 23bf a6b1 123f 8736 193f
000003a0: 0293 6b3f 5d02 813f bef6 fbbe 23d4 8b3e
000003b0: d347 4c3f a0d7 afbe cbaa a3bf 9a04 203f
000003c0: ff73 7cbf 7692 033e a968 353f 4cef 4c3f
000003d0: 335f 8b3f bae0 413f f1f5 1f3f 3611 6ebf
000003e0: 8b03 133f 2a1e 313f 287a 663f 5ea5 52bf
000003f0: 31d3 40bf 69b7 49bf a4ba 52bf bf60 573f
-0.6552705 -0.9238736 -0.18474552 0.9109361 0.79288024 -0.5870398 -0.52001566 0.30461392
1.0917127 0.92170006 -0.71115 0.6951799 0.735625 0.78465444 -0.5274709 0.39698267
0.43837732 1.0948083 -0.8586985 0.54676944 -0.9503379 -0.5400626 0.5559723 0.92783004
-1.0714809 0.9553664 1.0885997 -0.58139193 0.9043027 -0.9258066 0.46817482 -0.77467173
0.13338397 0.7731005 -0.7382316 0.89761144 0.59179914 0.82964873 0.24178667 0.8133192
0.49988455 -0.819607 -0.2028017 -0.9507924 0.9236428 -0.7407399 -0.110380955 0.70106417
0.8341154 0.64556545 0.2960274 0.9299363 -0.6823843 0.5306922 0.46387148 -0.5509492
0.9363651 0.68328565 0.851549 -0.037072305 0.9169495 0.7852522 0.54782724 -0.7162812
0.74811065 0.78231645 0.54246 0.36727843 -0.8330703 0.0045691915 0.84041923 0.54782456
-0.3010142 0.75910205 -0.022173231 0.1445772 -0.8893888 0.777301 0.9596626 0.7779381
0.90316474 -0.9506853 0.48126727 0.85048866 -0.94454384 0.6275085 0.37261894 0.6966744
0.87426096 -0.43492427 0.9602114 0.9829036 -1.1592325 1.0395777 -0.9579873 -0.9060029
-0.5804985 -0.74342376 0.5375573 -0.7368329 -0.77420855 -0.65619236 0.8752607 0.9580847
0.74773246 0.42254457 0.6699976 -0.51232237 0.8024147 -0.7818458 -1.0819042 -0.18178685
0.8552353 0.60570234 0.15848278 0.8772226 -1.1051067 -1.090489 0.7837003 -0.024380868
-0.21062855 0.84298295 -0.80635375 -0.62887657 0.72780937 0.7540786 -0.88802606 0.7493933
0.789914 0.19851974 -0.19379465 0.28640783 -0.7486527 0.18954717 0.7712608 -0.58893114
-0.66417116 1.0687313 0.60446244 0.5614877 0.754458 -0.69487625 -0.68068784 0.49199298
-0.9199989 -0.13737342 0.4886123 0.9253983 0.35868192 -1.0374942 -0.5516574 -0.8212862
0.82819974 -0.86883813 0.7669623 0.95251006 -0.24384558 0.3198918 -0.6236039 -0.46367392
0.67913556 -0.53768164 0.7071848 0.54309314 0.8965334 -0.8900768 0.9318979 0.83656925
0.8271911 0.6943729 0.39931685 -0.76593286 0.9713471 -1.1498979 -0.758903 0.40041277
0.30654055 -0.6642826 1.0496128 -0.9150789 0.9755876 -0.4093302 -0.2616241 -0.67568225
0.7375214 0.78653157 -1.1001068 0.8175536 1.1839179 0.9000341 1.0076171 0.5198742
0.44984502 -0.92138815 -1.0719233 -1.0309389 0.52998465 0.7730289 -0.2760402 0.69004965
0.61118805 -1.1626111 0.62053406 0.8644537 0.9112711 0.95899296 -0.6704665 0.5249549
0.7703333 0.20889848 0.32139203 0.9841114 -0.74528617 -0.530816 0.902637 0.585503
0.81799275 -0.50288785 0.13724042 0.9359367 -0.46797732 -1.0510114 0.90986973 0.7206905
0.31996942 0.7852978 0.62298083 0.7904273 0.6743793 -0.637292 0.5730232 0.5984883
0.9202119 1.0078846 -0.49211687 0.27310285 0.79797095 -0.34344196 -1.2786497 0.6250702
-0.98614496 0.12848839 0.70862824 0.8005264 1.0888427 0.7573353 0.6248465 -0.9299501
0.5742728 0.6918665 0.90030146 -0.8228358 -0.7532225 -0.78795487 -0.8231604 0.84132

linear2.weight f4 [2, 512]
00000000: 3d18 4abf 257c 8a3e 7dc7 aebe 5f9c 813e
00000010: a7ef 153f 156c 73bf 00fd d33c 2dbb cfbd
00000020: a9e7 e73e f2df 9e3e 4a48 87bf 14ca 073e
00000030: 8d12 713e fd89 0b3f 6ce4 ccbe 29be d7be
00000040: a870 1a3e 5ef2 e73e 89c6 25bf f18d a63e
00000050: 8db5 0bbf 746d 60bf d601 6c3e c15e f33e
00000060: cf7b 6ebf 412e 2b3f 67a9 ea3e a47b 51bf
00000070: f37f 143f 69c9 52be fc0d 38be e671 21be
00000080: 4d21 1abe 0aa2 12bf 0b83 21bf a011 b83e
00000090: 3344 afbe f21a ea3e 3d38 04bf 02a9 a43e
000000a0: 47b5 4bbf 95d3 e2ba 6782 32be 5868 00bf
000000b0: b363 dc3e 4d37 7abf bdc9 f6be a123 fcbe
000000c0: c8b7 e13e ff59 c13e a128 2abf 3f76 913e
000000d0: e8c1 99bd cdca a23e ec60 a3be f6ae 9cbd
000000e0: f58a b13e bf18 8d3d 030d 283f 5558 a43e
000000f0: 3035 ca3e 5a1c ca3e eab8 a83e 8464 00bf
00000100: 4356 0f3f 0ba7 753e cdc9 993e ece7 1bbf
00000110: 7c87 02bf 3681 13be 9249 793e 35f0 9e3e
00000120: f7bd 83be 4848 ea3e 979f be3e ace6 0d3f
00000130: f03c 02bf 05a0 d93e 1978 a03e f9e4 a93e
00000140: cdf9 b93e 7493 08bf 1374 3ebf 42f0 e93e
00000150: 0567 f3be 1591 923e 679d 5bbf b3c1 703e
00000160: d968 b53e 0601 213b 794b 453e 10cd 1a3f
00000170: 4084 60bf 9829 b23e d44d e0be aba8 3cbf
00000180: e8f7 a1bf d985 41bf fb50 0b3e f75f 14bf
00000190: 4cd8 58bf ce1a 8bbe df20 cb3e 1240 da3e
000001a0: 0f8a 5d3e c83f 4d3e 35f6 cf3e 9b7f 0d3f
000001b0: 63c4 e53e f5e9 473c b85b ac3e e20d 1c3e
000001c0: 4e8a a03e e829 b2be c0f4 01bf 706d f53e
000001d0: fec3 e3be 57a8 cfbe 7d16 053f a070 053f
000001e0: fa19 08be f156 a93e 6c52 07bf ae81 adbe
000001f0: 8848 a9bd a8bb 9b3e c828 0dbf ca90 933e
00000200: 2924 a33e bfe2 9d3e 92ec ed3e 8a0b f5bd
00000210: 23d7 62bf e0ab 02bf c7fb 9b3e 4fd2 c1be
00000220: 428e 65be c874 e83e e6f4 cc3e a29a b93e
00000230: 21a0 1d3e 4104 23bf e189 60bf 7e72 89be
00000240: 2bac 25bf d85e 753f 130b 233e 3ed5 203f
00000250: 1d1d 093f 8a0d d5be c6e6 3ebe 69af 42bf
00000260: 7eda db3e 3a18 27bf c3da 673e 792e f93e
00000270: 268b afbe 379c ba3e 5173 31be 3f07 1bbe
00000280: 3f2f 19bf de86 49be 81fc fd3e 5b9e 4fbf
00000290: 0189 933e e463 bebf a699 4e3e 8eaa c73e
000002a0: 4178 8a3e 0904 1bbf 2b67 ffbe 6754 203f
000002b0: 6a8f 013f 6963 57be d148 34bf 0b2e 12bf
000002c0: 9263 a0bd 1568 08be c1d9 ba3e 7bb3 f0bf
000002d0: c85b 9d3e 4d0c d1be 249c 5d3f 2b60 aa3e
000002e0: 18d6 f23e e6c7 17bf e63b 76be 774e a13e
000002f0: 7e42 f03e 9b64 053f 422e 973e 4538 8c3e
00000300: 2568 28bf 36de adbe a084 44bf d54e 57bf
00000310: b43c 41bf f368 b73e 8eb7 1abe 18eb 6c3e
00000320: d707 133f 3731 57be 2b89 153f d2ab 873e
00000330: 896f a53e 1be4 cb3e f25e 1abf db97 893f
00000340: 1d5b 933e 3329 3fbe f0aa 1bbf 18d1 aa3e
00000350: c39f fbbe 4c13 32be f728 e13e 8695 833f
00000360: 370c e63e 0951 243f 792b b03e cd0d 483f
00000370: 1b2f 03be bed8 c0be 906d 253e 6d8b 743e
00000380: 6c41 023f 0e89 3f3f d274 f83e 1e41 a93e
00000390: d927 62bf 6334 5cbe c4dd 973e 3e7a e93e
000003a0: 82cb 173f 218e 3fbf 95f9 1d3f 5ab1 ac3e
000003b0: 314b 003f f97e d53d e273 30be d0bd a23e
000003c0: 53ed 86bf d32f e9be f446 d33e df04 9a3f
000003d0: 6bbd 213f 29fe ba3e fb47 aa3e 1fa1 01bf
000003e0: 26bd b03e 6fb3 c53e 963b de3e 7070 7bbf
000003f0: 10f5 d93d 2165 4fbc 9389 12bf 0ca5 8a3e
-0.78943235 0.2704784 -0.34136572 0.25314614 0.58568805 -0.95086795 0.025877476 -0.10143123
0.4529393 0.31030232 -1.0568936 0.1326068 0.23542233 0.5450743 -0.40018022 -0.42137268
0.15082037 0.453021 -0.64756066 0.32530168 -0.545739 -0.8766701 0.23047575 0.4753323
-0.93157667 0.6686745 0.4583237 -0.81829286 0.58007735 -0.20584644 -0.17974085 -0.15766105
-0.15051766 -0.572785 -0.6309058 0.35950947 -0.3423172 0.45723683 -0.5164831 0.32160193
-0.7957348 -0.0017305488 -0.17432557 -0.50159216 0.43044814 -0.9774063 -0.4820079 -0.49245933
0.44085526 0.37763974 -0.66468245 0.28410527 -0.07507688 0.3179535 -0.31909883 -0.07650559
0.34676328 0.068894856 0.65644854 0.32098642 0.39493704 0.39474756 0.32953578 -0.50153375
0.55991 0.23989503 0.30036774 -0.6090076 -0.5098798 -0.14404759 0.24344471 0.31042638
-0.2573087 0.4575827 0.37231132 0.554301 -0.50874233 0.42504898 0.31341627 0.33182505
0.36323395 -0.53349996 -0.74395865 0.45691115 -0.47539535 0.28626314 -0.8578705 0.2351139
0.35431555 0.002456726 0.19267072 0.6046915 -0.877018 0.3479736 -0.43809378 -0.73694867
-1.265378 -0.7559486 0.1360511 -0.5795893 -0.8470504 -0.27168888 0.39673516 0.42627007
0.21634696 0.20043862 0.4061753 0.55272835 0.44876394 0.012201776 0.33663726 0.15239671
0.31355518 -0.34797597 -0.50764084 0.47935057 -0.44485468 -0.4055812 0.5198744 0.5212498
-0.1329116 0.33074144 -0.5286014 -0.33888 -0.08265787 0.30416608 -0.5514035 0.28821403
0.31863526 0.30837056 0.4646955 -0.119650915 -0.8860952 -0.5104351 0.30465528 -0.37855765
-0.22417548 0.45401597 0.40030593 0.36250788 0.15393116 -0.63678366 -0.87710387 -0.26845163
-0.6471583 0.95847845 0.15922193 0.6282538 0.5356005 -0.41611892 -0.1864272 -0.76048905
0.42940134 -0.6527134 0.22642045 0.48668268 -0.3428585 0.36447307 -0.17329146 -0.15139483
-0.59837717 -0.19680354 0.49606708 -0.81101006 0.28815463 -1.4874234 0.201758 0.3899731
0.2704487 -0.6055303 -0.49883398 0.6262879 0.5060946 -0.21034016 -0.7042361 -0.57101506
-0.078314915 -0.13320954 0.36494258 -1.8804773 0.30734086 -0.40829697 0.86566377 0.33276495
0.47428966 -0.59289396 -0.24046287 0.31505176 0.4692573 0.52106637 0.2952748 0.2738668
-0.6578391 -0.33958596 -0.7676487 -0.84104663 -0.7548325 0.35822257 -0.15109083 0.23136556
0.5743384 -0.21014868 0.58412427 0.26498276 0.32311657 0.39822468 -0.60301125 1.0749468
0.2878045 -0.1866806 -0.60807705 0.3336265 -0.49145326 -0.17390174 0.43976566 1.0280006
0.44931194 0.6418615 0.34408167 0.7814606 -0.12810938 -0.3766536 0.16155076 0.23881312
0.50881076 0.74818504 0.48526627 0.33057493 -0.8834205 -0.21504359 0.2966138 0.45601076
0.59294903 -0.74826247 0.61708957 0.33729059 0.50114733 0.10424609 -0.17231706 0.3178544
-1.0541176 -0.455443 0.4126507 1.2032737 0.63179654 0.36522034 0.33258042 -0.50636476
0.3451931 0.3861346 0.43404835 -0.9821844 0.10642445 -0.012658388 -0.5724117 0.27079046

linear2.bias f4 [2]
00000000: 933f 8f3e 8e95 8f3e
0.2797819 0.2804379
