code/log/dqn/ckpt/235000.pth (torch, 15775 bytes, 4 tensors)

linear.weight f4 [512, 4]
0.8534602 -0.32488906 -2.8163314 -0.91251886 -0.3937562 -0.14968233 0.67804724 -0.046698947
0.5362247 0.02958613 0.19992185 0.6844811 -0.26448876 -0.1561785 -0.15804313 -0.07601507
0.122135386 -0.060579125 -0.70400804 -0.14100711 -0.058233183 0.8673646 2.3772247 0.84163505
-0.4056344 -0.2863836 -2.4929597 -0.67494 -0.20046835 0.044907514 -0.17102446 0.23826894
-0.28595814 -0.2611471 -0.3146414 -0.27747348 -0.39464447 0.6058432 0.018014094 -0.13767484
0.83429277 -0.41330957 -2.358062 -1.0094049 -0.17723988 -0.15846957 0.21944737 0.15661784
-0.14139134 0.069797866 0.19777872 0.21194 0.073209316 -0.10121625 0.023575451 -0.30422762
0.92629 -0.37776527 -2.941303 -1.0363804 0.22650272 0.16564931 2.988564 0.3934625
-0.10991515 0.070617676 0.03633474 -0.2172415 -0.0371747 0.21758524 -0.71532166 -0.13426067
0.18778479 0.52798 1.0282891 0.6721542 0.095293045 -0.38538393 0.027979912 -0.1239304
-0.56642294 -0.62957096 -1.1515771 -0.5241767 0.45396385 -0.37973973 -1.1915491 -0.27224755
0.1826561 -0.28918436 0.07475716 -0.020597933 0.18888606 -0.09539709 -0.84705377 -0.2235556
0.477503 -0.15190038 -0.9276335 -0.3446132 0.21350673 0.47809622 0.2994372 0.4236864
-0.37257656 -0.043309394 -0.3441121 -0.17579347 -0.057480287 0.43479675 1.7187535 0.6683008
-0.14362687 0.070640616 0.119484425 -0.24708208 -0.4443707 -0.5469603 0.4033954 -0.3513099
0.04847946 -0.2684675 0.643365 -0.2714736 0.80447805 -0.5699554 -2.1961174 -0.91097385
-0.15936242 -0.7879006 -1.4671814 -0.24290496 -0.32226118 -0.33298096 -0.94651324 -0.25260508
-0.15051119 -0.32372624 1.5549203 0.34998286 0.15004653 0.6016311 0.9713426 0.21140674
-0.21490738 -0.39240924 -1.0668256 -0.27779987 -0.031035969 -0.37466422 -0.41078797 -0.13869973
-0.1147065 0.4025122 -1.8595663 -1.0609277 0.31702986 -0.48523405 -0.17923515 -0.1955185
-0.14516957 -0.2517783 -3.1220942 -1.0697502 -0.7108725 -0.17002296 0.04349756 -0.52013224
-0.62950075 -0.25580043 -0.47796446 -0.12683345 0.38979003 0.2777033 0.31980357 0.57233775
-0.14711528 -0.38359872 0.30021387 -0.4232081 -0.34005943 -0.55985665 1.9968705 0.20965204
1.0716838 0.084641255 -0.03483587 0.56008697 -0.34612703 0.13423924 -0.061049793 0.17279486
-0.2668443 -0.07214644 -0.38469374 -0.12844166 -0.26506242 0.19657762 -0.47486198 -0.029778818
0.108149774 0.6181775 -2.2126236 -0.7977707 -0.28792027 0.30759043 -0.19630677 0.40217224
0.17434801 0.105134614 -0.019187428 -0.15966964 0.032183148 -0.15701425 -0.052231703 -0.012642817
-0.035467777 -0.59145665 -1.1480386 -0.43941867 0.76929957 0.5283619 0.2912202 -0.22910221
-0.382637 0.1424821 -0.3874933 -0.13087127 -0.25800547 -0.02750851 0.066434376 0.24276972
0.0525814 0.06879221 0.079009116 -0.28900287 0.78292525 -0.37065735 -0.61657697 0.36428052
-0.14554133 0.25063357 -0.39133537 -0.09016657 0.2732944 -0.6017958 0.2160461 -0.42086163
-0.031987563 -0.15891446 -0.33567664 -0.018582448 0.3665082 -0.11901621 0.06318519 -0.08796515
00000000: 5e7c 5a3f dc57 a6be c63e 34c0 d69a 69bf
00000010: 6a9a c9be 5346 19be 8194 2d3f 6547 3fbd
00000020: 0646 093f 9d5e f23c 50b8 4c3e 273a 2f3f
00000030: 126b 87be 42ed 1fbe 0fd6 21be caad 9bbd
00000040: 1e22 fa3d d121 78bd df39 34bf 2b64 10be
00000050: eb85 6ebd 9b0b 5e3f 7324 1840 6575 573f
00000060: 50af cfbe dfa0 92be a78c 1fc0 dec8 2cbf
00000070: 9347 4dbe f1f0 373d 0921 2fbe c6fc 733e
00000080: 1b69 92be 13b5 85be ad18 a1be 0111 8ebe
00000090: d70e cabe 8a18 1b3f 4b92 933c a2fa 0cbe
000000a0: 3694 553f 509d d3be 7dea 16c0 2e34 81bf
000000b0: 5f7e 35be d945 22be d0b6 603e 6d60 203e
000000c0: e4c8 10be 2ff2 8e3d 8186 4a3e cd06 593e
000000d0: c4ee 953d 774a cfbd 4e21 c13c b9c3 9bbe
000000e0: 5721 6d3f 736a c1be 4f3e 3cc0 1da8 84bf
000000f0: 54f0 673e f99f 293e a244 3f40 eb73 c93e
00000100: 321b e1bd 00a0 903d bdd3 143d 8e74 5ebe
00000110: 8044 18bd aace 5e3e 521f 37bf a17b 09be
00000120: a84a 403e b329 073f fa9e 833f 4c12 2c3f
00000130: 0029 c33d 0b51 c5be 2136 e53c 39cf fdbd
00000140: 1801 11bf 902b 21bf e166 93bf 7230 06bf
00000150: f36d e83e 3f6d c2be ae84 98bf 0864 8bbe
00000160: 330a 3b3e f90f 94be 481a 993d ffbc a8bc
00000170: 596b 413e 8d5f c3bd 84d8 58bf c2eb 64be
00000180: 467b f43e c68b 1bbe 6479 6dbf 2471 b0be
00000190: 82a1 5a3e 07c9 f43e d54f 993e 6ced d83e
000001a0: 5bc2 bebe 3165 31bd 762f b0be 3403 34be
000001b0: 7370 6bbd ae9d de3e 1d00 dc3f c315 2b3f
000001c0: ec12 13be 07ac 903d 40b4 f43d 1603 7dbe
000001d0: 8e84 e3be 9705 0cbf d889 ce3e e4de b3be
000001e0: 6692 463d 9274 89be 92b3 243f 96fe 8abe
000001f0: 46f2 4d3f 99e8 11bf 308d 0cc0 9535 69bf
00000200: e72f 23be dbb3 49bf 9acc bbbf 14bc 78be
00000210: 6bff a4be 7b7c aabe b14e 72bf 7455 81be
00000220: 9b1f 1abe 72bf a5be a107 c73f f430 b33e
00000230: cca5 193e 7f04 1a3f e9a9 783f 027b 583e
00000240: ae10 5cbe dde9 c8be be8d 88bf c93b 8ebe
00000250: 253f febc fdd3 bfbe cd52 d2be 4d07 0ebe
00000260: 3eeb eabd 1416 ce3e 4506 eebf 7bcc 87bf
00000270: bd51 a23e 9970 f8be 6b89 37be 0036 48be
00000280: 55a7 14be 16e9 80be 64d0 47c0 93ed 88bf
00000290: bdfb 35bf 801a 2ebe 7f2a 323d 6327 05bf
000002a0: f626 21bf 46f8 82be c2b7 f4be a1e0 01be
000002b0: 8f92 c73e 202f 8e3e 4bbd a33e ba84 123f
000002c0: 63a5 16be 0d67 c4be a2b5 993e bbae d8be
000002d0: 451c aebe c452 0fbf 7499 ff3f 06af 563e
000002e0: ef2c 893f 6558 ad3d 0fb0 0ebd dc61 0f3f
000002f0: 9037 b1be 0376 093e 590f 7abd 23f1 303e
00000300: d19f 88be 83c1 93bd 94f6 c4be 3686 03be
00000310: 43b6 87be a54b 493e 1c21 f3be b5f2 f3bc
00000320: a17d dd3d e140 1e3f a09b 0dc0 b33a 4cbf
00000330: 496a 93be 7e7c 9d3e a404 49be 85e9 cd3e
00000340: 4988 323e d150 d73d f42e 9dbc 7080 23be
00000350: 7ad2 033d 58c8 20be e9f0 55bd d123 4fbc
00000360: a946 11bd b469 17bf eef2 92bf 7cfb e0be
00000370: d1f0 443f ba42 073f d01a 953e c599 6abe
00000380: ffe8 c3be d4e6 113e 8665 c6be 1e03 06be
00000390: 4b19 84be 8759 e1bc bf0e 883d a098 783e
000003a0: 985f 573d eee2 8c3d 88cf a13d 2ff8 93be
000003b0: ca6d 483f cdc6 bdbe fdd7 1dbf fa82 ba3e
000003c0: c908 15be 0b53 803e 1c5d c8be 40a9 b8bd
000003d0: 3eed 8b3e 4a0f 1abf 303b 5d3e 2d7b d7be
000003e0: 6405 03bd 79ba 22be cfdd abbe 383a 98bc
000003f0: f6a6 bb3e c5be f3bd 3d67 813d 1327 b4bd

linear.bias f4 [512]
-0.5775659 -1.0427018 -0.12409797 0.93752736 0.8193509 -0.042830672 -0.3585907 0.23600061
1.1169001 0.9276388 -0.6037408 0.71904916 0.76369524 0.8124343 -0.27526143 0.30352676
0.47623816 1.1234396 -0.9772595 0.57874113 -0.7031887 -0.57073665 0.6006074 0.9592449
-1.0714809 1.0782038 1.1131357 -0.46651536 0.922998 -0.85629797 0.57180893 -0.62700146
0.09980232 0.7648821 -0.6665549 0.98851764 0.5925536 0.8569089 -0.106874235 0.8650493
0.34087184 -0.42702153 -0.13369244 -0.999024 0.9491443 -0.4902665 0.11881606 0.6816726
0.8587498 0.67108643 -0.044639155 0.9566878 -0.6823843 0.5606638 0.38130286 -0.43381974
0.96317744 0.70072174 0.87174773 0.16469304 0.94496334 0.82251155 0.5766639 -0.7389957
0.7590835 0.80693 0.57560563 0.43342683 -0.65485907 0.060327776 0.8739972 0.27911827
-0.31167406 0.7892481 0.01150919 0.16136412 -0.6713562 0.80835146 0.9930601 0.8038098
0.9336482 -1.0535624 0.69052786 0.90816516 -1.0227301 0.6560403 0.34610215 0.7233456
0.90202326 -0.24368723 0.98868006 1.0071007 -1.0062692 1.0653614 -1.0170906 -0.45664856
-0.31493816 -0.57584476 0.56521744 -0.77805364 -0.34174442 -0.43931186 0.9020101 0.99084085
0.7776233 0.45408404 0.72381186 -0.43032977 0.8348834 -0.6501763 -1.0081335 -0.19055855
0.885312 0.55614173 -0.16047192 0.9007331 -1.1058985 -1.0169009 0.8152674 -0.14181985
-0.30102116 0.8362612 -0.6014823 -0.36701167 0.69124943 0.7788506 -0.80471295 0.77693784
0.81780803 0.26436844 -0.30447695 0.29674283 -0.28168732 -0.015293692 0.7987519 -0.50749743
-0.92590415 1.0937471 0.51314044 0.58504623 0.7821036 -0.7437192 -0.23712596 0.49590856
-0.72179085 0.15111662 0.5134911 0.9504132 0.35901377 -1.1785742 -0.5806593 -0.65914667
0.85382134 -0.5191073 0.7986716 0.97343886 -0.35679194 0.31666484 -0.6236039 -0.70437974
0.61901796 -0.5661162 0.7305367 0.46829972 0.9255692 -0.69444144 0.96083087 0.8634746
0.85449004 0.68969715 0.27099627 -0.85148567 0.99968106 -1.2496283 -0.3945818 0.39688432
0.31100616 -0.5332916 1.0753015 -0.58219725 1.0347229 -0.35321304 -0.26077384 -0.65794426
0.76526845 0.77506715 -1.2772739 0.8477372 1.331634 0.9237438 1.0375994 0.39924964
0.29051274 -1.1251998 -1.1037347 -1.085125 0.33750063 0.80186766 -0.33250463 0.7171164
0.519949 -1.241499 0.64765984 0.8983079 0.9382169 0.9945235 -0.6704665 0.21731907
0.8027012 0.15066883 0.31355187 1.0163665 -0.74528617 -0.23392425 0.92852134 0.21406202
0.8553255 -0.50288785 0.1889764 0.48176673 -0.5552618 -1.0903559 0.93786323 0.7500954
0.32224518 0.71065605 0.6553363 0.81939906 0.65999204 -0.574331 0.53704923 0.4944544
0.94604874 0.98914933 -0.53870785 0.19325766 0.8247648 -0.20551682 -1.175172 0.65596265
-0.7648371 -0.119752795 0.7349133 0.35600936 1.2235799 0.7863212 0.6576784 -0.98593855
0.6043151 0.72303843 0.92942894 -0.6785201 -0.88934106 -0.63870966 -0.8942085 0.8857507
00000000: 5cdb 13bf 4177 85bf 1427 febd cb01 703f
00000010: fbc0 513f 376f 2fbd 3399 b7be 25aa 713e
00000020: 95f6 8e3f bd79 6d3f c28e 1abf 9b13 383f
00000030: 8881 433f b2fb 4f3f 11ef 8cbe dc67 9b3e
00000040: 7dd5 f33e decc 8f3f ae2d 7abf 6128 143f
00000050: 2d04 34bf cc1b 12bf 68c1 193f 1391 753f
00000060: 4926 89bf 9502 8a3f 3b7b 8e3f 1adb eebe
00000070: 9949 6c3f 5836 5bbf 1262 123f 2b83 20bf
00000080: 2965 cc3d 50cf 433f 58a3 2abf 7e0f 7d3f
00000090: 98b1 173f 625e 5b3f e1e0 dabd df73 5d3f
000000a0: c186 ae3e 91a2 dabe ace6 08be 09c0 7fbf
000000b0: 1ffb 723f 3604 fbbe d655 f33d 1882 2e3f
000000c0: 07d7 5b3f 52cc 2b3f 8cd7 36bd 7ee9 743f
000000d0: bdb0 2ebf aa87 0f3f 213a c33e 9f1d debe
000000e0: cc92 763f 8062 333f dc2a 5f3f 4ba5 283e
000000f0: 1ee9 713f 1e90 523f 3fa0 133f d22e 3dbf
00000100: 4c53 423f f792 4e3f e45a 133f 1fea dd3e
00000110: d8a4 27bf 421a 773d 48be 5f3f 97e8 8e3e
00000120: be93 9fbe 2a0c 4a3f 0b91 3c3c a33c 253e
00000130: 00de 2bbf 1ff0 4e3f 3039 7e3f 7bc6 4d3f
00000140: 9203 6f3f 22db 86bf 6fc6 303f 837d 683f
00000150: d2e8 82bf 42f2 273f 4d34 b13e 2d2d 393f
00000160: ffea 663f 2589 79be 231a 7d3f ade8 803f
00000170: 6ecd 80bf c35d 883f 0630 82bf d7cd e9be
00000180: 933f a1be 906a 13bf 17b2 103f 862e 47bf
00000190: 20f9 aebe 7ced e0be 22ea 663f bfa7 7d3f
000001a0: 5212 473f b47d e83e bc4b 393f 2f54 dcbe
000001b0: ebba 553f f471 26bf 850a 81bf c821 43be
000001c0: cfa3 623f 4e5f 0e3f c052 24be 7296 663f
000001d0: 158e 8dbf cf29 82bf 5db5 503f 3939 11be
000001e0: 721f 9abe 3715 563f befa 19bf f4e8 bbbe
000001f0: b9f5 303f c162 473f ab01 4ebf 66e5 463f
00000200: de5b 513f 4d5b 873e 67e4 9bbe adee 973e
00000210: 5239 90be 6592 7abc 017b 4c3f 5aeb 01bf
00000220: 0e08 6dbf e8ff 8b3f 2c5d 033f 97c5 153f
00000230: f137 483f 6264 3ebf 26d1 72be bae7 fd3e
00000240: 49c7 38bf 51be 1a3e 2774 033f 484e 733f
00000250: a7d0 b73e 85db 96bf 16a6 14bf d6bd 28bf
00000260: 0994 5a3f 37e4 04bf be75 4c3f 4a33 793f
00000270: 6fad b6be e521 a23e 81a4 1fbf 3b52 34bf
00000280: f677 1e3f feec 10bf 7404 3b3f fbc4 ef3e
00000290: 1af2 6c3f eac6 31bf 03f9 753f ac0c 5d3f
000002a0: dcbf 5a3f fe8f 303f 06c0 8a3e f7fa 59bf
000002b0: 19eb 7f3f d2f3 9fbf a006 cabe 6c34 cb3e
000002c0: 333c 9f3e cc85 08bf 7ba3 893f e10a 15bf
000002d0: cd71 843f 57d8 b4be 2684 85be 096f 28bf
000002e0: a2e8 433f cd6a 463f b67d a3bf 4e05 593f
000002f0: fc72 aa3f 797a 6c3f 0fd0 843f 736a cc3e
00000300: 16be 943e 8c06 90bf 2e47 8dbf 60e5 8abf
00000310: e2cc ac3e 3347 4d3f 0c3e aabe f194 373f
00000320: 611b 053f 70e9 9ebf 09cd 253f 82f7 653f
00000330: fc2e 703f 1899 7e3f b1a3 2bbf e488 5e3e
00000340: d37d 4d3f ee48 1a3e df89 a03e 4c18 823f
00000350: 13cb 3ebf d789 6fbe 93b3 6d3f 1333 5b3e
00000360: 9df6 5a3f 42bd 00bf 0883 413e 21aa f63e
00000370: a325 0ebf c890 8bbf ce17 703f 4106 403f
00000380: 52fd a43e 8eed 353f 1fc4 273f 23c4 513f
00000390: 3df5 283f 5b07 13bf 0f7c 093f 2129 fd3e
000003a0: 4030 723f e438 7d3f c2e8 09bf 56e5 453e
000003b0: c923 533f 0073 52be 096c 96bf 2bed 273f
000003c0: 5dcc 43bf f440 f5bd 4723 3c3f dc46 b63e
000003d0: 449e 9c3f 594c 493f 9d5d 283f 7866 7cbf
000003e0: 65b4 1a3f 0c19 393f 0eef 6d3f 7eb3 2dbf
000003f0: dbab 63bf 7a82 23bf d9ea 64bf 8fc0 623f

linear2.weight f4 [2, 512]
-1.4450024 -0.2824959 -0.44974166 0.27961674 0.60952914 -1.5709683 -0.43755692 -0.12966248
0.48556513 0.35380328 -1.7715857 0.1433025 0.24820036 0.5843077 -0.74826616 -1.0480542
0.20920114 0.49099818 -0.5770256 0.32364485 -1.1246102 -0.85478586 0.1771613 0.49496087
-0.93157667 0.49480012 0.48985 -0.8261137 0.6194581 -0.81611 -0.310346 -0.9414578
-0.17982157 -0.5464839 -0.79153097 0.22606657 -0.31780517 0.47790295 -0.6685867 0.23754333
-0.8791898 -0.093039 -0.14804499 -0.48895264 0.4679475 -1.2476703 -0.5395163 -0.48266363
0.47256804 0.40976754 -0.89777964 0.29397944 -0.07507688 0.33398086 -0.3024035 0.15110092
0.38005453 0.07686652 0.69795394 0.6656893 0.4338203 0.3570022 0.35181937 -0.4851539
0.60510355 0.24873298 0.3021254 -0.84845805 -1.3371261 0.24339724 0.24582113 0.4678291
-0.64465463 0.4916269 1.1281996 0.5723641 -1.09787 0.44980395 0.30196854 0.35613954
0.39692393 -0.47717842 -0.88534 0.31449005 -0.3875583 0.30502516 -1.3894101 0.24818888
0.3727409 0.71739334 0.19296396 0.6437653 -1.4328067 0.3803037 -0.35085943 -0.9231604
-1.853627 -1.2807897 0.13269769 -0.57792944 -1.1352694 -0.69949055 0.43586358 0.44560477
0.22846434 0.18829224 0.33690193 0.98719805 0.46607322 -0.47968104 0.069351576 0.64775926
0.31360587 -0.46952894 -0.87299615 0.5122679 -0.46724778 -0.87707824 0.5122013 0.5837894
-0.10322067 0.36898544 -1.075983 -0.5527531 -0.08526742 0.31862566 -0.6377114 0.29985115
0.3386456 0.33701414 -0.028941536 -0.09639217 -1.4000533 -0.73705214 0.32988617 -1.0696265
-0.11163771 0.4940808 0.46098083 0.39268196 0.16805285 -0.6241096 -1.439339 -0.26658142
-1.0987979 0.8825358 0.17958798 0.64378077 0.5362066 -0.04497857 -0.35930508 -1.2668358
0.47120667 -0.7221492 0.26947346 0.5220901 -0.44058922 0.3812598 -0.17329146 -0.27039582
-0.5498331 -0.54211676 0.53022075 -0.99739605 0.32209203 -1.9510098 0.23463975 0.4291038
0.28349596 -0.67836285 -0.5504168 0.5690117 0.5460625 -0.1829932 -0.8884081 -0.5402733
-0.08414508 -0.90230596 0.39239967 -2.319219 0.20283845 -0.72731346 1.2479364 0.53706473
0.5026693 -0.568076 -0.14718111 0.33486286 0.27465716 0.5607809 0.30306745 0.20792617
-0.7202785 -0.24823141 -0.74355567 -1.2743728 -0.8134205 0.37529838 0.21676762 0.26441172
0.49567872 -0.18465705 0.6060369 0.26722232 0.35754213 0.40706325 -0.60301125 0.90572685
0.29493377 -0.28236791 -1.0746508 0.32593518 -0.49145326 -0.49819544 0.4791215 1.0374413
0.4294291 0.6418615 0.3599995 0.3763187 -0.23567079 -0.37411827 0.1944322 0.27369934
0.5330031 0.5683073 0.4806995 0.34816435 -0.8708521 -0.42006144 0.1761992 0.5306564
0.6226793 -0.7362421 0.499766 0.32104772 0.5320945 0.42713538 -0.7087563 0.33593035
-1.5862492 -0.57252073 0.4491902 0.92577946 0.4017879 0.38814932 0.3389477 -0.63115966
0.35971087 0.4174032 0.46604073 -1.5040293 0.0049199443 -0.15440162 -0.5754528 0.21329032
00000000: d7f5 b8bf 4da3 90be 8a44 e6be ed29 8f3e
00000010: 1a0a 1c3f 7d15 c9bf 7607 e0be 3ec6 04be
00000020: fe9b f83e b425 b53e 52c3 e2bf e4bd 123e
00000030: 3c28 7e3e 3095 153f 5f8e 3fbf a426 86bf
00000040: d338 563e 1d64 fb3e f3b7 13bf c7b4 a53e
00000050: 3af3 8fbf 3fd3 5abf c669 353e 836b fd3e
00000060: cf7b 6ebf 7156 fd3e 9fcd fa3e 307c 53bf
00000070: ce94 1e3f 96ec 50bf ace5 9ebe 6103 71bf
00000080: 2523 38be 5ee6 0bbf c6a1 4abf ff7d 673e
00000090: 5cb7 a2be b2af f43e 7f28 2bbf 8f3e 733e
000000a0: 9512 61bf 3b8b bebd 1b99 17be 0058 fabe
000000b0: d196 ef3e a9b3 9fbf be1d 0abf b01f f7be
000000c0: 70f4 f13e 0dcd d13e e3d4 65bf 7984 963e
000000d0: e8c1 99bd 8aff aa3e a2d4 9abe 33ba 1a3e
000000e0: 8296 c23e 326c 9d3d 1cad 323f 9d6a 2a3f
000000f0: b21d de3e fec8 b63e ab21 b43e 1866 f8be
00000100: 11e8 1a3f dcb3 7e3e 2eb0 9a3e 8c34 59bf
00000110: f326 abbf 203d 793e 89b8 7b3e 4c87 ef3e
00000120: 1608 25bf 85b6 fb3e d868 903f 7486 123f
00000130: 0187 8cbf b44c e63e 9f9b 9a3e ec57 b63e
00000140: 9d39 cb3e bb50 f4be a4a5 62bf d704 a13e
00000150: 0b6e c6be 422c 9c3e 31d8 b1bf 3a25 7e3e
00000160: e5d7 be3e 17a7 373f 5898 453e cdcd 243f
00000170: 3666 b7bf 2bb7 c23e d9a3 b3be 3d54 6cbf
00000180: a643 edbf ebf0 a3bf e7e1 073e 2ff3 13bf
00000190: 8250 91bf d011 33bf 8329 df3e 4f26 e43e
000001a0: 8ef2 693e aecf 403e 697e ac3e 03b9 7c3f
000001b0: 26a1 ee3e c198 f5be 3308 8e3d 8dd3 253f
000001c0: f390 a03e 1966 f0be ad7c 5fbf fd23 033f
000001d0: 1a3b efbe 3388 60bf a01f 033f 3973 153f
000001e0: 5c65 d3bd a9eb bc3e d0b9 89bf 3a81 0dbf
000001f0: afa0 aebd e722 a33e 0e41 23bf 1786 993e
00000200: f562 ad3e 1e8d ac3e cd16 edbc 4269 c5bd
00000210: f234 b3bf 73af 3cbf d7e6 a83e 85e9 88bf
00000220: 50a2 e4bd 29f8 fc3e ae05 ec3e 9c0d c93e
00000230: 0c16 2c3e a6c5 1fbf 433c b8bf 5c7d 88be
00000240: 69a5 8cbf deed 613f e9e5 373e d1ce 243f
00000250: d644 093f 733b 38bd d6f6 b7be ad27 a2bf
00000260: 0042 f13e c5de 38bf 6df8 893e b2a7 053f
00000270: e994 e1be 7c34 c33e 5173 31be 5271 8abe
00000280: ddc1 0cbf 2ac8 0abf 8cbc 073f 5955 7fbf
00000290: 3fe9 a43e b0ba f9bf 6745 703e 7eb3 db3e
000002a0: 6226 913e 30a9 2dbf 1ee8 0cbf c0aa 113f
000002b0: c1ca 0b3f 9262 3bbe b76e 63bf 5a4f 0abf
000002c0: 4154 acbd 86fd 66bf 9ce8 c83e 166e 14c0
000002d0: e2b4 4f3e 3731 3abf 61bc 9f3f 137d 093f
000002e0: efae 003f 6e6d 11bf a5b6 16be 2573 ab3e
000002f0: dd9f 8c3e 568f 0f3f a82b 9b3e 99ea 543e
00000300: 2c64 38bf 6030 7ebe aa59 3ebf a61e a3bf
00000310: 533c 50bf 1c27 c03e 55f8 5d3e f960 873e
00000320: 9ac9 fd3e bd16 3dbe 3c25 1b3f 5dd1 883e
00000330: c30f b73e 986a d03e f25e 1abf b7dd 673f
00000340: 8f01 973e 8792 90be 288e 89bf fae0 a63e
00000350: c39f fbbe 7913 ffbe 6a4f f53e e0ca 843f
00000360: 22de db3e 0951 243f db51 b83e d8ac c03e
00000370: af53 71be 6e8c bfbe 3c19 473e 5222 8c3e
00000380: e472 083f 967c 113f 3f1e f63e 9942 b23e
00000390: 2af0 5ebf 4b12 d7be 906d 343e 19d9 073f
000003a0: e967 1f3f 5d7a 3cbf 54e1 ff3e 5e60 a43e
000003b0: 5837 083f 7db1 da3e 0e71 35bf 10ff ab3e
000003c0: 370a cbbf b890 12bf 42fc e53e e2ff 6c3f
000003d0: 25b7 cd3e 82bb c63e 8e8a ad3e ae93 21bf
000003e0: 062c b83e dfb5 d53e e49c ee3e 0884 c0bf
000003f0: 7c37 a13b 751b 1ebe e050 13bf c768 5a3e

linear2.bias f4 [2]
0.29794857 0.28750902
00000000: b78c 983e 6234 933e
