code/log/dqn/ckpt/296000.pth (torch, 15775 bytes, 4 tensors)

linear.weight f4 [512, 4]
000000 36 f0 44 be c8 18 ca be 2e 11 29 c0 ba 4f 96 be
       -0.19232258 -0.39472032 -2.6416736 -0.29357702
000010 1c d8 8c 3e 18 98 cb 3e a7 a4 dc 3f fc ce b8 3e
       0.27508628 0.39764476 1.7237748 0.36095417
000020 00 c4 bc 3e 18 ee 56 3e ac 12 0b bf 7d 88 dd 3d
       0.36868286 0.20989263 -0.54325366 0.10817049
000030 8f b1 84 be 7b cb ce bd f2 0b f1 bd 14 21 de 39
       -0.25916716 -0.100974046 -0.117698565 0.00042367785
000040 71 0e 88 3e 2d bd 75 3e 0b b1 0d bf 52 58 d2 bc
       0.26573518 0.23997946 -0.5534827 -0.02567688
000050 dd a6 a8 3e de ae 63 3f 58 b2 24 40 7a 37 35 3f
       0.32939807 0.889387 2.5733852 0.70787776
000060 28 47 ff 3e d5 53 1f 3e 90 f2 34 be 8a 75 6a bc
       0.49858975 0.15559323 -0.17670655 -0.01431025
000070 81 7a c2 3d 3f 37 46 be 28 1d ad 3d de a4 6f 3f
       0.09496022 -0.19357012 0.08452827 0.9361094
000080 9a cd 88 be 1b 63 86 be 5a 45 4b be da e9 8e be
       -0.26719362 -0.26247486 -0.19850674 -0.2791279
000090 03 81 83 be d8 3f 0d 3f ee 8f ac 3d 37 49 2d 3d
       -0.25684366 0.5517554 0.0842589 0.04230615
0000a0 9a 2c 01 3f c4 81 37 bf 0e ac 1a c0 a8 5b 48 bf
       0.5045868 -0.7168238 -2.4167514 -0.78264856
0000b0 00 a7 7b be a0 67 06 be 8a cb aa 3e 12 6e 4a 3e
       -0.24575424 -0.13125467 0.33358413 0.19768551
0000c0 9f 5c 82 be c7 0a 36 3c cc 27 69 3e cb 9d 87 3e
       -0.2546129 0.011110968 0.22769088 0.26487574
0000d0 fe e4 26 3e 64 d6 24 be 46 ec bb 3d 37 ba 41 be
       0.16298291 -0.16097409 0.09175925 -0.18918692
0000e0 cc d2 6e 3c d2 e0 bd be a5 5a 83 3d 6f c7 54 be
       0.014576625 -0.37085587 0.064137734 -0.20779203
0000f0 7b 78 06 3f 87 c6 37 3f 02 7b a3 3e fc de dc 3d
       0.5252759 0.71787304 0.31929785 0.107847184
000100 65 05 16 3e 52 6f 87 bd 6e 93 53 bf 71 61 cd be
       0.14650495 -0.066130295 -0.82646835 -0.40113404
000110 6b 45 dc 3d cf 83 5c 3e 2a 9f 12 bf b9 17 c5 3c
       0.10755428 0.21534656 -0.57274115 0.024059163
000120 38 9c 06 3f 98 40 00 3f bd b6 f7 3f b3 93 ad 3f
       0.5258212 0.5009856 1.9352642 1.3560699
000130 7e b6 0c 3d 9e 11 e0 be 32 a2 33 c0 4d f4 72 bf
       0.034353726 -0.4376344 -2.8067746 -0.94904023
000140 27 7b e6 be f3 f2 19 be 41 3c b2 bf 42 78 42 be
       -0.45015833 -0.15034084 -1.3924638 -0.18991187
000150 ee 02 0c 3f 61 c8 b5 ba 06 69 a4 bf ec 4d 96 bd
       0.5469197 -0.0013868922 -1.2844551 -0.07339081
000160 d9 54 8d 3d f7 05 98 be 97 ca 32 3e fa e7 18 bd
       0.06900949 -0.2969205 0.17460094 -0.037330605
000170 44 87 79 3e 17 0a 07 be d2 74 49 bf bf c4 f8 bd
       0.24368006 -0.13187443 -0.7869388 -0.12146901
000180 db e8 5a 3e 5e 80 95 be 66 a8 fe bf a4 bd 14 bf
       0.2137789 -0.291995 -1.9895141 -0.5810187
000190 3c 9c a2 3e 0d e0 4c 3f 84 5e a7 bd 16 4c 9a be
       0.31759822 0.80029374 -0.08172324 -0.30136174
0001a0 87 53 ba be 6a 36 1c bd f6 21 67 be 3b 0c 32 be
       -0.3639185 -0.03813783 -0.22571549 -0.17387478
0001b0 d9 4b 9e 3e 4e 76 35 3f 7b 53 bb 3f d5 88 17 3f
       0.30917242 0.70883644 1.4634851 0.59193164
0001c0 43 1d 43 3d 55 5b 0c bd 55 57 e6 bb 58 59 ae be
       0.047635328 -0.03426679 -0.0070294538 -0.3405254
0001d0 ee 88 c1 be 0d 96 5b be ef 2f 24 3e 22 9e 95 3c
       -0.37799782 -0.21443959 0.1603391 0.01826388
0001e0 88 bf 9c 3d ca ba c5 bd 87 7b 6e be 9f 56 72 3d
       0.07653719 -0.09654768 -0.2328931 0.05916464
0001f0 38 f5 b6 be b1 70 06 bf dc 58 03 c0 82 52 20 bf
       -0.35733962 -0.52515703 -2.0522985 -0.62625897
000200 ff cc 75 be 24 13 1a bf 1f aa f0 be 26 a0 9c be
       -0.24003981 -0.60185456 -0.47004792 -0.30590934
000210 99 62 eb be 87 a6 9d be e5 ac e4 be f1 e0 57 be
       -0.45973662 -0.30791113 -0.44663158 -0.21081902
000220 16 27 f9 be 91 27 6e be d0 54 36 3f 80 fb a6 bd
       -0.48662633 -0.23257281 0.71223164 -0.081534386
000230 e5 81 dc 3d e4 3c c6 3d 5a 2f a8 3e e3 da 54 be
       0.10766963 0.09679583 0.32848626 -0.20786624
000240 91 58 16 bf 0b 47 ab be a2 1c 83 bf 54 24 f5 be
       -0.5872889 -0.3345264 -1.0243113 -0.4787928
000250 29 ea b6 bd f2 56 c9 be 94 e6 7f be 8c 03 3e be
       -0.08931381 -0.39324147 -0.24990302 -0.1855604
000260 3a cc da 3e 91 3b dc 3d 5a 45 14 be 20 20 36 bf
       0.42733938 0.10753549 -0.1447958 -0.7114277
000270 fe 7a 91 3e 51 0e 0d bf f8 c7 34 be 93 71 75 be
       0.28414148 -0.5509997 -0.17654407 -0.23969106
000280 8c fc 71 be dd c4 46 bf 2c d5 3f c0 cd 8e 76 bf
       -0.23631495 -0.7764414 -2.997386 -0.96311647
000290 d8 e8 e7 be c7 51 2b be f0 c2 a1 be 42 91 24 be
       -0.45294833 -0.16730414 -0.31594038 -0.16071036
0002a0 66 fb 90 bf ea e4 0b be cf 33 63 3f 40 1a 97 3d
       -1.1326721 -0.13661543 0.8875093 0.07378054
0002b0 1b f1 aa 3e a9 73 25 3f 5e 8d 09 3f 87 38 30 3f
       0.33387074 0.6462961 0.53731334 0.68836254
0002c0 e8 03 01 be e9 f9 e9 be 67 a1 b4 3e 03 19 ae be
       -0.12599146 -0.4569848 0.3527939 -0.34003457
0002d0 3c a2 eb be 9e d3 9d be 59 fd 6f 3f 14 9b 05 be
       -0.46022213 -0.30825514 0.9374595 -0.13047439
0002e0 cc 3c c3 3e 45 4b 4f 3e 31 a0 22 bf 92 fa 5e 3e
       0.38132322 0.20243557 -0.6352568 0.21775272
0002f0 2c 63 c6 be 98 1f 83 3e 80 4d 8c 3f 33 ec 3a 3e
       -0.38747537 0.25610042 1.0961151 0.18254165
000300 5e 9e 84 be b1 2c ef bd 8b 76 91 be 30 f4 92 bd
       -0.25902075 -0.11678446 -0.28410754 -0.07175481
000310 76 c3 76 be 86 56 af 3d df 8e d3 be d0 b1 0a 3d
       -0.24098 0.08561425 -0.4131994 0.03386098
000320 39 60 77 3e 3f 18 fe bc 01 3e 8d bf f5 35 cb be
       0.241578 -0.03101742 -1.1034547 -0.39689603
000330 81 89 ae be 3f 28 42 3e 8f 4a 0c be bf 2b e1 3e
       -0.34089282 0.18960665 -0.13700317 0.43978688
000340 fa 2d 29 3e 48 51 42 3d 6f 3a 9e bc 50 ab a5 bd
       0.16521445 0.047440797 -0.019314973 -0.08089316
000350 ec 2f 16 bc f5 d5 69 be 09 db 0f 3b bb 85 43 bd
       -0.009166699 -0.22835524 0.0021950623 -0.047734957
000360 6a 10 70 be 41 7a 10 bf c4 ec 02 c0 91 66 09 bf
       -0.23443761 -0.56436545 -2.045701 -0.5367213
000370 63 be 07 3e 95 57 49 3f ca 58 60 3f 10 ed d3 3e
       0.1325622 0.78649265 0.8763548 0.41391802
000380 f6 bc c6 be c9 9e 03 3e 98 0b 7e be 2a 22 04 3c
       -0.3881604 0.1285354 -0.2480911 0.008064786
000390 b1 58 8b be 4a a5 89 bc 04 12 45 3e 94 ea a0 3e
       -0.27216104 -0.016802449 0.19245154 0.3142897
0003a0 f6 27 36 3e 08 47 28 bd f5 cf c1 bd 3f d0 99 be
       0.17788681 -0.041083366 -0.09463493 -0.30041692
0003b0 3d 76 66 3e ad 8d 4f bf 20 de ca 3d e0 23 fa 3e
       0.22506042 -0.81075555 0.09905648 0.48855495
0003c0 77 b1 1e bd dc 85 90 3e f8 3c 32 be 92 bd 6a 3a
       -0.038743462 0.28227127 -0.1740607 0.000895464
0003d0 cc 49 94 3e 7e 4a 21 bf 5d 4e a5 3e 07 25 b6 be
       0.28962553 -0.6300429 0.3228635 -0.35575125
0003e0 d6 26 91 bd 11 bc 5f be dd 7f 78 be f5 4d 08 3d
       -0.070874855 -0.21849085 -0.24267526 0.03327747
0003f0 8b 83 05 3f 50 d6 bb be 57 4a 25 be 07 dd ae bb
       0.52153844 -0.36686945 -0.1614164 -0.005336407

linear.bias f4 [512]
000000 a7 34 0d bf cb 89 d4 be 46 8a fc be 84 1b 4e 3f
       -0.55158466 -0.41511378 -0.49324244 0.80510736
000010 79 66 73 3f 0e d3 17 bf a6 0e 3c bf 77 64 e1 3d
       0.95078236 -0.5930642 -0.7345985 0.1100549
000020 7a 13 7f 3f 27 a3 61 3f 7f af 93 3e d6 49 46 3f
       0.99639094 0.88139576 0.2884483 0.77456415
000030 2f a0 32 3f fc 39 3c 3f cc e8 cb 3e 75 7e c3 3e
       0.6977567 0.7352598 0.39826047 0.38182417
000040 10 21 0e 3f 2d 10 89 3f 7d 57 ce bd fa 62 bf be
       0.555192 1.0708061 -0.10075281 -0.373802
000050 c9 2b 6d bf ed 5b fa be 15 d1 01 3f 51 30 63 3f
       -0.92644936 -0.4889826 0.5070966 0.887456
000060 70 04 d1 be 33 86 4a 3f a6 18 74 3f 57 d2 16 bf
       -0.40823698 0.7911102 0.9535011 -0.58914703
000070 29 75 81 3f 54 83 3c bf 5b d8 1d 3f ac 46 e8 be
       1.011388 -0.7363789 0.6165826 -0.45366418
000080 fd 63 39 bf f7 38 49 bf 48 87 69 bf 7a f8 82 3f
       -0.72418195 -0.78602546 -0.9122205 1.0232079
000090 ca 79 55 be 82 e8 36 3f f1 9e f0 be 78 1e 50 3f
       -0.2084724 0.7144853 -0.46996263 0.8129649
0000a0 6d 24 ad 3e 0e 08 47 bf 65 85 a5 bd fb 75 0d 3f
       0.33816853 -0.77746665 -0.080820836 0.5525815
0000b0 53 63 66 3f 3f 8d 5e bf ba 78 0d bf f3 26 6d bf
       0.89995307 -0.86934274 -0.5526234 -0.92637557
0000c0 0f 91 42 3f dd bf 1a 3f bf 81 5d bf 7e 55 61 3f
       0.7600259 0.6044901 -0.865261 0.88021076
0000d0 7d 7b 03 bf 08 d2 00 3f ec e2 31 bf 64 c6 0f 3f
       -0.51360303 0.5032048 -0.6948688 0.56162095
0000e0 3e 8b 63 3f 7e 40 44 3f 5c 90 6b 3f a0 36 d8 bd
       0.8888434 0.7666091 0.9201715 -0.10557294
0000f0 79 5f 67 3f 8f ec 4e 3f b4 c0 0d 3f 07 b2 b0 3d
       0.90380055 0.8082971 0.55372167 0.08627706
000100 a2 61 4c 3f ed ef 4c 3f 0f e9 03 3f 00 23 0f bf
       0.79836476 0.800536 0.51527494 -0.5591278
000110 66 34 2f bf 40 60 71 3f ce 06 61 3f 04 79 0f 3f
       -0.6843933 0.9428749 0.8790101 0.5604403
000120 b0 aa 3b bf 9d 16 3b 3f ee 19 f2 be ac 26 ef 3e
       -0.73307323 0.7308138 -0.47285408 0.46709192
000130 0c a5 5c bf 8d 3c 3a 3f ec b1 71 3f 63 c6 3d 3f
       -0.8618934 0.72748643 0.9441211 0.7413084
000140 d1 92 55 3f d1 dd 0a 3f 71 07 0a 3f 76 c2 c5 3e
       0.8342715 0.54244715 0.53917605 0.38624924
000150 27 7c 03 bf ca 26 1b 3f 4a e1 cf 3e bd f1 2b 3f
       -0.51361316 0.6060606 0.4060157 0.6716574
000160 3e eb 54 3f b6 fe da be 51 44 74 3f 59 bc 85 3f
       0.8317145 -0.42772454 0.9541674 1.0448104
000170 2a cb 56 bf 01 c2 74 3f c5 5d 3e bf 54 37 4d bf
       -0.83903754 0.95608526 -0.7436183 -0.8016255
000180 af 3b dc be 5e fa 15 3e 82 b0 21 3f a3 e0 62 be
       -0.43014285 0.14646289 0.63159955 -0.22156005
000190 5e 1f 30 bf 70 32 09 3e a2 96 5b 3f b6 7a 6c 3f
       -0.6879786 0.13398147 0.8577672 0.9237474
0001a0 3d 13 43 3f 43 ee 13 3f d5 b1 42 3f f0 c5 ac be
       0.7620123 0.57785434 0.760526 -0.33744764
0001b0 fe a2 48 3f 8b 6a 1b bf 5a 9a 33 3e 54 00 09 3f
       0.78373706 -0.60709447 0.17539349 0.53516126
0001c0 1f be 55 3f 64 7a 06 3f 7a 99 0c bf 47 55 37 3f
       0.83493227 0.52530503 -0.54921687 0.716145
0001d0 25 90 43 bf ec 10 7c bf 69 70 4f 3f a3 d1 d6 3e
       -0.7639182 -0.9846332 0.810309 0.41956815
0001e0 70 c6 54 bf 78 90 5a 3f 71 9c 41 bf 03 1e 15 bf
       -0.8311529 0.8537669 -0.75629336 -0.5824892
0001f0 09 a5 34 3f 3e 21 1a 3f 1b 50 85 3d 10 28 39 3f
       0.70564324 0.60206974 0.065094195 0.72326756
000200 d6 7a 42 3f 05 99 12 bf df fe e5 3e 24 c2 b5 3d
       0.7596868 -0.5726474 0.44921014 0.0887492
000210 5d f5 93 be 33 c7 02 3f 4d 37 49 3f b1 c1 96 be
       -0.28898135 0.51085204 0.7860001 -0.2944465
000220 0a 34 3b 3f b1 09 8c 3f 7e 42 31 3f df f2 11 3f
       0.7312628 1.0940458 0.69242084 0.57011217
000230 af 98 36 3f 5a a8 a3 3e 80 45 05 bf 05 59 97 be
       0.71326727 0.3196438 -0.52059174 -0.29560104
000240 df e2 3f bf f6 5d 0a bf f5 80 0e 3f 2d af 7e 3f
       -0.7495555 -0.54049623 0.5566552 0.9948605
000250 d3 ae d2 3e 1b 48 78 bf 42 a8 2a bf 0b ab 33 bf
       0.41149005 -0.96985024 -0.6666299 -0.70182866
000260 45 bd 50 3f 77 20 67 bf 07 d8 5f 3f 40 db 83 3f
       0.815388 -0.9028391 0.87439007 1.0301285
000270 ee 7e 39 bf 15 a9 47 3f c6 9d 00 bf a6 8a 4b bf
       -0.72459304 0.77992374 -0.50240743 -0.79508436
000280 d5 9a 10 bf 83 a3 a3 3e 32 5f 1b 3f ec 27 c6 3e
       -0.56486255 0.31960687 0.6069213 0.38702333
000290 49 b2 71 3f 1d 5b f1 be 47 5a 5f 3f 13 ec 4f 3f
       0.94412667 -0.47139826 0.8724713 0.81219596
0002a0 10 0a 50 3f 89 bd 12 bf 26 9f dd be aa 69 45 bf
       0.81265354 -0.5732046 -0.43285483 -0.77114356
0002b0 45 1e 6b 3f 75 b8 7a bf 27 90 c9 be 47 b7 0a 3e
       0.9184306 -0.9793771 -0.39367792 0.13546477
0002c0 96 9a 79 be cb 9c 2e bf da 87 6e 3f 90 b2 fc be
       -0.24375376 -0.68208 0.93176043 -0.49354982
0002d0 21 60 84 3f 8d 9f 34 bf 88 10 d6 3e 40 84 f3 be
       1.0341836 -0.70555955 0.41809487 -0.47561836
0002e0 00 48 2e 3f 51 25 e0 be f9 aa 84 bf 37 e1 48 3f
       0.68078613 -0.4377847 -1.0364677 0.7846865
0002f0 77 e4 4d 3f d7 65 62 3f a7 9c 71 3f 56 2d 1f 3f
       0.80426735 0.88436645 0.9437966 0.6217855
000300 5d fe 39 bf 49 96 41 bf 84 ee 81 be 82 05 29 3d
       -0.7265375 -0.7561994 -0.25377285 0.04126502
000310 12 53 21 bf a0 9d 3a 3f e5 63 38 3f eb f1 1f 3f
       -0.6301738 0.72896767 0.72027427 0.6247851
000320 92 db 20 3f bc ab 60 bf 9d 8f 1d 3f 9b 4d 5e 3f
       0.6283504 -0.87762046 0.6154726 0.86837167
000330 12 18 5d 3f 4b 83 6e 3f 98 13 fb 3e 2d f7 7a 3e
       0.86364853 0.9316909 0.49038386 0.24508353
000340 00 e1 43 3f 5a ad e8 3e b4 0b dc 3e aa 8e 77 3f
       0.765152 0.45444757 0.4297768 0.96702063
000350 8b 38 11 bf af f3 2e be 47 83 60 3f ef b7 73 3f
       -0.567269 -0.17085145 0.87700313 0.95202535
000360 21 e4 57 3f 36 db 93 be 6a f7 25 3f 27 88 61 3f
       0.8433247 -0.28878182 0.6483065 0.88098377
000370 3d 58 5a bf 6c 5a 3d bf a3 e6 6e 3f 34 09 4d 3f
       -0.8529089 -0.739661 0.93320674 0.8009217
000380 21 63 26 3f 84 ea 5b 3f e7 e1 aa 3e 23 81 47 3f
       0.6499501 0.8590472 0.33375475 0.7793142
000390 8b bf 04 bf a3 8a 1f bf fe cd 15 3f 4e f0 41 3f
       -0.5185477 -0.6232092 0.58517444 0.757573
0003a0 62 b2 78 3f c0 ff 58 bf 6f 68 ca be 0b 8f 01 3f
       0.9714719 -0.84765244 -0.39532802 0.5060889
0003b0 9f 7e 3e 3f c9 09 96 be 3f 0f 92 bf 59 83 26 3f
       0.7441196 -0.2930434 -1.1410903 0.6504417
0003c0 05 91 3d bf 2d 23 58 bf d2 3d 42 3f a1 f5 e4 3e
       -0.7404941 -0.84428674 0.7587558 0.4471865
0003d0 04 5d 4c 3f 67 61 22 3f 95 ff 2d 3f 78 af 02 bf
       0.7982943 0.63429874 0.6796811 -0.51048994
0003e0 ad 58 13 3f 57 0c 26 3f 3f 1a 5b 3f db f9 23 bf
       0.57557184 0.6486258 0.85586923 -0.64053124
0003f0 2a 19 3d bf f5 12 50 bf f9 d5 ff 3d 8b 81 59 3f
       -0.7386652 -0.81278926 0.12491984 0.8496329

linear2.weight f4 [2, 512]
000000 59 cd e9 bf ae ed c6 bf 69 93 36 3e fc e0 65 3e
       -1.8265792 -1.5541284 0.1782967 0.22449106
000010 c5 31 1f 3f 2c 3e a0 bf 9d 86 f9 be e0 11 cc 3e
       0.6218532 -1.2518973 -0.48735514 0.39857388
000020 45 66 d0 3e 78 7a ea 3e 6d e3 68 bf b2 68 0b 3e
       0.40703025 0.4579656 -0.90972024 0.13614157
000030 e8 ea e1 3d 15 64 1d 3f 35 46 cb 3d 2a 7e e1 3e
       0.11031133 0.6148084 0.099255 0.44041568
000040 6b 96 ae be c4 4f 22 3f 7e f3 a8 be 33 58 dc be
       -0.34099135 0.6340296 -0.3299827 -0.4303604
000050 a6 0b 92 bf 44 5e fa be 4b 5e 0a 3e 1d 59 25 3f
       -1.1409805 -0.48900044 0.13512532 0.645891
000060 59 ff 6e bf 0d 30 dd 3e ce e9 d9 3e 5a 0e 75 bf
       -0.9335838 0.43200722 0.4256119 -0.95725024
000070 89 54 1c 3f 8a d8 8d bf c0 0a 9b 3e 57 79 88 be
       0.6106649 -1.1081707 0.3028164 -0.26655075
000080 2a 9e 32 be d5 0d 81 bf 69 6d c1 bf b7 cf 07 3f
       -0.17443147 -1.0082346 -1.5111514 0.5305132
000090 43 38 19 3e 39 06 e6 3e d4 58 16 3e 10 07 a0 3e
       0.14962868 0.44926623 0.14682323 0.31255388
0000a0 e0 01 8e bf 89 95 5e bf 85 58 e3 3e 6c 6c 03 bf
       -1.1094322 -0.8694692 0.44403473 -0.51337314
0000b0 0f f3 a7 3e 9d 84 be bf 32 90 f8 be c9 9a b2 bf
       0.32802626 -1.488422 -0.48547512 -1.3953487
0000c0 10 d7 d5 3e 0c 74 ec 3e d8 a9 1c bf b6 63 46 3e
       0.41765642 0.46182287 -0.6119666 0.19373974
0000d0 ef cf 0a bd aa ac 68 3e 38 5c 45 bf 6a 1d d6 be
       -0.033889707 0.22722116 -0.7709384 -0.41819316
0000e0 fe d4 be 3e 34 19 ce 3d 0a 2f 39 3f 1e ca 92 3f
       0.37271875 0.10063401 0.723374 1.1467931
0000f0 24 80 0e 3f 32 05 9a 3e 00 35 92 3e 59 01 c9 3d
       0.5566428 0.3008209 0.2855606 0.0981471
000100 aa bd 1f 3f 92 fa 9b 3d 55 31 8c 3e 90 c0 30 bf
       0.6239878 0.07616152 0.27381387 -0.6904383
000110 6e 15 a6 bf 71 26 16 bf f8 b8 4c 3e 90 5a f9 3e
       -1.297529 -0.58652407 0.19992435 0.48701906
000120 74 bb 44 bf 64 cf 05 3f ec 6a b0 be 86 f9 8e 3e
       -0.7684853 0.5226958 -0.34456575 0.27924746
000130 61 ae 6e bf 69 ef 0f 3f 09 14 74 3e 98 68 7b 3e
       -0.9323483 0.56224686 0.23835768 0.24551618
000140 63 df ef 3e e9 2f 31 bf c5 09 ad bf 3c c8 83 3f
       0.46850118 -0.6921373 -1.3518606 1.0295482
000150 f8 de 0f bf 5a ff 2c 3e 5d 27 8a bf d9 fc 22 3e
       -0.561996 0.16894284 -1.0793263 0.15916766
000160 80 07 80 3e 84 13 1c 3c 52 34 4a 3e b3 13 3f 3f
       0.25005722 0.009526137 0.19746521 0.74639434
000170 89 89 05 bf c2 01 a1 3e 20 60 3a bf f7 4b 36 bf
       -0.52162987 0.31446654 -0.72802925 -0.71209663
000180 ab fd e2 bf ef 70 7b bf a0 7a 37 3e 1f 9c d7 3e
       -1.7733663 -0.982192 0.17917871 0.42111298
000190 1a 99 8d bf ef 2f f6 3e 31 5a e7 3e 2f b4 15 3f
       -1.1062348 0.48083445 0.45185998 0.58478063
0001a0 58 13 20 3e ec c7 49 3e c6 45 b5 3e fd 4b 82 be
       0.15632379 0.1970517 0.35404795 -0.254486
0001b0 f9 b5 d5 3e 3f 1e 10 bf 59 27 bd be e8 0d 55 be
       0.41740397 -0.5629615 -0.36944082 -0.20806086
0001c0 2c ad 45 3e e8 9a 12 3f bf e5 1f bf 68 97 d6 3e
       0.19304341 0.5726762 -0.6245994 0.4191239
0001d0 59 44 98 bf f6 62 a6 bf 91 57 16 3f cb 22 86 3e
       -1.1895858 -1.299895 0.58727366 0.2619842
0001e0 50 92 16 bf f1 6e fe 3e 76 3e 5d bf 5a 0e 3d bf
       -0.58817005 0.49694017 -0.8642343 -0.73850024
0001f0 0c dc 2c bf 9c 52 bf 3d ba 11 ee bd 11 f7 47 3e
       -0.67523265 0.09341928 -0.11624475 0.19527842
000200 c3 18 6c 3e df cb e7 bf 37 92 09 bf 8b 7f c6 be
       0.23056321 -1.8109092 -0.5373873 -0.38769183
000210 15 e4 d0 bd 8d 56 d5 3d 4b 31 89 3e a1 ac 90 bf
       -0.10199753 0.10416899 0.2679542 -1.1302682
000220 b2 77 5e bf b4 ff 0b 3f ad 0f 9a 3e 67 09 76 3e
       -0.8690139 0.54687047 0.30090085 0.24027024
000230 93 2a 2e 3e b4 96 eb be 87 1b ba be 3a f2 94 3e
       0.17008428 -0.46013415 -0.36349127 0.29091054
000240 89 82 00 bd 23 ba dc be 1b a1 2b 3e 81 85 4d 3f
       -0.031374488 -0.4311076 0.16760676 0.80281836
000250 8f 46 95 3e 6c 18 90 bf e8 a0 fd be 73 50 6c bf
       0.29155394 -1.1257453 -0.49536824 -0.92310256
000260 21 cf 0e 3f 23 05 51 bf a3 d6 b1 3e d0 6b 05 3f
       0.55784804 -0.81648463 0.34734067 0.52117634
000270 d2 31 05 bf 1a 22 1e 3e a8 41 1b bc 94 7a 8c be
       -0.52029145 0.15442696 -0.009476103 -0.2743727
000280 c4 3b ee be bb 4e 33 bf 4e cf cf 3e 3c c0 7b bf
       -0.46529973 -0.7004201 0.40587848 -0.983402
000290 2c 11 10 3f c2 cb 37 bf 23 f6 92 3e 93 65 f7 3e
       0.562762 -0.71795285 0.28703412 0.48319682
0002a0 c8 e3 05 3e 2a 6c 02 bf 55 ac b6 bd c1 79 9a bf
       0.13075173 -0.50946295 -0.089195885 -1.2068406
0002b0 6d 0c 13 3f 49 bc 31 bf 10 54 a6 be c0 a2 15 3f
       0.57440835 -0.69427925 -0.3248601 0.5845146
0002c0 7a f0 d6 bf 16 bb 9c bf 2d 69 8d 3e 0b c7 7f bf
       -1.6792138 -1.2244594 0.27619305 -0.9991309
0002d0 63 10 e3 3e f6 8e 25 bf e5 00 f9 3e 8e 76 1a bf
       0.4434844 -0.64671266 0.48633495 -0.6033715
0002e0 df ac bc 3e 81 e6 02 bf 17 a9 57 be 4d 98 92 3e
       0.3685064 -0.5113297 -0.21060596 0.2863182
0002f0 b6 19 b5 3e 91 0e 30 3f 15 97 8d 3e 6c ae 15 3e
       0.35371178 0.68772227 0.2765433 0.14617318
000300 ee 39 64 bf d4 f3 94 bf 6d 71 70 bf dd 4b 59 3f
       -0.89150894 -1.163691 -0.93923074 0.84881383
000310 1f d2 c5 be 7f 24 88 3e 43 c9 32 bf 70 f1 64 3e
       -0.38636872 0.26590344 -0.6983835 0.22357726
000320 26 e5 21 bf 51 d0 16 bf a0 1a 38 3f ca f0 3a 3e
       -0.6324028 -0.58911616 0.71915627 0.18255916
000330 c6 3f 05 3f 6b 99 54 3e 1f 13 1e bf a0 87 24 3f
       0.52050436 0.2076165 -0.61747926 0.6426945
000340 67 7c 84 3e cd 33 a8 be 95 f0 55 bf 32 62 8c 3e
       0.2587616 -0.3285202 -0.83570224 0.27418667
000350 59 5e 85 bf 4e e2 55 be a8 bf af 3e 33 ba 2e 3f
       -1.0419418 -0.2088711 0.3432591 0.6825287
000360 93 66 9e 3e 86 ff 25 bf 71 f7 63 3e cd 7b 05 3f
       0.30937633 -0.6484302 0.2226236 0.5214203
000370 c7 59 db be d0 39 86 bf 70 86 a1 3e 67 62 fc 3e
       -0.42841932 -1.0486393 0.3154788 0.49293825
000380 a5 7b 35 3e 30 7e 04 3f 40 ef 54 3f d6 54 6c 3e
       0.17722948 0.51755047 0.83177567 0.23079237
000390 d4 a9 d2 bf 69 0d 0e be a9 11 b3 3e 7c 30 e1 3e
       -1.6458077 -0.13872303 0.3497441 0.43982303
0003a0 ec 6d 34 3f dc d7 60 bf 65 47 bf be 0c 1c 84 3e
       0.7048023 -0.87829375 -0.37359157 0.25802648
0003b0 84 26 23 3f f6 64 9e 3d 53 f6 14 bf ab 39 61 3e
       0.63730645 0.077341005 -0.5818836 0.21994655
0003c0 18 8b e0 bf 9a 87 47 bf ad d5 17 3f 8e cf 8d 3f
       -1.7542448 -0.77941287 0.5931042 1.1078966
0003d0 2a 62 ea 3e 00 3f 96 3e 90 7d 9b 3e 36 d3 51 bf
       0.45778018 0.2934494 0.30369234 -0.8196291
0003e0 9e 79 53 3e ab 3b db 3e 9e ee af 3e 6d 99 d7 bf
       0.20651862 0.4281896 0.34361738 -1.6843697
0003f0 c5 87 39 bf e4 87 46 bf bf b3 78 be bd 2c 9b 3e
       -0.7247279 -0.775511 -0.24287318 0.3030757

linear2.bias f4 [2]
000000 82 e6 78 3e 5b 70 87 3e
       0.24306682 0.26452908
