code/log/dqn/ckpt/301000.pth (torch, 15775 bytes, 4 tensors)

linear.weight f4 [512, 4]
000000 9f d9 79 be 4d d3 d0 be f3 9c 26 c0 38 60 a6 be
       -0.24399422 -0.4078621 -2.6033294 -0.32495284
000010 da 23 85 3e d8 d3 ba 3e 4d 24 d5 3f 9a 56 c2 3e
       0.26003915 0.3648975 1.6651703 0.37956697
000020 0f 1f af 3e f5 cd 28 3e 24 d3 31 bf 27 b3 a3 3d
       0.34203383 0.16484816 -0.694628 0.07993155
000030 63 d2 83 be 09 b7 a3 bd 4a de ec bd 4d 8a 4a 3c
       -0.2574645 -0.079938956 -0.11565836 0.012362075
000040 12 47 87 3e 4d 73 85 3e eb a1 0e bf e2 b7 ad bc
       0.2642141 0.2606453 -0.5571582 -0.021205846
000050 ba ef 9b 3e ef 1a 55 3f 97 32 1e 40 f5 91 35 3f
       0.30456334 0.8324422 2.4718378 0.7092584
000060 06 a7 f7 3e 13 07 04 3e 41 fc 8f be 9d 31 78 3a
       0.48369616 0.12893324 -0.28122142 0.0009467842
000070 79 a2 9e 3d b1 8a 3c be 9a 9a a0 3d 36 d9 63 3f
       0.07745833 -0.18412282 0.07841988 0.8900331
000080 e9 64 88 be 35 cd 76 be 59 ab 4a be bb c5 89 be
       -0.26639488 -0.24101718 -0.19791926 -0.2690867
000090 01 62 83 be 6e bf 12 3f 5b 85 ab 3d 1c 5c 52 3d
       -0.2566071 0.5732335 0.08375045 0.051357374
0000a0 ab 2f 0a 3f d1 e0 30 bf 94 22 15 c0 d5 31 45 bf
       0.53978986 -0.6909304 -2.3302355 -0.7702916
0000b0 f9 54 79 be ef dd e5 bd 4c a6 ac 3e 29 7b 5a 3e
       -0.24348821 -0.11223971 0.33720624 0.21336044
0000c0 64 4a 81 be 41 56 fc 3c 68 76 6c 3e b5 0f 8f 3e
       -0.25252068 0.030802848 0.23092043 0.2794167
0000d0 44 d1 26 3e a0 02 0f be a2 ad ba 3d ff 1c 39 be
       0.16290766 -0.13965845 0.09115149 -0.18077467
0000e0 d1 5a 8f 3c 8f 29 b4 be 6b 6e 8c 3d b6 55 46 be
       0.01749936 -0.35187957 0.06856998 -0.19368634
0000f0 a1 26 07 3f 5a cc 40 3f 0c 67 ba 3e b2 da 16 3e
       0.5279332 0.75311816 0.36406744 0.14731863
000100 c7 d7 1c 3e 53 41 86 bd 1e c2 4e bf 35 24 ca be
       0.15316688 -0.06555428 -0.8076495 -0.3948075
000110 d4 e0 db 3d 29 67 72 3e 4a d7 12 bf 0d ce 03 3d
       0.10736242 0.23672165 -0.57359755 0.032178927
000120 7e bc 03 3f 5b bc e0 3e 4a e8 e1 3f 69 8c b2 3f
       0.5145949 0.43893704 1.7649014 1.39491
000130 b8 2a ca 3a 80 5e ee be 45 ec 32 c0 c9 a3 57 bf
       0.0015424108 -0.46556473 -2.7956707 -0.8423429
000140 4f 9c f9 be 6d a6 6d be fd 56 bb bf bc fd 52 be
       -0.48752066 -0.23208018 -1.4635922 -0.20604604
000150 be c8 07 3f 21 ca 30 bd 7f 49 ae bf 48 ce 84 bd
       0.53040683 -0.043161515 -1.3616179 -0.064846575
000160 40 d4 90 3d 4b bb 8d be 17 b9 35 3e 53 42 cc bc
       0.070717335 -0.27681956 0.17746387 -0.02493397
000170 91 64 79 3e 4d 6c e2 bd 60 a1 49 bf 1b be e7 bd
       0.2435477 -0.11055813 -0.78761864 -0.113155566
000180 1e 6b 58 3e 36 28 92 be d0 a4 fd bf 23 f7 0f bf
       0.21134612 -0.28546304 -1.9815922 -0.56236476
000190 d1 26 95 3e 1d 4f 54 3f 49 ec be bd 66 74 b5 be
       0.29131177 0.8293322 -0.093224116 -0.35440367
0001a0 3d 1a b9 be ab b1 70 bc d3 49 65 be 92 f8 25 be
       -0.3615283 -0.014690797 -0.22391443 -0.16208103
0001b0 9f 81 8d 3e 4b ac 26 3f e8 c8 ad 3f cb fe 14 3f
       0.27637956 0.6510665 1.3576937 0.58201283
0001c0 c0 b3 34 3d 19 b8 90 bc 7f 05 84 bc 1e b2 af be
       0.044116735 -0.01766591 -0.016115902 -0.3431558
0001d0 08 9e c8 be 40 2d 7e be 81 20 e8 3d 43 a0 c0 bc
       -0.39183068 -0.24821949 0.11334325 -0.023513919
0001e0 44 4e 9f 3d cd 55 9b bd 68 58 6c be 26 0c 91 3d
       0.077786 -0.075847246 -0.230806 0.07082395
0001f0 eb 2b b9 be 41 02 03 bf c0 ff 02 c0 88 cf 23 bf
       -0.3616632 -0.51175314 -2.0468597 -0.6398854
000200 73 c5 97 be f8 16 1e bf 20 b1 f3 be 8d 6e b1 be
       -0.2964283 -0.617538 -0.47596073 -0.34654656
000210 5f 7a ee be 47 19 ae be af dd 0a bf 7c b6 91 be
       -0.46577737 -0.3400366 -0.5424451 -0.28459537
000220 97 d2 00 bf fc 9a 92 be a0 39 20 3f 4e 6f fe bd
       -0.50321335 -0.2863387 0.6258793 -0.124235734
000230 90 02 dd 3d 4c dd f1 3d ad 37 a8 3e ea 5c 4b be
       0.107915044 0.11809787 0.32854977 -0.19859663
000240 7a 4f 1a bf d7 de ad be 44 e5 86 bf b3 d7 fc be
       -0.6027752 -0.33959076 -1.0538716 -0.49383315
000250 4a b5 b5 bd 89 5f be be aa a1 7f be cc 3c 34 be
       -0.08872469 -0.37182263 -0.24964014 -0.17601317
000260 01 ec d8 3e 7c 05 cc 3d e3 f0 46 be a3 20 3b bf
       0.42367557 0.099619836 -0.19427828 -0.73096675
000270 47 f6 91 3e 64 be 07 bf 05 21 33 be 7e 27 6a be
       0.28508207 -0.5302489 -0.17493065 -0.22866628
000280 0d 34 5f be 7d 89 39 bf fa 2f 3d c0 16 98 7d bf
       -0.217972 -0.72475415 -2.9560533 -0.9906019
000290 07 82 f2 be 50 e9 64 be 50 70 d3 be da 99 57 be
       -0.47364828 -0.22354627 -0.41296625 -0.21054783
0002a0 d5 7f 91 bf 36 63 1e be fc 2d 56 3f 3f 0c 93 3d
       -1.1367136 -0.15467533 0.83663917 0.0718007
0002b0 eb 7f aa 3e 9f 63 1e 3f 0a e1 0b 3f a6 6c 27 3f
       0.3330072 0.6187076 0.5464026 0.6540016
0002c0 59 9c ff bd 6f 27 df be b0 52 b5 3e b9 84 a8 be
       -0.12480993 -0.43584773 0.35414648 -0.3291376
0002d0 f8 a1 f1 be d0 f5 b3 be 85 a7 58 3f fc 48 37 be
       -0.47193885 -0.35148478 0.84630615 -0.17898935
0002e0 a5 67 b6 3e 33 3b 27 3e d4 84 40 bf cb 8d 57 3e
       0.3562595 0.16331176 -0.7520268 0.21050183
0002f0 2c 63 c6 be 98 1f 83 3e 80 4d 8c 3f 33 ec 3a 3e
       -0.38747537 0.25610042 1.0961151 0.18254165
000300 8c 11 84 be f7 71 c3 bd f0 e3 90 be 72 04 7a bd
       -0.25794637 -0.095432214 -0.28298903 -0.061039396
000310 75 c6 76 be d0 db db 3d fc 1a d4 be 15 97 2b 3d
       -0.24099143 0.10735285 -0.41426837 0.04189213
000320 39 60 77 3e 3f 18 fe bc 01 3e 8d bf f5 35 cb be
       0.241578 -0.03101742 -1.1034547 -0.39689603
000330 64 b6 ad be f9 6a 57 3e 2b c4 09 be 01 f3 e7 3e
       -0.33928216 0.210369 -0.13453738 0.45302585
000340 fa 2d 29 3e 48 51 42 3d 6f 3a 9e bc 50 ab a5 bd
       0.16521445 0.047440797 -0.019314973 -0.08089316
000350 c6 d9 f5 bb 3b c6 54 be 2a 4c 98 3b 4c ec 11 bd
       -0.0075027673 -0.20778744 0.0046477513 -0.03562574
000360 dd 2b 96 be 12 04 18 bf 27 28 02 c0 ef 49 00 bf
       -0.2933034 -0.5938121 -2.0337007 -0.50112814
000370 a2 36 33 3e 32 9b 43 3f 25 b1 65 3f f8 b1 d7 3e
       0.1750131 0.76408684 0.89723426 0.42127967
000380 3f fa c5 be a8 db 1a 3e c7 6d 7c be 54 b3 94 3c
       -0.38667485 0.15122855 -0.24651252 0.018151917
000390 a3 6d 89 be 55 cf 4a 3b 03 bc 49 3e ab 64 a8 3e
       -0.2684146 0.0030946333 0.19700627 0.32889304
0003a0 e3 d7 32 3e 69 07 c1 bc eb 83 d2 bd 65 8d 9a be
       0.17465167 -0.023563104 -0.102790676 -0.30186
0003b0 b7 f1 76 3e a9 59 51 bf 52 d0 56 3d f5 d8 db 3e
       0.24115644 -0.81777436 0.052444763 0.42938963
0003c0 88 e2 1e bd 9a 7f 9b 3e b0 e3 32 be 79 c0 18 3c
       -0.038790256 0.3037079 -0.17469668 0.009323233
0003d0 92 cc 94 3e f1 fe 1b bf da 2d a6 3e a3 72 b0 be
       0.29062325 -0.60935885 0.32456857 -0.3446246
0003e0 df f7 8d bd f2 63 4a be d1 54 76 be 18 97 38 3d
       -0.06932043 -0.19764689 -0.24055792 0.04506597
0003f0 ca 51 07 3f ef 08 a6 be 27 f4 aa bd e7 1d 99 3c
       0.52859175 -0.3242869 -0.083473496 0.018691016

linear.bias f4 [512]
000000 7a 71 0b bf a5 3a ee be 20 8a 0e bf ee 6d 4e 3f
       -0.54470026 -0.46529117 -0.5567951 0.8063649
000010 3d a4 73 3f 23 70 2c bf e2 6c 48 bf da 14 20 3e
       0.9517248 -0.6735861 -0.7829114 0.15632954
000020 31 68 7f 3f 62 f7 61 3f e0 0a 83 3e f1 7a 46 3f
       0.9976836 0.882681 0.25594234 0.77531344
000030 66 c3 32 3f ce 8c 3c 3f e3 63 cc 3e 13 cb b2 3e
       0.69829404 0.7365235 0.39919958 0.34920558
000040 c3 ea 0d 3f b7 38 89 3f 2e 18 ca bd 01 1e d0 be
       0.5543634 1.0720433 -0.09867893 -0.4064789
000050 d8 df 66 bf a0 41 0a bf 65 0d 02 3f 0b 84 63 3f
       -0.9018531 -0.54006386 0.5080169 0.88873357
000060 14 63 d6 be 22 0e 4b 3f 27 df 74 3f 37 fc 2d bf
       -0.41872466 0.7931844 0.95653003 -0.67962974
000070 26 7c 81 3f f9 ef 3e bf cd 2f 1e 3f 3a 91 00 bf
       1.0116012 -0.7458492 0.6179169 -0.502216
000080 3c 8b 33 bf 8f 21 4d bf fc 48 6a bf f8 22 83 3f
       -0.7013433 -0.8012933 -0.91517615 1.0245047
000090 d8 4d 3c be 39 3b 37 3f e7 fa f4 be fe 74 50 3f
       -0.1838907 0.7157474 -0.47847673 0.81428516
0000a0 10 4b cf 3e e0 1c 46 bf 87 a5 66 bc 32 64 16 3f
       0.40486956 -0.7738781 -0.014077551 0.58746636
0000b0 66 b7 66 3f 48 5d 61 bf 6c b0 1e bf f3 26 6d bf
       0.90123594 -0.8803296 -0.6198795 -0.92637557
0000c0 33 eb 42 3f 40 0b 1b 3f bf 81 5d bf f6 93 61 3f
       0.76140136 0.6056404 -0.865261 0.88116395
0000d0 7d 7b 03 bf 0c 22 01 3f 8e b6 2d bf 0d fe 0a 3f
       -0.51360303 0.50442576 -0.6785668 0.542939
0000e0 c1 00 64 3f 16 a9 44 3f 50 aa 6b 3f 37 17 cf bd
       0.8906365 0.76820505 0.9205675 -0.1011185
0000f0 0d af 67 3f 98 42 4f 3f 76 16 0e 3f 0c 6b 40 3d
       0.9050148 0.8096099 0.5550302 0.046977088
000100 dd 89 4c 3f f0 97 4d 3f fd 38 04 3f 28 05 1d bf
       0.7989786 0.80309963 0.5164946 -0.6133599
000110 2c f4 34 bf fb 9a 6e 3f 8f 55 61 3f c1 7c 0f 3f
       -0.70685077 0.9320523 0.8802118 0.56049734
000120 de 18 3b bf c8 63 3b 3f 2d 6f 03 bf 38 de ef 3e
       -0.7308482 0.7319913 -0.51341516 0.46849227
000130 4f 0b 60 bf be 89 3a 3f 5c 01 72 3f 8a 1a 3e 3f
       -0.87517256 0.7286643 0.94533324 0.74259245
000140 12 da 55 3f 4a e4 0e 3f e7 83 1b 3f b8 02 9a 3e
       0.83535874 0.5581709 0.6074814 0.300802
000150 05 11 14 bf 44 74 1b 3f 2c 9d e1 3e 4e 2c 2c 3f
       -0.5783847 0.6072428 0.44065225 0.67255104
000160 75 3f 55 3f b6 fe da be 77 8d 74 3f fc db 85 3f
       0.8329995 -0.42772454 0.9552836 1.0457759
000170 c0 03 56 bf 13 1d 75 3f a9 38 4e bf 55 c8 5b bf
       -0.8359947 0.9574749 -0.80555207 -0.8585256
000180 54 c8 f7 be ea 2b 2c 3e 9d f5 21 3f 57 f5 21 be
       -0.48395026 0.16813627 0.632654 -0.15816246
000190 5b fb 40 bf 7e b2 06 3e d9 e1 5b 3f 4d ce 6c 3f
       -0.7538354 0.13154027 0.8589149 0.9250229
0001a0 ba bb 42 3f 5d 38 14 3f 9d 0f 43 3f 2b 64 a9 be
       0.760677 0.57898504 0.761957 -0.33084235
0001b0 33 f4 48 3f be e9 11 bf 46 c0 22 3e 10 9c 0a 3f
       0.7849762 -0.5699729 0.15893659 0.5414438
0001c0 56 0a 56 3f 45 d3 eb 3e 45 97 1d bf b5 a1 37 3f
       0.8360952 0.46059623 -0.61558944 0.7173112
0001d0 5a 44 4c bf 43 5e 7b bf e2 c6 4f 3f a2 88 dd 3e
       -0.79791796 -0.98190707 0.81162846 0.43268305
0001e0 88 60 57 bf d7 e1 5a 3f ae e0 44 bf 5e 0c 1c bf
       -0.8413167 0.85500854 -0.76905334 -0.6095637
0001f0 6c 08 41 3f 2b 61 1c 3f c9 45 e9 3d 85 79 39 3f
       0.75403476 0.61085767 0.113902636 0.7245105
000200 ad db 42 3f 34 e4 12 bf a3 f5 ea 3e e1 ee 69 3d
       0.7611645 -0.5737946 0.4589053 0.05711258
000210 3f 87 8b be 02 f3 02 3f 6b 8a 49 3f da 6f b7 be
       -0.27251622 0.5115205 0.78726834 -0.35827523
000220 19 7c 42 3f e4 24 8c 3f e5 a2 31 3f aa 4d 12 3f
       0.7597061 1.0948758 0.6938918 0.57149756
000230 09 dc 36 3f da 48 a4 3e 75 70 16 bf fc 0b 96 be
       0.71429497 0.3208683 -0.58765346 -0.29306018
000240 ad 3c 43 bf 0a 11 0e bf 03 d3 0e 3f 05 e3 7e 3f
       -0.7626446 -0.5549475 0.5579073 0.99565154
000250 3f 25 da 3e 1b 48 78 bf 3d 86 2e bf fa 9a 2f bf
       0.42606542 -0.96985024 -0.6817358 -0.6859585
000260 be f1 50 3f 03 8e 73 bf c4 2f 60 3f 2b e4 83 3f
       0.8161887 -0.9513857 0.87572885 1.0304006
000270 6a 77 40 bf 00 bf 47 3f c6 9d 00 bf f5 21 4c bf
       -0.7518221 0.7802582 -0.50240743 -0.79739314
000280 3f df 18 bf d0 77 b4 3e d4 af 1b 3f 19 54 f7 3e
       -0.59715647 0.3524766 0.6081517 0.4830635
000290 7f ff 71 3f df 5b 07 bf 2b b6 5f 3f 95 34 50 3f
       0.9453048 -0.5287456 0.8738734 0.81330234
0002a0 fe 5c 50 3f 41 58 22 bf d3 6d da be 34 3e 4e bf
       0.81391895 -0.63415915 -0.42661914 -0.80563664
0002b0 b4 6d 6b 3f 3d 31 86 bf c4 ce d9 be ec c2 0d 3e
       0.9196427 -1.0483776 -0.42540562 0.13843888
0002c0 ae a9 70 be ea b3 2e bf 83 dd 6e 3f 4f a3 ea be
       -0.23502228 -0.6824328 0.9330675 -0.4582772
0002d0 51 89 84 3f 1f 6e 41 bf 02 83 d1 3e 25 9c 0f bf
       1.0354406 -0.75558656 0.40920264 -0.5609763
0002e0 99 9a 2e 3f bf 19 df be 04 a4 8e bf 9e 31 49 3f
       0.6820465 -0.4357433 -1.1143804 0.78591335
0002f0 5d c8 4d 3f ed 9a 62 3f 56 ee 71 3f 58 60 1f 3f
       0.80383855 0.8851765 0.94504297 0.62256384
000300 0f 92 39 bf 07 92 4a bf 5b ad 8c be 96 65 d6 3c
       -0.7248849 -0.7912907 -0.2747601 0.026171487
000310 1d 82 1a bf ee ef 3a 3f f1 9f 37 3f 68 3f 20 3f
       -0.6035479 0.73022354 0.71728426 0.6259675
000320 49 23 1a 3f 6a 0b 73 bf 76 db 1d 3f de 96 5e 3f
       0.6021009 -0.9493929 0.61662996 0.86948955
000330 2f 5c 5d 3f d3 50 6e 3f a2 b7 16 3f 90 68 61 3e
       0.86468786 0.9309208 0.5887395 0.22012544
000340 72 2f 44 3f 97 71 e8 3e 84 6e ec 3e 3f e5 77 3f
       0.76634896 0.45399162 0.46178067 0.96834177
000350 4d 87 27 bf 10 7f f1 bd 67 da 60 3f ae f9 73 3f
       -0.6544083 -0.117918134 0.87833256 0.95302856
000360 e0 48 58 3f f2 71 97 be 61 0d 26 3f b1 e6 61 3f
       0.844862 -0.2957912 0.64864165 0.8824263
000370 f2 63 53 bf 92 dd 46 bf f0 41 6f 3f 93 5b 4d 3f
       -0.8257438 -0.7768184 0.9345999 0.80217856
000380 85 9c 26 3f 6a 3a 5c 3f 01 76 88 3e e3 d3 47 3f
       0.6508258 0.8602663 0.2665253 0.7805769
000390 a9 93 15 bf df 8c 25 bf c4 c5 14 3f c1 48 42 3f
       -0.58428437 -0.6466808 0.58114266 0.75892264
0003a0 e6 ee 78 3f bf ae 5b bf 60 7d de be 8e d9 01 3f
       0.9723953 -0.85813516 -0.4345503 0.5072259
0003b0 de be 3e 3f 08 b2 95 be 95 e3 92 bf c1 db 26 3f
       0.7450999 -0.2923739 -1.1475703 0.6517907
0003c0 6d 7d 41 bf 23 10 5c bf 76 8f 42 3f 14 b0 c3 3e
       -0.7558201 -0.8596212 0.76000154 0.38220274
0003d0 19 fe 50 3f 61 ac 22 3f cd 53 2e 3f d4 d0 1e bf
       0.8163772 0.6354428 0.6809662 -0.62037396
0003e0 16 af 13 3f ef 54 26 3f 9b 71 5b 3f 77 a8 29 bf
       0.57689035 0.6497335 0.85720223 -0.6627268
0003f0 e4 78 3f bf 1a 7d 54 bf 5b 6e 2c 3e 09 d5 59 3f
       -0.7479384 -0.8300339 0.16838972 0.8509069

linear2.weight f4 [2, 512]
000000 50 bf ff bf 4d 3d c8 bf 27 88 24 3e 66 77 68 3e
       -1.9980259 -1.5643708 0.16067563 0.22701797
000010 9a 83 1f 3f ae 12 a1 bf 0c b9 01 bf 8f 50 c6 3e
       0.62310183 -1.2583826 -0.50672984 0.38733336
000020 2c b2 d0 3e a9 93 ee 3e 76 87 69 bf fe 5d 0d 3e
       0.40760934 0.4659703 -0.9122232 0.13805386
000030 0e 6f ea 3d 12 dc 1c 3f 0c fa b7 3d 09 70 e1 3e
       0.11446963 0.612733 0.089832395 0.4403079
000040 2f 83 ae be fd c6 22 3f 0a 45 a5 be 28 45 c5 be
       -0.3408446 0.6358488 -0.32279235 -0.38529325
000050 91 95 9b bf 25 33 fe be ce 29 04 3e f5 0a 25 3f
       -1.2155019 -0.49648395 0.12906572 0.64469844
000060 63 5f 6c bf 73 42 dd 3e 47 da db 3e 71 f8 78 bf
       -0.9233305 0.4321476 0.4293997 -0.9725409
000070 1f 4b 1c 3f 55 e3 94 bf 7d 64 9a 3e 37 08 8d be
       0.61052126 -1.1631876 0.3015479 -0.2754533
000080 8d fd 9e be 03 b2 86 bf e4 f9 c6 bf 4d fc 07 3f
       -0.3105282 -1.0523075 -1.554501 0.53119355
000090 3c db 2c 3e 5b 00 e4 3e ab 9d 16 3e 53 1d 9d 3e
       0.16880506 0.4453152 0.14708583 0.30686435
0000a0 1e a5 8e bf 5d 01 69 bf e7 2b ec 3e 45 1f 04 bf
       -1.114414 -0.91017705 0.46127245 -0.51610214
0000b0 02 0f a6 3e 81 4d c4 bf 43 00 02 bf c9 9a b2 bf
       0.32433325 -1.5336152 -0.5078165 -1.3953487
0000c0 ca 24 d7 3e d4 62 ef 3e d8 a9 1c bf 16 ff 4c 3e
       0.42020255 0.46755087 -0.6119666 0.20019183
0000d0 ef cf 0a bd ad 83 64 3e d4 e6 71 bf e2 6b d4 be
       -0.033889707 0.22315855 -0.9449284 -0.41488558
0000e0 12 e0 c1 3e ab 00 d6 3d 7f 05 39 3f 81 21 8e 3f
       0.37866265 0.10449346 0.7227401 1.1103975
0000f0 59 60 0f 3f 5e 90 96 3e 8c 07 91 3e fb 5d c9 3d
       0.5600639 0.29407018 0.2832607 0.098323785
000100 0a eb 1f 3f 91 23 ab 3d 1f 22 8a 3e 03 c7 32 bf
       0.62468016 0.08356393 0.26979157 -0.6983492
000110 25 c0 b0 bf 76 ce 17 bf 99 d5 49 3e 72 0c fc 3e
       -1.3808638 -0.5929941 0.19710387 0.49228245
000120 f6 92 4d bf 10 2c 05 3f 6d f5 bf be 90 e5 91 3e
       -0.8030237 0.5202036 -0.37491933 0.28495455
000130 74 b9 7e bf 1a 98 0f 3f 6c f5 71 3e d6 4e 7d 3e
       -0.9950173 0.56091464 0.23628777 0.24737105
000140 d4 69 f0 3e 13 5d 2f bf a7 73 ae bf b2 a4 84 3f
       0.4695574 -0.68501395 -1.3629044 1.0362761
000150 01 5c 0e bf c4 a9 2c 3e 16 64 86 bf 5a b2 29 3e
       -0.55609137 0.16861635 -1.0499294 0.16571942
000160 74 09 81 3e 84 13 1c 3c eb f7 49 3e 4c 0a 3f 3f
       0.25202525 0.009526137 0.1972348 0.74625087
000170 f1 ab 0d bf 66 a7 a1 3e c5 b6 3d bf 4c 62 3a bf
       -0.55340487 0.31573027 -0.7410701 -0.7280624
000180 ec 36 e2 bf fe e7 7a bf 7a c1 39 3e e5 6a d5 3e
       -1.7673011 -0.9801024 0.18140212 0.41683117
000190 e1 73 8f bf 00 03 f3 3e ee c9 e9 3e bc 64 15 3f
       -1.1207238 0.47463226 0.45661873 0.58356833
0001a0 22 84 21 3e f2 29 45 3e d1 1f b2 3e 5c 01 8d be
       0.15773061 0.19254282 0.347899 -0.275401
0001b0 1a 05 d4 3e ba 14 36 bf 2c ae b9 be ea 5c 49 be
       0.41410142 -0.71125376 -0.36265695 -0.1966435
0001c0 13 ca 3f 3e 73 ca 11 3f f0 3e 22 bf 91 22 d7 3e
       0.18729429 0.5694954 -0.63377285 0.4201856
0001d0 4d c5 9c bf f9 71 ab bf 91 2e 15 3f a1 5c 8e 3e
       -1.2247711 -1.3394157 0.5827418 0.27805045
0001e0 2f 3b 24 bf 08 a3 00 3f e9 a8 6d bf 7c c3 51 bf
       -0.64152807 0.50248766 -0.9283586 -0.8193891
0001f0 c5 86 2f bf 06 20 da 3d 33 8d d8 bd 4d ac 4b 3e
       -0.68565017 0.10650639 -0.105738066 0.19889946
000200 e2 d9 6b 3e 95 77 ea bf 94 13 0b bf 9c fa c0 be
       0.23032334 -1.8317744 -0.5432675 -0.376912
000210 82 04 e1 bd f7 bc d7 3d 04 17 88 3e 05 87 8f bf
       -0.10987188 0.10534089 0.2658006 -1.121308
000220 c4 f4 5f bf d0 b9 0c 3f c2 8f 96 3e ba ac 74 3e
       -0.8748286 0.5497103 0.29406554 0.23894015
000230 ca 2b 33 3e 8e 0f e3 be 27 01 bc be fc 33 8e 3e
       0.17497173 -0.44347805 -0.3671963 0.27774036
000240 46 a0 de 3b 2f a0 24 bf 7d ec 27 3e e4 28 4d 3f
       0.0067940084 -0.6430692 0.16398807 0.8014052
000250 92 43 96 3e 6c 18 90 bf 10 95 07 bf e1 d4 91 bf
       0.29348427 -1.1257453 -0.52961826 -1.139309
000260 c5 b1 0e 3f cf 0d 58 bf 3d 1b b2 3e 27 cc 05 3f
       0.55740005 -0.8439607 0.34786406 0.52264637
000270 e9 80 14 bf bb ec 23 3e a8 41 1b bc 7d 89 c5 be
       -0.580092 0.16008274 -0.009476103 -0.38581458
000280 2b 7d f7 be bf 0d 2c bf 7f 37 d0 3e b4 48 7e bf
       -0.48337683 -0.67208475 0.4066734 -0.99329686
000290 43 40 11 3f 44 20 3e bf 7e be 96 3e 65 be f9 3e
       0.5673868 -0.74267983 0.2944221 0.48778072
0002a0 22 0b 09 3e ba da 06 bf 95 2d 1f be 75 27 9e bf
       0.13383153 -0.526775 -0.15544732 -1.2355791
0002b0 dd ea 12 3f b8 dd 34 bf 3c 56 d0 be 44 4a 17 3f
       0.5738962 -0.70650816 -0.40690792 0.59097695
0002c0 15 c5 d7 bf 11 0e a6 bf 4c 4a 8d 3e d9 e5 8a bf
       -1.685702 -1.2973043 0.27595747 -1.0851394
0002d0 cd 37 e1 3e 1d a7 2a bf 23 80 f7 3e 60 3a 1f bf
       0.43987885 -0.66661245 0.48339948 -0.6219845
0002e0 d4 31 b9 3e 45 bb 29 bf 0e 0b 61 be 36 18 91 3e
       0.36170828 -0.66301376 -0.21976873 0.28338784
0002f0 0b 21 b7 3e a6 ad 30 3f 07 a2 8e 3e 67 9f 0f 3e
       0.35767397 0.69014966 0.27857992 0.14025651
000300 8b d6 82 bf 32 82 99 bf d9 2b 70 bf 4e a8 5b 3f
       -1.0221723 -1.1992857 -0.93816906 0.8580369
000310 a9 87 21 bf cc 22 88 3e 06 1a 34 bf dc 74 65 3e
       -0.63097626 0.26589048 -0.7035221 0.2240786
000320 d7 2e 23 bf 62 2a 1a bf 56 2d 37 3f 14 fc 36 3e
       -0.63743347 -0.6022092 0.7155355 0.17869598
000330 3d 0b 07 3f c2 3b 55 3e 14 0d 21 bf 52 92 28 3f
       0.52751523 0.20823577 -0.6291058 0.6584827
000340 20 22 83 3e 69 e8 a7 be e7 53 50 bf 00 90 8b 3e
       0.25611973 -0.32794502 -0.81378025 0.272583
000350 b1 f6 86 bf 4f 6b 4e be b0 81 ad 3e 7e 44 2e 3f
       -1.0544034 -0.20158122 0.33888006 0.6807326
000360 7c 13 9c 3e e8 72 28 bf 7d 61 6a 3e 0c f5 05 3f
       0.30483615 -0.65800333 0.22888751 0.52327037
000370 93 9d 03 bf 80 1d 8a bf 18 8c a4 3e 41 82 fe 3e
       -0.51412314 -1.0790253 0.32138133 0.4970875
000380 fc ad 3b 3e 4d 52 05 3f 71 da 56 3f cb c9 69 3e
       0.18328089 0.52078706 0.83927065 0.22830884
000390 47 91 d3 bf bc 62 19 be 13 a9 ad 3e d0 d8 dd 3e
       -1.652871 -0.1497907 0.33918056 0.43329477
0003a0 12 e0 33 3f ee 3c 6c bf ec ca bd be ff 2d 81 3e
       0.7026378 -0.9228047 -0.3706888 0.25230405
0003b0 37 b4 22 3f d2 c8 b6 3d 47 c2 24 bf 25 80 5b 3e
       0.63556236 0.08925022 -0.64358944 0.21435602
0003c0 c2 05 ea bf c8 6a 57 bf f8 8d 18 3f 73 a6 8d 3f
       -1.8283007 -0.8414731 0.5959163 1.1066421
0003d0 5f 15 ed 3e 7a aa 92 3e 48 d4 98 3e 24 ca 57 bf
       0.46305367 0.28645688 0.29849458 -0.8429282
0003e0 85 1c 4e 3e 0a e0 d9 3e f2 e8 ac 3e 71 bb e3 bf
       0.20128067 0.4255374 0.33771473 -1.7791578
0003f0 69 b7 44 bf 23 a0 5b bf 03 db 6d be 80 5d 99 3e
       -0.7684236 -0.85791224 -0.23228078 0.29954147

linear2.bias f4 [2]
000000 8d 79 79 3e 4a 4c 88 3e
       0.24362774 0.26620704
