code/log/dqn/ckpt/337000.pth (torch, 15775 bytes, 4 tensors)

linear.weight f4 [512, 4]
0	0xbe883670	-0.26604033
1	0xbee4ceed	-0.44689122
2	0xc0292e34	-2.643445
3	0xbebf32e8	-0.37343526
4	0x3e9b410f	0.30323073
5	0x3ead0c86	0.33798617
6	0x3fd1a2be	1.637779
7	0x3e6fa291	0.23401858
8	0x3ed09e87	0.40745947
9	0x3e19e3d7	0.1502832
10	0xbf5b9ff4	-0.85790944
11	0x3d5d0578	0.053960294
12	0xbe8bdf6b	-0.27318892
13	0xbdc7c6e9	-0.09754736
14	0xbe2f7beb	-0.17137115
15	0x3cb710c3	0.02234686
16	0x3e7a533f	0.24445818
17	0x3e7a1313	0.24421339
18	0xbf16e84f	-0.58948225
19	0xbcac3d71	-0.021025391
20	0x3eb50f8e	0.3536343
21	0x3f4aa88d	0.7916344
22	0x4019f708	2.4057026
23	0x3f13a254	0.5766957
24	0x3f0be277	0.5464243
25	0x3da15b2c	0.07878718
26	0xbeb015d0	-0.34391642
27	0xbd3fcf53	-0.04682858
28	0x3e00eb2a	0.12589708
29	0xbe5ce0bb	-0.21570103
30	0x3e1ef5c4	0.1552344
31	0x3f538e83	0.8263933
32	0xbe911f44	-0.28344166
33	0xbe84aa35	-0.25911108
34	0xbe7eae6b	-0.24871223
35	0xbe85a9ff	-0.2610626
36	0xbe8cbeb6	-0.2748925
37	0x3f0e315a	0.55544055
38	0x3d1acb40	0.03779149
39	0x3d6b3707	0.057425525
40	0x3f18a324	0.5962393
41	0xbf2df75e	-0.6795558
42	0xbffb85ec	-1.9650245
43	0xbf19b3b2	-0.6003982
44	0xbe7a94a2	-0.24470761
45	0xbde09025	-0.109649934
46	0x3e8a8a4e	0.27058643
47	0x3e444f88	0.19170964
48	0xbe7b9d6d	-0.24571772
49	0x3d1ee671	0.038793985
50	0x3e2a3579	0.1662196
51	0x3e7483cb	0.238784
52	0x3e135cd0	0.14390874
53	0xbe224486	-0.15846452
54	0x3d3f30ff	0.046677586
55	0xbe32ff07	-0.17480098
56	0x38e32f25	0.00010832985
57	0xbec16660	-0.37773418
58	0xbbb762f7	-0.0055965143
59	0xbe379201	-0.1792679
60	0x3efc2667	0.4924805
61	0x3f3af53b	0.7303044
62	0x3e916d21	0.2840357
63	0x3e24bfc5	0.1608878
64	0x3e1f45f4	0.15554029
65	0xbdac5486	-0.08414559
66	0xbf5beaa3	-0.859049
67	0xbec57d92	-0.38572365
68	0x3db4fd62	0.088373914
69	0x3e5f92e3	0.21833377
70	0xbf1df9ed	-0.6170948
71	0x3d1a0831	0.03760547
72	0x3f0cbfbd	0.5498007
73	0x3ede6a45	0.43440452
74	0x3fdc9676	1.7233417
75	0x3fb7abc3	1.4349293
76	0x3d93135e	0.071814284
77	0xbf111780	-0.56676483
78	0xc02452c8	-2.5675526
79	0xbf299eaa	-0.6625773
80	0xbefa8fd3	-0.48937854
81	0xbe940ab8	-0.28914428
82	0xbfc3c5e7	-1.529477
83	0xbe50ae13	-0.20378904
84	0x3f0b494e	0.5440873
85	0xbe150b5b	-0.14555113
86	0xbfb3ac74	-1.4037004
87	0xbdcd9ae5	-0.100393094
88	0x3d51b014	0.05119331
89	0xbe9a5def	-0.3014979
90	0x3deeaba4	0.116538316
91	0xbc4a9a69	-0.012365916
92	0x3e65df56	0.22448477
93	0xbe0460d9	-0.1292757
94	0xbf54e6ad	-0.83164483
95	0xbddbd7be	-0.10734509
96	0x3ea43b16	0.3207633
97	0xbea001c6	-0.31251353
98	0xbffc7f73	-1.9726394
99	0xbf1db332	-0.61601555
100	0x3e530fd3	0.20611505
101	0x3f468749	0.7755018
102	0xbe293a1b	-0.16526072
103	0xbeae2152	-0.34009796
104	0xbebcb494	-0.3685652
105	0xbceac3c2	-0.028657798
106	0xbe8a9292	-0.2706495
107	0xbe10cf1a	-0.14141503
108	0x3eb9f662	0.36320788
109	0x3f23379d	0.63756734
110	0x3f9c666a	1.2218754
111	0x3ed9898c	0.42487752
112	0x3cd6494a	0.026157994
113	0xbcdb3155	-0.026756922
114	0xbcb9dbc7	-0.022687806
115	0xbeb389c2	-0.35066038
116	0xbec35fb8	-0.38158965
117	0xbe795583	-0.24349026
118	0x3d662596	0.05618819
119	0xbdbf3087	-0.09335428
120	0x3d71d592	0.059041567
121	0xbdc67b71	-0.09691513
122	0xbe927393	-0.286038
123	0x3da840a9	0.08215458
124	0xbebbee1b	-0.36705098
125	0xbeef9eb0	-0.46800756
126	0xc005cb76	-2.0905433
127	0xbf30339b	-0.68828744
128	0xbea6225e	-0.32448095
129	0xbf1e447a	-0.61823237
130	0xbf027f27	-0.5097527
131	0xbedb4db7	-0.4283273
132	0xbee17a10	-0.4403844
133	0xbed09718	-0.40740275
134	0xbf385d7a	-0.72017634
135	0xbe926c78	-0.2859838
136	0xbef4901d	-0.477662
137	0xbe9fa087	-0.3117716
138	0x3f0573b5	0.5212968
139	0xbe309bcf	-0.17246936
140	0x3db655c9	0.08903081
141	0x3dca8af1	0.09889782
142	0x3e902655	0.28154245
143	0xbe43df43	-0.19128136
144	0xbf037377	-0.5134806
145	0xbe9b90d4	-0.30383933
146	0xbf45acc6	-0.77216756
147	0xbf26ef3b	-0.65208787
148	0xbdd9ec0d	-0.10640726
149	0xbec807ad	-0.39068356
150	0xbe9924c5	-0.29910865
151	0xbe2c9a8d	-0.16855831
152	0x3edeaad2	0.434897
153	0x3d98d95c	0.07463333
154	0xbec6f534	-0.3885895
155	0xbf31f46f	-0.695136
156	0x3e881e52	0.26585633
157	0xbf0d4660	-0.5518551
158	0xbe69dfee	-0.22839329
159	0xbe5f538d	-0.21809216
160	0xbe57be3e	-0.21068665
161	0xbf37d51a	-0.7180954
162	0xc03d3580	-2.9563904
163	0xbf5bf498	-0.85920095
164	0xbeeb9c5a	-0.46017724
165	0xbe82d2a3	-0.25551328
166	0xbf0acd0f	-0.54219145
167	0xbe870aa1	-0.26375297
168	0xbf954397	-1.1661252
169	0xbdd84730	-0.10560453
170	0x3f980c45	1.1878744
171	0x3e3aefea	0.18255582
172	0x3ebad5ec	0.36491334
173	0x3f1f949f	0.6233615
174	0x3f2985a4	0.66219544
175	0x3f32049b	0.6953828
176	0xbe11acf8	-0.14226139
177	0xbee93ec7	-0.45555708
178	0x3e99a8ef	0.300117
179	0xbea39830	-0.31952047
180	0xbeea1256	-0.45717114
181	0xbec2eade	-0.38069814
182	0x3f3bac54	0.73309827
183	0xbe6dcd37	-0.23222815
184	0x3ee164bc	0.44022167
185	0x3e09d7fe	0.134613
186	0xbf54b3e9	-0.8308702
187	0x3e09efd0	0.13470387
188	0xbec25251	-0.37953427
189	0x3e872d2e	0.26401657
190	0x3f8b49a6	1.0881851
191	0x3e430d59	0.1904806
192	0xbe8c1a30	-0.2736373
193	0xbde3b5fe	-0.11118697
194	0xbeaa3d86	-0.33250064
195	0xbd59158e	-0.05299907
196	0xbe80b3f8	-0.25137305
197	0x3dc44c91	0.095849164
198	0xbee990cb	-0.4561828
199	0x3d30bd86	0.043149494
200	0x3e776039	0.241578
201	0xbcfe183f	-0.03101742
202	0xbf8d3e01	-1.1034547
203	0xbecb35f5	-0.39689603
204	0xbea92266	-0.33034056
205	0x3e61a18e	0.22034284
206	0xbe4c7ba9	-0.19969048
207	0x3ecf49a2	0.40485865
208	0x3e292dfa	0.16521445
209	0x3d425148	0.047440797
210	0xbc9e3a6f	-0.019314973
211	0xbda5ab50	-0.08089316
212	0xbcd17b37	-0.025571449
213	0xbe6abbf0	-0.22923255
214	0xbd5bb0aa	-0.053635277
215	0xbcc3ffb3	-0.023925638
216	0xbea36b00	-0.31917572
217	0xbf1c5017	-0.6105971
218	0xc0075a7d	-2.114898
219	0xbf038150	-0.5136919
220	0x3e56cbb1	0.2097614
221	0x3f43ba61	0.76456267
222	0x3f7da124	0.99074006
223	0x3ef51b7e	0.47872537
224	0xbec33e8a	-0.3813365
225	0x3e0f4557	0.13991295
226	0xbea06e0f	-0.31333968
227	0x3d2ec945	0.042672414
228	0xbe852e39	-0.26011828
229	0x3c4dcd55	0.012561162
230	0x3dfeb317	0.124365024
231	0x3e922a70	0.28548002
232	0x3e1faa16	0.15592226
233	0xbd0b2a4d	-0.033975888
234	0xbde88db9	-0.113551565
235	0xbe9de775	-0.3084065
236	0x3e5429cf	0.20719074
237	0xbf54f379	-0.8318401
238	0x3e47c387	0.19508182
239	0x3eeecb67	0.4663956
240	0xbd6be763	-0.057593714
241	0x3e921125	0.28528705
242	0xbe6090a5	-0.21930178
243	0x3c78588c	0.01515783
244	0x3e8af0e6	0.27136916
245	0xbf2196d5	-0.63120776
246	0x3e8a81e2	0.27052218
247	0xbeaae85f	-0.3338041
248	0xbdb1a07c	-0.08673188
249	0xbe5ee955	-0.21768697
250	0xbe981bb6	-0.29708642
251	0x3d647483	0.055775177
252	0x3ef71e03	0.48265085
253	0xbeae8525	-0.34085956
254	0xbde9f9ab	-0.114245735
255	0xbc5af441	-0.013363899

linear.bias f4 [512]
0	0xbf132827	-0.5748314
1	0xbf202dcf	-0.625699
2	0xbf2e33a4	-0.6804755
3	0x3f57d37b	0.8430707
4	0x3f7c0f56	0.984609
5	0xbf5bbb8d	-0.85833055
6	0xbf792495	-0.97321445
7	0x3e26045b	0.16212599
8	0x3f8478b6	1.0349338
9	0x3f6b33c8	0.91875887
10	0x3e812791	0.252255
11	0x3f52987d	0.8226393
12	0x3f407533	0.7517883
13	0x3f45f616	0.7732862
14	0x3edc957d	0.430828
15	0x3eac10f8	0.33606696
16	0x3f0cc456	0.54987085
17	0x3f8de3e9	1.1085178
18	0xbde7f827	-0.11326628
19	0xbf254617	-0.64560074
20	0xbf6b785e	-0.9198054
21	0xbf49366d	-0.7859867
22	0x3f0a9101	0.5412751
23	0x3f6ceec6	0.9255184
24	0xbf01112b	-0.5041682
25	0x3f5f7050	0.8728075
26	0x3f8048b1	1.0022184
27	0xbf5636ba	-0.83677256
28	0x3f847442	1.0347979
29	0xbf49e0e8	-0.78858805
30	0x3f27a4f3	0.6548607
31	0xbf0caf58	-0.54955053
32	0xbf359a9c	-0.7093904
33	0xbf5bbcbe	-0.8583487
34	0xbf797c7f	-0.9745559
35	0x3f87e0c1	1.0615464
36	0xbd16a542	-0.036778696
37	0x3f40bba9	0.75286347
38	0xbf1f5937	-0.62245506
39	0x3f59e86e	0.85120285
40	0x3f1072cb	0.5642516
41	0xbf50619b	-0.81398934
42	0xbd35eb8e	-0.044414096
43	0x3f19afd1	0.600339
44	0x3f70337c	0.9382856
45	0xbf6daa12	-0.9283763
46	0xbf495391	-0.7864314
47	0xbf6f2f5f	-0.9343166
48	0x3f4cca9a	0.79996645
49	0x3f25d59c	0.6477907
50	0xbf5d81bf	-0.865261
51	0x3f708478	0.9395213
52	0xbf037b7d	-0.51360303
53	0x3f0a5ebd	0.5405081
54	0xbf316793	-0.69298667
55	0x3f0e5d92	0.55611527
56	0x3f72af9d	0.94799215
57	0x3f5275ff	0.822113
58	0x3f721eaa	0.9457804
59	0xbda85c5c	-0.08220741
60	0x3f7100ea	0.9414202
61	0x3f58b1af	0.84646124
62	0x3f178ac1	0.59196097
63	0x3d70c68d	0.058783103
64	0x3f54328d	0.82889634
65	0x3f5e4e8f	0.8683862
66	0x3f0d8409	0.55279595
67	0xbf5d401d	-0.86425954
68	0xbf3776cb	-0.7166564
69	0x3f611dca	0.8793608
70	0x3f6a7c7f	0.91596216
71	0x3f151489	0.5823446
72	0xbf427e41	-0.759739
73	0x3f44a080	0.76807404
74	0xbf2c128e	-0.6721581
75	0x3f0523b5	0.5200761
76	0xbf65e28a	-0.89798796
77	0x3f43bced	0.7646015
78	0x3f7b3aea	0.9813677
79	0x3f478c98	0.77948904
80	0x3f5ee096	0.8706144
81	0x3f027479	0.50958973
82	0x3f2a5c05	0.6654666
83	0x3e973e67	0.29539797
84	0xbf501886	-0.8128742
85	0x3f2411bd	0.64089566
86	0x3ee1f35a	0.44130975
87	0x3f3a3797	0.72741073
88	0x3f5e987b	0.86951417
89	0xbedafeb6	-0.42772454
90	0x3f7c9b2e	0.98674285
91	0x3f8a2264	1.0791745
92	0xbf5d0157	-0.8633017
93	0x3f7eb9ea	0.9950243
94	0xbf834445	-1.0255209
95	0xbf88cffe	-1.0688474
96	0xbf163516	-0.5867475
97	0x3ee5a8ad	0.44855252
98	0x3f2b235d	0.66850835
99	0xbd703943	-0.05864836
100	0xbf727967	-0.94716495
101	0x3e25c542	0.16188529
102	0x3f65171c	0.8948839
103	0x3f76354b	0.9617507
104	0x3f4e3291	0.8054591
105	0x3f1d519f	0.6145267
106	0x3f4cadfa	0.7995297
107	0xbeb1c25a	-0.3471859
108	0x3f524872	0.8214179
109	0xbf1b9c68	-0.6078553
110	0x3ebaaacc	0.36458433
111	0x3f011fd8	0.50439215
112	0x3f5f2a41	0.8717385
113	0x3ed7c546	0.42142695
114	0xbf5ae32e	-0.855029
115	0x3f40f6a1	0.75376326
116	0xbf75f037	-0.96069664
117	0xbf85d52f	-1.0455683
118	0x3f594f5f	0.84886736
119	0x3f009eba	0.502422
120	0xbf611290	-0.8791895
121	0x3f6442bd	0.89164335
122	0xbf4cdf18	-0.80027914
123	0xbf1f2a6c	-0.62174106
124	0x3f8f299f	1.1184577
125	0x3f2c9069	0.6740785
126	0x3e0e31b1	0.13886143
127	0x3f42b9ee	0.76064956
128	0x3f4ca2c1	0.7993584
129	0xbf1d70ba	-0.6150013
130	0x3ee008d3	0.43756732
131	0x3d4ba2d1	0.04971582
132	0x3cdb904d	0.026802206
133	0x3f0b577c	0.54430366
134	0x3f532405	0.82476836
135	0xbeea9a3a	-0.4582079
136	0x3f427de9	0.75973374
137	0x3f905637	1.1276311
138	0x3f3b2b25	0.7311271
139	0x3f1bc801	0.60852057
140	0x3f432aa9	0.7623697
141	0x3e6a1638	0.22860038
142	0xbf571f80	-0.8403244
143	0xbea859a4	-0.3288089
144	0xbf379f6d	-0.7172764
145	0xbf093ce7	-0.53608555
146	0x3f182f7d	0.5944746
147	0x3f8366f0	1.0265789
148	0x3f357f2f	0.7089719
149	0xbf766fb3	-0.9626419
150	0xbf3c00ac	-0.73438525
151	0xbf2840c9	-0.65723854
152	0x3f592f15	0.84837466
153	0xbf916394	-1.1358514
154	0x3f69aec3	0.9128229
155	0x3f871b38	1.0555182
156	0xbf49199e	-0.78554714
157	0x3f5618f1	0.8363181
158	0xbf009dc6	-0.50240743
159	0xbf4ddb6c	-0.80412936
160	0xbf1f7013	-0.62280387
161	0x3e9ed65e	0.31022924
162	0x3f2522bd	0.6450613
163	0x3f529ab8	0.8226733
164	0x3f7b3c32	0.98138726
165	0xbf123e77	-0.57126564
166	0x3f691cd1	0.91059595
167	0x3f59504d	0.84888154
168	0x3f5947c0	0.84875107
169	0xbf552fbd	-0.8327597
170	0xbecbfdd2	-0.39842087
171	0xbf79f797	-0.9764342
172	0x3f74bb97	0.9559874
173	0xbfa6facd	-1.3045288
174	0xbee6234b	-0.449488
175	0x3ce0ceb4	0.027442314
176	0xbe787dc1	-0.24266721
177	0xbf31e7e9	-0.6949449
178	0x3f786120	0.970232
179	0xbef7d7bd	-0.48406783
180	0x3f893a83	1.0720981
181	0xbf70b660	-0.9402828
182	0x3ee08a29	0.43855408
183	0xbf353dee	-0.7079762
184	0x3f38175d	0.7191065
185	0xbedf8921	-0.4365931
186	0xbfae04a1	-1.3595163
187	0x3f528cfc	0.82246375
188	0x3f564985	0.8370593
189	0x3f6acbc6	0.91717184
190	0x3f7b3fed	0.9814442
191	0x3f27f643	0.6561014
192	0xbf3c0e48	-0.7345929
193	0xbf735ef2	-0.9506675
194	0xbeeb3336	-0.45937508
195	0xbd802595	-0.06257168
196	0xbf0e0b63	-0.55486125
197	0x3f4446d8	0.766706
198	0x3f2e3c10	0.680604
199	0x3f299250	0.6623888
200	0x3f0b2d37	0.5436587
201	0xbf981c80	-1.1883698
202	0x3f2703e7	0.6524033
203	0x3f67956a	0.9046236
204	0x3f664743	0.89952487
205	0x3f7750db	0.9660775
206	0x3f4ea233	0.80716246
207	0x3e77a027	0.24182187
208	0x3f4d7676	0.8025888
209	0x3ed4aa3b	0.41536126
210	0x3ee3f2b7	0.44521114
211	0x3f80a5a6	1.0050552
212	0xbf512f82	-0.81713116
213	0xbdc06114	-0.09393516
214	0x3f6a68aa	0.91565955
215	0x3f7c9ca0	0.9867649
216	0x3f61d612	0.8821727
217	0xbe7dbd53	-0.24779253
218	0x3f3400dc	0.7031381
219	0x3f6ada70	0.9173956
220	0xbf5f6b57	-0.8727316
221	0xbf72d9fd	-0.94863874
222	0x3f78c73c	0.9717901
223	0x3f56c4a5	0.83893806
224	0x3f34c12b	0.7060725
225	0x3f6590de	0.89674175
226	0x3e97ab2b	0.29622778
227	0x3f5126fb	0.81700104
228	0xbf40fee1	-0.75388914
229	0xbf183411	-0.5945445
230	0x3f1bbf50	0.60838795
231	0x3f4be03b	0.79639024
232	0x3f80ac2a	1.005254
233	0xbf647692	-0.89243424
234	0xbf1a4ba9	-0.602717
235	0x3f0b08ab	0.543101
236	0x3f477255	0.7790883
237	0xbeb90a9f	-0.36140916
238	0xbf9889c7	-1.1917046
239	0x3f302090	0.68799686
240	0xbf459551	-0.77180964
241	0xbf6162aa	-0.88041174
242	0x3f4bf44e	0.79669654
243	0x3eba1c95	0.3634993
244	0x3f59cc9d	0.8507784
245	0x3f2bf649	0.67172676
246	0x3f37c546	0.7178539
247	0xbf372217	-0.7153639
248	0x3f1ce07f	0.61280054
249	0x3f2f6d6e	0.6852635
250	0x3f64ff1f	0.89451784
251	0xbf2c0a6e	-0.67203414
252	0xbf4951a8	-0.7864022
253	0xbf5617ee	-0.83630264
254	0x3e3d4c3f	0.18486117
255	0x3f63345a	0.8875176

linear2.weight f4 [2, 512]
0	0xc017a5b0	-2.3694878
1	0xbff6710c	-1.9253249
2	0xbe344d67	-0.17607652
3	0x3e9d4aab	0.3072103
4	0x3f213e31	0.6298552
5	0xbfc7ae8d	-1.5600144
6	0xbf6a8905	-0.91615325
7	0x3ed96d5c	0.42466247
8	0x3ef6ed7c	0.4822806
9	0x3f01ec8d	0.5075157
10	0xbf6f1751	-0.93394953
11	0x3e64b77b	0.22335617
12	0x3e45a742	0.19302085
13	0x3f20183b	0.6253697
14	0x3e0b5b12	0.1360896
15	0x3ed8ef11	0.42369893
16	0xbea7a907	-0.32746145
17	0x3f26c2c1	0.6514092
18	0xbeb064fe	-0.3445205
19	0xbe77e39d	-0.24207921
20	0xbfb01002	-1.3754885
21	0xbf259b98	-0.6469054
22	0x3e1dba5b	0.1540312
23	0x3f2792f2	0.65458596
24	0xbfb685e9	-1.4259616
25	0x3edd5469	0.43228462
26	0x3f027a30	0.50967693
27	0xbfb5cd73	-1.4203323
28	0x3f217a90	0.6307764
29	0xbf9adf97	-1.2099484
30	0x3ea3fe41	0.32029918
31	0xbe9f824a	-0.3115409
32	0xbefc4d44	-0.492777
33	0xbf9b1623	-1.211613
34	0xbfd3425a	-1.6504624
35	0x3f0c1d08	0.547318
36	0x3e740d1c	0.23833126
37	0x3f012e8b	0.50461644
38	0x3d12c932	0.035836406
39	0x3ea2e806	0.31817645
40	0xbf9c5900	-1.2214661
41	0xbf762a05	-0.96157867
42	0x3f2b00f9	0.6679836
43	0xbf07785a	-0.52918017
44	0x3ec46846	0.38360804
45	0xbfd1d036	-1.6391666
46	0xbf805f1b	-1.0029024
47	0xbfb198c6	-1.3874748
48	0x3f00ba2f	0.50284094
49	0x3f0a392a	0.53993475
50	0xbf1ca9d8	-0.6119666
51	0x3e8b81fa	0.27247602
52	0xbd0acfef	-0.033889707
53	0x3e85f6cd	0.26164857
54	0xbfa41881	-1.2819978
55	0xbedb46f8	-0.42827582
56	0x3ee787f4	0.45220912
57	0x3e3cd0d6	0.1843904
58	0x3f3c0c0f	0.734559
59	0x3fa4e38c	1.2881942
60	0x3f157431	0.5838042
61	0x3e9c90b3	0.30579147
62	0x3eadfb04	0.33980572
63	0x3d8a64b8	0.06757492
64	0x3f2b9768	0.670279
65	0x3e1ed6e2	0.15511659
66	0x3e934274	0.28761637
67	0xbf6870e0	-0.90797234
68	0xbfd48080	-1.6601715
69	0xbf1b4f2f	-0.606677
70	0x3e75798d	0.23972149
71	0x3f049e66	0.51804197
72	0xbf56fa20	-0.8397541
73	0x3f090825	0.5352805
74	0xbf5b68a9	-0.85706574
75	0x3eb874ba	0.36026555
76	0xbf98a027	-1.1923875
77	0x3f12a660	0.5728512
78	0x3e82bc85	0.25534454
79	0x3ea7d4b6	0.32779473
80	0x3ef9571e	0.48699278
81	0xbf312507	-0.69197124
82	0xbfbcf4b9	-1.4762183
83	0x3f8245d7	1.0177563
84	0xbf2004cc	-0.6250732
85	0x3e7fe68a	0.24990287
86	0xbf83bf86	-1.0292823
87	0x3e73bb87	0.23802005
88	0x3e99e115	0.30054536
89	0x3c1c1384	0.009526137
90	0x3e8d534c	0.27602613
91	0x3f424539	0.75886875
92	0xbf12d26b	-0.5735232
93	0x3ec95635	0.39323583
94	0xbf8d381d	-1.103275
95	0xbf8fb237	-1.1226262
96	0xbfed2200	-1.8526001
97	0xbf8bcd34	-1.0921998
98	0x3e839aca	0.25704032
99	0x3ea6f214	0.32606566
100	0xbfc3c7cf	-1.5295352
101	0x3f0cac68	0.5495057
102	0x3f02f9ad	0.51162225
103	0x3f17e583	0.5933458
104	0x3e75eca6	0.24016055
105	0x3e794a56	0.24344763
106	0x3eb83189	0.35975292
107	0xbea884a4	-0.32913697
108	0x3ed89d18	0.42307353
109	0xbf8ed9ff	-1.1160277
110	0xbf27cd17	-0.6554732
111	0xbe3a7fb7	-0.18212782
112	0x3e797b28	0.24363387
113	0x3f0c8645	0.5489238
114	0xbf727f24	-0.9472525
115	0x3efff580	0.4999199
116	0xbfe243ea	-1.7676976
117	0xbfb5e041	-1.4209062
118	0x3f180fa5	0.5939887
119	0x3ea0dbf7	0.3141782
120	0xbf3cc44a	-0.73737013
121	0x3f088858	0.53333044
122	0xbf95c946	-1.1702049
123	0xbf9a2899	-1.204364
124	0xbf95805e	-1.16798
125	0x3e18a734	0.14907533
126	0xbe03012c	-0.12793416
127	0x3e87b943	0.2650853
128	0x3ea1a1a0	0.31568623
129	0xbfeac15b	-1.8340257
130	0xbf092706	-0.5357517
131	0xbf2c9350	-0.6741228
132	0xbeeb8fc4	-0.46008122
133	0x3e3696bd	0.1783094
134	0x3eaf66ff	0.34258267
135	0xbf862d7e	-1.0482633
136	0xbf63bc5c	-0.8895929
137	0x3f176719	0.5914169
138	0x3e9d3e93	0.30711803
139	0x3ea1d723	0.3160945
140	0x3e8144da	0.25247842
141	0xbedf02d2	-0.4355684
142	0xbeea04cc	-0.45706785
143	0x3eef1e94	0.46703017
144	0x3d5e3a99	0.0542551
145	0xbf8375b1	-1.0270292
146	0x3e75c82e	0.24002144
147	0x3f4f77ef	0.8104238
148	0xbd70bb25	-0.058772225
149	0xbf996606	-1.198426
150	0xbf140c96	-0.57831705
151	0xbfbd725c	-1.4800525
152	0x3f14fc01	0.5819703
153	0xbfabb022	-1.3413126
154	0x3ebab4a6	0.3646595
155	0x3f0d9b5a	0.5531517
156	0xbf24c43e	-0.6436194
157	0x3e727ba5	0.23679979
158	0xbc1b41a8	-0.009476103
159	0xbf381ec9	-0.71921974
160	0xbf02b561	-0.5105801
161	0xbf25d09f	-0.64771456
162	0x3ef9d9be	0.48798937
163	0xbfa0afc3	-1.2553638
164	0x3f17ced1	0.5929995
165	0xbf5ac3d2	-0.8545505
166	0x3eac9617	0.3370826
167	0x3f08130e	0.53154075
168	0x3e42e4af	0.19032548
169	0xbf747c1d	-0.9550188
170	0xbecfa34b	-0.4055427
171	0xbfdedecd	-1.7411743
172	0x3f1711b7	0.59011406
173	0xbf7b7166	-0.9821991
174	0xbf155756	-0.5833639
175	0x3f1627fa	0.5865475
176	0xbfc1ea05	-1.5149542
177	0xbfb582d5	-1.4180552
178	0x3eb90720	0.36138248
179	0xbfcb498f	-1.5881823
180	0x3ee62d8d	0.44956627
181	0xbf8f4ab4	-1.1194673
182	0x3ef2e869	0.4744294
183	0xbf8aeee5	-1.0854155
184	0x3ed362ec	0.4128641
185	0xbf55887a	-0.8341137
186	0xbedc044a	-0.42972022
187	0x3ea9f5a6	0.33195227
188	0x3ebbf588	0.36710763
189	0x3f376849	0.716435
190	0x3e9adeaa	0.30248004
191	0x3e28b79d	0.16476293
192	0xbfae42fa	-1.361419
193	0xbfe60997	-1.7971677
194	0xbf818afe	-1.0120542
195	0x3f2c9264	0.67410874
196	0xbf7dad84	-0.9909289
197	0x3e99ca99	0.30037382
198	0xbf3725bc	-0.71541953
199	0x3e9d213f	0.30689427
200	0xbf26811d	-0.6504076
201	0xbf65a67c	-0.8970716
202	0x3f3a9b7a	0.7289349
203	0x3e569718	0.20956075
204	0x3f1031db	0.56326073
205	0x3e5f9163	0.21832804
206	0xbf639c24	-0.88910127
207	0x3f26a6aa	0.6509806
208	0x3e96880d	0.29400674
209	0xbea38d72	-0.31943852
210	0xbf4ac2c3	-0.7920343
211	0x3e93ea43	0.28889665
212	0xbfbaaf9c	-1.4584842
213	0xbe1a2dd3	-0.15056543
214	0x3ecbedc6	0.39829844
215	0x3f300fb0	0.6877394
216	0x3ea18eef	0.31554362
217	0xbf2c0e40	-0.67209244
218	0x3e9b0a2d	0.302812
219	0x3f079614	0.52963376
220	0xbf38c1fe	-0.7217101
221	0xbfd17c5a	-1.6366074
222	0x3eb38ba0	0.35067463
223	0x3f06209b	0.523935
224	0x3e83e04f	0.2575707
225	0x3f0c7f79	0.5488201
226	0x3f510a7d	0.8165663
227	0x3e94bf6f	0.29052302
228	0xbffc107a	-1.9692528
229	0xbe0a99ca	-0.13535228
230	0x3eb67061	0.35632613
231	0x3ee44fee	0.44592232
232	0x3f365a0e	0.7123116
233	0xbf8beb5f	-1.0931205
234	0xbed37019	-0.4129646
235	0x3e8c634c	0.27419508
236	0x3f27648d	0.65387803
237	0x3d0d7a40	0.034540415
238	0xbf43d1f2	-0.76492226
239	0x3e842285	0.25807586
240	0xbffd7a9a	-1.980304
241	0xbf7668bc	-0.9625356
242	0x3f1ec470	0.6201849
243	0x3f8ae974	1.0852494
244	0x3ef16b28	0.47152066
245	0x3eae6333	0.34060058
246	0x3ea8abe6	0.32943648
247	0xbfaa598a	-1.3308575
248	0x3e73bc19	0.23802222
249	0x3ee16bf3	0.4402767
250	0x3ec5268d	0.38505974
251	0xc007bea2	-2.1210103
252	0xbf546da9	-0.8297983
253	0xbf985352	-1.1900427
254	0xbe80cfc8	-0.25158525
255	0x3e9f8810	0.31158495

linear2.bias f4 [2]
0	0x3e8a175f	0.26970956
1	0x3e96f843	0.29486284
