code/log/dqn/ckpt/361000.pth (torch, 15775 bytes, 4 tensors)

linear.weight f4 [512, 4]
00000000: eccc 27bd efa3 fbbd 5d0f 3dc0 9ec2 f1be
00000010: 73b2 f23e 0e35 c43e 299b cd3f 8c26 b63d
00000020: eccc af3e dc6e a63d 09c5 6cbf c497 2fbd
00000030: 5fe2 c9be f4fa 13be 0314 44be 362a 4abb
00000040: de24 6e3e 301c 703e eb97 11bf 03d4 30bd
00000050: efe0 f23e 9dda 463f beee 1040 5c2e 133f
00000060: afd8 ef3e 88f3 debc 6cf3 f4be 0b6a ccbd
00000070: aa00 be3e 833a 0dbe 3d3b b43d eec7 543f
00000080: f627 cbbe 1a99 9fbe 8857 86be b592 92be
00000090: 7e1e 91be 4073 0d3f 18a1 a13d 79fb 663d
000000a0: 84f6 233f 69e1 d7be 5718 34c0 9662 6fbf
000000b0: e871 85be 5427 d2bd 661c 8a3e 1353 363e
000000c0: 0ae7 85be f251 423d 0385 2b3e 03f5 653e
000000d0: 45ab 0f3e 81c0 16be 45e6 843d 7a22 45be
000000e0: 706b d8bd 0e21 d4be 5ac1 24bd bc74 4fbe
000000f0: e866 d13e cca7 293f a5d0 6e3f 2b1a ce3e
00000100: 1e89 853d 43c7 20be 9d75 73bf 7edf 91be
00000110: bed7 ad3d a343 6b3e ea1f 19bf a756 a03c
00000120: ed57 953e 02e3 0e3e c75d 0240 6db5 c83f
00000130: 301b 143e 09d6 e2be b739 4cc0 60a7 4fbf
00000140: 145a f4be adbd 64bd ec93 c7bf 5475 3ebe
00000150: aadf ff3e 245f 15be 122f b1bf 3a4b 55be
00000160: f6a0 d93c fb85 99be 76a9 dd3d 9135 f0bc
00000170: 7f04 623e 5dc1 f1bd 95ad 50bf 5403 01be
00000180: 8f48 a33e ac51 a7bd 9e0a 1dc0 af8a 48bf
00000190: 5e0a 773e f77e 363f 589d 9f3e db7b ddbd
000001a0: c268 f4be 5a0d adbd 9e7f 8fbe 4a9b 2abe
000001b0: c1b1 fe3e 5c1e 2e3f 9de1 963f ad62 fd3e
000001c0: 9e52 793b 5ae8 63bb 5d97 493d 2ce9 eebe
000001d0: 442a dcbe 2b33 d33c d1cc 813e 32af e8bd
000001e0: fe9e 553d 9810 a6bd 9ce9 8fbe 1489 883d
000001f0: f31b c0be 716a 4cbe 5f5e 28c0 0d38 52bf
00000200: 2ab7 b0be ca10 05bf 94ca 01be c6ca 9ebe
00000210: 0f00 e1be 6f11 6dbe 342d b9be d52d 60be
00000220: aa40 eebe aa22 a2be edb0 6d3f f83b 0abd
00000230: c219 af3d 0c1b e73d 1a30 983e bd7c 55be
00000240: d10e 1abf ccdc a5be 9c1d 0cbf 1661 26bf
00000250: da19 55be 25d4 e1be d9f5 9ebe 23e3 46be
00000260: 0a51 de3e 8602 cb3b 69c1 62bf 9f35 38bf
00000270: f3c8 823e 896d 0abf caa8 69be a850 73be
00000280: 1bf7 2cbe bf33 b4be ee4b 52c0 597f 7dbf
00000290: 64e3 d3be 2ed2 fcbd c2b3 d4be 2a8e 47be
000002a0: 69c4 9fbf bbe3 e5bc cc15 173f d411 38bd
000002b0: f937 413e a724 a93e 76ab 1abd b690 183f
000002c0: 4d22 89be 5873 02bf b20a 8f3e b48e b0be
000002d0: 832c dabe 3fe3 d4be 6abc 993f 7c9b 84bd
000002e0: 158f fb3e 06be 323e 0111 57bf 24af 4d3e
000002f0: ca39 f1be 9330 9b3e deed 9b3f 4785 243e
00000300: ef00 c2be 3fcc 20be 63f9 afbe 24ff 9dbd
00000310: 275d 8cbe a031 b93d 29bb e2be df6e b23c
00000320: 3110 9c3e 95b4 81bd 8c6a cabf 91e3 0bbf
00000330: 7d53 acbe 39d0 723e 35d1 43be d18f c83e
00000340: fa2d 293e 4851 423d 6f3a 9ebc 50ab a5bd
00000350: b89e e4bd f2d8 85be 58b1 92bd 36b5 31bd
00000360: 3386 8bbe b9ec c1be 31cd f7bf 68cd aabe
00000370: 8de2 333d a013 f23e 9d7a 713f b229 063f
00000380: e729 c3be 1cef 1d3e 8db6 9abe 456b d73c
00000390: 7eae 8cbe dad1 cc3c 15a7 fa3d 3f81 8b3e
000003a0: 0de6 0a3e aeee 81bd 6f2d 5fbd 0760 bbbe
000003b0: 2654 0c3d 7f44 5ebf af75 60be 30f9 a73e
000003c0: 1382 7abd 175a 983e 9e8b 4dbe f2bf 22bb
000003d0: 1276 853e 2ee1 1ebf e6ec 8a3e 97bb b4be
000003e0: bdb9 44be 20ae 84be 00a4 a1be bc77 063d
000003f0: 7b8a c63d 83a8 21bf 3c13 053e c415 203e
-0.040966913 -0.12287127 -2.9540627 -0.47218794 0.4740177 0.38321728 1.6062976 0.08894071
0.3433603 0.081266135 -0.9248815 -0.042869344 -0.3943052 -0.144512 -0.19148259 -0.0030847914
0.23256251 0.23448253 -0.56872433 -0.04317094 0.47437236 0.7767733 2.2645717 0.57492614
0.46845004 -0.027215734 -0.47841966 -0.099811636 0.37109882 -0.13791852 0.08800361 0.8311757
-0.39678925 -0.31171495 -0.26238656 -0.28627554 -0.28343576 0.5525398 0.07892054 0.056392167
0.6404803 -0.42164162 -2.8139856 -0.93509805 -0.26063466 -0.102614075 0.2697479 0.17805128
-0.2615283 0.04744143 0.16749959 0.22456746 0.14030178 -0.14721872 0.06489233 -0.19251433
-0.10567367 -0.4143147 -0.040223457 -0.20259374 0.40898824 0.6627166 0.93287116 0.4025434
0.06520294 -0.15701012 -0.9510134 -0.28490824 0.08488415 0.2297502 -0.5981432 0.019572569
0.29168645 0.13953784 2.0369737 1.5680367 0.14463496 -0.4430392 -3.1910226 -0.8111477
-0.47724974 -0.05584495 -1.5592017 -0.18599445 0.4997533 -0.14587075 -1.384249 -0.20829478
0.02656601 -0.2998503 0.10823338 -0.029322417 0.22072028 -0.11804459 -0.81514865 -0.12598926
0.31891295 -0.081698745 -2.453773 -0.78336614 0.24125049 0.7128748 0.3117473 -0.10814639
-0.47736174 -0.08449812 -0.28027052 -0.166608 0.4974499 0.68015075 1.1787602 0.49489346
0.0038043628 -0.0034775943 0.049216617 -0.4666227 -0.43000996 0.025781235 0.25351575 -0.11361541
0.05215358 -0.08108634 -0.28107917 0.066667706 -0.37521324 -0.19962479 -2.63076 -0.82116777
-0.34514743 -0.51978743 -0.12674934 -0.3101408 -0.43945357 -0.23151182 -0.361673 -0.21892484
-0.4653371 -0.31667072 0.9284809 -0.033748597 0.08549835 0.11284456 0.297242 -0.20848365
-0.6017886 -0.32395017 -0.5473268 -0.6499189 -0.20810643 -0.44107166 -0.31046942 -0.19422583
0.43421203 0.006195369 -0.8857637 -0.7195682 0.25543937 -0.5407339 -0.22818294 -0.23761237
-0.16891138 -0.3519573 -3.2858844 -0.9902244 -0.41384423 -0.12344776 -0.41543394 -0.19487825
-1.2481815 -0.028062692 0.59017634 -0.044938877 0.18869008 0.33035776 -0.037761174 0.5959581
-0.26783982 -0.5095725 0.27937847 -0.34483874 -0.42612085 -0.41579625 1.2010624 -0.06474969
0.491326 0.174553 -0.8401032 0.20086342 -0.47114402 0.30310497 1.2181966 0.16066466
-0.37891337 -0.15702914 -0.34369954 -0.0771468 -0.2741482 0.09042668 -0.44283417 0.021781383
0.30481103 -0.063332714 -1.5813766 -0.54644114 -0.33657447 0.23712243 -0.19122775 0.39172223
0.16521445 0.047440797 -0.019314973 -0.08089316 -0.11163086 -0.2614208 -0.07162732 -0.043385707
-0.27250823 -0.37875918 -1.9359494 -0.33359838 0.043917228 0.47280598 0.9432772 0.5240737
-0.38117906 0.15423244 -0.302174 0.026296267 -0.27476877 0.025002409 0.122388996 0.27247044
0.1356432 -0.06344353 -0.05448669 -0.365967 0.034259938 -0.86823267 -0.21919893 0.32807302
-0.061159205 0.29756233 -0.20072791 -0.0024833647 0.26066643 -0.62062347 0.27133864 -0.3529937
-0.19211479 -0.25914097 -0.31570435 0.03282903 0.09694382 -0.63147753 0.12995619 0.15633303

linear.bias f4 [512]
00000000: 8b35 c0be d084 85be 7d80 40bf 25b6 4c3f
00000010: 84e1 7f3f 6e0a 13bf 299e 7fbf 8be1 3a3e
00000020: b167 7e3f f89d 6d3f 01a8 c93e 6d00 513f
00000030: a31a 403f 1879 473f 4309 cb3e 8808 e23e
00000040: b185 173f 019e 8e3f de19 97be 7ca5 b0bd
00000050: ce53 76bf e508 5abf acd9 0b3f 7a88 6e3f
00000060: 9037 95be 5e87 6b3f 094f 763f 14bd f0be
00000070: a4e4 833f b007 46bf 977e 283f a38d a7bd
00000080: f013 3ebf dc70 68bf 0af3 7ebf a889 883f
00000090: 0a59 2d3d 4e64 373f 21ee 3fbe ac6d 5c3f
000000a0: 8aee fb3e 6a50 68bf bdcd 7b3e d347 5f3f
000000b0: e110 653f 38b0 73bf 9fbb 13bf 469b 55bf
000000c0: 28bd 413f 4896 233f 5498 18bf bfa0 703f
000000d0: 7d7b 03bf bf68 033f c628 55bf 9b11 373f
000000e0: e121 723f 2c26 513f b205 753f 10d9 2cbc
000000f0: 9a45 723f 8c6c 5b3f 1ebc 0d3f 58f4 973e
00000100: d5d9 553f c213 5d3f 1130 0f3f 574e 43bf
00000110: e13c 4ebf 304c 8c3f dc2a 6a3f 0d4a 163f
00000120: 07f5 61bf 3ba2 463f 8ae0 0ebf 32ef ed3e
00000130: c61e 6fbf 83c4 453f fd1f 7d3f 38c8 3b3f
00000140: 9e2f 613f c13b d53e adfe 123f 1886 673e
00000150: 8bc4 21bf 8bf5 173f 7ea1 003f dc6a 3a3f
00000160: 9cbe 5e3f a1dc 5abe 45da 653f cf7a 8b3f
00000170: bad2 83bf 5d50 733f 7e02 31bf 80d2 3ebf
00000180: 9869 6dbd 962f 9e3e c86f 233f 6604 2f3e
00000190: b7f8 07bf b4da be3e 0a41 663f 1e09 783f
000001a0: ccb1 333f 8e64 143f e110 4e3f a12b eebe
000001b0: f5f4 543f f244 2fbf 6ebe 923e 692b 103f
000001c0: be9b 453f f61a de3e e1c2 53bf d736 373f
000001d0: 0253 76bf 9cf8 8bbf 09e8 5a3f c47a f53e
000001e0: a681 72bf cb37 653f 52ee 5bbf af5b 0dbf
000001f0: eb48 7b3f db07 1f3f ce2b 3ebe 0a24 303f
00000200: 179c 423f ada4 1dbf 6181 e23e 978f e3bd
00000210: f463 613e 5fcd 013f 62b2 493f 7c73 a5bc
00000220: 1e9b 873f 3d8c 913f daee 3b3f 508a 0e3f
00000230: 4c24 443f fe0c d13e 91a7 03bf eead dcbe
00000240: dbaf 4ebf 8e9c 50be 5778 0c3f fc05 853f
00000250: 80bd 413f 666e 80bf 9bd6 21bf ed9c e9be
00000260: d835 5e3f 3f92 87bf d1f5 6a3f 24b8 873f
00000270: 639f 59bf 0fed 533f c69d 00bf 1780 5dbf
00000280: 2ed1 10bf b65e 5f3e 50a8 1a3f ae14 503f
00000290: e08c 7c3f 57ec 67be 8696 6d3f d1af 5a3f
000002a0: 8f88 583f 5197 27bf a9ba 08bf d315 82bf
000002b0: 2e6c 763f 3b68 8ebf 6226 e2be bebb 723d
000002c0: 1b60 d8be d549 4cbf 31e5 6c3f e830 78be
000002d0: 6493 8a3f 7ce1 35bf f514 093f 56d1 a3be
000002e0: 2c87 2e3f ea54 93bc 1f1a a6bf 86cc 4b3f
000002f0: 0819 673f 2795 6e3f d438 7c3f 3d12 1e3f
00000300: df05 5cbf c062 75bf 985e b0be 0d64 d4bd
00000310: 9651 32be 5fe1 443f f3fd 5a3f ff8e 1f3f
00000320: 47c0 4b3f 1d21 8ebf ebbd 283f cb20 693f
00000330: c4ac 683f 81cc 7f3f 53f9 4d3f 97e8 693e
00000340: c7e2 4d3f 3ec1 023f 74ec 063f e255 813f
00000350: 82d9 ecbe dc9b 9abe 3986 5f3f 1ccc 7f3f
00000360: f52c 633f 3643 adbe bd07 323f 0610 6c3f
00000370: ee19 64bf ca3e 38bf 36d2 7b3f d96c 573f
00000380: bf55 333f 3a54 683f 86b3 863d ad1b 4e3f
00000390: 0d8f e1be d2ef 0fbf 23f4 1f3f cd95 4d3f
000003a0: 8048 823f 58e3 72bf b62c a1be fab4 0b3f
000003b0: 4a27 4c3f ffd8 8abe c383 a1bf 9932 283f
000003c0: 5c16 52bf cd6a 85bf f8f3 4c3f e655 6d3e
000003d0: 34eb 5a3f 08e8 223f 8f5b 363f 214c cbbe
000003e0: d199 1a3f 03ef 313f d2fe 593f a90d 45bf
000003f0: 0f7f 58bf d239 63bf 3457 0d3d 4889 653f
-0.3754085 -0.2607789 -0.7519606 0.7996543 0.99953485 -0.5743779 -0.9985071 0.182501
0.9937697 0.92819166 0.3938599 0.81641275 0.75040644 0.7791915 0.39655504 0.44147134
0.5918837 1.1141969 -0.29511923 -0.08625314 -0.96221626 -0.8516982 0.54629016 0.93176997
-0.29143953 0.9200343 0.9621435 -0.47019255 1.030415 -0.7735548 0.6581816 -0.08181312
-0.7424917 -0.9079721 -0.995896 1.0667009 0.042321242 0.7163743 -0.18743183 0.86104846
0.49205428 -0.907477 0.24590202 0.8721897 0.8947888 -0.95190763 -0.5770816 -0.83440053
0.75679255 0.63901186 -0.59607434 0.9399528 -0.51360303 0.51331705 -0.8326534 0.7151124
0.94582945 0.8169887 0.95711815 -0.010549799 0.94637454 0.85712504 0.5536517 0.29678607
0.8353551 0.86358273 0.5593272 -0.7629141 -0.80561644 1.096075 0.9147165 0.5870674
-0.8826451 0.77591294 -0.5581137 0.46471554 -0.9340633 0.7725298 0.98876935 0.73352385
0.87963283 0.4164715 0.57419854 0.22609746 -0.63190526 0.59359044 0.5024642 0.72819304
0.87009597 -0.21373226 0.8978618 1.0896853 -1.0298684 0.950445 -0.6914443 -0.7453995
-0.05796203 0.3089568 0.6384244 0.17091522 -0.53113884 0.37276232 0.8994299 0.9688891
0.7019317 0.57965934 0.80494505 -0.4651766 0.83186275 -0.6846458 0.2866091 0.5631624
0.7719077 0.43379945 -0.82719237 0.71568054 -0.9622041 -1.0935245 0.8551031 0.47945225
-0.9472908 0.8953826 -0.8591052 -0.55218023 0.9815814 0.6212136 -0.18571398 0.6880499
0.76019424 -0.615794 0.44239333 -0.11111372 0.22010785 0.50703996 0.78787816 -0.020196669
1.0594213 1.1370922 0.73411334 0.556798 0.76617885 0.40830225 -0.5142756 -0.43101448
-0.80737084 -0.20372221 0.54871124 1.0392451 0.7567978 -1.0033691 -0.63218087 -0.45627537
0.8680091 -1.0591506 0.91781336 1.060307 -0.8500883 0.827836 -0.50240743 -0.86523575
-0.5656918 0.21813473 0.60413074 0.81281555 0.9865246 -0.2264875 0.92807806 0.85424525
0.8458337 -0.65465266 -0.5340982 -1.016291 0.9625882 -1.1125559 -0.4416991 0.059261076
-0.42260823 -0.7980016 0.9253722 -0.24237406 1.082623 -0.71047187 0.535476 -0.31995648
0.68175006 -0.017984826 -1.2976722 0.79608953 0.9027257 0.9319634 0.9852421 0.6174658
-0.8594646 -0.95853806 -0.3444717 -0.10370646 -0.17413935 0.7690639 0.85543746 0.6232757
0.79590267 -1.1103855 0.6591479 0.91065663 0.9088862 0.99921423 0.80458564 0.22842632
0.8042416 0.51076114 0.5270455 1.0104334 -0.46259695 -0.30197036 0.8731418 0.9992082
0.88740474 -0.3384034 0.6954306 0.9221195 -0.89102066 -0.7197081 0.9836763 0.84150463
0.70052713 0.9075352 0.0657721 0.8051098 -0.44054452 -0.5622531 0.624819 0.803067
1.0178375 -0.9487815 -0.31479424 0.54573023 0.7974745 -0.2711868 -1.2618335 0.65702206
-0.8206537 -1.0423218 0.80059767 0.23177299 0.8551514 0.636353 0.7123346 -0.3970652
0.60390955 0.6950533 0.8515445 -0.7697397 -0.84568876 -0.887601 0.03450699 0.896626

linear2.weight f4 [2, 512]
00000000: 3adc 37c0 7f23 f9bf 0e77 12be ab78 a43e
00000010: 6776 243f b97f bcbf 5a80 5fbf bfaf ef3e
00000020: c159 fb3e daef 073f e95a 8cbf 718e 813e
00000030: ff6f 643e c235 263f c765 283e 0d3d 393f
00000040: be81 a3be a26e 293f b0ca 0ebf 92ee 07bf
00000050: 638d a0bf 4a4f 28bf 1f6d 393e e61e 273f
00000060: c7f7 e4bf 60a1 eb3e b1b8 043f a6c4 adbf
00000070: 7bb1 253f ea32 9ebf 4a1c ac3e 8470 f7be
00000080: 25d8 ffbe 3c85 a2bf bb62 dfbf e32d 133f
00000090: e118 8b3e 90c1 033f 635e 31be 27e2 a03e
000000a0: 6d2c a1bf d856 83bf bd0f 423f 9b9c f7be
000000b0: f06f cd3e dec7 e4bf b468 7bbf f959 c7bf
000000c0: d233 033f 29b2 0b3f 7c0f 8bbf aba4 973e
000000d0: efcf 0abd 9fcd 903e d407 9ebf cc9c d4be
000000e0: 4ac3 ec3e 0391 5b3e f794 403f 88e0 8a3f
000000f0: 2ba7 1a3f d6d8 a13e 3c9e b63e f7e6 3d3e
00000100: b6fc 2c3f 6b0b 3c3e f4b3 9b3e 0f42 63bf
00000110: 1b65 b8bf 420b 2abf 2eab 793e 7e2c 083f
00000120: 66c6 64bf fcd0 0b3f 090e 60bf dcc9 bf3e
00000130: baa4 9fbf 4534 143f f8fa 8b3e 6616 b33e
00000140: 4040 fe3e ba94 9bbf 80ee c0bf bc01 a13f
00000150: 81d5 22bf 0d4a 913e 2358 a1bf e059 853e
00000160: 471c a83e ee1f 103f 65a2 9a3e 79c3 473f
00000170: aafb 17bf dff0 cc3e 5459 86bf 31ba 89bf
00000180: 2957 e5bf 9686 92bf 6808 8b3e 014a af3e
00000190: 0d7e c0bf dbbf 123f 85cd 053f 08f0 183f
000001a0: 14bd 8a3e 9ec1 863e 1a5a ba3e 79df b5be
000001b0: f43c d53e f25e a3bf 62c2 31bf 4630 55be
000001c0: ff75 903e f49b 583f 87c6 63bf 49ca 043f
000001d0: e520 e2bf 6728 c1bf c477 193f f53f a93e
000001e0: 52b9 35bf 6af5 0e3f deeb 98bf f0e7 b3bf
000001f0: 1e80 9abf 3f49 2d3e 63ce 08bf 8167 973e
00000200: d125 af3e 60f4 f9bf 30b7 11bf f0da 3abf
00000210: 10a1 5abf b83f 473e 48e8 b73e 972b b4bf
00000220: 144a 6dbf ee52 193f d08f a03e 5456 b23e
00000230: e71b 893e 795b efbe d08d 2cbf d876 163e
00000240: 1bcd 0d3f bf58 acbf 5a04 873e 8c94 503f
00000250: 3a9e 7abc d4ea b4bf e2da 3dbf 0321 e0bf
00000260: 2487 183f 9360 a1bf 2835 ca3e bd38 113f
00000270: d6e2 5abf cfe5 853e a841 1bbc e59e 42bf
00000280: 8429 21bf 1a7a 0dbf fe24 033f 402d a7bf
00000290: d4a4 1c3f 7f32 8cbf 9300 b53e 78ea 093f
000002a0: 6ca5 693e 76a1 74bf 0c37 96be db1d dfbf
000002b0: 1afb 1b3f 8bbc 65bf 36cd 41bf c8b7 343f
000002c0: b9cf bfbf 0e01 aabf 2eb3 c53e aa7a c9bf
000002d0: d10a e53e 8ac1 89bf bb19 053f f8d7 87bf
000002e0: 66f6 dc3e 9b36 82bf 7c0b aabe 6997 ac3e
000002f0: 96c1 ca3e f970 3a3f 23f4 a43e 8d11 433e
00000300: 6c4b a7bf 4496 e6bf a25d a2bf c9dc 4e3f
00000310: c32d 96bf 167c a63e 112b 4fbf 2f5c a63e
00000320: f454 46bf ce86 4fbf da27 3b3f 80cb 673e
00000330: dd4f 153f 42b2 813e 4c62 6fbf 4c50 4b3f
00000340: 142e 993e e896 d3be 0846 8fbf 757e 9d3e
00000350: 6850 b3bf 2fa6 16be e488 d43e ca13 333f
00000360: 1c81 983e 8ea4 46bf d058 a53e bb7e 0c3f
00000370: 0a4a 7bbf f04a d8bf 5625 bc3e 348b 0a3f
00000380: b735 903e f611 123f 6195 843f e5c0 a03e
00000390: 6259 f7bf 579a 2fbe 4e09 d23e 51c4 e83e
000003a0: c475 3b3f de45 a2bf 9362 05bf 673f 923e
000003b0: b8c2 283f 342b 553f 8fbe 50bf 0193 8e3e
000003c0: 9518 f2bf c8a2 67bf 51fd 243f 0855 9f3f
000003d0: 7c08 003f 42e0 b93e b81e aa3e cf2a a0bf
000003e0: 27f4 873e 44a3 e93e 214c ca3e e326 05c0
000003f0: 076c 4abf c3c7 9fbf 377c 30bf bd53 9c3e
-2.8728166 -1.9463958 -0.14303228 0.32123312 0.6424317 -1.4726478 -0.87305224 0.4681377
0.49091914 0.5310036 -1.0965244 0.25303987 0.22308348 0.6492578 0.16445075 0.7235878
-0.31934923 0.6618444 -0.55778027 -0.53098404 -1.2543148 -0.65745986 0.18108033 0.6528152
-1.7888116 0.46021557 0.51844317 -1.3575637 0.6472394 -1.2359288 0.33615333 -0.4832803
-0.49969593 -1.269691 -1.7452005 0.5749189 0.2716742 0.5146723 -0.17321162 0.3142254
-1.2591683 -1.0260878 0.75805265 -0.48361668 0.40124464 -1.7873495 -0.9820664 -1.5574332
0.51250947 0.54568726 -1.08641 0.2961782 -0.033889707 0.28281876 -1.2346139 -0.41525877
0.46242744 0.21442036 0.752273 1.0849771 0.6041133 0.31610745 0.35667598 0.18545137
0.67573106 0.1836373 0.3041073 -0.8877267 -1.4405855 -0.6642343 0.24381706 0.5319289
-0.8936523 0.5461576 -0.87521416 0.37458694 -1.2472146 0.57892257 0.2733991 0.34978026
0.49658394 -1.2154763 -1.5072784 1.2578654 -0.6360703 0.2837681 -1.2605022 0.26045132
0.32834074 0.5629872 0.30202022 0.7803264 -0.59368384 0.4002752 -1.0496011 -1.0759946
-1.7917224 -1.1447322 0.2715485 0.34236148 -1.5038468 0.57324 0.5226672 0.5974126
0.2709738 0.26319593 0.36396867 -0.3552206 0.41648066 -1.276335 -0.6943723 -0.20819196
0.28215024 0.84612966 -0.88974804 0.5187116 -1.7666289 -1.5090455 0.5994837 0.33056608
-0.709859 0.5584322 -1.1946981 -1.4055157 -1.2070348 0.16922472 -0.5343992 0.29571155
0.3420854 -1.9527702 -0.56920147 -0.7299032 -0.8540201 0.194579 0.35919404 -1.4075803
-0.9269116 0.59892166 0.3135972 0.34831488 0.267791 -0.46749476 -0.6740389 0.14693773
0.5539109 -1.3464583 0.26370507 0.81476665 -0.015296513 -1.4134164 -0.74162114 -1.7510074
0.5958121 -1.2607597 0.3949368 0.567272 -0.85502374 0.26151893 -0.009476103 -0.76023704
-0.6295397 -0.5526444 0.5122832 -1.3060684 0.6118901 -1.095291 0.35352 0.53873396
0.2281701 -0.9555887 -0.29338872 -1.7430986 0.60930026 -0.8974082 -0.7570375 0.7059293
-1.4985267 -1.3281572 0.38613266 -1.5740559 0.44734815 -1.0762188 0.51992387 -1.0612783
0.43156737 -1.0172914 -0.33211887 0.33709267 0.3960082 0.7282863 0.32217512 0.19049664
-1.3069892 -1.8014607 -1.2684824 0.8080564 -1.1732715 0.32516545 -0.8092509 0.32492206
-0.7747338 -0.8106507 0.73107684 0.22636223 0.58324987 0.25331312 -0.93509364 0.794194
0.29917967 -0.4132607 -1.1193247 0.30760542 -1.4008913 -0.14711832 0.4151069 0.6995207
0.29786003 -0.7759484 0.3229432 0.54880875 -0.9815985 -1.6897869 0.36747235 0.5411866
0.2816598 0.57058656 1.0358087 0.31397167 -1.9324152 -0.1714872 0.41022724 0.45462278
0.7322657 -1.2677572 -0.5210354 0.28563997 0.6592212 0.8326905 -0.8154077 0.2784653
-1.8913752 -0.9048276 0.6444903 1.2447824 0.50012946 0.36303908 0.33226562 -1.2513064
0.2655346 0.45632374 0.39511207 -2.0804985 -0.79071087 -1.2482837 -0.68939537 0.30532637

linear2.bias f4 [2]
00000000: f4d7 893e e7bd 8c3e
0.26922572 0.27488634
