code/log/dqn/ckpt/445000.pth (torch, 15775 bytes, 4 tensors)

linear.weight f4 [512, 4]
000000 e7 67 ad bc b0 a3 f5 bd 80 3d 3c c0 63 1c f7 be
       -0.021167709 -0.119941115 -2.9412537 -0.48263845
000010 36 32 fb 3e f8 fa b5 3e 32 05 af 3f 19 b0 1d 3e
       0.49061745 0.35543036 1.367346 0.15399207
000020 70 05 f2 3e a0 75 86 3e 3c c8 d4 be 31 a0 52 3d
       0.47269773 0.26261616 -0.41559017 0.0514223
000030 72 24 9f be ee 07 dc 3c 9a 2b 80 be c0 fb ba 3c
       -0.31082493 0.02685925 -0.25033265 0.022825122
000040 3e 48 6a 3e e9 38 83 3e 46 ca 24 bf e9 ad 05 bd
       0.2287912 0.25629357 -0.64371145 -0.032636557
000050 59 39 a3 3e 63 c4 38 3f 8a bc 15 40 a4 c1 3e 3f
       0.3187969 0.7217466 2.3396325 0.7451422
000060 e1 21 00 3f bf 1f d9 3d fd 25 94 be 89 53 e2 3d
       0.50051695 0.10601758 -0.28935233 0.11051089
000070 08 00 81 3e f3 45 56 3d 3b a9 9e 3f 3a 02 a2 3f
       0.25195336 0.052312803 1.2395395 1.265693
000080 73 b4 9e be 68 55 64 be 39 68 cd be 4b 18 8d be
       -0.30997047 -0.22298205 -0.40118578 -0.27557597
000090 62 ef 92 be 29 18 13 3f 32 89 71 bd 17 f8 82 3d
       -0.2869826 0.5745874 -0.05896873 0.06394976
0000a0 49 a3 2b 3f 24 cf fa be c6 06 27 c0 3f bd 53 bf
       0.6704603 -0.4898616 -2.6097884 -0.8271064
0000b0 88 f8 83 be c4 37 a9 bd 23 1e d5 3d 70 fc 53 3e
       -0.25775552 -0.082625896 0.10406139 0.20701766
0000c0 fe f2 86 be b0 86 80 3d 48 7a 96 3c bd ec 81 3e
       -0.26357263 0.062756896 0.018368855 0.2537593
0000d0 f4 13 0d 3e b4 94 fe bd 72 11 8c bd 65 17 3d be
       0.13777143 -0.124307066 -0.06839265 -0.18465956
0000e0 20 2d 6b bf ae 32 2e bf bd c3 8a be 0b 3f 2a be
       -0.9186573 -0.6804608 -0.2710246 -0.16625611
0000f0 b0 86 cd 3e a6 e3 2b 3f ea 0f 4c 3f fb 0e da 3e
       0.4014182 0.6714424 0.7971178 0.42589554
000100 f6 9e 84 3d 80 98 2c be e5 4a a0 bf 79 56 b9 be
       0.06475632 -0.16855049 -1.2522856 -0.36198786
000110 92 b3 a8 3d 05 5f 81 3e d4 c4 39 bf 76 91 e3 3c
       0.08237375 0.25267807 -0.7256596 0.027779322
000120 e4 96 7e 3e 9c fa 79 3d ad d4 ee 3f 17 0a b8 3f
       0.24862248 0.061030015 1.8658653 1.4378079
000130 5a 01 25 3d 5d d6 05 bf 12 1f 6f c0 28 6f 45 bf
       0.040284492 -0.5228022 -3.7362714 -0.77122736
000140 57 31 fa be 07 1e d1 bd b7 a0 c1 bf f8 60 30 be
       -0.48865768 -0.102108054 -1.5127171 -0.1722449
000150 26 bb f3 3e 1f b9 f9 3b 10 57 92 bf 12 62 c4 bc
       0.4760372 0.007620945 -1.1432819 -0.023972545
000160 cf 13 4e 3c 89 86 8f be 5c 8c a7 bd 3d a8 d6 bc
       0.012577965 -0.2803233 -0.08181068 -0.02620327
000170 fb 8a 5f 3e be 7f c2 bd d9 4c 73 bf e9 29 f2 bd
       0.2183036 -0.09497021 -0.95039135 -0.118244
000180 61 94 22 3e 5c 53 32 be d3 75 11 c0 3d 01 c0 be
       0.15876915 -0.17414612 -2.2728164 -0.37500945
000190 36 69 76 3e 15 47 3b 3f 7e 38 8d 3d 68 ba dc bd
       0.24063572 0.7315534 0.06895541 -0.10777742
0001a0 06 c4 07 bf cd 05 f5 bd 8f ef 44 bf 95 44 3b be
       -0.53033483 -0.11963997 -0.7692804 -0.1828788
0001b0 6e 02 fc 3e 0d f8 26 3f e9 3f 90 3f 3b 81 0b 3f
       0.49220604 0.65222245 1.1269504 0.54494065
0001c0 14 2c bf ba a4 42 94 3c 97 27 bc 3d f9 a4 ef be
       -0.001458528 0.018098183 0.09187239 -0.46805552
0001d0 33 bb db be 35 e7 aa bc 72 b9 8c 3e 2e 72 e7 bd
       -0.4291626 -0.020862201 0.27485234 -0.11301075
0001e0 69 7a 42 3d f4 dc 69 bd 5e ed f2 be 79 c3 8e 3d
       0.04748002 -0.057095483 -0.47446722 0.06970877
0001f0 55 c8 ac be 3e af be be ea 50 19 c0 6b d6 23 bf
       -0.3374659 -0.37243074 -2.3955636 -0.6399905
000200 41 62 ba be 4e fa 07 bf 34 0c ca bd 9d e2 a5 be
       -0.36403087 -0.5311631 -0.09865609 -0.32399455
000210 b2 22 e6 be 51 7a 76 be 44 13 a9 be 42 62 77 be
       -0.44948345 -0.24070098 -0.3302251 -0.24158576
000220 df 67 f5 be 4d f1 a7 be 33 61 73 3f 35 ed 46 bd
       -0.4793081 -0.32801285 0.9507019 -0.048566062
000230 1f bc a9 3d 39 6e 0b 3e ce a3 13 3e ab d8 4e be
       0.082878344 0.13616265 0.14417955 -0.2019984
000240 04 20 da be a0 4e 78 be d6 7a a0 bf 57 67 21 bf
       -0.4260255 -0.24248743 -1.2537487 -0.6304831
000250 87 59 1b be 24 7e c0 be 50 28 f4 be 37 3b 49 be
       -0.1517087 -0.37596238 -0.47687006 -0.19651495
000260 0c 34 6d 3e 0d be de bd 9e 71 07 c0 28 f0 e9 be
       0.23164386 -0.10876093 -2.1163096 -0.45691037
000270 77 fe 7e 3e b2 ab 04 bf ec 28 d3 be 88 32 6f be
       0.24901758 -0.51824486 -0.41242158 -0.2335912
000280 92 82 19 be fc 0c 16 bf 88 5c 6b c0 4e 58 5d bf
       -0.14991215 -0.5861356 -3.6775227 -0.8646287
000290 b2 74 de be 32 06 0f be e7 4b c2 be dd d1 62 be
       -0.43448406 -0.13967207 -0.37948534 -0.22150369
0002a0 0e 9b d1 bf fd 87 26 bd 2c ea 0f 3e 9e 59 94 bb
       -1.6375444 -0.040657032 0.14054173 -0.0045272848
0002b0 63 b6 34 3e f5 ec 99 3e ee 75 eb 3d d5 f2 16 3f
       0.176477 0.30063596 0.11497103 0.5896428
0002c0 4f a3 58 be 4c 48 dc be db c3 c2 3d c4 04 af be
       -0.21156047 -0.43023908 0.09510013 -0.34183323
0002d0 ac f8 e2 be 41 e8 d8 be 1f c1 9c 3f ed dd a2 bd
       -0.44330347 -0.42364696 1.2246436 -0.07952485
0002e0 89 86 b8 3e c5 50 75 3e 77 57 27 bf 5f 0b 1e 3e
       0.36040142 0.23956592 -0.65367836 0.15434025
0002f0 e6 70 ec be 3a 70 8f 3e 9c 24 9f 3f b8 2f 10 3e
       -0.46179885 0.2801531 1.2433047 0.14080703
000300 76 c0 07 bf 6f 78 fa bd 11 96 a8 3d a8 65 b2 3c
       -0.5302805 -0.12230002 0.08231748 0.02177699
000310 f0 6b 88 be f0 95 f3 3d ee 94 0b bf 5f bb 0d 3d
       -0.2664485 0.11893833 -0.54524124 0.03460252
000320 36 b9 ac 3e ce ba e7 bc ef 12 b7 bf 42 3d 78 bd
       0.33735055 -0.028287318 -1.4302653 -0.060605295
000330 0e 80 ad be 06 f2 79 3e 96 de a8 be 57 a6 dd 3e
       -0.3388676 0.24408731 -0.3298232 0.4329097
000340 41 97 32 3e 76 b6 ae 3d be eb ae bd 8d bd f2 bd
       0.17440511 0.085308954 -0.08541058 -0.1185256
000350 7e 91 d2 bd 04 94 64 be c7 2e 8b be 41 8e 36 bd
       -0.10281657 -0.22322088 -0.27184126 -0.044569258
000360 33 86 8b be b9 ec c1 be 31 cd f7 bf 68 cd aa be
       -0.27250823 -0.37875918 -1.9359494 -0.33359838
000370 59 ca 0b 3d 43 66 e8 3e 88 42 85 3f d0 d7 00 3f
       0.03412852 0.4539052 1.0410929 0.50329304
000380 b4 81 c4 be df 53 36 3e 5e 41 f4 be c8 6e fd 3c
       -0.38380206 0.17805432 -0.4770612 0.030936614
000390 c8 e4 89 be b9 ed 5b 3d b8 6d 84 bd 17 1d 95 3e
       -0.2693236 0.053693507 -0.0646624 0.29123756
0003a0 1f 8f 06 3e 57 c4 27 bd 42 b3 f1 bc a2 46 ba be
       0.13140534 -0.04095873 -0.029504422 -0.36382014
0003b0 a4 93 f4 3c 5d 92 2e bf 12 91 f3 3e 1b c4 1c 3f
       0.029855557 -0.6819208 0.47571617 0.61236733
0003c0 d4 2e 83 bd 13 07 a4 3e d7 09 ab be 2d 42 b0 3b
       -0.06405416 0.32036647 -0.33405945 0.0053789825
0003d0 b4 0b 82 3e d0 33 19 bf 69 0c b7 3d 55 93 b2 be
       0.25399554 -0.59844685 0.08937914 -0.3487803
0003e0 ae 22 0f be c7 fc 5b be d2 9c da be fa 6a c1 3d
       -0.13978073 -0.21483146 -0.4269777 0.09444232
0003f0 cf c5 36 3e c3 de f6 be d3 c6 7b bd c6 19 05 3e
       0.17848895 -0.4821683 -0.06146891 0.12998113

linear.bias f4 [512]
000000 86 cc c8 be 98 b5 b7 bd ac f5 1c bf b2 82 45 3f
       -0.3921854 -0.08970183 -0.61312366 0.7715255
000010 38 13 80 3f bd a0 60 bf 47 37 8b bf c1 20 2b 3e
       1.0005865 -0.8774527 -1.0876244 0.16711713
000020 20 49 82 3f 7e 45 6e 3f 4b a4 bc 3e f0 49 51 3f
       1.0178566 0.93074787 0.36844096 0.81753445
000030 ff 1f 3f 3f 56 9c 48 3f 8e de ab 3e 8c ae ee 3e
       0.746582 0.7836355 0.33568233 0.46617544
000040 8d b5 15 3f c1 2f 8f 3f 5a 4e aa be 16 ed ce be
       0.5848015 1.1186448 -0.33262902 -0.40415257
000050 ca 21 75 bf 1c ac 7d bf 4b 2a 07 3f c1 ba 6f 3f
       -0.95754683 -0.99090743 0.5279891 0.9364434
000060 a0 c7 0f bf 9b 81 6c 3f 64 9b 67 3f 13 4f aa be
       -0.5616398 0.9238526 0.9047148 -0.33263454
000070 9d 89 83 3f 24 3d 48 bf d8 e7 27 3f 99 08 58 be
       1.0276371 -0.78218293 0.6558814 -0.2109703
000080 ed 04 3a bf 74 0c 67 bf ce 56 7c bf 94 0e 89 3f
       -0.72663766 -0.90253377 -0.98569953 1.0707574
000090 64 af 18 3e f4 34 39 3f 75 ad 11 bf 8c 54 5b 3f
       0.14910656 0.72346425 -0.569053 0.85675883
0000a0 2f 01 1f 3f 64 cd 63 bf 8c 88 f8 3e 73 d4 57 3f
       0.6211118 -0.88985276 0.48541677 0.84308547
0000b0 28 eb 68 3f 79 38 70 bf c3 70 52 bf f8 59 5a bf
       0.9098382 -0.9383617 -0.8220331 -0.8529353
0000c0 1e e5 30 3f 98 b0 25 3f 70 79 3b bf 43 7b 70 3f
       0.69099605 0.64722586 -0.73232174 0.9393808
0000d0 4f fb 02 bf 92 24 04 3f c6 28 55 bf a9 fc 2f 3f
       -0.51164716 0.516183 -0.8326534 0.68744904
0000e0 2d b3 72 3f 37 83 51 3f b9 ae 74 3f 49 57 ec 3d
       0.9480465 0.8184084 0.95579106 0.11540086
0000f0 94 3c 73 3f f0 40 5a 3f 75 90 0f 3f 1d e6 a4 3e
       0.9501431 0.85255337 0.560798 0.32206813
000100 bd 8e 55 3f 61 47 5b 3f c4 e1 0d 3f 4c 32 78 bf
       0.83420926 0.8565579 0.55422616 -0.96951747
000110 35 8d 4d bf 53 04 89 3f 20 48 65 3f 32 1d 15 3f
       -0.8029359 1.0704445 0.8956318 0.58247674
000120 c1 a2 5d bf 20 22 47 3f ba 07 2c bf a0 b1 bf 3e
       -0.8657647 0.77786446 -0.6719929 0.37440205
000130 11 27 6c bf 71 71 46 3f 95 48 7b 3f 7a 9f 22 3f
       -0.9224711 0.7751685 0.98157626 0.6352459
000140 6a 53 61 3f 32 1b eb 3e c2 e2 3b 3f 03 66 77 3e
       0.88017905 0.45919186 0.7339288 0.24160008
000150 d3 22 6d bf 48 75 0a 3f 94 c3 11 3f de d1 38 3f
       -0.9263126 0.54085207 0.56939054 0.7219523
000160 6e f3 5a 3f e8 b2 d7 be 40 1f 6d 3f ab b7 8b 3f
       0.85527694 -0.42128682 0.9262581 1.0915426
000170 fb 93 80 bf 90 30 76 3f 9a 79 82 bf 68 27 90 bf
       -1.004516 0.9616785 -1.019336 -1.1262026
000180 72 0c b6 be 85 41 ef 3e d5 62 29 3f 56 e6 c0 3e
       -0.3555637 0.46729675 0.6616643 0.37675732
000190 9e 21 29 bf 65 a9 a1 3e 62 b4 66 3f 40 fe 78 3f
       -0.6606692 0.3157455 0.9011899 0.97262955
0001a0 a9 4d 0c 3f 1e f2 14 3f 63 cb 4d 3f a1 2b ee be
       0.54806 0.5818194 0.8038847 -0.4651766
0001b0 dd cb 54 3f 5e 7e 2a bf b8 0c 8a 3e d6 37 0c 3f
       0.8312357 -0.6659907 0.2696283 0.547727
0001c0 99 b3 54 3f 1d 2b ed 3e d5 2b 6d bf 03 6a 2f 3f
       0.83086544 0.46321955 -0.9264501 0.68521136
0001d0 52 19 86 bf dd 2f 8a bf da ee 5b 3f 70 f4 07 3f
       -1.0476477 -1.0795857 0.85911334 0.5310736
0001e0 7d d4 6e bf 26 24 66 3f b2 71 57 bf 58 52 10 bf
       -0.9329298 0.8989891 -0.8415786 -0.56375647
0001f0 5c 53 8c 3f 16 ce 26 3f ea 1c ec be 7a 55 40 3f
       1.0962939 0.6515821 -0.4611581 0.75130427
000200 25 27 47 3f 32 3b 1d bf 6b 8d e5 3e 45 30 e3 bd
       0.77794105 -0.6141845 0.44834456 -0.11093191
000210 8e 9e 3f 3e 10 96 f1 3e 68 e1 4c 3f 01 ab 1a 3c
       0.18712828 0.471848 0.8003144 0.009440185
000220 a4 b0 84 3f 8e 79 91 3f 73 43 3b 3f 59 b8 ec 3e
       1.0366406 1.136522 0.73149794 0.46234396
000230 8e 10 42 3f ed 35 e4 3e c1 44 61 bf f2 15 1d bf
       0.7580651 0.44572392 -0.87995535 -0.6136161
000240 c7 30 ec be 2f 91 3e be 6c 33 d5 3e 23 18 85 3f
       -0.46130964 -0.1861007 0.41640794 1.0397991
000250 7d 62 29 3f 18 bd 7d bf a1 e8 27 bf eb 15 b3 be
       0.66165906 -0.9911666 -0.6558934 -0.3497766
000260 7c 15 5e 3f 41 e5 a2 bf 8d fe 6a 3f bf 41 87 3f
       0.8675153 -1.2726213 0.91794664 1.0566939
000270 87 51 5a bf 42 b7 52 3f b4 dc 03 bf 3e bf 56 bf
       -0.8528065 0.8231088 -0.5150864 -0.8388556
000280 d6 79 0b bf 66 6b 3a 3e f5 f3 0f 3f b8 ad 71 3f
       -0.5448278 0.18205032 0.56231624 0.944057
000290 4a 70 7d 3f 4f b6 2f be 85 5e 6d 3f c4 0e 5b 3f
       0.98999465 -0.17159389 0.9272235 0.85569406
0002a0 b7 27 57 3f 66 a7 2d bf a9 ba 08 bf 4c 45 8a bf
       0.84044975 -0.67833555 -0.5340982 -1.0802398
0002b0 92 60 77 3f 00 4f ae bf 77 b6 e3 be 2f 80 c4 3e
       0.9663173 -1.3617859 -0.44475147 0.38379046
0002c0 3d 40 d0 be d5 49 4c bf f2 81 6f 3f ed 6b 40 bd
       -0.4067401 -0.7980016 0.93557656 -0.046977926
0002d0 6e 9d 8a 3f 77 0e 75 bf ba 5f 05 3f 48 68 d9 bd
       1.0829294 -0.95725197 0.5209919 -0.10615593
0002e0 90 74 30 3f 2c ae e0 bd 60 e2 ba bf 0d 83 4a 3f
       0.6892786 -0.10970721 -1.4600334 0.7910622
0002f0 f5 11 67 3f 98 ce 6e 3f 83 46 7b 3f bb d2 20 3f
       0.90261775 0.9328399 0.9815447 0.6282155
000300 df 05 5c bf 95 ef 85 bf 68 04 cc be 26 f3 32 bd
       -0.8594646 -1.046374 -0.39847112 -0.043688916
000310 38 ed 4b be dc 0c 44 3f 87 b9 52 3f f3 6a 17 3f
       -0.1991471 0.7658212 0.8231434 0.59147567
000320 24 af 46 3f 51 2d a7 bf 50 b1 29 3f da 65 66 3f
       0.77610993 -1.3060704 0.6628618 0.89999163
000330 35 20 69 3f 3a eb 7e 3f 00 f3 70 3f d6 08 63 3e
       0.9106477 0.9957768 0.9412079 0.2217134
000340 ba 97 4c 3f c2 db fd 3e 2e 78 17 3f 49 ce 80 3f
       0.79919016 0.49581724 0.59167755 1.0062953
000350 f4 c5 8d be d7 82 a3 be 3b 5d 63 3f 27 f1 7f 3f
       -0.2769009 -0.3193576 0.88814133 0.99977344
000360 36 ac 62 3f 9a 37 95 be 61 7f 31 3f cd 32 6d 3f
       0.88544023 -0.29143983 0.6933499 0.9265564
000370 7f bf 5e bf 53 3d 79 bf 95 c9 7b 3f f8 48 58 3f
       -0.8701095 -0.973592 0.98354465 0.8448634
000380 14 1a 32 3f f8 3b 69 3f 4e a4 21 3e ec b4 4c 3f
       0.6957104 0.9110713 0.15785334 0.79963565
000390 e4 06 84 be b2 de 35 bf c0 b2 1e 3f 9d eb 4d 3f
       -0.25786507 -0.7104293 0.619915 0.8043764
0003a0 01 69 82 3f 9d 3d 70 bf 76 e4 46 be 20 e1 09 3f
       1.0188295 -0.93844014 -0.19423088 0.5385914
0003b0 ae a9 4c 3f a7 39 b4 be 10 5c 9e bf 92 ab 25 3f
       0.7994641 -0.35200235 -1.2371845 0.6471492
0003c0 07 c9 4f bf cd 6a 85 bf 5c 20 4e 3f c1 86 77 3e
       -0.8116612 -1.0423218 0.80518126 0.24172498
0003d0 8b ca 5b 3f b5 b9 23 3f 38 a3 35 3f c4 09 72 be
       0.8585593 0.6395524 0.7095218 -0.23636538
0003e0 c8 3f 19 3f d0 ba 31 3f 67 4c 5d 3f 4f 54 45 bf
       0.5986295 0.6942568 0.86444706 -0.7708177
0003f0 e0 8a 58 bf 58 a0 5d bf 35 13 c4 3d bf 35 64 3f
       -0.84586906 -0.8657279 0.09573976 0.8914451

linear2.weight f4 [2, 512]
000000 15 b3 17 c0 33 55 f5 bf a7 74 82 be cd 8d 99 3e
       -2.3703053 -1.9166626 -0.25479624 0.29990998
000010 f6 e0 25 3f f7 e7 d4 bf 08 e6 99 bf 25 98 ef 3e
       0.6479639 -1.663329 -1.2023325 0.46795765
000020 66 fb fa 3e 7e 44 09 3f 3b ac 8d bf b2 cf 83 3e
       0.49019927 0.53620136 -1.1068186 0.25744396
000030 cf 28 68 3e a0 53 26 3f e0 55 85 3e 71 37 3a 3f
       0.22671817 0.6497135 0.2604208 0.72740847
000040 69 14 9a be c9 f0 2a 3f 04 54 f4 be 70 02 8a 3f
       -0.30093697 0.6677366 -0.4772035 1.0781994
000050 50 b4 a1 bf b9 d1 60 bf ea 16 39 3e bf cf 28 3f
       -1.2633152 -0.8782001 0.18075147 0.65941995
000060 83 a3 a8 bf 09 1e ef 3e f0 e9 ff 3e 08 09 a7 bf
       -1.31749 0.46702603 0.49983168 -1.3049631
000070 81 8f 25 3f bb 51 a0 bf a4 f0 ae 3e 31 77 48 be
       0.64672095 -1.2524942 0.3416797 -0.19576718
000080 42 81 04 bf 43 bc a5 bf 06 d2 e2 bf 80 c6 13 3f
       -0.5175973 -1.2948078 -1.7720344 0.5772476
000090 ab cf ea 3e c4 03 03 3f dc 99 8c 3e 7b e2 a1 3e
       0.45861563 0.5117762 0.27461135 0.31618103
0000a0 a8 14 af bf 01 58 88 bf 62 a7 65 3f 23 f9 f2 be
       -1.3678179 -1.0651857 0.8970853 -0.474557
0000b0 7b 78 cd 3e 9d 3d e8 bf f6 2b 8e bf 47 c8 c9 bf
       0.40130982 -1.8143803 -1.1107166 -1.5764245
0000c0 f4 76 06 3f c7 2b 0b 3f 15 e9 ae bf 47 53 9a 3e
       0.5252526 0.54363674 -1.3664881 0.3014166
0000d0 2e 92 e5 bd 56 81 92 3e d4 07 9e bf 62 1e d2 be
       -0.11209522 0.286143 -1.2346139 -0.41038805
0000e0 31 e7 ee 3e 5e cc 61 3e 8d 66 40 3f 31 75 a7 3f
       0.4666076 0.22050616 0.7515648 1.3082639
0000f0 d1 d4 1b 3f 94 b5 a0 3e ee 86 b5 3e c8 f3 62 3e
       0.6087161 0.31388533 0.35454506 0.22163308
000100 59 a1 2c 3f fb 72 46 3e d5 26 9d 3e dd fc 93 bf
       0.67433697 0.19379799 0.3069369 -1.1561543
000110 ee 5b b6 bf 57 33 29 bf 27 47 7e 3e 0b 75 07 3f
       -1.4246805 -0.66093963 0.2483183 0.5291297
000120 f4 ea 6d bf da 53 0c 3f a2 36 66 bf 99 ff 0c 3f
       -0.92936635 0.5481545 -0.89927113 0.5507751
000130 a3 87 a2 bf 3d 6d 15 3f bf 27 8d 3e 56 d8 ac 3e
       -1.2697643 0.5836981 0.27569386 0.337588
000140 ef 6d 00 3f aa 50 9c bf 62 e5 d9 bf 82 95 9f 3f
       0.50167745 -1.2212117 -1.7023127 1.2467501
000150 1e 1c 48 bf 95 75 96 3f 9f 1d 9d bf 6c b2 87 3e
       -0.78167903 1.1754633 -1.2274665 0.26503313
000160 ac ff a9 3e 8a 7d 5f 3f 45 a5 8b 3e 14 d9 47 3f
       0.33202875 0.8730093 0.27274528 0.7806561
000170 cc 80 23 bf 4e 92 cb 3e f3 d7 a2 bf a1 5a a4 bf
       -0.63868403 0.3976006 -1.2722152 -1.2840158
000180 fe c2 89 bf 24 f1 91 bf 82 29 8a 3e b4 f4 0f 3f
       -1.0762632 -1.1401715 0.26984793 0.5623276
000190 46 ca b6 bf d6 35 46 3f 4b ba 06 3f 66 3a 1a 3f
       -1.4280479 0.774259 0.5262801 0.6024536
0001a0 eb 2b 1f 3f dd b9 85 3e a2 0e bb 3e 79 df b5 be
       0.6217639 0.26118365 0.365346 -0.3552206
0001b0 9a 49 d8 3e d4 56 a3 bf 5a 6b ef be 64 e8 4c be
       0.42243654 -1.2760873 -0.4676159 -0.20010525
0001c0 0c 29 8e 3e 12 c7 55 3f 99 bb 9a bf e2 93 10 3f
       0.2776569 0.8350688 -1.20885 0.5647565
0001d0 de 56 0b c0 8d d7 c4 bf 16 c4 19 3f 38 a5 ba 3e
       -2.177177 -1.5378281 0.6006483 0.36454177
0001e0 b7 ef 3c bf f3 43 10 3f 35 6c 9c bf 95 ec b5 bf
       -0.73803276 0.5635368 -1.2220522 -1.4212824
0001f0 34 8f 9a bf 66 c9 53 3e 19 7c 38 bf d9 4a 9a 3e
       -1.2074952 0.20682296 -0.7206436 0.3013523
000200 69 02 ab 3e 6a 0b fd bf d9 a8 0e bf c8 8d ac be
       0.33400276 -1.9769108 -0.5572639 -0.3370192
000210 56 37 20 bf 25 20 ba 3e 6c a6 b4 3e c3 32 b1 bf
       -0.62584436 0.3635265 0.3528322 -1.3843616
000220 bb 85 6b bf 27 00 1a 3f e9 52 a1 3e 39 13 f6 3e
       -0.9200093 0.6015648 0.31508568 0.4806154
000230 c0 10 8a 3e 05 b5 e3 be 61 31 03 bf df 3f 9d 3e
       0.26965904 -0.44474044 -0.5124722 0.30712792
000240 45 14 11 3f 6c f6 44 bf ab 94 ca 3e 3f fd 50 3f
       0.56671554 -0.7693851 0.3956655 0.8163642
000250 c1 20 67 3d 87 bb ba bf b3 98 3f bf 6c de d9 bf
       0.05642772 -1.4588479 -0.74842376 -1.7021003
000260 dc a5 18 3f c1 24 d2 bf d5 d8 cb 3e 6f 5f 11 3f
       0.5962808 -1.6417466 0.39813867 0.56786245
000270 48 aa 59 bf a2 59 89 3e a8 41 1b bc 12 b2 47 bf
       -0.85025454 0.26826197 -0.009476103 -0.7800609
000280 be 7b fa be ac 31 42 bf fc 16 33 3f 69 a4 bb bf
       -0.48922533 -0.75857043 0.69956946 -1.4659549
000290 46 fa 1d 3f 2e 29 2d bf 70 a9 b9 3e 31 ff 0a 3f
       0.6171001 -0.6764096 0.36262083 0.5429564
0002a0 7b 1e 70 3e c9 4f 83 bf 0c 37 96 be 52 04 0c c0
       0.23449127 -1.0258723 -0.29338872 -2.1877637
0002b0 10 91 1c 3f c5 89 99 bf 84 c8 45 bf 65 78 64 3f
       0.6115885 -1.1995169 -0.7725909 0.8924621
0002c0 e9 3d c2 bf 0e 01 aa bf 22 b4 c1 3e c7 40 c5 bf
       -1.5175143 -1.3281572 0.37832743 -1.5410393
0002d0 9a 67 e6 3e e9 a1 9a bf a0 2e 00 3f a0 03 85 bf
       0.45000917 -1.2080661 0.50071144 -1.0391731
0002e0 4f 3b db 3e b5 70 0b bf 16 d3 1d bf 15 b1 ad 3e
       0.42818686 -0.5446885 -0.61650217 0.33924165
0002f0 42 cd cd 3e 9f 0e 3b 3f 35 2c a8 3e 21 48 46 3e
       0.40195662 0.73069185 0.32846227 0.19363452
000300 6c 4b a7 bf 96 03 18 c0 46 3b 94 bf be 64 70 3f
       -1.3069892 -2.3752189 -1.1580589 0.9390372
000310 10 62 8f bf d0 62 a8 3e a5 b2 4d bf 2a 35 1f 3f
       -1.1201801 0.32887888 -0.80350715 0.62190497
000320 21 dd 45 bf 47 2c 9a bf 14 c2 3b 3f 2b d3 69 3e
       -0.7729054 -1.2044762 0.73343015 0.2283446
000330 6d 65 16 3f c5 80 84 3e d0 10 8c bf 0b 70 4f 3f
       0.58748513 0.25879493 -1.0942631 0.8103034
000340 f6 58 9b 3e 2e 85 ca be 48 d3 8c bf fc f5 9e 3e
       0.3034131 -0.39554733 -1.1001978 0.31047046
000350 f9 4b ac bf cd 5b 19 be 68 98 d4 3e 15 f9 32 3f
       -1.3460685 -0.14976425 0.41522527 0.6991132
000360 6c bb 9d 3e b9 3a 4a bf 68 56 a8 3e ed 99 0e 3f
       0.30807054 -0.78995854 0.32878423 0.5570362
000370 d4 10 80 bf a3 ba e9 bf 47 dd c0 3e d8 15 0c 3f
       -1.0005136 -1.8260082 0.3766882 0.5472083
000380 09 97 92 3e 3b 21 13 3f e7 02 82 3f f3 9e a1 3e
       0.28630856 0.5747258 1.0157136 0.3156658
000390 58 43 ee bf 67 9e 3f be 6d 4e d4 3e fe 74 e8 3e
       -1.8614302 -0.1871277 0.41466084 0.45401758
0003a0 97 0e 3b 3f ae ce a7 bf 7a 6f 00 bf 63 f9 92 3e
       0.7306914 -1.3109949 -0.501701 0.28705892
0003b0 2a 6d 29 3f 11 d5 57 3f fe 37 5a bf 28 e5 8f 3e
       0.66182196 0.8430949 -0.8524169 0.2810452
0003c0 85 bd f3 bf c8 a2 67 bf d9 df 25 3f 9b 0c 9d 3f
       -1.9042212 -0.9048276 0.6479469 1.2269472
0003d0 2f f4 01 3f b8 39 b6 3e 51 d9 ab 3e 7b 5c 9a bf
       0.5076322 0.3559091 0.33564237 -1.2059473
0003e0 f8 36 89 3e d0 11 ea 3e 20 b0 cb 3e c7 26 05 c0
       0.2679975 0.45716715 0.3978281 -2.0804918
0003f0 40 25 50 bf f8 f0 a2 bf bf 2d 2a bf 68 94 9e 3e
       -0.8130684 -1.2729788 -0.66476053 0.309726

linear2.bias f4 [2]
000000 05 3e 8c 3e fd f2 8d 3e
       0.27391067 0.27724448
