code/log/dqn/ckpt/468000.pth (torch, 15775 bytes, 4 tensors)

linear.weight f4 [512, 4]
0	0xbd875c40	-0.06609392
1	0xbe29f7c9	-0.16598429
2	0xc0396d5c	-2.8972998
3	0xbedfbfd3	-0.43701038
4	0x3ef9533a	0.4869631
5	0x3eb2c72d	0.34917584
6	0x3faf5168	1.3696718
7	0x3e1ef638	0.15523612
8	0x3ef46746	0.4773504
9	0x3e7cab5c	0.24674743
10	0xbecb0872	-0.3965488
11	0x3d95a6cf	0.07307207
12	0xbe9deb37	-0.30843517
13	0x3cefbc60	0.029264629
14	0xbe7dd5be	-0.24788567
15	0x3caf322e	0.021386232
16	0x3e6d77e2	0.23190263
17	0x3e85f1e7	0.2616112
18	0xbf251669	-0.6448732
19	0xbd0ac36f	-0.033877786
20	0x3e9715cc	0.29508817
21	0x3f3e9d9a	0.7445923
22	0x40143812	2.3159223
23	0x3f38df51	0.72215754
24	0x3f0021e1	0.50051695
25	0x3dd91fbf	0.10601758
26	0xbe9425fd	-0.28935233
27	0x3de25389	0.11051089
28	0x3e90dca6	0.2829334
29	0x3e3f85ac	0.18703336
30	0x3faa0127	1.3281602
31	0x3f981455	1.1881205
32	0xbe9d5348	-0.307276
33	0xbe616020	-0.22009325
34	0xbecc83b3	-0.3994423
35	0xbe8dc252	-0.27687317
36	0xbe8fcc11	-0.28085378
37	0x3f10a550	0.56502247
38	0xbd7f58f6	-0.0623407
39	0x3d9b6f1d	0.075895526
40	0x3f2ae935	0.66762096
41	0xbefb91ad	-0.4913458
42	0xc0273d40	-2.6131134
43	0xbf536215	-0.82571536
44	0xbe82d535	-0.2555329
45	0xbda47f5d	-0.08032105
46	0x3ddbf111	0.10739339
47	0x3e51ecbc	0.20500463
48	0xbe85d024	-0.2613536
49	0x3d86b149	0.06576783
50	0x3cacc202	0.021088604
51	0x3e80d5fa	0.2516325
52	0x3e100f05	0.1406823
53	0xbdf6d267	-0.1205185
54	0xbd8a7c50	-0.06761992
55	0xbe3e74c3	-0.18599229
56	0xbf6b2d20	-0.9186573
57	0xbf2e32ae	-0.6804608
58	0xbe8ac3bd	-0.2710246
59	0xbe2a3f0b	-0.16625611
60	0x3ecef64b	0.40422282
61	0x3f2ca2cd	0.67435914
62	0x3f4c826e	0.7988652
63	0x3ed95e37	0.42454693
64	0x3d823162	0.06357075
65	0xbe35d9a3	-0.17758803
66	0xbf9edef8	-1.2411795
67	0xbeb95235	-0.3619553
68	0x3daeb954	0.08531442
69	0x3e8360b6	0.25659722
70	0xbf399d89	-0.72506005
71	0x3cd8d6e0	0.026469648
72	0x3e8d7035	0.2762467
73	0x3b4e70cd	0.003150034
74	0x3fe45b22	1.7840312
75	0x3fb167cc	1.3859801
76	0x3cb1496d	0.021641457
77	0xbf16a5ba	-0.5884663
78	0xc0720b8b	-3.7819545
79	0xbf3ffe5d	-0.749975
80	0xbefa3157	-0.48865768
81	0xbdd11e07	-0.102108054
82	0xbfc1a0b7	-1.5127171
83	0xbe3060f8	-0.1722449
84	0x3eeb1dfc	0.45921314
85	0x3cd458e2	0.025921289
86	0xbf8fd4ca	-1.1236813
87	0xbd05137c	-0.032489285
88	0x3c6ff591	0.01464595
89	0xbe8dfc5c	-0.27731597
90	0xbda25189	-0.07925708
91	0xbce6a5c6	-0.028155219
92	0x3e62851e	0.22121093
93	0xbdbacbc4	-0.091208965
94	0xbf73149b	-0.94953316
95	0xbdf4f304	-0.11960414
96	0x3df62e62	0.120205656
97	0xbe5a2c74	-0.2130602
98	0xc00f00fe	-2.2344356
99	0xbeac3f4e	-0.33642048
100	0x3e78d59a	0.24300233
101	0x3f3b82d7	0.7324652
102	0x3d94d24e	0.07266675
103	0xbddf2aae	-0.108968124
104	0xbf09cfea	-0.53832877
105	0xbe279673	-0.16365986
106	0xbf6c5f08	-0.92332506
107	0xbe8ab3cd	-0.27090302
108	0x3efa664c	0.4890617
109	0x3f263de0	0.64938164
110	0x3f900424	1.1251264
111	0x3f0bd79e	0.5462588
112	0x3ae77330	0.001765823
113	0x3cd7e091	0.026352199
114	0x3db0a644	0.08625463
115	0xbef01c8d	-0.46896783
116	0xbedbbb33	-0.4291626
117	0xbcaae735	-0.020862201
118	0x3e8cb972	0.27485234
119	0xbde7722e	-0.11301075
120	0x3d4c7747	0.04991844
121	0xbd60333a	-0.054736353
122	0xbef18e97	-0.471791
123	0x3d8b9dd9	0.068172164
124	0xbeacc855	-0.3374659
125	0xbebeaf3e	-0.37243074
126	0xc01950ea	-2.3955636
127	0xbf23d66b	-0.6399905
128	0xbeba6241	-0.36403087
129	0xbf07fa4e	-0.5311631
130	0xbdca0c34	-0.09865609
131	0xbea5e29d	-0.32399455
132	0xbee622b2	-0.44948345
133	0xbe767a51	-0.24070098
134	0xbea91344	-0.3302251
135	0xbe776242	-0.24158576
136	0xbef567df	-0.4793081
137	0xbea7f14d	-0.32801285
138	0x3f736133	0.9507019
139	0xbd46ed35	-0.048566062
140	0x3daf76d7	0.08567589
141	0x3e0eafee	0.139343
142	0x3e1509ba	0.14554492
143	0xbe502545	-0.20326717
144	0xbeda2004	-0.4260255
145	0xbe784ea0	-0.24248743
146	0xbfa07ad6	-1.2537487
147	0xbf216757	-0.6304831
148	0xbe18890d	-0.1489603
149	0xbebec3ba	-0.37258703
150	0xbef361e9	-0.47535637
151	0xbe4ac5c6	-0.19802007
152	0x3e699cba	0.22813693
153	0xbe892a91	-0.26790288
154	0xc016bcdf	-2.3552778
155	0xbec83380	-0.3910179
156	0x3e80bf9c	0.25146186
157	0xbf03fce1	-0.5155774
158	0xbed1f555	-0.41007486
159	0xbe70c65c	-0.23513168
160	0xbe023479	-0.12715329
161	0xbf25dc72	-0.647895
162	0xc065e617	-3.5921686
163	0xbf4cd16b	-0.80007046
164	0xbede74b2	-0.43448406
165	0xbe0f0632	-0.13967207
166	0xbec24be7	-0.37948534
167	0xbe62d1dd	-0.22150369
168	0xbfd19b0e	-1.6375444
169	0xbd2687fd	-0.040657032
170	0x3e0fea2c	0.14054173
171	0xbb94599e	-0.0045272848
172	0x3e31381a	0.17306557
173	0x3e98797d	0.29780188
174	0x3de8553e	0.11344384
175	0x3f173c27	0.5907616
176	0xbe56037f	-0.20899771
177	0xbedaee88	-0.4276011
178	0x3dc72c32	0.097252265
179	0xbeafbd3e	-0.34324068
180	0xbee2f8ac	-0.44330347
181	0xbed8e841	-0.42364696
182	0x3f9cc11f	1.2246436
183	0xbda2dded	-0.07952485
184	0x3eb88689	0.36040142
185	0x3e7550c5	0.23956592
186	0xbf275777	-0.65367836
187	0x3e1e0b5f	0.15434025
188	0xbeec70e6	-0.46179885
189	0x3e8f703a	0.2801531
190	0x3f9f249c	1.2433047
191	0x3e102fb8	0.14080703
192	0xbf06ec80	-0.5270462
193	0xbdf7e968	-0.121050656
194	0x3df95bc6	0.121757075
195	0x3cc41e7a	0.023940314
196	0xbe86f22a	-0.26356632
197	0x3dfb9692	0.122845784
198	0xbf0b73f1	-0.5447379
199	0x3d08baf5	0.03338142
200	0x3e9c932a	0.30581027
201	0xbd0cfe59	-0.034422252
202	0xbfb30aa5	-1.3987623
203	0xbd5cc064	-0.053894415
204	0xbeac46d1	-0.3364778
205	0x3e7cd570	0.24690795
206	0xbea77d8d	-0.32712975
207	0x3edca940	0.43097878
208	0x3e329741	0.17440511
209	0x3daeb676	0.085308954
210	0xbdaeebbe	-0.08541058
211	0xbdf2bd8d	-0.1185256
212	0xbdcdc710	-0.10047734
213	0xbe6206f8	-0.22072971
214	0xbe89bbdc	-0.26901138
215	0xbd3db4b9	-0.04631493
216	0xbe8b8633	-0.27250823
217	0xbec1ecb9	-0.37875918
218	0xbff7cd31	-1.9359494
219	0xbeaacd68	-0.33359838
220	0x3cf922f6	0.030412178
221	0x3ee660fe	0.44995874
222	0x3f8537d4	1.0407662
223	0x3f01209e	0.50440395
224	0xbec328e5	-0.38117138
225	0x3e38e494	0.18055946
226	0xbef33459	-0.47500876
227	0x3cf37242	0.029717568
228	0xbe88d1ea	-0.26722652
229	0x3d645deb	0.05575363
230	0xbd79cc99	-0.060986135
231	0x3e940e52	0.28917176
232	0x3e09eee7	0.1347004
233	0xbd072ab1	-0.032999698
234	0xbd0d0a61	-0.034433726
235	0xbebad127	-0.36487696
236	0x3d118d9e	0.035535447
237	0xbf205aea	-0.62638724
238	0x3ee4b126	0.44666404
239	0x3f283a97	0.657144
240	0xbd7a84c0	-0.061161757
241	0x3ea5ea5b	0.32405362
242	0xbeaaa720	-0.3333063
243	0x3b87a23a	0.004139212
244	0x3e834cd8	0.25644565
245	0xbf1882aa	-0.5957438
246	0x3dbba573	0.09162416
247	0xbeb35909	-0.35028866
248	0xbe0d23a3	-0.13783126
249	0xbe5b3d63	-0.21410136
250	0xbeda7dd0	-0.42674112
251	0x3dc144fd	0.094369866
252	0x3e38f01b	0.18060343
253	0xbef5ba64	-0.47993767
254	0xbd6c7743	-0.057730924
255	0x3e02dba2	0.12779096

linear.bias f4 [512]
0	0xbedfcf8d	-0.43713036
1	0xbdb7f344	-0.08981946
2	0xbf1b1b50	-0.6058855
3	0x3f454bbb	0.7706868
4	0x3f8005ef	1.0001811
5	0xbf66b2b5	-0.90116435
6	0xbf8b3747	-1.0876244
7	0x3e463c8c	0.19359034
8	0x3f8234e8	1.0172396
9	0x3f6ef6c8	0.9334531
10	0x3ebcc74b	0.36870798
11	0x3f510ebb	0.816631
12	0x3f3edeca	0.745587
13	0x3f487c0a	0.7831427
14	0x3eabde8e	0.33568233
15	0x3eee6c1a	0.4656685
16	0x3f1569d8	0.5836463
17	0x3f8f2085	1.1181799
18	0xbe9ac235	-0.30226293
19	0xbed9500c	-0.42443883
20	0xbf7521ca	-0.95754683
21	0xbf80f2a3	-1.0074047
22	0x3f06dd68	0.5268159
23	0x3f6f9aab	0.9359538
24	0xbf19a5dc	-0.60018706
25	0x3f6c5501	0.92317206
26	0x3f64064e	0.8907212
27	0xbeaa3a62	-0.33247668
28	0x3f8383b8	1.0274572
29	0xbf483d24	-0.78218293
30	0x3f27b53f	0.65510935
31	0xbe580899	-0.2109703
32	0xbf3a04ed	-0.72663766
33	0xbf670c74	-0.90253377
34	0xbf7c56ce	-0.98569953
35	0x3f88fc93	1.070208
36	0x3e18af64	0.14910656
37	0x3f390e2a	0.7228724
38	0xbf1201e4	-0.57034135
39	0x3f5b1f8c	0.8559501
40	0x3f25f84f	0.64832014
41	0xbf63cd64	-0.88985276
42	0x3ef8888c	0.48541677
43	0x3f57ce91	0.8429957
44	0x3f68bd8c	0.90914226
45	0xbf703879	-0.9383617
46	0xbf5270c3	-0.8220331
47	0xbf5a59f8	-0.8529353
48	0x3f320208	0.6953435
49	0x3f258d62	0.6466886
50	0xbf43822c	-0.763705
51	0x3f70450b	0.9385535
52	0xbf02fb4f	-0.51164716
53	0x3f03ec90	0.5153284
54	0xbf5528c6	-0.8326534
55	0x3f2fea20	0.6871662
56	0x3f728989	0.9474111
57	0x3f514246	0.8174175
58	0x3f74a3eb	0.9556262
59	0x3dece260	0.11566615
60	0x3f731b27	0.94963306
61	0x3f5a0bdb	0.8517434
62	0x3f0f3b8d	0.5595024
63	0x3ea465c8	0.32108903
64	0x3f557bb9	0.8339191
65	0x3f5b0500	0.85554504
66	0x3f0dac27	0.5534081
67	0xbf7c2d7b	-0.985069
68	0xbf4d8d35	-0.8029359
69	0x3f890393	1.0704216
70	0x3f650b8d	0.8947075
71	0x3f150cdf	0.58222765
72	0xbf5da2c1	-0.8657647
73	0x3f46ff3c	0.77733207
74	0xbf2c0e50	-0.6720934
75	0x3ebfb1a0	0.37440205
76	0xbf6c2711	-0.9224711
77	0x3f465092	0.7746669
78	0x3f7b0f15	0.9806989
79	0x3f20eb96	0.62859476
80	0x3f612e9b	0.8796174
81	0x3efb637c	0.49099338
82	0x3f4083f2	0.7520133
83	0x3e770d84	0.2412625
84	0xbf6d22d3	-0.9263126
85	0x3f030e4a	0.5119368
86	0x3f19d447	0.60089535
87	0x3f389728	0.72105646
88	0x3f5ac078	0.85449934
89	0xbed7b2e8	-0.42128682
90	0x3f6c859d	0.9239138
91	0x3f8bad3f	1.0912246
92	0xbf8093fb	-1.004516
93	0x3f760136	0.960956
94	0xbf837db9	-1.0272743
95	0xbf94c7dd	-1.1623493
96	0xbeb1818f	-0.34669158
97	0x3eed025a	0.46290857
98	0x3f292917	0.66078323
99	0x3ec0e656	0.37675732
100	0xbf23a031	-0.6391631
101	0x3e994df5	0.2994229
102	0x3f669029	0.9006372
103	0x3f78dc48	0.9721112
104	0x3f135069	0.5754457
105	0x3f14b73e	0.58092105
106	0x3f4d9a5e	0.8031367
107	0xbeee2ba1	-0.4651766
108	0x3f54a0d6	0.83057916
109	0xbf2a7e5e	-0.6659907
110	0x3e72cd06	0.23711023
111	0x3f0c4457	0.5479178
112	0x3f547b01	0.8300019
113	0x3eeceb9f	0.46273515
114	0xbf6e7d5f	-0.9316005
115	0x3f2838ad	0.6571148
116	0xbf871d45	-1.0555807
117	0xbf8a2fdd	-1.0795857
118	0x3f5bcc95	0.8585904
119	0x3ee84432	0.4536453
120	0xbf6ed47d	-0.9329298
121	0x3f65ffe0	0.8984356
122	0xbf5771b2	-0.8415786
123	0xbf105258	-0.56375647
124	0x3f8f6bf1	1.1204816
125	0x3f2503a1	0.6445866
126	0xbeffef87	-0.49987432
127	0x3f401f5b	0.75047845
128	0x3f46f445	0.77716476
129	0xbf1d3b32	-0.6141845
130	0x3ee5bc51	0.44870237
131	0xbde083cf	-0.109626405
132	0x3e24c16c	0.1608941
133	0x3ee3548b	0.4440044
134	0x3f4cb074	0.79956746
135	0x3cbbfadb	0.022946766
136	0x3f84b29b	1.0367006
137	0x3f916bfe	1.1361082
138	0x3f3b0e43	0.73068637
139	0x3eecb859	0.46234396
140	0x3f41d5e9	0.75717026
141	0x3ee62942	0.44953352
142	0xbf67a3ae	-0.9048413
143	0xbf21943d	-0.6311682
144	0xbeec7bc7	-0.46188185
145	0xbe6a4506	-0.22877893
146	0x3eceea11	0.40412953
147	0x3f851095	1.0395685
148	0x3f29627d	0.66165906
149	0xbf7dbd18	-0.9911666
150	0xbf27e8a1	-0.6558934
151	0xbec6afeb	-0.3880609
152	0x3f5dfa7e	0.86710346
153	0xbfa2e541	-1.2726213
154	0x3f6acfe8	0.9172349
155	0x3f873890	1.0564137
156	0xbf5a5187	-0.8528065
157	0x3f527cac	0.82221484
158	0xbf03dcb4	-0.5150864
159	0xbf56bf3e	-0.8388556
160	0xbf0b79d6	-0.5448278
161	0x3e3b03ae	0.18263122
162	0x3f06e41f	0.52691835
163	0x3f71b782	0.94420636
164	0x3f7d5033	0.989505
165	0xbe42bcd0	-0.19017339
166	0x3f6ddcf3	0.92915267
167	0x3f5aec07	0.855164
168	0x3f56e9e2	0.83950627
169	0xbf2d9af0	-0.6781454
170	0xbf08baa9	-0.5340982
171	0xbf8b497f	-1.0881804
172	0x3f773f05	0.96580535
173	0xbfae4f00	-1.3617859
174	0xbee3b677	-0.44475147
175	0x3ec4802f	0.38379046
176	0xbed0403d	-0.4067401
177	0xbf4c49d5	-0.7980016
178	0x3f6f5290	0.93485355
179	0xbd3f8800	-0.04676056
180	0x3f8a888d	1.0822922
181	0xbf750e77	-0.95725197
182	0x3f0573b5	0.5212968
183	0xbdd92eb6	-0.106046125
184	0x3f3048bb	0.6886098
185	0xbde0ae2c	-0.10970721
186	0xbfbae260	-1.4600334
187	0x3f4a2bb2	0.78972924
188	0x3f66e479	0.9019237
189	0x3f6eb969	0.93251663
190	0x3f7b1326	0.98076093
191	0x3f208b52	0.62712586
192	0xbf5c05df	-0.8594646
193	0xbf85ef95	-1.046374
194	0xbecc442b	-0.39895758
195	0xbd32f326	-0.043688916
196	0xbe4bed38	-0.1991471
197	0x3f43d95c	0.7650354
198	0x3f52b213	0.8230297
199	0x3f0eb03a	0.5573765
200	0x3f46bc4f	0.77631086
201	0xbfa72d51	-1.3060704
202	0x3f2996a5	0.6624549
203	0x3f662539	0.8990055
204	0x3f6900bc	0.91016746
205	0x3f7eb1c5	0.99490005
206	0x3f710798	0.9415221
207	0x3e5bfde3	0.21483569
208	0x3f4c614e	0.79835975
209	0x3efd58f5	0.4948193
210	0x3f1e0059	0.6171928
211	0x3f80b374	1.0054765
212	0xbe8db5f6	-0.27677888
213	0xbea382d7	-0.3193576
214	0x3f632fdd	0.8874491
215	0x3f7fdb02	0.99943554
216	0x3f6276af	0.88462347
217	0xbe95379a	-0.29143983
218	0x3f314b27	0.692553
219	0x3f6d0bef	0.92596334
220	0xbf5ebf7f	-0.8701095
221	0xbf7b45c0	-0.98153305
222	0x3f7b991e	0.98280513
223	0x3f58239d	0.8442934
224	0x3f31e1da	0.6948525
225	0x3f6918b3	0.91053313
226	0x3e214926	0.1575056
227	0x3f4c8065	0.79883415
228	0xbe840d8d	-0.25791588
229	0xbf35deb2	-0.7104293
230	0x3f1dde6b	0.6166751
231	0x3f4dc14d	0.8037308
232	0x3f825e6f	1.0185069
233	0xbf703d9d	-0.93844014
234	0xbe47afa9	-0.19500603
235	0x3f09a913	0.5377361
236	0x3f4c8df4	0.79904103
237	0xbeb462df	-0.35231683
238	0xbf9e5c10	-1.2371845
239	0x3f2573bb	0.64629716
240	0xbf4fc907	-0.8116612
241	0xbf856acd	-1.0423218
242	0x3f4dffff	0.80468744
243	0x3e771672	0.24129656
244	0x3f5b9fab	0.8579051
245	0x3f23893c	0.6388128
246	0x3f357002	0.70874035
247	0xbe71b7ee	-0.2360532
248	0x3f1905eb	0.59774655
249	0x3f3193ac	0.69365954
250	0x3f5d1de0	0.8637371
251	0xbf45544f	-0.7708177
252	0xbf588ae0	-0.84586906
253	0xbf5da058	-0.8657279
254	0x3ddb2c5a	0.10701819
255	0x3f640057	0.8906302

linear2.weight f4 [2, 512]
0	0xc0155952	-2.3335767
1	0xbff4a4e5	-1.9112822
2	0xbe76a8e9	-0.24087872
3	0x3e95e43e	0.29275697
4	0x3f2630be	0.64918125
5	0xbfd4e7f7	-1.663329
6	0xbf99e608	-1.2023325
7	0x3ef19ff8	0.4719236
8	0x3ef8d3b1	0.48599008
9	0x3f08e8b7	0.53480095
10	0xbf8d6041	-1.1044999
11	0x3e816d1b	0.25278553
12	0x3e62bbfa	0.2214202
13	0x3f267551	0.6502276
14	0x3e8555e0	0.2604208
15	0x3f3afa49	0.73038155
16	0xbe9960de	-0.29956716
17	0x3f2b239a	0.668512
18	0xbee404c4	-0.44534886
19	0x3fa045be	1.2521284
20	0xbfa1b450	-1.2633152
21	0xbf50b929	-0.8153253
22	0x3e3826d4	0.17983562
23	0x3f290a5e	0.66031444
24	0xbfa47a19	-1.2849761
25	0x3ef02c2c	0.469087
26	0x3f1b1bf0	0.60589504
27	0xbfa5e9e6	-1.2962005
28	0x3f257c33	0.6464264
29	0xbfa051bb	-1.2524942
30	0x3eaf16c9	0.3419707
31	0xbe487731	-0.19576718
32	0xbf048142	-0.5175973
33	0xbfa5bc43	-1.2948078
34	0xbfe2d206	-1.7720344
35	0x3f13eeb3	0.577861
36	0x3eeacfab	0.45861563
37	0x3f0222a8	0.5083413
38	0x3ee9f715	0.4569632
39	0x3ea224e4	0.3166877
40	0xbfaf5c24	-1.3699994
41	0xbf885801	-1.0651857
42	0x3f65a762	0.8970853
43	0xbef208e4	-0.47272408
44	0x3ecba213	0.3977209
45	0xbfe83d9d	-1.8143803
46	0xbf8e2bf6	-1.1107166
47	0xbfc9c847	-1.5764245
48	0x3f081051	0.53149897
49	0x3f0960c9	0.5366331
50	0xbfa9b233	-1.3257507
51	0x3e980b6f	0.29696223
52	0xbde5922e	-0.11209522
53	0x3e90ec3f	0.2830524
54	0xbf9e07d4	-1.2346139
55	0xbed11bc8	-0.40841508
56	0x3eebdca2	0.46066767
57	0x3e5d713e	0.2162523
58	0x3f407a9c	0.7518709
59	0x3fa52b50	1.2903843
60	0x3f1be1a2	0.60891163
61	0x3ea0e796	0.31426686
62	0x3eb37f5f	0.35058114
63	0x3e632f9f	0.22186135
64	0x3f2bf799	0.6717468
65	0x3e41211c	0.18860286
66	0x3e9d2399	0.3069122
67	0xbf93fcdd	-1.1561543
68	0xbfb65bee	-1.4246805
69	0xbf28c8b9	-0.6593128
70	0x3e7ca6e4	0.24673039
71	0x3f070147	0.52736324
72	0xbf6deaf4	-0.92936635
73	0x3f0c65e0	0.5484295
74	0xbf5d1531	-0.8636046
75	0x3f0cff99	0.5507751
76	0xbfa287a3	-1.2697643
77	0x3f1594fa	0.58430445
78	0x3e8d468e	0.2759289
79	0x3e99f44f	0.30069205
80	0x3f008890	0.5020838
81	0xbf9b6477	-1.2140034
82	0xbfda58c9	-1.7058345
83	0x3fa00af9	1.2503349
84	0xbf481c1e	-0.78167903
85	0x3f88dd4c	1.0692534
86	0xbf9b7b4f	-1.2147006
87	0x3e84e816	0.25958318
88	0x3ea8d89e	0.32977766
89	0x3f5f7d8a	0.8730093
90	0x3e8a5e87	0.27025244
91	0x3f4801b6	0.7812761
92	0xbf2380cc	-0.63868403
93	0x3ec9556a	0.39322978
94	0xbfa2d7f3	-1.2722152
95	0xbfa45aa1	-1.2840158
96	0xbf4f64e0	-0.810133
97	0xbf8f70ed	-1.1206337
98	0x3e87e31f	0.26540467
99	0x3f0ff4b4	0.5623276
100	0xbfb34068	-1.400403
101	0x3f4063d2	0.75152314
102	0x3f0608dc	0.5235727
103	0x3f1a7586	0.60335577
104	0x3f2099a5	0.6273444
105	0x3e83bb50	0.25728846
106	0x3ebb50e4	0.36585152
107	0xbeb5df79	-0.3552206
108	0x3ed8ad3e	0.42319673
109	0xbfa356d4	-1.2760873
110	0xbef4c7f9	-0.47808817
111	0xbe4ae40e	-0.19813558
112	0x3e8d66e6	0.27617568
113	0x3f5688d5	0.8380254
114	0xbf8fb5f8	-1.1227407
115	0x3f1e3516	0.6179975
116	0xc00b1ff1	-2.1738245
117	0xbfc4d78d	-1.5378281
118	0x3f19e646	0.60116994
119	0x3e53cbfa	0.2068328
120	0xbf3cefb7	-0.73803276
121	0x3f103163	0.5632536
122	0xbf9c6c35	-1.2220522
123	0xbfb5ec95	-1.4212824
124	0xbf9ae148	-1.21
125	0x3e4acc6d	0.19804545
126	0xbf387c19	-0.7206436
127	0x3e998216	0.2998206
128	0x3ea8d156	0.3297221
129	0xbffd0b6a	-1.9769108
130	0xbf0e32c6	-0.55546224
131	0xbecc2f99	-0.39880064
132	0xbf203756	-0.62584436
133	0x3eba2025	0.3635265
134	0x3eb2a426	0.3489086
135	0xbfb0b3ff	-1.380493
136	0xbf6b1601	-0.9183045
137	0x3f199bb1	0.6000319
138	0x3ea18e6f	0.3155398
139	0x3ef61339	0.4806154
140	0x3e86feea	0.2636636
141	0xbee29370	-0.4425311
142	0xbf033161	-0.5124722
143	0x3ec2b80a	0.38031036
144	0x3f12981b	0.57263345
145	0xbf3bee2f	-0.73410314
146	0x3ec8e2ae	0.39235443
147	0x3f512b9b	0.8170716
148	0x3d6720c1	0.05642772
149	0xbfbabb87	-1.4588479
150	0xbf3f98b3	-0.74842376
151	0xbfd5dda2	-1.6708262
152	0x3f187e8e	0.5956811
153	0xbfd224c1	-1.6417466
154	0x3ecc2632	0.3987289
155	0x3f111936	0.56679094
156	0xbf59aa48	-0.85025454
157	0x3e85ef9d	0.26159373
158	0xbc1b41a8	-0.009476103
159	0xbf47b212	-0.7800609
160	0xbefa7bbe	-0.48922533
161	0xbf583d0c	-0.8446815
162	0x3f1275ca	0.5721098
163	0xbfbc7ba8	-1.4725237
164	0x3f1e03b5	0.61724406
165	0xbf28d6fd	-0.65953046
166	0x3eb96f28	0.36217618
167	0x3f0a9856	0.54138696
168	0x3e6de4ae	0.23231766
169	0xbf817879	-1.011489
170	0xbe96370c	-0.29338872
171	0xc00b83ed	-2.179927
172	0x3f1cada7	0.6120247
173	0xbf9989c5	-1.1995169
174	0xbf45c884	-0.7725909
175	0x3f647865	0.8924621
176	0xbfc23de9	-1.5175143
177	0xbfaa010e	-1.3281572
178	0x3ebf0b51	0.3731332
179	0xbfc49b72	-1.5359938
180	0x3ee6c90a	0.45075256
181	0xbf9aa1e9	-1.2080661
182	0x3f008133	0.5019714
183	0xbf8448ae	-1.033468
184	0x3ed9c0c2	0.42529875
185	0xbf0b70b5	-0.5446885
186	0xbf1dd316	-0.61650217
187	0x3eabe19f	0.33570573
188	0x3ece57bc	0.4030131
189	0x3f3aee8f	0.7302026
190	0x3ea84dd5	0.3287188
191	0x3e45dfed	0.19323702
192	0xbfa74b6c	-1.3069892
193	0xc0180396	-2.3752189
194	0xbf938066	-1.1523559
195	0x3f7064be	0.9390372
196	0xbf8f6210	-1.1201801
197	0x3ea80320	0.32814884
198	0xbf4d357e	-0.8015975
199	0x3f0dec13	0.55438346
200	0xbf458f2c	-0.7717159
201	0xbf9a2c47	-1.2044762
202	0x3f3bd078	0.73364973
203	0x3e692e72	0.22771624
204	0x3f162789	0.58654076
205	0x3e8510c3	0.2598935
206	0xbf8cf8eb	-1.1013464
207	0x3f4beebe	0.79661167
208	0x3e9ad0f4	0.30237544
209	0xbec96178	-0.39332175
210	0xbf8c2af1	-1.0950605
211	0x3e9f38f4	0.3109814
212	0xbfab4fc6	-1.338372
213	0xbe195bcd	-0.14976425
214	0x3ed2e9ed	0.41194096
215	0x3f33328f	0.6999902
216	0x3e9e29ed	0.30891362
217	0xbf4a3ab9	-0.78995854
218	0x3ea528ff	0.3225784
219	0x3f0f0079	0.55860096
220	0xbf8010d4	-1.0005136
221	0xbfe8b78e	-1.8181016
222	0x3ec0eff0	0.37683058
223	0x3f0c18ed	0.54725534
224	0x3e8f183e	0.27948183
225	0x3f13102f	0.5744657
226	0x3f82758f	1.0192126
227	0x3e9fd589	0.31217602
228	0xbfed572d	-1.8542229
229	0xbe3f9e67	-0.1871277
230	0x3ed44bf9	0.41464213
231	0x3ee8a173	0.45435676
232	0x3f3b371f	0.73130983
233	0xbfa7ceae	-1.3109949
234	0xbefecf4e	-0.49767536
235	0x3e92ae83	0.28648767
236	0x3f2967e9	0.6617418
237	0x3f58c6f3	0.8467857
238	0xbf5a37fe	-0.8524169
239	0x3e8e0ce3	0.27744207
240	0xbff3bd85	-1.9042212
241	0xbf67a2c8	-0.9048276
242	0x3f25e17f	0.64797205
243	0x3f9d75ed	1.2301613
244	0x3f027417	0.5095839
245	0x3eb4b4cb	0.35294184
246	0x3eab64c5	0.3347532
247	0xbf9951aa	-1.1978047
248	0x3e888f1c	0.26671684
249	0x3eea29f7	0.45735142
250	0x3eca35a5	0.39494053
251	0xc00526c7	-2.0804918
252	0xbf502540	-0.8130684
253	0xbfa2f0f8	-1.2729788
254	0xbf28a1af	-0.6587171
255	0x3e9ee23b	0.31031975

linear2.bias f4 [2]
0	0x3e8c60d2	0.27417618
1	0x3e8d99c7	0.27656385
