code/log/dqn/ckpt/471000.pth (torch, 15775 bytes, 4 tensors)

linear.weight f4 [512, 4]
-0.1009289 -0.19905415 -2.8621995 -0.40368998 0.48550963 0.3485584 1.3669358 0.15511927
0.47747514 0.2416605 -0.3958438 0.07782762 -0.30706814 0.030276896 -0.24308108 0.02194602
0.2333177 0.26230448 -0.6415995 -0.03361165 0.29508817 0.7445923 2.3159223 0.72215754
0.50051695 0.10601758 -0.28935233 0.11051089 0.280547 0.18451719 1.3315433 1.1966733
-0.30586872 -0.21915896 -0.39491323 -0.27633664 -0.27923372 0.56497294 -0.057167374 0.07744887
0.6661834 -0.4924224 -2.6182604 -0.82632387 -0.25417864 -0.07905476 0.112494536 0.2054068
-0.26000333 0.06703553 0.02595377 0.25195688 0.14210984 -0.119633675 -0.06349679 -0.18556546
-0.9186573 -0.6804608 -0.2710246 -0.16625611 0.40564752 0.6753152 0.80339307 0.42506108
0.06382936 -0.1769223 -1.2363224 -0.36118454 0.08674287 0.2574573 -0.72101104 0.026889753
0.28395516 -0.0005350343 1.7976755 1.3757117 0.0048363986 -0.588091 -3.785914 -0.75854576
-0.48865768 -0.102108054 -1.5127171 -0.1722449 0.44606793 0.026391743 -1.1107414 -0.03179938
0.015978137 -0.2761179 -0.07447012 -0.027793713 0.22263905 -0.09031043 -0.94537944 -0.11918098
0.09130774 -0.23113137 -2.205013 -0.31633583 0.24437307 0.73345804 0.07794174 -0.10823908
-0.5425983 -0.17076676 -0.9386564 -0.28012052 0.4875919 0.64840925 1.1205517 0.54574835
0.0030139391 0.026541907 0.08735663 -0.46903956 -0.4291626 -0.020862201 0.27485234 -0.11301075
0.051300015 -0.053671125 -0.4669228 0.0686962 -0.3374659 -0.37243074 -2.3955636 -0.6399905
-0.36403087 -0.5311631 -0.09865609 -0.32399455 -0.44948345 -0.24070098 -0.3302251 -0.24158576
-0.4793081 -0.32801285 0.9507019 -0.048566062 0.08709571 0.1402436 0.14992072 -0.20275436
-0.40464923 -0.22429489 -1.2798473 -0.64961207 -0.1475468 -0.37159064 -0.47094014 -0.19759278
0.22438706 -0.26067424 -2.3656628 -0.40932924 0.25284323 -0.5145278 -0.40533364 -0.2346374
-0.12412603 -0.6517169 -3.5750525 -0.79539263 -0.43448406 -0.13967207 -0.37948534 -0.22150369
-1.6375444 -0.040657032 0.14054173 -0.0045272848 0.17156208 0.29691026 0.10897152 0.59020466
-0.2076041 -0.42659903 0.1019425 -0.34271106 -0.44330347 -0.42364696 1.2246436 -0.07952485
0.36040142 0.23956592 -0.65367836 0.15434025 -0.46179885 0.2801531 1.2433047 0.14080703
-0.537821 -0.10791948 0.14543667 0.020639198 -0.26215103 0.123655245 -0.5407341 0.033832368
0.2850838 -0.026538538 -1.3782418 -0.06015874 -0.33510447 0.24810314 -0.3222729 0.43136916
0.16646485 0.07736956 -0.07748708 -0.11058567 -0.0991097 -0.21958008 -0.26409602 -0.04585974
-0.27250823 -0.37875918 -1.9359494 -0.33359838 0.02888483 0.44914952 1.0368123 0.50397485
-0.37977222 0.18147604 -0.4703527 0.030318871 -0.26589206 0.05704355 -0.055768754 0.2895849
0.13599618 -0.03270058 -0.03298004 -0.36493444 0.036989156 -0.6199679 0.44723532 0.66152346
-0.05973755 0.3248988 -0.32918635 0.004605534 0.25782764 -0.5947093 0.096331306 -0.34978908
-0.13686045 -0.21441008 -0.42365938 0.09619096 0.18201067 -0.47837472 -0.052465986 0.12790881
00000000: d0b3 cebd dad4 4bbe 472e 37c0 74b0 cebe
00000010: b894 f83e 3f76 b23e c1f7 ae3f 96d7 1e3e
00000020: 9f77 f43e da75 773e 0aac cabe 1664 9f3d
00000030: 0938 9dbe 4107 f83c 3fea 78be 24c8 b33c
00000040: d6ea 6e3e c64c 863e dd3f 24bf 5fac 09bd
00000050: cc15 973e 9a9d 3e3f 1238 1440 51df 383f
00000060: e121 003f bf1f d93d fd25 94be 8953 e23d
00000070: dba3 8f3e 13f2 3c3e 0370 aa3f 972c 993f
00000080: d39a 9cbe 356b 60be 1132 cabe ff7b 8dbe
00000090: b9f7 8ebe 11a2 103f 5628 6abd 839d 9e3d
000000a0: ff8a 2a3f ca1e fcbe 9491 27c0 f689 53bf
000000b0: b423 82be 76e7 a1bd 8963 e63d 2956 523e
000000c0: 281f 85be ed49 893d 009d d43c 7e00 813e
000000d0: 3e85 113e 8002 f5bd 9b0a 82bd df04 3ebe
000000e0: 202d 6bbf ae32 2ebf bdc3 8abe 0b3f 2abe
000000f0: 08b1 cf3e 75e1 2c3f 2bab 4d3f 9ba1 d93e
00000100: f8b8 823d 1f2b 35be d03f 9ebf 2eed b8be
00000110: 3fa6 b13d 71d1 833e 2e94 38bf e647 dc3c
00000120: 9262 913e 8b41 0cba 3b1a e63f 5217 b03f
00000130: a77a 9e3b 228d 16bf 6a4c 72c0 0e30 42bf
00000140: 5731 fabe 071e d1bd b7a0 c1bf f860 30be
00000150: 0463 e43e 7f33 d83c c62c 8ebf 1140 02bd
00000160: 95e4 823c 535f 8dbe ca83 98bd a4af e3bc
00000170: 7efb 633e adf4 b8bd 6304 72bf 2815 f4bd
00000180: 8dff ba3d b4ad 6cbe ef1e 0dc0 c5f6 a1be
00000190: ef3c 7a3e e8c3 3b3f eb9f 9f3d 73ac ddbd
000001a0: b9e7 0abf 7bdd 2ebe c94b 70bf f56b 8fbe
000001b0: a5a5 f93e 26fe 253f 3d6e 8f3f 2ab6 0b3f
000001c0: 8285 453b 6a6e d93c 08e8 b23d f425 f0be
000001d0: 33bb dbbe 35e7 aabc 72b9 8c3e 2e72 e7bd
000001e0: f71f 523d 41d6 5bbd 8110 efbe 98b0 8c3d
000001f0: 55c8 acbe 3eaf bebe ea50 19c0 6bd6 23bf
00000200: 4162 babe 4efa 07bf 340c cabd 9de2 a5be
00000210: b222 e6be 517a 76be 4413 a9be 4262 77be
00000220: df67 f5be 4df1 a7be 3361 733f 35ed 46bd
00000230: 3c5f b23d 059c 0f3e d184 193e d79e 4fbe
00000240: 2f2e cfbe 8fad 65be 09d2 a3bf fa4c 26bf
00000250: 8216 17be 2141 bebe 111f f1be c355 4abe
00000260: b9c5 653e 1877 85be 0567 17c0 9a93 d1be
00000270: ab74 813e 18b8 03bf e487 cfbe c944 70be
00000280: ca35 febd ebd6 26bf a9cd 64c0 da9e 4bbf
00000290: b274 debe 3206 0fbe e74b c2be ddd1 62be
000002a0: 0e9b d1bf fd87 26bd 2cea 0f3e 9e59 94bb
000002b0: f8ad 2f3e 9f04 983e 762c df3d a717 173f
000002c0: 2b96 54be 306b dabe 3bc7 d03d d377 afbe
000002d0: acf8 e2be 41e8 d8be 1fc1 9c3f eddd a2bd
000002e0: 8986 b83e c550 753e 7757 27bf 5f0b 1e3e
000002f0: e670 ecbe 3a70 8f3e 9c24 9f3f b82f 103e
00000300: a3ae 09bf e304 ddbd 5aed 143e 8913 a93c
00000310: a938 86be f63e fd3d 8d6d 0abf cf93 0a3d
00000320: 81f6 913e 5967 d9bc 3a6a b0bf 0369 76bd
00000330: d092 abbe c00e 7e3e f400 a5be 6bdc dc3e
00000340: c375 2a3e ef73 9e3d 8cb1 9ebd bd7a e2bd
00000350: 07fa cabd 9ad9 60be 9837 87be 6cd7 3bbd
00000360: 3386 8bbe b9ec c1be 31cd f7bf 68cd aabe
00000370: e19f ec3c edf6 e53e 44b6 843f 7f04 013f
00000380: 8171 c2be dbd4 393e 12d2 f0be 485f f83c
00000390: 0123 88be 7fa6 693d c76d 64bd 7944 943e
000003a0: 9542 0b3e 0bf1 05bd 1416 07bd b0d8 babe
000003b0: f181 173d 37b6 1ebf 07fc e43e 9a59 293f
000003c0: 5caf 74bd 2359 a63e 1d8b a8be 05ea 963b
000003d0: fc01 843e de3e 18bf 5949 c53d 8e17 b3be
000003e0: 2525 0cbe 518e 5bbe e2e9 d8be c4ff c43d
000003f0: 0161 3a3e 88ed f4be 93e6 56bd 87fa 023e

linear.bias f4 [512]
-0.471903 -0.089534715 -0.60419315 0.7702306 0.99981034 -0.90116435 -1.0876244 0.18821065
1.0168169 0.9332511 0.36908895 0.8161663 0.7451143 0.7827436 0.33568233 0.46526164
0.5832731 1.1177857 -0.2924388 -0.4438824 -0.95754683 -1.0205646 0.5263183 0.9355544
-0.6290015 0.9227327 0.88428104 -0.33211616 1.027191 -0.78218293 0.6546617 -0.2109703
-0.72663766 -0.90253377 -0.98569953 1.0697951 0.17008576 0.722456 -0.5728357 0.85549986
0.65346104 -0.88985276 0.48541677 0.843324 0.9087075 -0.9383617 -0.8220331 -0.8529353
0.6838192 0.64628476 -0.78444576 0.93810344 -0.5195867 0.51486945 -0.8326534 0.68745923
0.9469817 0.8169433 0.95534635 0.114585936 0.94922996 0.85129476 0.5586179 0.32068762
0.8335911 0.8550591 0.5529581 -0.985069 -0.8029359 1.0707567 0.8942413 0.581958
-0.8657647 0.7769293 -0.67313313 0.37440205 -0.9224711 0.7742677 0.9802402 0.6145564
0.8792124 0.49942425 0.7566851 0.24088694 -0.9263126 0.5060241 0.60972476 0.72059536
0.8540541 -0.4343863 0.9224932 1.0908741 -1.004516 0.9605132 -1.0272743 -1.1623493
-0.3464079 0.4621719 0.6603306 0.37675732 -0.63118047 0.29671642 0.90023106 0.9717081
0.57798415 0.5804641 0.8026915 -0.4651766 0.8301558 -0.6659907 0.23599112 0.54828733
0.82954615 0.46232927 -0.9580936 0.6453027 -1.0555807 -1.0795857 0.8581845 0.43398613
-0.9329298 0.8980241 -0.8415786 -0.56375647 1.128622 0.6406108 -0.49987432 0.750026
0.7767225 -0.6141845 0.44909728 -0.10982529 0.1608941 0.4313382 0.79913056 0.026554246
1.0370464 1.135742 0.7302321 0.46234396 0.75670856 0.43925768 -0.9048413 -0.6320269
-0.46229714 -0.2619698 0.40250063 1.0392443 0.66165906 -0.9911666 -0.6558934 -0.42172375
0.86673373 -1.2726213 0.9167959 1.0561075 -0.8528065 0.82174623 -0.5150864 -0.8388556
-0.5448278 0.17983946 0.51936036 0.9445629 0.9891083 -0.2176277 0.92768323 0.85476327
0.8390367 -0.6780007 -0.5340982 -1.0881804 0.96540344 -1.3617859 -0.44475147 0.38379046
-0.4067401 -0.7980016 0.93441373 -0.04638931 1.0818734 -0.95725197 0.52145785 -0.10569264
0.6881815 -0.13398461 -1.4600334 0.788822 0.90148854 0.9321695 0.980316 0.6266431
-0.8594646 -1.046374 -0.39881086 -0.043688916 -0.1991471 0.76458895 0.82333803 0.5446622
0.7766816 -1.3060704 0.6620757 0.89853096 0.9098015 0.9944333 0.9419906 0.210249
0.7979094 0.49485442 0.62621355 1.0050261 -0.27642652 -0.3193576 0.8870144 0.99908274
0.88416433 -0.29143983 0.6920977 0.92554194 -0.8701095 -0.98153305 0.9823589 0.8438795
0.69439024 0.9101252 0.15713216 0.7983847 -0.25761032 -0.7104293 0.6156842 0.80330235
1.0181563 -0.93844014 -0.19489878 0.53728265 0.7986628 -0.35267115 -1.2371845 0.6458396
-0.8116612 -1.0423218 0.80428666 0.24089889 0.85747296 0.6383771 0.70829535 -0.23566484
0.59728056 0.6932479 0.8633 -0.7708177 -0.84586906 -0.8657279 0.10764723 0.8901827
00000000: 459d f1be fa5d b7bd 67ac 1abf d52d 453f
00000010: 92f3 7f3f b5b2 66bf 4737 8bbf 4bba 403e
00000020: 0e27 823f 8be9 6e3f 3af9 bc3e 46f0 503f
00000030: d0bf 3e3f e261 483f 8ede ab3e c636 ee3e
00000040: 6351 153f 9a13 8f3f 8aba 95be 8e44 e3be
00000050: ca21 75bf dca1 82bf ccbc 063f 7e80 6f3f
00000060: 3e06 21bf 3638 6c3f 3e60 623f 210b aabe
00000070: ff7a 833f 243d 48bf e997 273f 9908 58be
00000080: ed04 3abf 740c 67bf ce56 7cbf 0cef 883f
00000090: f62a 2e3e e0f2 383f 5ca5 12bf 0a02 5b3f
000000a0: 3949 273f 64cd 63bf 8c88 f83e 15e4 573f
000000b0: 0ea1 683f 7938 70bf c370 52bf f859 5abf
000000c0: c60e 2f3f eb72 253f 70d1 48bf 8c27 703f
000000d0: a203 05bf 7cce 033f c628 55bf 54fd 2f3f
000000e0: 656d 723f 3223 513f 9491 743f 08ac ea3d
000000f0: bc00 733f 74ee 593f 9501 0f3f 2b31 a43e
00000100: 3a66 553f 27e5 5a3f a98e 0d3f 7b2d 7cbf
00000110: 358d 4dbf 8e0e 893f ffec 643f 33fb 143f
00000120: c1a2 5dbf d7e4 463f 7452 2cbf a0b1 bf3e
00000130: 1127 6cbf 6836 463f 06f1 7a3f 9153 1d3f
00000140: 1014 613f 89b4 ff3e 1db6 413f 11ab 763e
00000150: d322 6dbf cc8a 013f ec16 1c3f f078 383f
00000160: 4aa3 5a3f e267 debe 8428 6c3f c3a1 8b3f
00000170: fb93 80bf 31e4 753f b97d 83bf ddc7 94bf
00000180: 605c b1be cca1 ec3e 6d0b 293f 56e6 c03e
00000190: 0b95 21bf 37eb 973e 8b75 663f ddc1 783f
000001a0: c5f6 133f 4c99 143f 317d 4d3f a12b eebe
000001b0: 1785 543f 5e7e 2abf a8a7 713e 8f5c 0c3f
000001c0: 235d 543f 6cb6 ec3e 9f45 75bf 8f32 253f
000001d0: 451d 87bf dd2f 8abf fbb1 5b3f 6e33 de3e
000001e0: 7dd4 6ebf e8e4 653f b271 57bf 5852 10bf
000001f0: b076 903f 12ff 233f 87ef ffbe b401 403f
00000200: 49d7 463f 323b 1dbf 14f0 e53e 15ec e0bd
00000210: 6cc1 243e 5cd8 dc3e d293 4c3f 4a88 d93c
00000220: f0bd 843f fe5f 913f 7ef0 3a3f 59b8 ec3e
00000230: a7b7 413f 62e6 e03e aea3 67bf 84cc 21bf
00000240: 36b2 ecbe e820 86be 9014 ce3e f505 853f
00000250: 7d62 293f 18bd 7dbf a1e8 27bf 2dec d7be
00000260: 43e2 5d3f 41e5 a2bf 23b3 6a3f 882e 873f
00000270: 8751 5abf f65d 523f b4dc 03bf 3ebf 56bf
00000280: d679 0bbf d627 383e cdf4 043f e0ce 713f
00000290: 3436 7d3f ccd9 5ebe a67c 6d3f c4d1 5a3f
000002a0: 1ccb 563f 7491 2dbf a9ba 08bf 7f49 8bbf
000002b0: ae24 773f 004f aebf 77b6 e3be 2f80 c43e
000002c0: 3d40 d0be d549 4cbf bd35 6f3f b802 3ebd
000002d0: d47a 8a3f 770e 75bf 437e 053f 6275 d8bd
000002e0: aa2c 303f 4333 09be 60e2 babf 3df0 493f
000002f0: f4c7 663f a9a2 6e3f fdf5 7a3f af6b 203f
00000300: df05 5cbf 95ef 85bf f030 ccbe 26f3 32bd
00000310: 38ed 4bbe 1abc 433f 48c6 523f fb6e 0b3f
00000320: 9bd4 463f 512d a7bf cb7d 293f 2006 663f
00000330: c0e8 683f 2e93 7e3f 4c26 713f 844b 573e
00000340: ca43 4c3f 8f5d fd3e 884f 203f b2a4 803f
00000350: c787 8dbe d782 a3be 6013 633f e3c3 7f3f
00000360: 9858 623f 9a37 95be 512d 313f 51f0 6c3f
00000370: 7fbf 5ebf c045 7bbf df7b 7b3f 7d08 583f
00000380: 8fc3 313f f7fd 683f 41e7 203e f162 4c3f
00000390: 80e5 83be b2de 35bf 7b9d 1d3f 39a5 4d3f
000003a0: f252 823f 9d3d 70bf 8c93 47be 5b8b 093f
000003b0: 2a75 4c3f 5091 b4be 105c 9ebf be55 253f
000003c0: 07c9 4fbf cd6a 85bf bbe5 4d3f 33ae 763e
000003d0: 5983 5b3f ae6c 233f d852 353f 2052 71be
000003e0: 61e7 183f b278 313f 3b01 5d3f 4f54 45bf
000003f0: e08a 58bf 58a0 5dbf 2776 dc3d 03e3 633f

linear2.weight f4 [2, 512]
-2.308855 -1.9096434 -0.23638743 0.28967434 0.64931864 -1.663329 -1.2023325 0.4743037
0.48438928 0.5333199 -1.103691 0.25092295 0.21901748 0.6503289 0.2604208 0.7310163
-0.29933354 0.6684333 -0.4420499 1.326563 -1.2633152 -0.8026258 0.17966147 0.6604766
-1.264631 0.46934515 0.6241879 -1.2937498 0.6461622 -1.2524942 0.34189886 -0.19576718
-0.5175973 -1.2948078 -1.7720344 0.5778325 0.4831596 0.50732523 0.47509995 0.31695294
-1.3714799 -1.0651857 0.8970853 -0.4725358 0.39665705 -1.8143803 -1.1107166 -1.5764245
0.5195288 0.533361 -1.3093102 0.29443753 -0.104160406 0.2821093 -1.2346139 -0.40841
0.45769623 0.21423112 0.75186056 1.2881982 0.608511 0.31455645 0.3492995 0.22233202
0.670648 0.18538342 0.3068969 -1.1561543 -1.4246805 -0.6588925 0.24616678 0.52617687
-0.92936635 0.54845816 -0.8455146 0.5507751 -1.2697643 0.58437616 0.27589875 0.24887723
0.5019342 -1.2102647 -1.7069498 1.2514259 -0.78167903 1.0377895 -1.2122271 0.25669125
0.32867092 0.86468214 0.269383 0.78130203 -0.63868403 0.39146337 -1.2722152 -1.2840158
-0.77469814 -1.1194557 0.2635054 0.5623276 -1.3873553 0.7490414 0.5219852 0.6035267
0.62124383 0.25619343 0.36613885 -0.3552206 0.42342705 -1.2760873 -0.47918192 -0.19919644
0.27585137 0.83894706 -1.0245999 0.6486554 -2.1738245 -1.5378281 0.6013934 0.1921703
-0.73803276 0.5624931 -1.2220522 -1.4212824 -1.2094412 0.19823942 -0.7206436 0.29884848
0.32820025 -1.9769108 -0.5549818 -0.40468082 -0.62584436 0.3635265 0.34765664 -1.3797464
-0.91814154 0.5990734 0.31582907 0.4806154 0.26083228 -0.44348475 -0.5124722 0.39469615
0.57495195 -0.71388423 0.3311095 0.81720567 0.05642772 -1.4588479 -0.74842376 -1.6482427
0.5953368 -1.6417466 0.3986997 0.56615597 -0.85025454 0.25833026 -0.009476103 -0.7800609
-0.48922533 -0.85233974 0.5534077 -1.4745506 0.61671335 -0.6404867 0.36087665 0.5402098
0.23109145 -1.0061989 -0.29338872 -2.179927 0.61200714 -1.1995169 -0.7725909 0.8924621
-1.5175143 -1.3281572 0.37130752 -1.5344381 0.45100713 -1.2080661 0.5021759 -1.0318831
0.42461783 -0.53047013 -0.61650217 0.33461642 0.40298077 0.7296786 0.32839626 0.19319306
-1.3069892 -2.3752189 -1.1498877 0.9390372 -1.1201801 0.32764837 -0.80109876 0.5175941
-0.7713154 -1.2044762 0.733705 0.22748931 0.58535945 0.26008645 -1.1035748 0.7938402
0.3019275 -0.39313054 -1.0926015 0.3110208 -1.336172 -0.14976425 0.4110101 0.70019585
0.30921555 -0.78995854 0.31938356 0.5587995 -1.0005136 -1.8181016 0.37616926 0.5467292
0.27611926 0.5739505 1.0203651 0.31108236 -1.8519651 -0.1871277 0.4150289 0.4546136
0.7314719 -1.3109949 -0.4961736 0.2863756 0.6616302 0.84843135 -0.8524169 0.27655894
-1.9042212 -0.9048276 0.64756876 1.231229 0.5096444 0.35225758 0.33450833 -1.1956626
0.26638418 0.45736 0.3941839 -2.0804918 -0.8130684 -1.2729788 -0.65717787 0.31048858
00000000: 48c4 13c0 326f f4bf 8c0f 72be 3250 943e
00000010: bf39 263f f7e7 d4bf 08e6 99bf efd7 f23e
00000020: df01 f83e a787 083f bf45 8dbf f978 803e
00000030: 1e46 603e f47b 263f e055 853e e223 3b3f
00000040: 3f42 99be 721e 2b3f 5d54 e2be d1cc a93f
00000050: 50b4 a1bf e278 4dbf 2df9 373e ff14 293f
00000060: 6edf a1bf 024e f03e c7ca 1f3f 9899 a5bf
00000070: e36a 253f bb51 a0bf 5e0d af3e 3177 48be
00000080: 4281 04bf 43bc a5bf 06d2 e2bf d5ec 133f
00000090: b260 f73e 11e0 013f 4d40 f33e a847 a23e
000000a0: a78c afbf 0158 88bf 62a7 653f 36f0 f1be
000000b0: a216 cb3e 9d3d e8bf f62b 8ebf 47c8 c9bf
000000c0: d7ff 043f 598a 083f 7a97 a7bf 84c0 963e
000000d0: 0d52 d5bd a170 903e d407 9ebf 1e1b d1be
000000e0: 2957 ea3e 675f 5b3e ef79 403f aee3 a43f
000000f0: 60c7 1b3f 8b0d a13e 62d7 b23e 01ab 633e
00000100: 96af 2b3f 27d5 3d3e 9721 9d3e ddfc 93bf
00000110: ee5b b6bf 2ead 28bf 2513 7c3e 87b3 063f
00000120: f4ea 6dbf c167 0c3f a573 58bf 99ff 0c3f
00000130: a387 a2bf ad99 153f 9a42 8d3e acd9 7e3e
00000140: c27e 003f f4e9 9abf 557d dabf b92e a03f
00000150: 1e1c 48bf 49d6 843f 422a 9bbf 096d 833e
00000160: 8e47 a83e cf5b 5d3f 92ec 893e 6903 483f
00000170: cc80 23bf e36d c83e f3d7 a2bf a15a a4bf
00000180: 9e52 46bf 534a 8fbf 2eea 863e b4f4 0f3f
00000190: dc94 b1bf 2dc1 3f3f d2a0 053f ba80 1a3f
000001a0: d609 1f3f c92b 833e 8d76 bb3e 79df b5be
000001b0: 6ecb d83e d456 a3bf 5557 f5be 27fa 4bbe
000001c0: 643c 8d3e 3cc5 563f 1726 83bf 480e 263f
000001d0: f11f 0bc0 8dd7 c4bf ebf4 193f 4bc8 443e
000001e0: b7ef 3cbf 8cff 0f3f 356c 9cbf 95ec b5bf
000001f0: f8ce 9abf 46ff 4a3e 197c 38bf ab02 993e
00000200: dd09 a83e 6a0b fdbf 4a13 0ebf 5332 cfbe
00000210: 5637 20bf 2520 ba3e 0d00 b23e 889b b0bf
00000220: 530b 6bbf e05c 193f 59b4 a13e 3913 f63e
00000230: cf8b 853e 6f10 e3be 6131 03bf 9d15 ca3e
00000240: 0d30 133f 1ec1 36bf 2f87 a93e 6434 513f
00000250: c120 673d 87bb babf b398 3fbf 9ef9 d2bf
00000260: fe67 183f c124 d2bf 5e22 cc3e 99ef 103f
00000270: 48aa 59bf dd43 843e a841 1bbc 12b2 47bf
00000280: be7b fabe f032 5abf 21ac 0d3f 13be bcbf
00000290: ede0 1d3f f0f6 23bf d3c4 b83e 304b 0a3f
000002a0: 3da3 6c3e 20cb 80bf 0c37 96be ed83 0bc0
000002b0: 80ac 1c3f c589 99bf 84c8 45bf 6578 643f
000002c0: e93d c2bf 0e01 aabf 051c be3e 7868 c4bf
000002d0: 68ea e63e e9a1 9abf 9a8e 003f bf14 84bf
000002e0: 8267 d93e e4cc 07bf 16d3 1dbf d852 ab3e
000002f0: 7f53 ce3e 37cc 3a3f 8e23 a83e 67d4 453e
00000300: 6c4b a7bf 9603 18c0 852f 93bf be64 703f
00000310: 1062 8fbf 87c1 a73e cf14 4dbf 0c81 043f
00000320: ed74 45bf 472c 9abf 17d4 3b3f f5f2 683e
00000330: 1eda 153f 0d2a 853e f041 8dbf 1d39 4b3f
00000340: 3e96 9a3e 6848 c9be 5eda 8bbf 1e3e 9f3e
00000350: af07 abbf cd5b 19be ea6f d23e 0940 333f
00000360: 8051 9e3e b93a 4abf 3e86 a33e 7c0d 0f3f
00000370: d410 80bf 8eb7 e8bf 4299 c03e 72f6 0b3f
00000380: 815f 8d3e 6cee 123f 539b 823f 3046 9f3e
00000390: 310d edbf 679e 3fbe ab7e d43e 1dc3 e83e
000003a0: be41 3b3f aece a7bf 770a febe d39f 923e
000003b0: 9960 293f cc32 593f fe37 5abf 2299 8d3e
000003c0: 85bd f3bf c8a2 67bf 11c7 253f e998 9d3f
000003d0: 0e78 023f 1b5b b43e ad44 ab3e 790b 99bf
000003e0: 8263 883e 172b ea3e 79d2 c93e c726 05c0
000003f0: 4025 50bf f8f0 a2bf cf3c 28bf 5cf8 9e3e

linear2.bias f4 [2]
0.27399635 0.2761469
00000000: 4049 8c3e 2063 8d3e
