code/log/dqn/ckpt/478000.pth (torch, 15775 bytes, 4 tensors)

linear.weight f4 [512, 4]
0	0xbdd277ba	-0.10276742
1	0xbe4e4442	-0.20143226
2	0xc0371368	-2.8605595
3	0xbecd7f84	-0.4013635
4	0x3efb4769	0.4907792
5	0x3eb11d38	0.34592605
6	0x3fad8c35	1.3558413
7	0x3e2dfcb4	0.1699093
8	0x3f018329	0.5059076
9	0x3e6d7956	0.23190817
10	0xbedbf980	-0.4296379
11	0x3d8ee028	0.06976348
12	0xbe9db972	-0.30805546
13	0x3cd2dd1a	0.025740195
14	0xbe84a3c8	-0.25906205
15	0x3c625561	0.013814301
16	0x3e6db1bf	0.23212336
17	0x3e837749	0.25676945
18	0xbf2ab56d	-0.66683084
19	0xbd28cb83	-0.04120971
20	0x3e9715cc	0.29508817
21	0x3f3e9d9a	0.7445923
22	0x40143812	2.3159223
23	0x3f38df51	0.72215754
24	0x3f0021e1	0.50051695
25	0x3dd91fbf	0.10601758
26	0xbe9425fd	-0.28935233
27	0x3de25389	0.11051089
28	0x3e93bf21	0.28856757
29	0x3e915947	0.28388426
30	0x3fa92d59	1.3216964
31	0x3f94c559	1.1622726
32	0xbe9d1da1	-0.30686668
33	0xbe6558fa	-0.22397223
34	0xbed34bbc	-0.41268718
35	0xbe91a4c6	-0.28446025
36	0xbe8f6e27	-0.28013727
37	0x3f0eca1b	0.5577714
38	0xbd94d56b	-0.07267269
39	0x3d91535e	0.07095979
40	0x3f2b0724	0.6680777
41	0xbefd585a	-0.4948147
42	0xc0259747	-2.5873582
43	0xbf4f6e98	-0.8102813
44	0xbe829ff1	-0.2551265
45	0xbdaa1aee	-0.08305918
46	0x3dcb680f	0.09931957
47	0x3e49ff9e	0.19726416
48	0xbe85a810	-0.26104784
49	0x3d807011	0.06271375
50	0x3c2b50e1	0.010456295
51	0x3e798d13	0.24370222
52	0x3e106f77	0.1410502
53	0xbdff785c	-0.124741286
54	0xbdabb64f	-0.08384382
55	0xbe46455c	-0.19362396
56	0xbf55adfb	-0.834686
57	0xbf43742b	-0.76349133
58	0xbf0b6921	-0.5445729
59	0xbdace12c	-0.084413856
60	0x3ecf30f1	0.40467027
61	0x3f2baaa5	0.6705726
62	0x3f493b43	0.7860605
63	0x3ed57c3e	0.41696352
64	0x3d83d7da	0.06437655
65	0xbe3339d7	-0.17502533
66	0xbf9aa12f	-1.2080439
67	0xbebaa0fd	-0.3645095
68	0x3daf75a3	0.08567359
69	0x3e812c2b	0.2522901
70	0xbf3dea6c	-0.74185824
71	0x3c9a7eaa	0.018859226
72	0x3e9743df	0.2954397
73	0xbda5a3a3	-0.08087852
74	0x3fdc9386	1.723252
75	0x3facc0a4	1.3496289
76	0xbdf791e8	-0.12088376
77	0xbf466645	-0.774998
78	0xc07123f3	-3.7678192
79	0xbf55dd2d	-0.8354061
80	0xbefa3157	-0.48865768
81	0xbdd11e07	-0.102108054
82	0xbfc1a0b7	-1.5127171
83	0xbe3060f8	-0.1722449
84	0x3ee46304	0.44606793
85	0x3cd8337f	0.026391743
86	0xbf8e2cc6	-1.1107414
87	0xbd024011	-0.03179938
88	0x3c72e9bb	0.0148262335
89	0xbe8f9feb	-0.28051695
90	0xbdb8db29	-0.090261765
91	0xbd139906	-0.036034606
92	0x3e62e7cc	0.22158736
93	0xbdc35c84	-0.0953913
94	0xbf772e15	-0.9655469
95	0xbe024e0b	-0.12725084
96	0x3dbaff8d	0.09130774
97	0xbe6cadb4	-0.23113137
98	0xc00d1eef	-2.205013
99	0xbea1f6c5	-0.31633583
100	0x3e796503	0.24354939
101	0x3f3ac78e	0.72960746
102	0x3d89c3f9	0.06726832
103	0xbdedb203	-0.11606219
104	0xbf36e549	-0.7144361
105	0xbe4dc1d3	-0.2009347
106	0xbf70ea12	-0.9410716
107	0xbeb50c14	-0.35360777
108	0x3f085f26	0.53270185
109	0x3f2c842c	0.6738918
110	0x3f65d3b5	0.89776164
111	0x3ee6440a	0.44973785
112	0x3ad17056	0.0015978913
113	0x3cad579e	0.021159943
114	0x3d5df81c	0.054191694
115	0xbef2bacf	-0.4740815
116	0xbedbbb33	-0.4291626
117	0xbcaae735	-0.020862201
118	0x3e8cb972	0.27485234
119	0xbde7722e	-0.11301075
120	0x3d4e1960	0.05031717
121	0xbd6db5c8	-0.05803469
122	0xbef6a957	-0.4817607
123	0x3d782cf8	0.06058976
124	0xbebe043c	-0.37112606
125	0xbed2cc15	-0.41171327
126	0xc01704f9	-2.3596785
127	0xbf1add0b	-0.60493535
128	0xbeba6241	-0.36403087
129	0xbf07fa4e	-0.5311631
130	0xbdca0c34	-0.09865609
131	0xbea5e29d	-0.32399455
132	0xbee622b2	-0.44948345
133	0xbe767a51	-0.24070098
134	0xbea91344	-0.3302251
135	0xbe776242	-0.24158576
136	0xbef567df	-0.4793081
137	0xbea7f14d	-0.32801285
138	0x3f736133	0.9507019
139	0xbd46ed35	-0.048566062
140	0x3db0462e	0.08607136
141	0x3e0a916d	0.13532038
142	0x3e067e88	0.13134205
143	0xbe57e617	-0.21083866
144	0xbed0808f	-0.40723082
145	0xbedbc6fa	-0.42925245
146	0xbfc20ebe	-1.5160749
147	0xbf32b7e6	-0.69811857
148	0xbe1821c7	-0.14856635
149	0xbec0bf32	-0.3764587
150	0xbefaa58e	-0.48954433
151	0xbe52b21f	-0.2057576
152	0x3e417f5e	0.18896243
153	0xbe721ff7	-0.23645006
154	0xc018aefc	-2.3856802
155	0xbedcae75	-0.4310185
156	0x3e80ed85	0.25181213
157	0xbf04df96	-0.51903665
158	0xbed7aa15	-0.4212195
159	0xbe7899dc	-0.24277443
160	0xbde867fe	-0.1134796
161	0xbf276fcd	-0.6540497
162	0xc05f65f6	-3.4905982
163	0xbf45ee3f	-0.7731666
164	0xbede74b2	-0.43448406
165	0xbe0f0632	-0.13967207
166	0xbec24be7	-0.37948534
167	0xbe62d1dd	-0.22150369
168	0xbfd3f1ad	-1.6558129
169	0xbd4e8af9	-0.050425503
170	0x3e358e63	0.17730097
171	0x3d2fc10d	0.042908717
172	0x3e307252	0.1723111
173	0x3e9a806c	0.30176103
174	0x3e01e7c1	0.12686063
175	0x3f1927fe	0.5982665
176	0xbe55998f	-0.20859359
177	0xbedcc877	-0.43121693
178	0x3daf0437	0.08545726
179	0xbeb3a1bd	-0.35084334
180	0xbee2f8ac	-0.44330347
181	0xbed8e841	-0.42364696
182	0x3f9cc11f	1.2246436
183	0xbda2dded	-0.07952485
184	0x3eb88689	0.36040142
185	0x3e7550c5	0.23956592
186	0xbf275777	-0.65367836
187	0x3e1e0b5f	0.15434025
188	0xbeec70e6	-0.46179885
189	0x3e8f703a	0.2801531
190	0x3f9f249c	1.2433047
191	0x3e102fb8	0.14080703
192	0xbf3de7fd	-0.7418211
193	0xbe250dc8	-0.16118538
194	0xbe2b990d	-0.16757603
195	0xbdd745a0	-0.10511327
196	0xbe86c68f	-0.26323363
197	0x3df27379	0.11838431
198	0xbf0ff1f8	-0.5622859
199	0x3cd34667	0.025790406
200	0x3e91f681	0.2850838
201	0xbcd96759	-0.026538538
202	0xbfb06a3a	-1.3782418
203	0xbd766903	-0.06015874
204	0xbeac1489	-0.33609417
205	0x3e79997f	0.2437496
206	0xbeace38f	-0.33767363
207	0x3ed8a8bb	0.4231623
208	0x3e2a75c3	0.16646485
209	0x3d9e73ef	0.07736956
210	0xbd9eb18c	-0.07748708
211	0xbde27abd	-0.11058567
212	0xbdccff62	-0.10009648
213	0xbe6541b0	-0.22388339
214	0xbe8eca5a	-0.27888757
215	0xbd5d4353	-0.054019284
216	0xbe8b8633	-0.27250823
217	0xbec1ecb9	-0.37875918
218	0xbff7cd31	-1.9359494
219	0xbeaacd68	-0.33359838
220	0x3cf3076a	0.029666621
221	0x3ee8a8e1	0.45441344
222	0x3f87788f	1.0583667
223	0x3f030d4f	0.5119218
224	0xbec2f003	-0.3807374
225	0x3e350344	0.17677027
226	0xbef9772b	-0.4872373
227	0x3cb5fbc2	0.022214774
228	0xbe889e24	-0.26683152
229	0x3d59f0e1	0.053208236
230	0xbd8b0508	-0.06788069
231	0x3e901fd4	0.28149283
232	0x3e09dbf6	0.13462815
233	0xbd1c4a05	-0.038156528
234	0xbd8593fa	-0.06522365
235	0xbebdb016	-0.37048405
236	0x3d254fd7	0.040359344
237	0xbf0e5fd9	-0.55615
238	0x3eb8a7cc	0.3606552
239	0x3f2fe036	0.68701494
240	0xbd790c14	-0.060802534
241	0x3ea3b7a0	0.31976032
242	0xbeb2fa99	-0.34956816
243	0xbb60ed61	-0.0034321176
244	0x3e83797f	0.25678632
245	0xbf19690a	-0.599259
246	0x3da44297	0.080205135
247	0xbeb741d5	-0.35792413
248	0xbe0d7748	-0.13815033
249	0xbe61042d	-0.21974249
250	0xbee11a37	-0.43965313
251	0x3db63fa8	0.0889886
252	0x3e39aad2	0.18131569
253	0xbef47631	-0.47746423
254	0xbda8198a	-0.08207996
255	0x3dec5c03	0.11540987

linear.bias f4 [512]
0	0xbef28fcf	-0.47375342
1	0xbdada3dd	-0.0847852
2	0xbf11297a	-0.56703913
3	0x3f4772d4	0.7790959
4	0x3f811834	1.0085511
5	0xbf66b2b5	-0.90116435
6	0xbf8b3747	-1.0876244
7	0x3e1d3280	0.15351295
8	0x3f834bb3	1.0257477
9	0x3f7148ef	0.9425191
10	0x3ebb7ad6	0.36617154
11	0x3f532f17	0.8249373
12	0x3f40ff95	0.7538999
13	0x3f4aab22	0.7916738
14	0x3eb89d8c	0.360577
15	0x3ef2caab	0.47420248
16	0x3f1607f0	0.5860586
17	0x3f9037c8	1.1267023
18	0xbe803ce6	-0.25046462
19	0xbec0b12e	-0.37635177
20	0xbf7521ca	-0.95754683
21	0xbf82a1dc	-1.0205646
22	0x3f08f80c	0.5350349
23	0x3f71c9bf	0.94448465
24	0xbf21063e	-0.6290015
25	0x3f6e7650	0.9314928
26	0x3f43d302	0.7649385
27	0xbe850b19	-0.2598503
28	0x3f846ec8	1.0346308
29	0xbf483d24	-0.78218293
30	0x3f29dae2	0.66349614
31	0xbe7c7660	-0.24654531
32	0xbf3a04ed	-0.72663766
33	0xbf670c74	-0.90253377
34	0xbf7c56ce	-0.98569953
35	0x3f8a13c7	1.0787286
36	0x3e9b9934	0.30390322
37	0x3f3b3c53	0.7313892
38	0xbf1ef8bc	-0.6209829
39	0x3f5d453c	0.8643377
40	0x3f2967e7	0.6617417
41	0xbf63cd64	-0.88985276
42	0x3eed68b5	0.46368948
43	0x3f558b01	0.8341523
44	0x3f6ae7fd	0.91760236
45	0xbf703879	-0.9383617
46	0xbf5270c3	-0.8220331
47	0xbf5a59f8	-0.8529353
48	0x3f1a3015	0.6022962
49	0x3f27bb60	0.65520287
50	0xbf48d170	-0.78444576
51	0x3f726ad0	0.9469423
52	0xbf0503a2	-0.5195867
53	0x3f061086	0.5236896
54	0xbf5528c6	-0.8326534
55	0x3f2da31e	0.6782702
56	0x3f74b684	0.95590997
57	0x3f535e22	0.8256551
58	0x3f768cd4	0.96308637
59	0x3dd0d8d7	0.10197609
60	0x3f7549a6	0.95815504
61	0x3f5c31a9	0.86013275
62	0x3f11300b	0.5671393
63	0x3ea916e1	0.33025268
64	0x3f57877c	0.8419111
65	0x3f5d11e9	0.86355454
66	0x3f0fd1de	0.56179607
67	0xbf7c2d7b	-0.985069
68	0xbf4d8d35	-0.8029359
69	0x3f87e34c	1.061624
70	0x3f672b39	0.9030033
71	0x3f16d5ed	0.58920175
72	0xbf5da2c1	-0.8657647
73	0x3f492c1f	0.7858295
74	0xbf2b37dc	-0.6688211
75	0x3ea4537b	0.3209494
76	0xbf6c2711	-0.9224711
77	0x3f487df3	0.78317183
78	0x3f7d32b1	0.98905474
79	0x3f06d9a5	0.5267585
80	0x3f6359fc	0.8880918
81	0x3f078315	0.5293439
82	0x3f44a3c7	0.76812404
83	0x3e7fd69d	0.24984212
84	0xbf6d22d3	-0.9263126
85	0x3f07cabf	0.5304374
86	0x3f21d033	0.6320831
87	0x3f3abaae	0.729411
88	0x3f5ce683	0.8628923
89	0xbf07e34c	-0.530812
90	0x3f6decb1	0.9293929
91	0x3f8cbd96	1.0995357
92	0xbf8093fb	-1.004516
93	0x3f782910	0.96937656
94	0xbf837db9	-1.0272743
95	0xbf94c7dd	-1.1623493
96	0xbe9a9b32	-0.3019653
97	0x3ee7d860	0.4528227
98	0x3f2b4f1f	0.66917604
99	0x3edccdae	0.4312567
100	0xbf2ff99d	-0.68740255
101	0x3e9a9dba	0.3019846
102	0x3f68bd88	0.909142
103	0x3f7b0ab4	0.98063207
104	0x3f121f35	0.5707887
105	0x3f16daf9	0.58927876
106	0x3f4fbf65	0.8115142
107	0xbeee2ba1	-0.4651766
108	0x3f56cb7f	0.8390426
109	0xbf2a7e5e	-0.6659907
110	0x3e83ab25	0.2571651
111	0x3f0a337b	0.539848
112	0x3f569d98	0.8383422
113	0x3ef14b36	0.47127694
114	0xbf760d6f	-0.9611425
115	0x3f28bed7	0.659162
116	0xbf871d45	-1.0555807
117	0xbf8a2fdd	-1.0795857
118	0x3f5dfb3c	0.8671148
119	0x3ee2be74	0.4428593
120	0xbf6ed47d	-0.9329298
121	0x3f682e9e	0.9069613
122	0xbf5771b2	-0.8415786
123	0xbf105258	-0.56375647
124	0x3f922e49	1.1420375
125	0x3f11a7f3	0.56896895
126	0xbeffef87	-0.49987432
127	0x3f424253	0.7588245
128	0x3f491c82	0.78559124
129	0xbf1d3b32	-0.6141845
130	0x3ee5a5c4	0.44853032
131	0xbd5a7ca6	-0.05334153
132	0x3e997e59	0.29979208
133	0x3f0bc5f8	0.5459895
134	0x3f4ed94f	0.80800337
135	0x3d931365	0.071814336
136	0x3f839372	1.0279372
137	0x3f927bec	1.1444068
138	0x3f3d2c96	0.7389616
139	0x3f156508	0.58357286
140	0x3f43fbb9	0.76555973
141	0x3ed9e71b	0.42559132
142	0xbf67a3ae	-0.9048413
143	0xbf1fe4a1	-0.62458235
144	0xbeff4542	-0.49857527
145	0xbe95a026	-0.29223746
146	0x3ebf5cae	0.37375396
147	0x3f86179a	1.0475953
148	0x3f15de5a	0.58542407
149	0xbf7dbd18	-0.9911666
150	0xbf27e8a1	-0.6558934
151	0xbed7ec2d	-0.42172375
152	0x3f601b83	0.8754198
153	0xbfa2e541	-1.2726213
154	0x3f6cf78c	0.92565227
155	0x3f882f21	1.0639383
156	0xbf5a5187	-0.8528065
157	0x3f549bf2	0.83050454
158	0xbf03dcb4	-0.5150864
159	0xbf56bf3e	-0.8388556
160	0xbee025b5	-0.43778768
161	0x3e03d3a8	0.12873709
162	0x3f04060c	0.51571727
163	0x3f6f7936	0.9354433
164	0x3f7f7e2d	0.99801904
165	0xbe88118b	-0.26575884
166	0x3f6f4b3e	0.93474185
167	0x3f5d1859	0.86365277
168	0x3f5902e5	0.8477004
169	0xbf25eed8	-0.6481757
170	0xbf08baa9	-0.5340982
171	0xbf8b497f	-1.0881804
172	0x3f796d6f	0.9743261
173	0xbfae4f00	-1.3617859
174	0xbee3b677	-0.44475147
175	0x3eaa2cae	0.33237213
176	0xbed0403d	-0.4067401
177	0xbf4c49d5	-0.7980016
178	0x3f717c73	0.9433052
179	0xbc8fd6c8	-0.01755847
180	0x3f8b9e50	1.0907688
181	0xbf750e77	-0.95725197
182	0x3f054e18	0.52072287
183	0xbdba779a	-0.091048434
184	0x3f32747a	0.6970898
185	0xbe36e70c	-0.17861575
186	0xbfbae260	-1.4600334
187	0x3f4c1e89	0.7973409
188	0x3f690de2	0.9103681
189	0x3f70d6a9	0.94077545
190	0x3f7d39c8	0.9891629
191	0x3f232b68	0.6373811
192	0xbf5c05df	-0.8594646
193	0xbf85ef95	-1.046374
194	0xbec52bac	-0.38509881
195	0xbd32f326	-0.043688916
196	0xbe712943	-0.23550896
197	0x3f45ffac	0.7734325
198	0x3f507515	0.81428653
199	0x3f175de1	0.5912762
200	0x3f448752	0.7676898
201	0xbfa72d51	-1.3060704
202	0x3f2bc2fe	0.6709441
203	0x3f68445c	0.9072931
204	0x3f6b6092	0.9194423
205	0x3f805fa8	1.0029192
206	0x3f6f0665	0.9336913
207	0x3e76233a	0.24036875
208	0x3f4e86f9	0.806747
209	0x3efa12b0	0.48842382
210	0x3f24ef69	0.6442781
211	0x3f81c58e	1.0138414
212	0xbe49dd56	-0.19713339
213	0xbea382d7	-0.3193576
214	0x3f655a2d	0.8959072
215	0x3f80fbeb	1.0076879
216	0x3f648b8d	0.8927544
217	0xbe764d32	-0.24052885
218	0x3f33702b	0.7009303
219	0x3f6f37fc	0.934448
220	0xbf5ebf7f	-0.8701095
221	0xbf7b45c0	-0.98153305
222	0x3f7dbcbc	0.9911611
223	0x3f5a518f	0.852807
224	0x3f3406eb	0.70323056
225	0x3f6b473f	0.9190559
226	0x3e2a06f4	0.16604215
227	0x3f4ea62d	0.80722314
228	0xbe2c4964	-0.16824871
229	0xbf35deb2	-0.7104293
230	0x3f1f9dee	0.62350357
231	0x3f4fec87	0.8122029
232	0x3f836d3d	1.0267712
233	0xbf703d9d	-0.93844014
234	0xbe5305ed	-0.2060773
235	0x3f0bce2a	0.54611456
236	0x3f4eb727	0.8074822
237	0xbeaa67eb	-0.33282408
238	0xbf9e5c10	-1.2371845
239	0x3f2791b4	0.654567
240	0xbf4fc907	-0.8116612
241	0xbf856acd	-1.0423218
242	0x3f502f3d	0.8132208
243	0x3e7fdd7f	0.24986838
244	0x3f5dc4c0	0.8662834
245	0x3f25b2e5	0.64726096
246	0x3f37965d	0.7171381
247	0xbe209eb5	-0.15685542
248	0x3f1b22e4	0.60600114
249	0x3f33bdd7	0.7021155
250	0x3f5f46fa	0.87217677
251	0xbf45544f	-0.7708177
252	0xbf588ae0	-0.84586906
253	0xbf5da058	-0.8657279
254	0x3de9d1c8	0.11416966
255	0x3f662670	0.899024

linear2.weight f4 [2, 512]
0	0xc013c31d	-2.3087838
1	0xbff52f71	-1.9155103
2	0xbe3322c6	-0.17493734
3	0x3e9f4f0a	0.3111499
4	0x3f2780df	0.65431017
5	0xbfd4e7f7	-1.663329
6	0xbf99e608	-1.2023325
7	0x3eeffad8	0.46871066
8	0x3f00401a	0.5009781
9	0x3f0b5fe2	0.5444318
10	0xbf8caaa9	-1.0989581
11	0x3e87dd2e	0.26535934
12	0x3e7048c0	0.23465252
13	0x3f27f00d	0.65600663
14	0x3dc40c4b	0.09572657
15	0x3f3afb79	0.73039967
16	0xbe9481d0	-0.2900529
17	0x3f2cbfe2	0.6748029
18	0xbec83234	-0.39100802
19	0x3fd580b5	1.6679903
20	0xbfa1b450	-1.2633152
21	0xbf4d78e2	-0.8026258
22	0x3e3ffd13	0.18748884
23	0x3f2a9a15	0.6664136
24	0xbfa1df6e	-1.264631
25	0x3ef214a2	0.47281367
26	0x3f48f2a1	0.7849522
27	0xbfa1f924	-1.2654157
28	0x3f273d3e	0.65327823
29	0xbfa051bb	-1.2524942
30	0x3eb29899	0.34882048
31	0xbe3227e1	-0.17398025
32	0xbf048142	-0.5175973
33	0xbfa5bc43	-1.2948078
34	0xbfe2d206	-1.7720344
35	0x3f156b76	0.583671
36	0x3f4fca3d	0.81167966
37	0x3f057d0c	0.5214393
38	0x3f26568d	0.64975816
39	0x3ea5450c	0.3227924
40	0xbfacdd3b	-1.3505014
41	0xbf885801	-1.0651857
42	0x3f56b696	0.83872354
43	0xbef012b9	-0.46889284
44	0x3ed225d3	0.41044483
45	0xbfe83d9d	-1.8143803
46	0xbf8e2bf6	-1.1107166
47	0xbfc9c847	-1.5764245
48	0x3f4e200c	0.8051765
49	0x3f0e1f6e	0.5551671
50	0xbfa7977a	-1.3093102
51	0x3e9edb07	0.3102648
52	0xbdd5520d	-0.104160406
53	0x3e970c2c	0.29501474
54	0xbf9e07d4	-1.2346139
55	0xbecfe0d5	-0.4060122
56	0x3ef4f5d0	0.4784379
57	0x3e6a5a5d	0.22886033
58	0x3f41f8de	0.75770366
59	0x3fa2e83d	1.2727123
60	0x3f1db343	0.61601657
61	0x3ea3dff6	0.32006806
62	0x3eba23b8	0.36355376
63	0x3e66caa9	0.22538246
64	0x3f2ec757	0.6827292
65	0x3e5156e6	0.20443305
66	0x3ea0c0df	0.3139715
67	0xbf93fcdd	-1.1561543
68	0xbfb65bee	-1.4246805
69	0xbf27c6e7	-0.65537876
70	0x3e833634	0.2562729
71	0x3f09248b	0.53571385
72	0xbf6deaf4	-0.92936635
73	0x3f0e15c5	0.5550197
74	0xbf4e09d8	-0.8048377
75	0x3f0747e6	0.52844083
76	0xbfa287a3	-1.2697643
77	0x3f173be1	0.5907574
78	0x3e9065ec	0.2820276
79	0x3edc82f3	0.43068656
80	0x3f02569d	0.5091341
81	0xbf9adc9a	-1.2098572
82	0xbfd77a95	-1.6834284
83	0x3f9ffd61	1.24992
84	0xbf481c1e	-0.78167903
85	0x3f72fa2a	0.9491297
86	0xbf9b3467	-1.2125367
87	0x3e8c5f76	0.2741658
88	0x3eada018	0.33911204
89	0x3f4b4f33	0.79417723
90	0x3e90031e	0.28127378
91	0x3f495c21	0.786562
92	0xbf2380cc	-0.63868403
93	0x3ed18274	0.4091984
94	0xbfa2d7f3	-1.2722152
95	0xbfa45aa1	-1.2840158
96	0xbefb649b	-0.49100193
97	0xbf887030	-1.0659237
98	0x3e8eee9f	0.27916428
99	0x3f19da43	0.60098666
100	0xbf9e1f77	-1.2353352
101	0x3f3689ff	0.71304315
102	0x3f093a27	0.5360436
103	0x3f1bf0fa	0.60914576
104	0x3f107bb7	0.56438774
105	0x3e89f21f	0.26942536
106	0x3ebe7339	0.37197283
107	0xbeb5df79	-0.3552206
108	0x3edbdfc6	0.42944163
109	0xbfa356d4	-1.2760873
110	0xbf0021a7	-0.5005135
111	0xbe470d2a	-0.19438615
112	0x3e914b98	0.28377986
113	0x3f568152	0.8379108
114	0xbf8319fb	-1.0242304
115	0x3f54bc9b	0.8310029
116	0xc00b1ff1	-2.1738245
117	0xbfc4d78d	-1.5378281
118	0x3f1b7015	0.607179
119	0x3ec643ef	0.38723704
120	0xbf3cefb7	-0.73803276
121	0x3f1233bf	0.5711021
122	0xbf9c6c35	-1.2220522
123	0xbfb5ec95	-1.4212824
124	0xbf99030e	-1.1954057
125	0x3e8a26bc	0.26982677
126	0xbf387c19	-0.7206436
127	0x3e9dfbae	0.3085608
128	0x3eaeefe3	0.34167394
129	0xbffd0b6a	-1.9769108
130	0xbf0c5481	-0.5481644
131	0xbedfa065	-0.4367706
132	0xbf3941a5	-0.7236579
133	0x3f29836d	0.66216165
134	0x3eb8f105	0.36121383
135	0xbfb00675	-1.375197
136	0xbf6a0120	-0.91407967
137	0x3f1c33ac	0.61016345
138	0x3ea4b750	0.32171106
139	0x3f184a59	0.59488446
140	0x3e8f5f48	0.2800238
141	0xbedeff6f	-0.43554255
142	0xbf033161	-0.5124722
143	0x3efbddd5	0.49192682
144	0x3f1b3951	0.6063433
145	0xbf34990f	-0.7054605
146	0x3e8f6712	0.28008324
147	0x3f528c9b	0.82245797
148	0x3dc7c261	0.09753872
149	0xbfbabb87	-1.4588479
150	0xbf3f98b3	-0.74842376
151	0xbfd2f99e	-1.6482427
152	0x3f1a8c49	0.6037031
153	0xbfd224c1	-1.6417466
154	0x3ecf3ba1	0.4047518
155	0x3f1341df	0.57522386
156	0xbf59aa48	-0.85025454
157	0x3e8ea358	0.27858996
158	0xbc1b41a8	-0.009476103
159	0xbf47b212	-0.7800609
160	0xbf269c06	-0.6508182
161	0xbf61a45a	-0.88141406
162	0x3f2928c5	0.66077834
163	0xbfb93c44	-1.4471517
164	0x3f1fe6ef	0.6246175
165	0xbf1ecf81	-0.62035376
166	0x3ebf0e06	0.37315387
167	0x3f0d65de	0.5523356
168	0x3e776c14	0.24162322
169	0xbf71ccdc	-0.94453216
170	0xbe96370c	-0.29338872
171	0xc00b83ed	-2.179927
172	0x3f1e4c83	0.618355
173	0xbf9989c5	-1.1995169
174	0xbf45c884	-0.7725909
175	0x3f57d68d	0.84311754
176	0xbfc23de9	-1.5175143
177	0xbfaa010e	-1.3281572
178	0x3ec63107	0.3870928
179	0xbfc4c6c8	-1.5373163
180	0x3ee9c261	0.45656112
181	0xbf9aa1e9	-1.2080661
182	0x3f00067d	0.500099
183	0xbf84bb0a	-1.036958
184	0x3edf8f91	0.4366422
185	0xbf01359a	-0.50472414
186	0xbf1dd316	-0.61650217
187	0x3eb243a1	0.34817222
188	0x3ed14f6f	0.40880916
189	0x3f3d07a4	0.73839784
190	0x3eabbc60	0.33542156
191	0x3e4c7deb	0.19969909
192	0xbfa74b6c	-1.3069892
193	0xc0180396	-2.3752189
194	0xbf93cdd8	-1.1547194
195	0x3f7064be	0.9390372
196	0xbf8d36f7	-1.1032399
197	0x3eac129f	0.33607957
198	0xbf4c0792	-0.7969905
199	0x3f1e7960	0.61903954
200	0xbf445029	-0.76684815
201	0xbf9a2c47	-1.2044762
202	0x3f3d8730	0.74034405
203	0x3e70f187	0.23529635
204	0x3f187837	0.59558433
205	0x3e8815e5	0.26579204
206	0xbf89e371	-1.0772535
207	0x3f46920e	0.7756661
208	0x3e9f811d	0.31153193
209	0xbec5afae	-0.38610595
210	0xbf8bc5b1	-1.0919706
211	0x3ea2220d	0.31666604
212	0xbfa91ffb	-1.3212885
213	0xbe195bcd	-0.14976425
214	0x3ed9415e	0.42432684
215	0x3f344c7d	0.7042921
216	0x3ea1c3f9	0.31594828
217	0xbf59e32a	-0.8511225
218	0x3eadeb10	0.339684
219	0x3f10401a	0.5634781
220	0xbf8010d4	-1.0005136
221	0xbfe8b78e	-1.8181016
222	0x3ec55193	0.385388
223	0x3f0e200c	0.5551765
224	0x3e97bace	0.29634708
225	0x3f151239	0.5823093
226	0x3f826bb0	1.0189114
227	0x3ea56eed	0.32311192
228	0xbfead6fc	-1.8346858
229	0xbe3f9e67	-0.1871277
230	0x3ed6c166	0.41944426
231	0x3eebd45a	0.4606045
232	0x3f3c8734	0.73643804
233	0xbfa7ceae	-1.3109949
234	0xbefe4037	-0.49658367
235	0x3e96b04d	0.29431382
236	0x3f2b68a6	0.66956556
237	0x3f575a84	0.8412249
238	0xbf5a37fe	-0.8524169
239	0x3e93fc14	0.28903258
240	0xbff3bd85	-1.9042212
241	0xbf67a2c8	-0.9048276
242	0x3f27af47	0.65501827
243	0x3f9d7dc4	1.2304006
244	0x3f0375b0	0.5135145
245	0x3eba503f	0.36389348
246	0x3eaff92a	0.34369785
247	0xbf95697d	-1.1672817
248	0x3e8cfa72	0.27534825
249	0x3eed7a4b	0.46382365
250	0x3ed08632	0.40727383
251	0xc00526c7	-2.0804918
252	0xbf502540	-0.8130684
253	0xbfa2f0f8	-1.2729788
254	0xbf2973b8	-0.661922
255	0x3ea1f0b6	0.3162896

linear2.bias f4 [2]
0	0x3e8fe872	0.2810703
1	0x3e90f723	0.2831355
