code/log/dqn/ckpt/553000.pth (torch, 15775 bytes, 4 tensors)

linear.weight f4 [512, 4]
00000000: 37da b1bd 4112 82be bf0d 35c0 1df3 e0be
00000010: a017 033f 37e1 863e 35e0 9b3f 3369 293e
00000020: 193b 193f 03a2 6c3e ac6f dfbe 847c 103e
00000030: cb52 84be a154 383d 39dd 65be cda5 6d3c
00000040: 70dd 8a3e 90ff 893e adf9 05bf a422 d9bc
00000050: 7780 0d3f 79ae 5f3f 65ef 1c40 3628 223f
00000060: 5ce1 043f 195e 773d 6304 e6be 97f7 8bbd
00000070: a065 983c eb61 2f3f 119a bf3f c1c7 4c3f
00000080: fa4e 84be ed5d 50be 5431 b7be 75de 92be
00000090: 3757 6dbe 5362 153f 4a8c 663c 404a 863d
000000a0: f82c 593f 802a d5be 6d78 fabf cc41 1bbf
000000b0: 3ea6 53be 655d 91bd 6431 d43d 5fc8 503e
000000c0: eda5 56be a2a0 a53d f21b df3c 5b86 7b3e
000000d0: 0c72 413e 6a83 d0bd 4fbe 94bb e5b2 4bbe
000000e0: 45c1 5fbf 067c 3bbf de7d 49bf 95c2 69be
000000f0: e36a 0e3f 537b 2d3f 12b3 203f 19cc 023f
00000100: 378f cd3d 13e5 f5bd 9c87 b6bf 5d6a 0ebf
00000110: 64d8 083e 3e95 8d3e 281b 28bf 44b8 553c
00000120: b87f 303e eb6e 21be 5d86 cb3f 4edb ab3f
00000130: 4e58 dcbd e547 07bf 385d 37c0 1e34 89bf
00000140: 1826 02bf 2c0a 8dbe 64b4 02c0 f4ee 65be
00000150: c344 f53e dc27 003d 7352 a6bf 7dad a5be
00000160: 638c 853d eab6 86be c4ef 8cbd ef1d 10bd
00000170: fedf 893e 3738 94bd 98a2 62bf d8a0 07be
00000180: 7ef4 563e f99e 45be 0357 17c0 6201 eabe
00000190: c198 1f3e 0e06 483f 3c90 02be 5195 58bd
000001a0: 4a01 2cbf 9857 25be b6ba 92bf 3f75 01bf
000001b0: a242 133f 5ef1 a83e e3d0 4d3f 018f dc3e
000001c0: edbe 003d af9f 1f3d 7b35 933e 9cc2 edbe
000001d0: a394 e2be 3d96 e3bd 3b4c 39be e1f6 3cbe
000001e0: ff30 c83d a62f 32bd bf02 eabe 226c 803d
000001f0: e418 f5be 7bb0 cfbe 0f91 02c0 f0dc 11bf
00000200: 6d89 00bf f3f5 f7be 020b 2dbf 0408 18bf
00000210: 036f eabe 9eed c1be 76c2 7cbf aec0 96be
00000220: bdbb 03bf 3e9a dbbe 9dc4 c13e e352 86be
00000230: c02a 093e 499d 1f3e beb9 483e 60fb 5abe
00000240: 5304 c5be 8558 2abf 1d73 9bbf 71d3 00bf
00000250: a88d 66be 80be 09bf 9186 41bf 8755 89be
00000260: bfbc 603d 1d4f 92be 5b64 0fc0 def5 bebe
00000270: 7a58 993e 71ab 00bf f90a c6be 1ecf 78be
00000280: cbe8 1dbd ecce d7be 31c9 74c0 3fe7 9fbf
00000290: a38f f2be df1a a0be 7bc7 78bf 49f4 70be
000002a0: d006 c6bf 28e7 72bd 37eb 423e 55fd 0a3d
000002b0: c807 f23d d6fc 8d3e fb57 503d bd2a 183f
000002c0: 2205 24be 6b83 d3be 0050 003e 34e2 b3be
000002d0: 5fc8 f4be 455d 01bf 26bb 293f 689a 9ebe
000002e0: fe67 043f 5d92 8b3e f5a0 1bbf c403 113e
000002f0: 65af f8be 8b29 403d ab17 1a3f 7c7f a93c
00000300: 9a91 2dbf 9234 40be 99ec fdbe f6f3 2cbe
00000310: c957 5bbe daac 153e 8735 f0be 28df 9a3c
00000320: f348 af3e 423a 0fbd b52d c5bf 3bb1 51be
00000330: 327a 92be c5c3 853e d117 a2be 9d47 d93e
00000340: 660f 253e 3a45 943d 3500 91bd 55a6 d6bd
00000350: ae32 53bd 3de2 54be 8f0a 83be b269 55bd
00000360: 6737 babe 43f2 0cbf b68d 1fc0 9bab d8be
00000370: f022 05bd 1c98 d23e 0fa7 6c3f 4bad 033f
00000380: 0820 aabe 58cf 483e 52ee e1be 5cee ad3c
00000390: e5e9 5ebe b35e 843d 1795 90bd d58a 943e
000003a0: b370 2a3e 0d91 a5bc f088 1d3e 6a53 b4be
000003b0: a947 1d3e e5ff 8abe 8af1 533f 3d67 253f
000003c0: 3217 4dbc 5b09 b03e 6c31 89be 92b9 0dbc
000003d0: d9f8 9b3e 782d 15bf 1d37 ee3d d66e b7be
000003e0: 2b65 04be 9a08 86be 8420 00bf 9271 9c3d
000003f0: 816c 8b3e b92f e8be 59f0 76bd 1cc6 92bd
-0.08684199 -0.25404552 -2.828964 -0.4393548 0.51207924 0.263437 1.2177798 0.16544037
0.598558 0.23108678 -0.43639886 0.14109999 -0.25844416 0.045002583 -0.22447671 0.014504862
0.27122068 0.2695279 -0.523341 -0.026505776 0.55274147 0.873756 2.4521115 0.6334261
0.5190637 0.060392473 -0.44925222 -0.068343334 0.018603146 0.68508786 1.4968892 0.799923
-0.25841504 -0.2034833 -0.35779822 -0.28685346 -0.23177801 0.58353156 0.014071533 0.06557131
0.8483424 -0.41633987 -1.9568001 -0.60647273 -0.20668885 -0.07097892 0.10360983 0.20388936
-0.20961733 0.08087279 0.027235005 0.24562971 0.18891162 -0.10181315 -0.004539288 -0.19892462
-0.8740428 -0.7323612 -0.78707683 -0.22828133 0.55631846 0.677663 0.6277324 0.5109268
0.10037082 -0.12006583 -1.4260135 -0.5563105 0.13363796 0.27652925 -0.6566644 0.013044421
0.17236221 -0.15764968 1.590038 1.3426301 -0.1075903 -0.5284408 -2.8650646 -1.071903
-0.50839376 -0.27546823 -2.0422602 -0.22454435 0.47904024 0.031288013 -1.2993912 -0.32358924
0.06520917 -0.26311427 -0.06881669 -0.035184797 0.26928705 -0.07237285 -0.8852935 -0.13244951
0.20991704 -0.19298925 -2.3646858 -0.4570418 0.15585615 0.7813424 -0.12750334 -0.052876774
-0.67189467 -0.16146696 -1.146323 -0.5056953 0.5752355 0.3299665 0.8039686 0.43077853
0.03143208 0.038970646 0.2875174 -0.46437538 -0.44254026 -0.1111264 -0.18095486 -0.18453552
0.0977497 -0.043502472 -0.4570522 0.06270625 -0.47870553 -0.4056433 -2.0401037 -0.5697775
-0.50209695 -0.48429832 -0.6759492 -0.5938723 -0.4578782 -0.378766 -0.98734224 -0.29443878
-0.5145834 -0.42891115 0.37845317 -0.26235113 0.13395214 0.15587343 0.19602105 -0.21384954
-0.38479862 -0.6654132 -1.2144505 -0.50322634 -0.22514975 -0.53806305 -0.7559596 -0.26823065
0.054867502 -0.28575984 -2.2405002 -0.37296957 0.29950315 -0.502616 -0.38680246 -0.24297759
-0.038552087 -0.42150056 -3.8247797 -1.2492446 -0.4737521 -0.312705 -0.97179383 -0.23530687
-1.5470829 -0.05930248 0.1903504 0.033933003 0.118178904 0.2773196 0.050865155 0.59440213
-0.16017583 -0.413112 0.12530518 -0.35133517 -0.4780912 -0.50532943 0.6630119 -0.30977178
0.5172118 0.27260104 -0.60792476 0.14161593 -0.48571315 0.04691462 0.60192364 0.020690672
-0.67800295 -0.18770054 -0.49594572 -0.16889939 -0.21420206 0.14616719 -0.46915838 0.018905237
0.34235343 -0.03496767 -1.5404574 -0.20477764 -0.28608853 0.26125923 -0.31658795 0.4243745
0.16119155 0.072397664 -0.070801176 -0.10480944 -0.051562004 -0.20789428 -0.25593993 -0.052102752
-0.36370394 -0.5505716 -2.4930243 -0.42318425 -0.032504022 0.41131675 0.9244241 0.514363
-0.33227563 0.19610345 -0.44127136 0.021231823 -0.21768911 0.06463375 -0.07059687 0.2901217
0.16644554 -0.020210767 0.15384269 -0.3521989 0.15359367 -0.27148357 0.82790434 0.64610654
-0.012517737 0.34382138 -0.26795518 -0.0086502 0.30463293 -0.58272505 0.11631606 -0.3582675
-0.12929218 -0.26178437 -0.50049615 0.07638849 0.2723122 -0.4534891 -0.060287807 -0.071666926

linear.bias f4 [512]
00000000: 6c3d c8be cdf2 ab3d 6f30 ecbe f743 433f
00000010: 46f2 803f 6324 0cbf 64ca 89bf c352 dcbe
00000020: d5c5 813f e0d4 6d3f 2717 dc3e 7e5d 4f3f
00000030: 53fd 3b3f edcd 473f a275 873e 228f 073f
00000040: 0b01 033f 4ac5 8e3f b1d9 0dbf 685f a8be
00000050: 0077 81bf 2845 80bf c167 023f 66fc 6e3f
00000060: ebb7 07bf 6195 6e3f 03ce 463f 3646 49be
00000070: b43b 853f 5690 56bf 616b 263f 5264 11be
00000080: 34a4 a3be 85c0 73bf 20d5 87bf 98ad 883f
00000090: fb68 c33e 1473 243f 4caa 41bf 564e 593f
000000a0: 2c0d 1d3f aafe 76bf 2171 f53e 59b3 543f
000000b0: 9e97 673f e464 7ebf 7770 1bbf 2a6a 78bf
000000c0: aa99 293f c032 243f 9dd0 3bbf f697 6e3f
000000d0: ad59 06bf ecfc 013f 84b6 44bf 8065 2e3f
000000e0: 6dc0 713f 9347 4f3f 9503 783f 3fd0 233e
000000f0: fd3f 723f 8526 583f 4049 063f 9410 903e
00000100: 86c7 533f 92d2 593f e18c 0b3f cefe 45bf
00000110: db94 43bf 3610 873f de24 643f 70be 113f
00000120: bf68 6cbf acbf 453f 9222 18bf 3181 2d3e
00000130: d591 77bf 053a 453f 41b0 783f 98f9 013f
00000140: 12a5 5f3f 16f6 0b3f 55da 253f 5135 18bd
00000150: b52e 1cbf c57c fd3e 7bd2 313f cf65 363f
00000160: a281 593f 197c fabe b523 6c3f 801f 8b3f
00000170: 2543 8abf d351 753f ac43 39bf ad07 64bf
00000180: 5733 89be 95b3 d23e bb3a 263f 42d1 143f
00000190: cf91 03bf 021e b33e 5a34 653f 2e0f 783f
000001a0: f961 c63e efbd 063f 43c3 4c3f a12b eebe
000001b0: e601 533f 4f8d 19bf 9155 d33e 6043 0d3f
000001c0: 86f7 543f f9f8 063f b79b 63bf a31e 2b3f
000001d0: e14f 56bf 41e7 94bf da19 5b3f 7bf1 033f
000001e0: 853c 78bf dd2d 653f 5eb5 45bf f80d 6bbe
000001f0: cd62 8e3f e105 0c3f 6b4e c3be b9ca 3e3f
00000200: c05b 453f 449d 30bf 5da0 243f 4549 f6bc
00000210: a3ca 663e b15e f83e 7fb2 453f 69fc b73d
00000220: c50c 833f ca97 903f fb5c 3a3f 7e4b 2a3f
00000230: 9384 3e3f dee8 043f 2d9a 3dbf de5e 49bf
00000240: d860 3ebf 519b babe 159e a13e ee6b 843f
00000250: eaeb ea3e e999 80bf 5262 0dbf 8736 abbe
00000260: cf6e 5c3f 53c7 82bf 17ef 693f 60fb 873f
00000270: 9206 63bf f01c 513f b4dc 03bf b6af 29bf
00000280: 0535 95be f608 ea3e 6a4f 033f 6245 553f
00000290: 2c59 7c3f 840d 3fbe 9ddb 6e3f a179 593f
000002a0: 138e 553f 86e7 10bf fdbb 74be a53c 56bf
000002b0: f167 763f b27b 8dbf ef66 f8bd f903 2d3e
000002c0: 332f 08bf eb69 51bf f515 6e3f f321 293d
000002d0: 41d1 893f 4ee8 39bf b36f d43e 4ff3 daba
000002e0: dc0e 1b3f 4904 dcbd 2043 a3bf 6c73 3b3f
000002f0: e1a0 683f 0d80 6d3f 483a 793f 8fc3 203f
00000300: a849 51bf a3ce 6bbf e9c8 b2be d540 9dbd
00000310: 6173 a1be 433f 423f 6427 553f a513 153f
00000320: a121 433f 5993 94bf d5b2 283f 4756 633f
00000330: d5dc 673f 54df 803f 8663 5c3f d937 3e3e
00000340: fc55 4a3f b75c f93e 3fd1 323f 7fcc 7f3f
00000350: b58e 67bd fb49 9cbe 2550 623f 9f5e 7e3f
00000360: dd4a 623f 41dc ccbe 181a 303f f990 363f
00000370: c33e 65bf 42e2 3bbf 10fa 7a3f a44f 573f
00000380: 10e9 2f3f 533c 683f 5227 ed3d 7916 4b3f
00000390: 7ae9 76bc b771 27bf fb03 143f c0d3 4c3f
000003a0: 1cbe 813f f982 74bf cf5a b4be 17fa 063f
000003b0: e072 4b3f 23d1 bebe 6457 a5bf e145 123f
000003c0: 1d12 4bbf 267c 82bf 2f56 4d3f 626f bf3e
000003d0: 8542 263f b085 213f 1406 343f e6c2 13be
000003e0: 2cb9 173f 7aba 2f3f bee3 453f 4f7a 44bf
000003f0: 6538 66bf 5484 62bf 4e9e e23c e6e0 613f
-0.3910936 0.0839592 -0.46130702 0.7627558 1.0073936 -0.5474302 -1.076489 -0.43031892
1.0138499 0.92902946 0.42986414 0.8100203 0.7343342 0.7804859 0.26456934 0.5295278
0.51173466 1.1153958 -0.55410296 -0.3288529 -1.0114441 -1.0021105 0.50939566 0.9335388
-0.5301501 0.93196684 0.776581 -0.1965569 1.0408845 -0.8381399 0.650076 -0.14198425
-0.31961215 -0.95215636 -1.0611916 1.0677977 0.3816603 0.64238095 -0.7565048 0.84885156
0.61348224 -0.96482337 0.47937873 0.8308616 0.90465724 -0.99372697 -0.6071848 -0.97036994
0.662501 0.6413994 -0.73365194 0.93200624 -0.52480584 0.50776553 -0.76840997 0.68123627
0.94434243 0.8096859 0.96880466 0.15997408 0.9462889 0.84433776 0.5245552 0.28137648
0.82726324 0.8508693 0.5451184 -0.77341926 -0.7639901 1.0551822 0.89118755 0.5693121
-0.9234733 0.77245593 -0.5942775 0.16943814 -0.967069 0.77041656 0.9714394 0.50771475
0.8736125 0.5467237 0.64786273 -0.03716022 -0.6100877 0.49509254 0.6946179 0.712491
0.8496343 -0.48922804 0.92241985 1.0868988 -1.0801741 0.9582798 -0.72368884 -0.8907421
-0.26796982 0.41152635 0.64933366 0.581318 -0.5139436 0.34983832 0.8953301 0.9689816
0.38746622 0.52633566 0.79985446 -0.4651766 0.8242477 -0.59981245 0.4127622 0.5518093
0.8319019 0.5272365 -0.88909477 0.6684362 -0.83715636 -1.1633073 0.8558632 0.51540345
-0.96967345 0.89523107 -0.7722987 -0.22954547 1.1123902 0.5469647 -0.38145766 0.7452808
0.77093124 -0.6898997 0.64307195 -0.030064235 0.22538237 0.48509744 0.7722549 0.0898369
1.0238272 1.1296322 0.72798127 0.6652144 0.7442104 0.5191783 -0.7406338 -0.7866038
-0.7436652 -0.36446622 0.3156592 1.0345438 0.45883113 -1.004697 -0.5522815 -0.3344004
0.8610658 -1.0217079 0.9138045 1.0623589 -0.886819 0.8168478 -0.5150864 -0.6628374
-0.29142013 0.45709962 0.5129305 0.83308995 0.98573565 -0.186575 0.93303853 0.84951216
0.83419913 -0.56603277 -0.23899837 -0.83686286 0.9625235 -1.1053374 -0.12129008 0.16896047
-0.5319702 -0.81802243 0.93002254 0.041292142 1.0766984 -0.72620094 0.4149147 -0.0016704592
0.6056955 -0.10743005 -1.275486 0.73222995 0.9087048 0.92773515 0.97354555 0.627984
-0.81753016 -0.9211218 -0.34918907 -0.07678381 -0.3153334 0.7587778 0.8326323 0.582331
0.7622319 -1.1607467 0.65897876 0.88803524 0.9057134 1.0068154 0.8608936 0.18575992
0.7903745 0.48703548 0.69850534 0.9992141 -0.05653258 -0.30525193 0.8840354 0.9936313
0.8839548 -0.4001179 0.68789816 0.7131496 -0.8954889 -0.7339212 0.98037815 0.84105897
0.68715 0.9071705 0.115797654 0.79331166 -0.015070314 -0.6540789 0.57818574 0.80010605
1.0136142 -0.9551235 -0.3522553 0.52725357 0.7947216 -0.37268934 -1.2917295 0.57137877
-0.79324514 -1.0194137 0.8020963 0.37389666 0.6494525 0.63094616 0.70321774 -0.14429817
0.59266925 0.68643916 0.7730063 -0.7674913 -0.899298 -0.88483167 0.027663376 0.8823379

linear2.weight f4 [2, 512]
00000000: 45a4 12c0 4377 0cc0 bc0f 843e 6be9 933e
00000010: 52dc 2a3f c910 e1bf 35cd 12bf 0073 d33e
00000020: 49cc fa3e 1878 093f 038e 90bf 8169 713e
00000030: 96ee 503e 15c6 293f 1637 543e 0331 3f3f
00000040: bd5f 8dbe 72dd 2d3f 9267 babe 42eb b03f
00000050: 1e6d c0bf 8fe7 bcbe 4599 293e f640 2d3f
00000060: 03a3 26bf 8a31 0e3f 1a82 393f 06fa a6bf
00000070: 3e94 2d3f 3185 b2bf 8e37 ab3e 27ed 67be
00000080: 823c 08bf c907 d5bf 5927 05c0 2225 193f
00000090: d5cc 5c3f 9daf 033f c749 473f bd2d a13e
000000a0: c263 b1bf 1016 bebf cf1a 733f 3a05 00bf
000000b0: 3b82 cb3e 03e7 03c0 f7ce f2be a195 04c0
000000c0: 2700 533f d414 093f e8c1 38bf 09a9 8e3e
000000d0: a8ed f2bd 8352 8c3e 06d5 c8bf 7990 e0be
000000e0: e88b eb3e dfb3 4b3e 14b9 473f 70d5 993f
000000f0: 738a 1e3f 3f1e a13e e9f8 aa3e a3cd 263e
00000100: 9875 2c3f a10e 383e bcf3 993e 27dd 1dbf
00000110: 4b63 d3bf 84ea 29bf 6e31 683e 7731 0b3f
00000120: f1ce a0bf a7d5 0e3f 7546 4fbe ea09 133f
00000130: 62dc c0bf 4de7 193f 03f3 853e 0bce c83e
00000140: c463 053f a157 90bf 60c4 d8bf 999a 6b3f
00000150: e81d 6dbf 636d 613f 49ed 97bf 7cc6 783e
00000160: 4322 9e3e a290 893f 54a9 7c3e c4b2 483f
00000170: 7c68 0cbf 336a cb3e e8a4 b2bf 0ee9 adbf
00000180: 9684 7bbe 97b5 97bf a504 7f3e e014 1d3f
00000190: dbf0 a8bf 1c82 1a3f 4554 063f 81c3 1d3f
000001a0: b793 fe3e d534 793e f704 bd3e 79df b5be
000001b0: 6b1f de3e 0e59 aebf 42d9 09bf fada 73be
000001c0: 29b5 803e e548 523f b4e7 f5be d7c5 503f
000001d0: b67d d3bf bba4 03c0 11f3 1b3f af81 b23e
000001e0: 0856 76bf 7345 143f 32fd 8dbf 6ac1 a8bf
000001f0: ce4c 9cbf cdd1 693e c758 74bf 1da7 8d3e
00000200: c499 9f3e 9a4d 12c0 9901 4bbf b1d3 fbbe
00000210: 0118 31bf 312d 413f f602 aa3e 2b43 c6bf
00000220: 1b03 6fbf 4f6b 1a3f 1bc9 9f3e 1164 293f
00000230: b197 823e b274 09bf 2197 34bf 377d 353f
00000240: 4011 843f de28 4fbf 8cce 853e f0c8 523f
00000250: 1aca 65bb 87bb babf 0a8a 18bf 4a03 0ec0
00000260: 190d 1f3f 6a0c dbbf 2aa9 d83e a091 183f
00000270: 6b3e 7dbf 96e0 823e a841 1bbc b1aa 2cbf
00000280: 2bcb 2ebf 077e 86bf 913e 193f 017f b8bf
00000290: d6dc 1f3f c928 2bbf abe7 c63e 1f47 0a3f
000002a0: 7ce3 573e 66fd 06bf 79be bebe 9d31 d0bf
000002b0: 9888 223f c688 a5bf 8bec 2fbf daa6 663f
000002c0: cd4b e0bf a3f2 debf 13d5 ba3e 2885 cebf
000002d0: c9d9 ec3e c412 0cbf 5b88 d23e 1af3 8ebf
000002e0: 9019 db3e 7ff0 01bf 3f07 3cbf 76e7 a43e
000002f0: f515 dc3e 5487 403f 2cf9 9d3e 8f9e 263e
00000300: 53ed d2bf 904e edbf 19e5 a0bf 506a 773f
00000310: 4735 84bf 6abd a03e b2e1 59bf b673 143f
00000320: 2763 43bf ef7a 9dbf 1cf0 3b3f 24a5 5b3e
00000330: b95d 183f 228e 9a3e 7e1e 8abf 5195 ed3e
00000340: 333d 943e cacf cbbe 6b7f 8dbf 91ba 973e
00000350: 6686 aebf e71b 99bd 58f2 d23e ee2a 2d3f
00000360: 0388 aa3e 9b3e 90bf fab5 a23e 0e2d 213f
00000370: 60e2 94bf 8056 a5bf 8082 ca3e b758 103f
00000380: d9df 8b3e 6046 183f 12c7 9d3f 244d 963e
00000390: 6294 efbf 4b03 3abe b562 b93e ab96 ed3e
000003a0: 52b5 3d3f 9fcb a6bf 7306 38bf a190 8c3e
000003b0: fcda 313f bc8d 6d3f d3c3 94bf a77f 883e
000003c0: 0820 ffbf b931 afbf ded8 273f bbc3 963f
000003d0: 4c01 ce3e ab21 b13e 2a77 a73e 21d9 9abf
000003e0: e5ef 833e e6b4 ec3e 67af cf3e ba03 1dc0
000003f0: e38e 85bf 3e5f babf f4f0 06bf e013 983e
-2.2912762 -2.1947792 0.25793254 0.2888902 0.6674243 -1.7583247 -0.5734437 0.41298676
0.48983982 0.53698874 -1.1293339 0.23575403 0.20403513 0.66317874 0.20724139 0.7468416
-0.27612105 0.67916024 -0.36407143 1.3821795 -1.50333 -0.36895415 0.16562374 0.6767725
-0.65092486 0.5554434 0.72464144 -1.3045051 0.67804325 -1.3946897 0.33440822 -0.2264906
-0.5321733 -1.6643001 -2.0805266 0.59822285 0.8625005 0.5143984 0.7784695 0.31480208
-1.3858569 -1.4850483 0.9496278 -0.50007975 0.39747795 -2.0609748 -0.47423527 -2.0716326
0.8242211 0.53547406 -0.7217088 0.2786334 -0.118617356 0.274067 -1.569001 -0.43860224
0.46005177 0.19892834 0.7801678 1.2018261 0.61930007 0.31468388 0.33393028 0.16289382
0.67366934 0.1797433 0.30068767 -0.61665577 -1.6514677 -0.6637347 0.22675106 0.5437235
-1.2563154 0.5579476 -0.20241721 0.57437 -1.5067255 0.6011856 0.26161966 0.39219698
0.52105355 -1.1276742 -1.6934929 0.9203277 -0.9262376 0.88057536 -1.1869289 0.24294466
0.30885515 1.0747263 0.24673969 0.78397775 -0.5484693 0.3972946 -1.3956575 -1.3586748
-0.24562296 -1.1852292 0.24904115 0.6135998 -1.3198503 0.6035478 0.52472335 0.6162644
0.49722072 0.2433656 0.3691785 -0.3552206 0.43383345 -1.3620927 -0.53847134 -0.23814002
0.25138214 0.8214248 -0.48028338 0.8155188 -1.6522739 -2.0569293 0.60917765 0.34864566
-0.96225023 0.5791847 -1.1092894 -1.3184025 -1.2210939 0.22833939 -0.95447963 0.2766656
0.31172 -2.2859864 -0.7929931 -0.49184945 -0.6917725 0.7545958 0.33205384 -1.5489248
-0.93364114 0.6031999 0.3120812 0.66168314 0.25506356 -0.5369369 -0.70543104 0.7089419
1.0317764 -0.80921733 0.26134145 0.82337856 -0.003506309 -1.4588479 -0.5958563 -2.2189507
0.6212936 -1.7113163 0.42316562 0.59597206 -0.9892337 0.2556197 -0.009476103 -0.67447954
-0.6827876 -1.050721 0.59861094 -1.4413759 0.62446344 -0.6685911 0.38848624 0.5401477
0.21082872 -0.52730405 -0.37254694 -1.6265141 0.63489676 -1.2932365 -0.6872031 0.90098345
-1.7523133 -1.7417797 0.36490688 -1.6134386 0.46259907 -0.54716134 0.41119656 -1.1167939
0.4279294 -0.5075759 -0.73448557 0.3220784 0.42985502 0.75206494 0.30854166 0.16271423
-1.6478676 -1.85396 -1.2569915 0.96646595 -1.0328759 0.3139451 -0.8511001 0.5798906
-0.7632317 -1.2303141 0.7341325 0.21449715 0.5951801 0.30186564 -1.0790555 0.46402982
0.2895294 -0.39806968 -1.105451 0.29634526 -1.3634765 -0.07476025 0.4120052 0.6764363
0.33306894 -1.1269106 0.31779462 0.62959373 -1.1631584 -1.2917023 0.3955269 0.5638537
0.2731922 0.59482384 1.2326376 0.2935573 -1.8717158 -0.18165319 0.3620812 0.46404013
0.741048 -1.303089 -0.7188484 0.27454093 0.6947477 0.92794394 -1.1622261 0.2665989
-1.993165 -1.3687049 0.6556529 1.1778482 0.40235364 0.34596 0.32708102 -1.2097512
0.25768963 0.46231765 0.4056351 -2.4533525 -1.043423 -1.4560316 -0.52711415 0.29702663

linear2.bias f4 [2]
00000000: c037 8b3e 22f8 913e
0.2719097 0.28509623
