code/log/dqn/ckpt/567000.pth (torch, 15775 bytes, 4 tensors)

linear.weight f4 [512, 4]
00000000: 48b2 95bd e2f9 88be 681f 34c0 8239 dabe
00000010: a017 033f 37e1 863e 35e0 9b3f 3369 293e
00000020: 193b 193f 03a2 6c3e ac6f dfbe 847c 103e
00000030: f260 84be 0e1b 2a3d 1728 66be 312d 7a3c
00000040: 7eb9 8a3e 356a 883e 4012 05bf d8ff b6bc
00000050: 7780 0d3f 79ae 5f3f 65ef 1c40 3628 223f
00000060: 5ce1 043f 195e 773d 6304 e6be 97f7 8bbd
00000070: a065 983c eb61 2f3f 119a bf3f c1c7 4c3f
00000080: 946e 84be b0dd 53be 31ea b6be 2918 92be
00000090: 1b99 6dbe ed85 143f 3635 7f3c 404b 8b3d
000000a0: 652c 5b3f 5804 d9be 2f76 f9bf a23b 19bf
000000b0: 36b8 53be c375 98bd 08d3 d03d ea37 503e
000000c0: e0a4 56be 588f 9e3d 9d7b d63c f086 7b3e
000000d0: 2225 413e cb59 d7bd 3f8f 4abb c44f 49be
000000e0: 8ac6 5fbf 885e 3cbf e47d 4abf 7864 6cbe
000000f0: 9b01 143f 536d 233f 84af 403f bf02 0d3f
00000100: 7c34 e13d 79fc bdbd 212e bcbf e1e7 18bf
00000110: 8a8a 083e 06e3 8b3e d7ad 27bf 9021 7f3c
00000120: 2426 533e 554a 1dbe 5c43 e73f 82c1 a93f
00000130: dc15 e6bd bfad 0dbf 93e6 27c0 fe52 85bf
00000140: 1826 02bf 2c0a 8dbe 64b4 02c0 f4ee 65be
00000150: c344 f53e dc27 003d 7352 a6bf 7dad a5be
00000160: 19c4 853d 056f 88be 94b8 8ebd e91d 10bd
00000170: 0db9 893e f804 9bbd 4140 62bf 5939 05be
00000180: 7ef4 563e f99e 45be 0357 17c0 6201 eabe
00000190: db52 1f3e 511d 473f 6387 02be afad 53bd
000001a0: 8015 2cbf 9dce 28be b398 92bf 16f5 00bf
000001b0: a242 133f 5ef1 a83e e3d0 4d3f 018f dc3e
000001c0: 140d 003d 0c98 163d c996 973e 0cad e9be
000001d0: a394 e2be 3d96 e3bd 3b4c 39be e1f6 3cbe
000001e0: 80dd c73d e150 40bd 635b eabe b119 813d
000001f0: 44e4 f4be ddfd cdbe 1b33 02c0 5ed1 10bf
00000200: ca3e 02bf 3543 00bf 4cff 2bbf bb42 12bf
00000210: 036f eabe 9eed c1be 76c2 7cbf aec0 96be
00000220: bdbb 03bf 3e9a dbbe 9dc4 c13e e352 86be
00000230: 1fe2 083e a91d 1c3e 7ea3 493e ea0f 59be
00000240: d02e c5be 8b25 2bbf dd11 9bbf afd1 ffbe
00000250: 8ccf 66be a09a 0abf 8053 41bf ef7e 88be
00000260: bfbc 603d 1d4f 92be 5b64 0fc0 def5 bebe
00000270: 8046 993e 438a 01bf c22a c6be 4e23 78be
00000280: f2bc 35bd 341b e1be 93ea 73c0 6da8 9dbf
00000290: a38f f2be df1a a0be 7bc7 78bf 49f4 70be
000002a0: a811 c6bf 4b9e 80bd 48ba 413e a3be 0a3d
000002b0: 4772 f33d edb9 8f3e b6db 4a3d 9395 173f
000002c0: a738 24be e247 d5be f84a 003e 8360 b3be
000002d0: 5fc8 f4be 455d 01bf 26bb 293f 689a 9ebe
000002e0: fe67 043f 5d92 8b3e f5a0 1bbf c403 113e
000002f0: 65af f8be 8b29 403d ab17 1a3f 7c7f a93c
00000300: ffa6 2dbf e198 43be ea2b fdbe c097 2abe
00000310: 6e98 5bbe 9b51 123e 7237 efbe 3389 b13c
00000320: f348 af3e 423a 0fbd b52d c5bf 3bb1 51be
00000330: 5788 92be 08ff 833e 8484 a2be c463 d93e
00000340: 660f 253e 3a45 943d 3500 91bd 55a6 d6bd
00000350: 5e9b 53bd fb68 58be bf68 83be f448 54bd
00000360: 6737 babe 43f2 0cbf b68d 1fc0 9bab d8be
00000370: 4afa 01bd c92f d43e 04ca 6b3f f7a8 023f
00000380: 1b3e aabe b347 453e 2cd6 e1be 79bc b73c
00000390: afee 5ebe e384 7a3d f8b1 94bd 0518 943e
000003a0: cd36 2a3e 50ef b8bc 6c67 253e eb8d b0be
000003b0: b303 1e3e 29a1 75be 3cc9 5d3f 2b88 2a3f
000003c0: 9db0 51bc 3653 ae3e 556a 88be 0e04 ccbb
000003d0: 1ae7 9b3e be0d 16bf 32d5 ed3d 350d b7be
000003e0: 908f 04be f1c6 87be f054 00bf 31c0 9c3d
000003f0: 67a6 883e 9a57 d8be 7b26 163c 85ee 67bd
-0.07309395 -0.26753145 -2.814417 -0.42622 0.51207924 0.263437 1.2177798 0.16544037
0.598558 0.23108678 -0.43639886 0.14109999 -0.25855213 0.041529708 -0.2247623 0.0152695635
0.27094644 0.2664353 -0.5198097 -0.022338793 0.55274147 0.873756 2.4521115 0.6334261
0.5190637 0.060392473 -0.44925222 -0.068343334 0.018603146 0.68508786 1.4968892 0.799923
-0.25865614 -0.20690036 -0.3572555 -0.28534058 -0.23202936 0.58016855 0.015576651 0.06801462
0.85614616 -0.42386127 -1.9489192 -0.5985662 -0.2067574 -0.07444336 0.10196501 0.2033383
-0.20961332 0.077421844 0.02618199 0.24563193 0.18861821 -0.105151735 -0.0030908135 -0.19659334
-0.8741232 -0.73581743 -0.79098344 -0.23085201 0.5781495 0.6383869 0.75267816 0.55082315
0.10996339 -0.09276671 -1.4701577 -0.5972882 0.13334098 0.27321643 -0.65499634 0.015571967
0.20620018 -0.15360387 1.8067431 1.3262179 -0.11234638 -0.5534324 -2.6234481 -1.0415952
-0.50839376 -0.27546823 -2.0422602 -0.22454435 0.47904024 0.031288013 -1.2993912 -0.32358924
0.06531543 -0.266472 -0.06968799 -0.035184775 0.26898995 -0.07569307 -0.88379294 -0.13010158
0.20991704 -0.19298925 -2.3646858 -0.4570418 0.1555895 0.7777911 -0.12746958 -0.05167931
-0.67220306 -0.16485067 -1.145285 -0.5037397 0.5752355 0.3299665 0.8039686 0.43077853
0.031262472 0.036766097 0.29607227 -0.45639837 -0.44254026 -0.1111264 -0.18095486 -0.18453552
0.09759045 -0.046952132 -0.45772848 0.06303728 -0.47830403 -0.40232745 -2.0343692 -0.5656947
-0.5087706 -0.5010255 -0.6718643 -0.5713307 -0.4578782 -0.378766 -0.98734224 -0.29443878
-0.5145834 -0.42891115 0.37845317 -0.26235113 0.13367508 0.1524569 0.19691274 -0.21197477
-0.38512278 -0.6685416 -1.2114826 -0.49964663 -0.2254011 -0.5414219 -0.75518036 -0.26659343
0.054867502 -0.28575984 -2.2405002 -0.37296957 0.299366 -0.50601596 -0.38704497 -0.24232218
-0.044369645 -0.43966067 -3.8111923 -1.2317024 -0.4737521 -0.312705 -0.97179383 -0.23530687
-1.5474138 -0.06280192 0.18918717 0.03387321 0.11887031 0.28071538 0.04952594 0.5921261
-0.16037236 -0.41656405 0.12528598 -0.3503457 -0.4780912 -0.50532943 0.6630119 -0.30977178
0.5172118 0.27260104 -0.60792476 0.14161593 -0.48571315 0.04691462 0.60192364 0.020690672
-0.6783294 -0.19101287 -0.49447566 -0.1665945 -0.21444866 0.14288943 -0.4672199 0.021671867
0.34235343 -0.03496767 -1.5404574 -0.20477764 -0.28619644 0.2578051 -0.31741726 0.42458928
0.16119155 0.072397664 -0.070801176 -0.10480944 -0.05166184 -0.21133797 -0.25665852 -0.051827386
-0.36370394 -0.5505716 -2.4930243 -0.42318425 -0.031732835 0.41442707 0.92105126 0.5103907
-0.33250508 0.19265632 -0.44108713 0.022428738 -0.21770738 0.061161887 -0.07260507 0.28924575
0.16622467 -0.02257505 0.16152734 -0.34483275 0.15431099 -0.23987259 0.86635184 0.66614026
-0.012798456 0.3404786 -0.26643625 -0.0062260693 0.30449754 -0.5861472 0.116129294 -0.35752264
-0.1294539 -0.26518968 -0.50129604 0.07653845 0.26689455 -0.42254335 0.009164448 -0.056623954

linear.bias f4 [512]
00000000: 0238 cfbe cdf2 ab3d 6f30 ecbe 5d20 433f
00000010: 9be8 803f 6324 0cbf 64ca 89bf c352 dcbe
00000020: eeb8 813f dabc 6d3f 1310 d83e be36 4f3f
00000030: 0dd2 3b3f 87b8 473f 192b 873e 3c75 ff3e
00000040: 8d8b 003f cdba 8e3f 8f87 16bf 93f6 a5be
00000050: 0077 81bf 2845 80bf de35 023f 5be7 6e3f
00000060: ebb7 07bf cd7c 6e3f 21b9 463f 3646 49be
00000070: 9834 853f 5690 56bf df4a 263f 9b27 11be
00000080: ceeb 9fbe 85c0 73bf 20d5 87bf 2ba2 883f
00000090: eb46 c33e 025a 243f 4caa 41bf e52c 593f
000000a0: f898 1e3f aafe 76bf ac46 f53e beae 543f
000000b0: 617a 673f e464 7ebf 7770 1bbf 2a6a 78bf
000000c0: 9786 293f fd1a 243f 9dd0 3bbf 3174 6e3f
000000d0: ad59 06bf a5d8 013f 84b6 44bf c958 2e3f
000000e0: 7fa5 713f 8b1d 4f3f 20f6 773f c12a 2b3e
000000f0: d729 723f c604 583f 0e29 063f 3f6d 923e
00000100: 3db6 533f 74a8 593f 496a 0b3f cefe 45bf
00000110: db94 43bf a20f 873f 6efd 633f f8ac 113f
00000120: bf68 6cbf 23a8 453f 9222 18bf 461d 2d3e
00000130: d591 77bf dd23 453f fa8a 783f c2db 013f
00000140: 148d 5f3f 31f9 0b3f 15dc 253f 5135 18bd
00000150: b52e 1cbf 785d fd3e b2d0 313f de3e 363f
00000160: f05f 593f 3a8e f7be 8efd 6b3f 1317 8b3f
00000170: 2543 8abf 4334 753f ac43 39bf ad07 64bf
00000180: f65f 7abe f399 da3e c413 263f adbd 143f
00000190: cf91 03bf 50be b03e 211c 653f a6f8 773f
000001a0: 9983 c43e 2e97 063f cca4 4c3f a12b eebe
000001b0: 7ce6 523f 4f8d 19bf 3b62 cf3e 4149 0d3f
000001c0: 1ed2 543f f9f8 063f b79b 63bf c207 2b3f
000001d0: e14f 56bf 41e7 94bf 2603 5b3f f2d1 033f
000001e0: 853c 78bf ad16 653f 363c 45bf 88fa 6abe
000001f0: 0661 8e3f fde3 0b3f 3c34 d1be 60a7 3e3f
00000200: 313a 453f 449d 30bf 184d 263f 46a2 cabc
00000210: 5185 663e ca3d f83e 1592 453f 69fc b73d
00000220: 110e 833f ac8d 903f e43b 3a3f 3735 2a3f
00000230: 9f5d 3e3f c328 053f 63e8 42bf de5e 49bf
00000240: d860 3ebf ae69 bfbe 6c56 a13e 9564 843f
00000250: 6703 eb3e e999 80bf ec5d 03bf 4910 bcbe
00000260: f55a 5c3f 53c7 82bf 97d2 693f 90f2 873f
00000270: 55f4 68bf abf7 503f b4dc 03bf 3ec8 31bf
00000280: 4ede 9dbe 0f1c ee3e 7a35 033f c84c 553f
00000290: 4a43 7c3f f8ba 3dbe dbbd 6e3f 4762 593f
000002a0: 6e66 553f 86e7 10bf 9fc8 7fbe a53c 56bf
000002b0: 1a52 763f b27b 8dbf 1e92 f8bd 03b9 2c3e
000002c0: 332f 08bf eb69 51bf 27f7 6d3f f321 293d
000002d0: 17c4 893f 4ee8 39bf a4a4 e43e 4ff3 daba
000002e0: cbf2 1a3f da84 d9bd 2043 a3bf 5452 3b3f
000002f0: c884 683f 3b6f 6d3f 9618 793f d6be 203f
00000300: a849 51bf a3ce 6bbf e9c8 b2be 5ec3 9dbd
00000310: ad1b 9bbe b11d 423f ef25 553f b5fa 143f
00000320: 5729 433f 5993 94bf 839f 283f 722c 633f
00000330: 1bc7 673f 87ce 803f 0370 5c3f 447f 253e
00000340: b632 4a3f 671f f93e ddcc 323f 13aa 7f3f
00000350: b58e 67bd 5398 9ebe 5c33 623f 954b 7e3f
00000360: e92a 623f d63d cebe fbf8 2f3f 1ec3 373f
00000370: c33e 65bf 42e2 3bbf 99dc 7a3f fb37 573f
00000380: 9fc4 2f3f 2b25 683f 5227 ed3d a3f3 4a3f
00000390: 7ae9 76bc 10c4 29bf fd05 183f a1b8 4c3f
000003a0: 74b5 813f f982 74bf cf5a b4be 4ad5 063f
000003b0: 9e5f 4b3f 23d1 bebe 6457 a5bf 5922 123f
000003c0: 1d12 4bbf 267c 82bf 7340 4d3f 626f bf3e
000003d0: 58d4 293f ee65 213f 47e5 333f e6c2 13be
000003e0: 5e94 173f 46a0 2f3f ccc6 453f 4f7a 44bf
000003f0: 6538 66bf 5484 62bf e141 663d 1bbe 613f
-0.40472418 0.0839592 -0.46130702 0.7622126 1.0070986 -0.5474302 -1.076489 -0.43031892
1.0134561 0.9286629 0.42199764 0.80942905 0.7336739 0.7801594 0.26400068 0.4989413
0.5021294 1.1150757 -0.58800596 -0.32414684 -1.0114441 -1.0021105 0.50863445 0.9332177
-0.5301501 0.9315918 0.77626234 -0.1965569 1.0406675 -0.8381399 0.64957994 -0.14175265
-0.31234592 -0.95215636 -1.0611916 1.067449 0.38140044 0.6419984 -0.7565048 0.8483413
0.6195216 -0.96482337 0.4790548 0.83079135 0.9042111 -0.99372697 -0.6071848 -0.97036994
0.6622099 0.6410368 -0.73365194 0.93146044 -0.52480584 0.507212 -0.76840997 0.68104225
0.9439315 0.80904454 0.9685993 0.16715528 0.9459509 0.84382284 0.52406394 0.28598973
0.8269995 0.85022664 0.54459053 -0.77341926 -0.7639901 1.0551646 0.8905858 0.56904554
-0.9234733 0.7720968 -0.5942775 0.16905698 -0.967069 0.7700785 0.9708706 0.5072595
0.87324643 0.5467711 0.64788944 -0.03716022 -0.6100877 0.49485373 0.6945907 0.7118968
0.84912014 -0.48350698 0.9218377 1.0866417 -1.0801741 0.9578287 -0.72368884 -0.8907421
-0.24450669 0.4269558 0.6487391 0.5810192 -0.5139436 0.34520197 0.89496046 0.9686378
0.3838165 0.5257443 0.7993896 -0.4651766 0.8238294 -0.59981245 0.4050463 0.551899
0.83133113 0.5272365 -0.88909477 0.6680871 -0.83715636 -1.1633073 0.8555168 0.51492226
-0.96967345 0.89487725 -0.77045 -0.22947133 1.1123359 0.5464476 -0.40860164 0.74474144
0.7704192 -0.6898997 0.64961386 -0.024735581 0.22511794 0.4848464 0.7717603 0.0898369
1.0238668 1.1293235 0.72747636 0.6648745 0.74361604 0.5201532 -0.76135844 -0.7866038
-0.7436652 -0.37385315 0.31511247 1.0343195 0.45901033 -1.004697 -0.5131519 -0.36731175
0.8607629 -1.0217079 0.9133696 1.0620899 -0.9099782 0.8162791 -0.5150864 -0.6944617
-0.30833668 0.46505782 0.51253474 0.83320284 0.98540175 -0.18528354 0.93258446 0.84915584
0.8335942 -0.56603277 -0.24978875 -0.83686286 0.9621903 -1.1053374 -0.12137245 0.16867451
-0.5319702 -0.81802243 0.9295525 0.041292142 1.0762967 -0.72620094 0.4465686 -0.0016704592
0.6052672 -0.106210425 -1.275486 0.731725 0.9082761 0.9274785 0.9730314 0.6279119
-0.81753016 -0.9211218 -0.34918907 -0.07703279 -0.30294552 0.75826555 0.8326101 0.5819505
0.76234955 -1.1607467 0.65868396 0.88739693 0.90538186 1.0063027 0.86108416 0.16161829
0.7898363 0.4865677 0.69843847 0.9986889 -0.05653258 -0.3097559 0.8835962 0.9933408
0.88346726 -0.40281552 0.6873929 0.717821 -0.8954889 -0.7339212 0.97992855 0.84069794
0.68659395 0.90681714 0.115797654 0.7927801 -0.015070314 -0.6631479 0.5938414 0.7996922
1.01335 -0.9551235 -0.3522553 0.52669203 0.79442775 -0.37268934 -1.2917295 0.5708366
-0.79324514 -1.0194137 0.80176467 0.37389666 0.66339636 0.6304616 0.70271724 -0.14429817
0.59210765 0.6860393 0.77256465 -0.7674913 -0.899298 -0.88483167 0.05621517 0.881807

linear2.weight f4 [2, 512]
00000000: 27e4 11c0 4377 0cc0 bc0f 843e e1ea 933e
00000010: 4eb7 2a3f c910 e1bf 35cd 12bf 0073 d33e
00000020: 5697 fa3e 5173 093f c87b 90bf bde3 713e
00000030: 2f75 513e 218b 293f 9d40 543e 638b 673f
00000040: 736e 8ebe 79cb 2d3f e09d f9bc 1d71 a83f
00000050: 1e6d c0bf 8fe7 bcbe 5261 293e ac0e 2d3f
00000060: 03a3 26bf 530b 0e3f d25b 393f 06fa a6bf
00000070: 3e4f 2d3f 3185 b2bf f734 ab3e c984 6abe
00000080: 44c4 08bf c907 d5bf 5927 05c0 81fc 183f
00000090: 4582 5c3f ff8d 033f c749 473f 08ab a03e
000000a0: 0dc1 b1bf 1016 bebf cf2e 733f 3e1b ffbe
000000b0: 6c3c cb3e 03e7 03c0 f7ce f2be a195 04c0
000000c0: bcf7 523f 650d 093f e8c1 38bf eafd 8e3e
000000d0: a8ed f2bd 0a37 8c3e 06d5 c8bf c4af dfbe
000000e0: 6b8a eb3e f54d 4c3e a66f 473f 0d3d 9c3f
000000f0: a679 1e3f a571 a03e c11b ab3e bcb9 4e3e
00000100: 3355 2c3f ff72 383e a5b9 993e 27dd 1dbf
00000110: 4b63 d3bf 83df 29bf 82bb 683e 8a06 0b3f
00000120: f1ce a0bf b2a0 0e3f 7546 4fbe a819 133f
00000130: 62dc c0bf 68b0 193f 5c0e 863e 90e1 c83e
00000140: 0740 053f ba02 90bf c514 d9bf 999a 6b3f
00000150: e81d 6dbf bf80 613f a8a4 97bf 605d 793e
00000160: 217a 9e3e 3d69 913f f063 7d3e 9b93 483f
00000170: 7c68 0cbf 8f42 cb3e e8a4 b2bf 0ee9 adbf
00000180: 2c5e 34be 33b3 97bf f974 7f3e f642 1d3f
00000190: dbf0 a8bf ef42 1e3f eb4a 063f c494 1d3f
000001a0: 6c98 013f e45c 793e 4e65 bc3e 79df b5be
000001b0: 9b94 dd3e 0e59 aebf 583c 06bf f6c7 72be
000001c0: 27fd 803e e548 523f b4e7 f5be 0695 503f
000001d0: b67d d3bf bba4 03c0 70a7 1b3f 8855 b23e
000001e0: 0856 76bf d232 143f bdc6 80bf ebba a8bf
000001f0: 0830 9cbf ae92 693e 0a1e 64bf 901c 8e3e
00000200: 39ca 9f3e 9a4d 12c0 26a4 4bbf d2f1 fcbe
00000210: 8dcb 30bf 690b 413f 8327 aa3e 2b43 c6bf
00000220: ecca 6ebf 595a 1a3f 9d48 9f3e ad4b 293f
00000230: 75ac 823e 76ac 09bf 2197 34bf 377d 353f
00000240: 4011 843f f18b 50bf 681e 863e f995 523f
00000250: dc1f 5bbb 87bb babf f485 b6be e98f 08c0
00000260: 73cf 1e3f 6a0c dbbf ef50 d83e 345c 183f
00000270: 6b3e 7dbf eef4 823e a841 1bbc ca17 d5be
00000280: 29aa 27bf f63b 86bf a84a 193f a492 b8bf
00000290: 7ad3 1f3f 7506 2bbf 8dbd c63e 1344 0a3f
000002a0: 02bc 583e 66fd 06bf 6cb0 d6be 9d31 d0bf
000002b0: 2554 223f c688 a5bf 10fc 2fbf d8ad 663f
000002c0: cd4b e0bf a3f2 debf bac8 ba3e 2885 cebf
000002d0: 5449 ec3e c412 0cbf 76e2 fe3e 1af3 8ebf
000002e0: 8cc3 da3e 7982 02bf 3f07 3cbf 5d05 a53e
000002f0: 43d0 db3e ae5f 403f 6355 9e3e 4cbd 273e
00000300: 53ed d2bf 904e edbf 19e5 a0bf daad 773f
00000310: f835 80bf d3e2 a03e 41e8 59bf 316e 143f
00000320: be91 43bf ef7a 9dbf 8ab9 3b3f e9bb 5b3e
00000330: fe51 183f 55f1 993e 342f 8abf 72af ea3e
00000340: 734f 943e 301f cbbe ed39 8dbf 85dc 973e
00000350: 6686 aebf 4000 a2bd 14a7 d23e e333 2d3f
00000360: 31da a93e d38a 8cbf 28c6 a23e e4e5 213f
00000370: 60e2 94bf 8056 a5bf 5c6e ca3e 3e45 103f
00000380: 5bef 8b3e 2f27 183f 12c7 9d3f 907a 963e
00000390: 6294 efbf 131e 2cbe 3ed9 b93e efd0 ec3e
000003a0: 3f75 3d3f 9fcb a6bf 7306 38bf 8660 8c3e
000003b0: 4d8d 313f bc8d 6d3f d3c3 94bf 9a91 883e
000003c0: 0820 ffbf b931 afbf 3ac5 273f bbc3 963f
000003d0: 3c70 d03e 1ad0 b03e 3850 a73e 21d9 9abf
000003e0: f7d4 833e f44e ec3e 415f cf3e ba03 1dc0
000003f0: e38e 85bf 3e5f babf dbb2 25be 9208 983e
-2.2795503 -2.1947792 0.25793254 0.28890136 0.6668595 -1.7583247 -0.5734437 0.41298676
0.48943585 0.53691584 -1.1287775 0.23622032 0.20454858 0.6622792 0.20727773 0.9044706
-0.2781864 0.678886 -0.030470788 1.315952 -1.50333 -0.36895415 0.16541031 0.6760051
-0.65092486 0.5548603 0.7240573 -1.3045051 0.6769904 -1.3946897 0.33438846 -0.22902216
-0.5342448 -1.6643001 -2.0805266 0.5976029 0.86136276 0.51388544 0.7784695 0.31380486
-1.388704 -1.4850483 0.949933 -0.49825472 0.39694536 -2.0609748 -0.47423527 -2.0716326
0.8240926 0.53536063 -0.7217088 0.27928096 -0.118617356 0.2738574 -1.569001 -0.43688786
0.46004042 0.19951613 0.77904737 1.2206131 0.6190437 0.31336704 0.33419612 0.2018804
0.67317504 0.18012618 0.30024448 -0.61665577 -1.6514677 -0.66356677 0.22727779 0.5430685
-1.2563154 0.5571395 -0.20241721 0.57461023 -1.5067255 0.600348 0.2618283 0.3923459
0.5205082 -1.1250832 -1.6959463 0.9203277 -0.9262376 0.88087076 -1.1847124 0.24352026
0.30952552 1.1360241 0.24745154 0.7835023 -0.5484693 0.39699218 -1.3956575 -1.3586748
-0.17614049 -1.1851562 0.24946965 0.614303 -1.3198503 0.6182088 0.52458066 0.61555123
0.506232 0.24351841 0.3679604 -0.3552206 0.4327744 -1.3620927 -0.5243583 -0.23709092
0.2519314 0.8214248 -0.48028338 0.8147739 -1.6522739 -2.0569293 0.60802364 0.3483088
-0.96225023 0.57890046 -1.006065 -1.3182043 -1.2202158 0.2280986 -0.89108336 0.27756166
0.3120897 -2.2859864 -0.79547346 -0.49403244 -0.69060594 0.75408036 0.3323327 -1.5489248
-0.93278384 0.6029411 0.31110087 0.661311 0.255222 -0.5377878 -0.70543104 0.7089419
1.0317764 -0.81463534 0.26195073 0.8226009 -0.0033435738 -1.4588479 -0.35649073 -2.1337836
0.6203529 -1.7113163 0.42249247 0.5951569 -0.9892337 0.25577492 -0.009476103 -0.41619712
-0.6549402 -1.0487049 0.5987954 -1.4419751 0.6243206 -0.6680673 0.3881649 0.54010123
0.2116547 -0.52730405 -0.41931474 -1.6265141 0.63409644 -1.2932365 -0.6874399 0.90109015
-1.7523133 -1.7417797 0.36481267 -1.6134386 0.46149695 -0.54716134 0.4978215 -1.1167939
0.42727315 -0.50980335 -0.73448557 0.32230654 0.4293233 0.75145996 0.3092452 0.16380805
-1.6478676 -1.85396 -1.2569915 0.9674965 -1.001647 0.31423053 -0.85120016 0.5798064
-0.7639426 -1.2303141 0.73329985 0.21458401 0.5950011 0.30066934 -1.0795655 0.4583698
0.28966865 -0.39672232 -1.1033303 0.2966043 -1.3634765 -0.07910204 0.41143095 0.676573
0.3317428 -1.0979866 0.31791806 0.6324141 -1.1631584 -1.2917023 0.39537323 0.56355655
0.2733105 0.5943479 1.2326376 0.29390383 -1.8717158 -0.16808347 0.36298555 0.46253154
0.7400703 -1.303089 -0.7188484 0.27417392 0.6935623 0.92794394 -1.1622261 0.26673585
-1.993165 -1.3687049 0.6553532 1.1778482 0.40710628 0.3453377 0.3267839 -1.2097512
0.25748417 0.46153986 0.4050236 -2.4533525 -1.043423 -1.4560316 -0.16181509 0.2969404

linear2.bias f4 [2]
00000000: ca3b 8b3e 59c3 913e
0.27194053 0.2846935
