code/log/dqn/ckpt/581000.pth (torch, 15775 bytes, 4 tensors)

linear.weight f4 [512, 4]
000000 3a 30 64 bd 98 07 80 be 49 65 34 c0 70 bc e0 be
       -0.055710055 -0.25005794 -2.818682 -0.43893766
000010 e9 db 01 3f e8 94 58 3e fa 2c 96 3f d9 8f 50 3e
       0.5072618 0.21150553 1.1732476 0.20367374
000020 61 40 10 3f 92 24 10 3e 3c 16 ca be 44 7f 0f 3e
       0.56348234 0.1407645 -0.39470088 0.14013392
000030 24 0c 89 be 0f c5 ea 3c 93 95 78 be 24 30 a5 3c
       -0.26767075 0.028658418 -0.24275808 0.020164557
000040 37 94 84 3e 0a 2d 83 3e f8 cb 0b bf 87 c7 95 bc
       0.2589433 0.256203 -0.54608107 -0.018283619
000050 5d f2 0c 3f f9 5e 48 3f 3b 5f 18 40 6d e6 22 3f
       0.55057317 0.78269917 2.3808124 0.6363285
000060 ea 43 1a 3f 17 6a 1a 3e 6b d4 84 be 83 18 81 3d
       0.6025988 0.15079533 -0.25943312 0.06303503
000070 4c 5f b1 bc 65 cf 45 3f ec 01 ea 3f 9d 15 53 3f
       -0.021651886 0.77269584 1.8281837 0.82454854
000080 75 76 89 be 87 6f 60 be 80 e2 c0 be 30 9f 8f be
       -0.26848188 -0.21917544 -0.37672806 -0.28051138
000090 49 7e 78 be ad 8e 11 3f dd 8e bc bb 2e d4 94 3d
       -0.24266924 0.5685833 -0.0057543353 0.072670326
0000a0 ca 32 5a 3f 6e 2b c7 be a6 af f0 bf 2f 38 19 bf
       0.8523375 -0.38900322 -1.8803604 -0.59851354
0000b0 95 05 5c be 26 c6 b4 bd 6a af b0 3d cb 22 55 3e
       -0.21486504 -0.08826856 0.086272076 0.20814054
0000c0 a0 6a 5f be a8 37 83 3d d5 7d 1c 3c af 32 80 3e
       -0.21818018 0.064071 0.009551485 0.2503867
0000d0 1b 20 36 3e fc 56 ef bd 07 8d c6 bc a1 99 44 be
       0.17785685 -0.11686513 -0.024237169 -0.1919923
0000e0 1e 81 55 bf 96 5d 58 bf e8 12 6d bf b3 ce 61 be
       -0.8340014 -0.845178 -0.92606974 -0.22051506
0000f0 7a 1d 0a 3f 62 8f 2a 3f 4c 6b 63 3f 70 e2 12 3f
       0.5395123 0.66625035 0.888356 0.57376766
000100 c0 4a e5 3d 73 d7 cc bd 3a 96 bb bf 0b 4d 1a bf
       0.11195898 -0.10002031 -1.465522 -0.6027381
000110 a5 ce fa 3d cd 00 86 3e 37 34 2d bf 10 f2 a4 3c
       0.122464456 0.26172486 -0.676578 0.020134956
000120 c1 c2 65 3e 46 fd 0a be 01 9e f1 3f 10 b2 9e 3f
       0.22437574 -0.13573179 1.8876344 1.239809
000130 fe fe 98 bd 84 63 fe be 24 35 30 c0 63 33 89 bf
       -0.07470511 -0.496853 -2.7532434 -1.0718807
000140 90 7c 06 bf b5 6b 79 be dc 07 05 c0 eb 2f 82 be
       -0.5253382 -0.24357493 -2.0786047 -0.25427184
000150 4d 2d 02 3f 46 38 2e 3d 96 14 a0 bf 53 53 94 be
       0.50850374 0.042534135 -1.2506282 -0.2896982
000160 9c 7d 66 3d d1 5e 8f be a2 02 b1 bd bd f9 f9 bc
       0.056272134 -0.28002027 -0.0864308 -0.030514592
000170 ab 30 84 3e 84 e8 b2 bd f4 ae 67 bf 4e 83 00 be
       0.2581838 -0.08735755 -0.9050133 -0.12550089
000180 d4 cb 3d 3e 87 0e 24 be 39 f2 19 c0 53 b4 fa be
       0.18534786 -0.16021167 -2.405409 -0.489657
000190 c3 35 15 3e 96 d0 43 3f d6 94 15 be 87 c7 3f bd
       0.1457129 0.7649015 -0.14607558 -0.046821143
0001a0 63 75 3e bf 6c 44 78 be 9a 1d 86 bf 6d b6 f4 be
       -0.7439787 -0.24244851 -1.0477784 -0.4779543
0001b0 a5 79 16 3f 7d 93 9c 3e ca b4 56 3f bf 92 df 3e
       0.58779365 0.30581275 0.8386961 0.43666646
0001c0 d9 23 92 3c 5b c3 eb 3c 29 ab 64 3e 7b 69 e9 be
       0.01783936 0.028779676 0.22330917 -0.45588288
0001d0 c0 e7 f2 be 56 a4 b1 bd 8e 21 63 be 6c 30 5c be
       -0.47442436 -0.08673923 -0.22180769 -0.21502846
0001e0 2f dc b4 3d 23 10 77 bd 7e 2c f3 be 7a e8 8a 3d
       0.08831059 -0.060318124 -0.47494882 0.06782623
0001f0 b7 4e f2 be 9f 22 ce be 1e 7e fc bf 7d dc 12 bf
       -0.4732568 -0.4026079 -1.9725988 -0.5736769
000200 88 20 00 bf 95 45 f4 be 28 b3 16 bf f8 5a 14 bf
       -0.5004964 -0.47709337 -0.5886712 -0.5795131
000210 6e 85 e4 be 2a 3e ae be 66 ec 81 bf 30 5c a3 be
       -0.4463305 -0.34031802 -1.0150268 -0.3190627
000220 bd bb 03 bf 3e 9a db be 9d c4 c1 3e e3 52 86 be
       -0.5145834 -0.42891115 0.37845317 -0.26235113
000230 73 7f fc 3d fb ab 0f 3e cb 0c 35 3e b7 3b 54 be
       0.123289965 0.14030449 0.17680661 -0.20725904
000240 b7 d3 c7 be a5 3c 3f bf 48 a4 a9 bf c6 68 02 bf
       -0.39028713 -0.7470191 -1.325326 -0.5094112
000250 d7 75 4f be 6c 35 08 bf 32 ea 37 bf 22 ba 85 be
       -0.20259796 -0.53206515 -0.7184173 -0.2611857
000260 d6 4b 8b 3d 29 f8 9a be 62 4e 0e c0 01 c5 b6 be
       0.06801574 -0.30267456 -2.223534 -0.35697177
000270 18 53 94 3e be ec 04 bf 6d 55 cf be 68 40 73 be
       0.28969646 -0.5192374 -0.40494862 -0.23755038
000280 a7 00 b5 bd e2 f8 e2 be 12 05 6e c0 a1 49 9a bf
       -0.08838015 -0.44330508 -3.7190595 -1.205372
000290 81 b0 f4 be 95 15 8e be 78 82 80 bf a8 a2 86 be
       -0.47790912 -0.2775084 -1.0039816 -0.26295972
0002a0 84 a1 c9 bf 16 4f 84 bd e3 43 87 3e 78 00 84 3d
       -1.5752416 -0.06460397 0.2641898 0.06445402
0002b0 ee fe 10 3e 47 88 8c 3e 16 51 ed 3d 7b 55 23 3f
       0.14159748 0.2744772 0.115877315 0.6380231
0002c0 87 d9 2d be d3 cd db be 13 c1 da 3d 67 e1 b0 be
       -0.16977511 -0.4293047 0.10681357 -0.34546968
0002d0 5f c8 f4 be 45 5d 01 bf 26 bb 29 3f 68 9a 9e be
       -0.4780912 -0.50532943 0.6630119 -0.30977178
0002e0 34 d7 f6 3e 0c c7 8c 3e 17 e5 9c be d8 13 43 3e
       0.48211062 0.2749561 -0.30643532 0.19050539
0002f0 65 af f8 be 8b 29 40 3d ab 17 1a 3f 7c 7f a9 3c
       -0.48571315 0.04691462 0.60192364 0.020690672
000300 2e 6e 37 bf b5 e3 91 be 7f ac e4 be ac 51 22 be
       -0.71652496 -0.2849404 -0.44662854 -0.15851468
000310 90 98 66 be b0 e2 06 3e dc 96 fa be 59 0e d7 3c
       -0.22519135 0.13172412 -0.48943222 0.026251959
000320 f3 48 af 3e 42 3a 0f bd b5 2d c5 bf 3b b1 51 be
       0.34235343 -0.03496767 -1.5404574 -0.20477764
000330 30 0e 97 be a4 76 7a 3e 90 3b ab be da d4 db 3e
       -0.29503012 0.2445932 -0.3344388 0.4293583
000340 66 0f 25 3e 3a 45 94 3d 35 00 91 bd 55 a6 d6 bd
       0.16119155 0.072397664 -0.070801176 -0.10480944
000350 7a fe 77 bd fc fb 65 be e9 37 8c be aa 66 40 bd
       -0.060545422 -0.22459406 -0.27386406 -0.046972908
000360 67 07 b6 be 5b 90 04 bf 62 0b 22 c0 00 5c e2 be
       -0.35552523 -0.5178277 -2.5319448 -0.44210815
000370 4d 4a 93 bc 56 bb d8 3e f6 dc 73 3f 7f ff 07 3f
       -0.017979765 0.42330426 0.95259035 0.5312423
000380 b3 26 af be 53 73 38 3e ad 79 eb be d2 6b df 3c
       -0.34209213 0.18012743 -0.4599127 0.027273092
000390 86 f0 66 be 70 c5 40 3d c3 a4 b3 bd cc 8e 96 3e
       -0.2255269 0.04706329 -0.0877166 0.2940582
0003a0 a1 89 1c 3e 2c 5f fd bc b8 34 d5 3d 66 e6 af be
       0.15286876 -0.03092917 0.10410446 -0.34355468
0003b0 60 06 18 3e cd 71 86 be 09 20 5c 3f a7 fd 1e 3f
       0.14846182 -0.26258698 0.8598638 0.6210579
0003c0 2a d7 c0 bc 40 62 a8 3e 1f 55 93 be 1d d1 d2 ba
       -0.023540098 0.3288746 -0.2877588 -0.0016084049
0003d0 5e ee 96 3e 35 71 19 bf 34 e6 c8 3d 5b 9b b4 be
       0.29478735 -0.59938365 0.09809533 -0.35274777
0003e0 0f e3 de bd 92 ce 7c be 65 d8 ff be c0 7d 97 3d
       -0.10883152 -0.24688175 -0.49969783 0.07397032
0003f0 c8 5f 88 3e c9 02 e0 be 0c 7a a8 bd f1 15 da bd
       0.26635575 -0.43752125 -0.082264036 -0.10648716

linear.bias f4 [512]
000000 ed 32 df be ec 8b ba 3d 9f ed fc be f5 7d 43 3f
       -0.4359354 0.09108719 -0.4940004 0.7636407
000010 0b 19 81 3f 95 a3 2d bf 75 31 81 bf ee 52 7a be
       1.0085768 -0.6782773 -1.0093218 -0.24445698
000020 36 ee 81 3f 5b 24 6e 3f d8 4d f3 3e 56 95 4f 3f
       1.0150821 0.93024224 0.47520328 0.81087244
000030 95 24 3c 3f 2c 25 48 3f 72 aa 6d 3e 17 ae 12 3f
       0.7349332 0.7818172 0.23209551 0.5729689
000040 04 4a 00 3f 05 f1 8e 3f e9 f8 1d bf 7f 27 a7 be
       0.5011294 1.1167303 -0.6170793 -0.3264732
000050 69 a2 7e bf f5 58 7d bf a3 74 02 3f 1f 54 6f 3f
       -0.9946657 -0.9896386 0.50959224 0.93487734
000060 83 0c fa be af ed 6e 3f f3 2e 38 3f 5e f5 49 be
       -0.4883767 0.93331426 0.7194664 -0.19722506
000070 e8 51 85 3f 07 b1 4e bf 8d af 26 3f 8a 6b 0d be
       1.0415621 -0.8073887 0.6511162 -0.13810554
000080 81 7d a1 be 5f 99 76 bf 20 d5 87 bf cd d8 88 3f
       -0.31541064 -0.96327776 -1.0611916 1.0691162
000090 15 c3 a8 3e e3 31 26 3f 06 13 45 bf 9e 8a 59 3f
       0.32961336 0.6491987 -0.7698215 0.8497714
0000a0 b6 d6 1e 3f 11 dd 75 bf c4 51 db 3e ad 19 52 3f
       0.6204637 -0.96040446 0.4283582 0.8207043
0000b0 f7 e0 67 3f e4 64 7e bf a0 14 2a bf 2a 6a 78 bf
       0.90577644 -0.99372697 -0.6643772 -0.97036994
0000c0 50 9d 1e 3f 38 80 24 3f 9d d0 3b bf 96 d4 6e 3f
       0.6195879 0.64258146 -0.73365194 0.9329313
0000d0 ad 59 06 bf 85 34 02 3f 31 54 47 bf 94 4b 2d 3f
       -0.52480584 0.5086139 -0.7786284 0.6769345
0000e0 c1 10 72 3f 37 77 4f 3f 36 3c 78 3f fd 7f f8 3d
       0.94556814 0.8104128 0.96966875 0.12133787
0000f0 99 94 72 3f 67 61 58 3f 69 c6 0a 3f 53 19 8d 3e
       0.9475799 0.84523624 0.54209 0.27558383
000100 8a 06 54 3f a1 08 5a 3f 9b c5 0b 3f 94 53 5f bf
       0.8282248 0.85169417 0.54598397 -0.87236905
000110 ab 23 44 bf bb c1 86 3f 6f ac 64 3f 80 da 11 3f
       -0.76616925 1.0527872 0.8932561 0.5697403
000120 4b c2 6c bf b4 0d 46 3f 56 43 24 bf 2b 93 19 3e
       -0.9248397 0.7736466 -0.64165246 0.14997546
000130 55 f8 77 bf 25 8b 45 3f 30 e5 78 3f 81 5b eb 3e
       -0.968633 0.7716544 0.9722471 0.4596825
000140 08 ef 5f 3f aa 29 0e 3f fd 2b 36 3f d9 9c fe bc
       0.8747411 0.55532324 0.7116087 -0.03108065
000150 08 c0 18 bf ef 85 e4 3e 76 9d 2f 3f 2c 99 36 3f
       -0.59668016 0.44633433 0.6859964 0.7132747
000160 62 c5 59 3f 6b 31 03 bf ae 7c 6c 3f cf 47 8b 3f
       0.8506681 -0.5124728 0.92377746 1.0881289
000170 25 43 8a bf 4f 9f 75 3f c4 db 5e bf 98 83 7e bf
       -1.0801741 0.9594621 -0.87054086 -0.99419546
000180 49 ff 8e be ca 59 f6 3e 81 68 26 3f 9f 15 0d 3f
       -0.27929142 0.4811538 0.6500321 0.55111116
000190 08 55 24 bf 36 cf bc 3e 29 81 65 3f f1 63 78 3f
       -0.6419225 0.3687684 0.8965021 0.970275
0001a0 fe c5 bd 3e e0 6a 0f 3f 17 0c 4d 3f 05 e5 e2 be
       0.3706512 0.56022453 0.8009657 -0.44315353
0001b0 5e 48 53 3f cc 10 2f bf cc ef dc 3e a2 39 0d 3f
       0.825323 -0.68385005 0.431517 0.55166066
0001c0 fe 7a 55 3f 0f 7c 0f 3f e2 a5 5b bf 4d 4e 29 3f
       0.83390796 0.56048673 -0.8579999 0.661351
0001d0 84 37 70 bf 41 e7 94 bf 4e 6f 5b 3f 6e f8 fa 3e
       -0.9383471 -1.1633073 0.8571671 0.49017662
0001e0 2f 13 75 bf e6 81 65 3f 45 37 50 bf 21 82 6d be
       -0.95732397 0.89651334 -0.81334335 -0.23194171
0001f0 2f 1f 8e 3f 17 95 21 3f d2 c3 c1 be 0d 0c 3f 3f
       1.1103266 0.6311812 -0.37844712 0.74627763
000200 45 9c 45 3f 44 9d 30 bf 08 9b 26 3f 4e 62 c0 bb
       0.77191573 -0.6898997 0.6508031 -0.005871094
000210 3f 1d 83 3e 41 08 fc 3e cc 54 48 3f 59 bb 0a 3e
       0.2560825 0.49225047 0.7825439 0.1354803
000220 29 c3 82 3f 3e ba 90 3f 73 a3 3a 3f e3 63 1c 3f
       1.0215808 1.1306837 0.72905654 0.61089915
000230 9e ae 3e 3f 05 03 0d 3f eb 34 3f bf 82 73 48 bf
       0.74485195 0.5508273 -0.7469012 -0.7830125
000240 2f df 22 bf 4b 3c cd be 99 ae bd 3e af 90 84 3f
       -0.636218 -0.40085062 0.3704727 1.0356654
000250 3e 1d e3 3e e9 99 80 bf df 23 11 bf 93 9d f3 be
       0.44358248 -1.004697 -0.5669536 -0.47581157
000260 5d b4 5c 3f 45 d3 8c bf 90 3b 6a 3f 97 11 88 3f
       0.8621271 -1.1001974 0.91497135 1.0630368
000270 35 4c 6d bf 96 59 51 3f b4 dc 03 bf b2 65 3e bf
       -0.9269441 0.8177732 -0.5150864 -0.74373925
000280 2c 87 93 be 87 92 fd 3e b5 d4 01 3f 84 b5 5e 3f
       -0.28814065 0.49525854 0.5071519 0.8699572
000290 ac ac 7c 3f 2e 66 4f be dd 24 6f 3f dd c5 59 3f
       0.98700976 -0.20253822 0.93415624 0.8506754
0002a0 cc c7 55 3f c8 30 22 bf d1 45 bb be 77 da 6a bf
       0.8350799 -0.63355684 -0.36576703 -0.917396
0002b0 49 bc 76 3f db f9 9b bf 65 d0 98 bd 98 d3 2d 3e
       0.9638105 -1.2185625 -0.07461623 0.16975248
0002c0 33 2f 08 bf fb 22 54 bf ef 5c 6e 3f f7 fa 66 3d
       -0.5319702 -0.82865876 0.93110555 0.056391682
0002d0 13 f6 89 3f df 8f 49 bf f7 36 17 3f b0 af e2 3b
       1.0778221 -0.78735155 0.59068245 0.0069179162
0002e0 18 79 1c 3f 09 f8 cb bd 4b 9d a5 bf ff d1 43 3f
       0.61122274 -0.09959418 -1.2938627 0.76492304
0002f0 dc ea 68 3f e1 ca 6d 3f cb 79 79 3f 6e 23 25 3f
       0.90983367 0.92887694 0.97451466 0.64507186
000300 53 25 53 bf ab 83 74 bf e0 9c cf be 85 8f 04 bd
       -0.8247883 -0.9551341 -0.40549374 -0.032363433
000310 52 c5 bc be 6e 7f 42 3f 5a 92 54 3f ca 99 06 3f
       -0.36869293 0.7597569 0.83035815 0.52578413
000320 85 8d 42 3f d1 97 92 bf 8f 08 29 3f 9f 7e 63 3f
       0.7599719 -1.1452581 0.66028684 0.88865083
000330 50 2a 68 3f da 03 81 3f e2 4f 5c 3f 23 04 2f 3e
       0.90689564 1.00793 0.8605939 0.17091422
000340 e6 8e 4a 3f 77 28 f8 3e c0 3f 33 3f 2f 06 80 3f
       0.79124296 0.48468372 0.7001915 1.0001887
000350 12 68 ab bd 65 23 ae be 5d 9c 62 3f d7 59 7e 3f
       -0.08369459 -0.3401138 0.8851984 0.99355835
000360 c1 96 62 3f 36 bf cb be 81 5e 30 3f ed d5 34 3f
       0.8851128 -0.3979432 0.688942 0.70638925
000370 c3 3e 65 bf 3c 84 40 bf e4 47 7b 3f cc a2 57 3f
       -0.8954889 -0.75201774 0.9815657 0.84232783
000380 d4 21 30 3f a4 8f 68 3f d1 5b 15 3e be 56 4b 3f
       0.6880162 0.9084418 0.14585806 0.79429233
000390 05 bd 70 3d 2d a6 28 bf 45 6c 1b 3f c3 20 4d 3f
       0.058774013 -0.65878564 0.6071208 0.80128115
0003a0 a2 e4 81 3f f9 82 74 bf 18 4f ba be 96 2a 07 3f
       1.0147898 -0.9551235 -0.3638847 0.52799356
0003b0 f3 c1 4b 3f 07 2e be be 9a bc a2 bf 2c 42 13 3f
       0.7959282 -0.3714449 -1.2713807 0.57522845
0003c0 f6 e4 4a bf d0 66 83 bf 8b ad 4d 3f b7 5a d0 3e
       -0.79255617 -1.0265751 0.8034293 0.4069421
0003d0 c4 6b 2e 3f 3e c3 21 3f b9 46 34 3f 33 96 3a be
       0.6813319 0.6318854 0.70420414 -0.18221359
0003e0 d4 f4 17 3f e5 ff 2f 3f 6c 75 45 3f b6 1f 4c bf
       0.59357953 0.6874984 0.77132297 -0.7973589
0003f0 1a ff 63 bf 47 82 5e bf 0e fb 84 3d 5a 1b 62 3f
       -0.8906113 -0.8691754 0.064931974 0.88322985

linear2.weight f4 [2, 512]
000000 fb 8d fd bf 1d 0c 0e c0 55 8e 59 3e 52 f2 97 3e
       -1.9808954 -2.2194893 0.21245702 0.29677063
000010 d8 c9 29 3f 03 a2 e3 bf 18 fb 3c bf 34 46 00 3f
       0.66323614 -1.7783817 -0.7382064 0.5010712
000020 c3 38 fe 3e e0 5b 0a 3f a8 89 8e bf e3 6f 78 3e
       0.4965268 0.5404644 -1.1135759 0.24261431
000030 c2 fc 57 3e 5d ad 28 3f fb 48 33 3e 66 50 67 3f
       0.21092513 0.6588953 0.17508309 0.90357053
000040 e4 2a 8c be 28 a5 2d 3f 5d 30 ae 3e db b2 b0 3f
       -0.27376473 0.67830133 0.34021273 1.3804582
000050 2f 65 99 bf 21 d6 0b bf cf 70 29 3e 34 78 2c 3f
       -1.1984004 -0.5462361 0.1654694 0.67370915
000060 f6 9d 05 bf 4e 37 0d 3f d7 50 35 3f 8e 9c a6 bf
       -0.52194154 0.55162513 0.70826477 -1.3016527
000070 a3 36 2d 3f dc 51 88 bf 04 18 ab 3e 9b 25 46 be
       0.67661494 -1.0649981 0.3341676 -0.19350283
000080 13 ff 02 bf 8e 88 bd bf 59 27 05 c0 7a 7d 18 3f
       -0.5117046 -1.4807298 -2.0805266 0.5956646
000090 db 01 5d 3f 28 d5 04 3f c7 49 47 3f 9b c3 9e 3e
       0.86330956 0.5188775 0.7784695 0.3100861
0000a0 09 90 ae bf 9a 7b a2 bf 15 9d 76 3f 50 18 00 bf
       -1.3637706 -1.269397 0.9633344 -0.500371
0000b0 b6 0f ce 3e 03 e7 03 c0 61 dc 0a bf a1 95 04 c0
       0.40246361 -2.0609748 -0.5424252 -2.0716326
0000c0 c2 41 50 3f 25 03 0b 3f e8 c1 38 bf 27 8e 92 3e
       0.8135034 0.54301673 -0.7217088 0.2862408
0000d0 a8 ed f2 bd 9e ed 8e 3e 78 15 9b bf 99 62 e0 be
       -0.118617356 0.27915663 -1.2115927 -0.43825224
0000e0 f7 89 ef 3e 91 fd 52 3e 87 c2 46 3f 42 9e 97 3f
       0.46784946 0.2060454 0.77640575 1.1845171
0000f0 3f b1 1e 3f db cc 9d 3e 33 2b b0 3e 75 e5 36 3e
       0.61989206 0.30820355 0.34407958 0.17860968
000100 ed 69 2d 3f c2 81 3f 3e 52 46 99 3e 09 55 39 bf
       0.67739755 0.18701842 0.29936463 -0.7239538
000110 52 90 a5 bf 36 9c 2b bf 90 d6 6d 3e fd 6f 0b 3f
       -1.2934668 -0.67035234 0.2322638 0.54467756
000120 ab 1c 82 bf 59 37 0e 3f 2a 9f b7 be be d9 17 3f
       -1.0164999 0.55553204 -0.3586362 0.59316623
000130 d9 06 9f bf c5 40 19 3f 1b 6a 85 3e 9b 18 cc 3e
       -1.2423965 0.59864455 0.26057515 0.39862522
000140 4c 4c 05 3f 0e 01 8f bf e9 a2 d5 bf 51 e5 69 3f
       0.52069545 -1.1172197 -1.6690341 0.91365534
000150 c7 ba 6d bf 94 12 63 3f 8a 70 97 bf 87 54 80 3e
       -0.92863125 0.8870022 -1.1831219 0.2506449
000160 d1 c0 a0 3e 8c c8 91 3f ae f7 81 3e 34 be 47 3f
       0.31397107 1.1389327 0.25384277 0.780246
000170 7c 68 0c bf a2 3c cf 3e 3a ab b7 bf ed 62 b7 bf
       -0.5484693 0.40475947 -1.4349129 -1.4327065
000180 3f d8 39 be e9 a5 95 bf 60 93 83 3e 23 6f 18 3f
       -0.18148898 -1.1691257 0.25698376 0.5954458
000190 1b 9b ac bf 05 bf 0f 3f 27 b5 07 3f 23 d0 1c 3f
       -1.3484834 0.5615085 0.5301079 0.6125509
0001a0 c5 7f e5 3e 8d 87 80 3e 1b 5e ba 3e 79 df b5 be
       0.44824043 0.25103417 0.36399922 -0.3552206
0001b0 ae 20 dc 3e 07 59 95 bf 2e 59 09 bf 55 7f 6f be
       0.42993683 -1.1667794 -0.536517 -0.23388417
0001c0 29 5d 81 3e 69 75 4e 3f bb a0 17 bf c6 c2 48 3f
       0.25266388 0.80647904 -0.5922963 0.784222
0001d0 93 1c e1 bf bb a4 03 c0 f3 b1 1a 3f fc 6f a2 3e
       -1.7586845 -2.0569293 0.6042778 0.31726062
0001e0 f4 9c 24 bf ec ab 14 3f 55 4b 2a bf 88 86 a5 bf
       -0.6430199 0.5807483 -0.665212 -1.2931681
0001f0 fc 9c 9b bf 23 01 72 3e 89 36 2b bf fc 45 90 3e
       -1.2157283 0.23633246 -0.6688009 0.28178394
000200 72 e9 a2 3e 9a 4d 12 c0 82 ba 4a bf 6f 2e 90 be
       0.3181873 -2.2859864 -0.7919084 -0.28160426
000210 2c 42 27 bf 77 38 3c 3f 3a 8d af 3e 84 34 c2 bf
       -0.65335345 0.7352366 0.34287435 -1.5172276
000220 1e 67 6f bf 7d 65 1b 3f 2a 53 9d 3e 37 26 26 3f
       -0.9351672 0.60701734 0.30727512 0.6490206
000230 22 6c 86 3e 97 25 07 bf 17 90 32 bf 6f 6d fa 3e
       0.26254374 -0.5279173 -0.69751114 0.48911616
000240 3a 71 7d 3f df 21 3b bf 79 0a 7d 3e 00 8f 51 3f
       0.99000895 -0.7309856 0.24711026 0.81858826
000250 66 fa 0b bb 87 bb ba bf 57 6f cd be a1 cd cf bf
       -0.0021358966 -1.4588479 -0.40124008 -1.6234628
000260 2e 0c 1f 3f 9f d5 e6 bf 77 71 d7 3e dc d5 18 3f
       0.6212796 -1.8033942 0.42078754 0.59701324
000270 6b 3e 7d bf e9 87 86 3e a8 41 1b bc b6 a6 e5 bd
       -0.9892337 0.26275566 -0.009476103 -0.11213438
000280 4b bd 1d bf ac f0 87 bf 26 bc 18 3f 16 32 bb bf
       -0.61616963 -1.0620322 0.5966209 -1.462466
000290 a5 33 20 3f 48 7b 1f bf b7 61 c9 3e a7 85 0b 3f
       0.62578803 -0.6229749 0.39332363 0.5450081
0002a0 d0 7b 5d 3e 93 cd 14 bf f0 3a 16 be 4a 17 da bf
       0.21629262 -0.5812618 -0.1467092 -1.7038357
0002b0 f9 f1 21 3f d3 7e ae bf 12 67 31 bf 78 51 6d 3f
       0.63259846 -1.3632454 -0.692979 0.92702436
0002c0 cd 4b e0 bf c7 65 b5 bf 82 ed bd 3e 9a 92 d2 bf
       -1.7523133 -1.4171685 0.37095267 -1.6450989
0002d0 47 47 ea 3e 1f 0c 1e bf d7 20 02 3f 19 bd 91 bf
       0.45757505 -0.61737245 0.5083136 -1.1385833
0002e0 a7 31 de 3e 9b 2a f0 be 2b a7 52 bf be 4a a8 3e
       0.43397257 -0.46907505 -0.8228633 0.32869524
0002f0 50 1d db 3e cd d2 40 3f 37 f3 9e 3e 85 04 27 3e
       0.427958 0.75321656 0.31044933 0.16310318
000300 43 29 a5 bf f8 b0 00 c0 69 65 a5 bf a7 ad 80 3f
       -1.2903217 -2.0108013 -1.2921573 1.0052994
000310 0d 6d 61 bf e4 f4 a1 3e 89 d2 5b bf ba e3 11 3f
       -0.88057023 0.3163215 -0.85868126 0.5698811
000320 28 e2 44 bf 82 22 aa bf 77 47 3b 3f 4d 00 5d 3e
       -0.7690759 -1.3291781 0.7315592 0.21582146
000330 17 1a 19 3f 01 c8 98 3e 6c e6 8c bf 41 60 ea 3e
       0.59805435 0.2984009 -1.1007819 0.4577656
000340 ab 43 96 3e 2e e0 c8 be c6 6a 8d bf fd cc 96 3e
       0.29348502 -0.39233536 -1.104821 0.2945327
000350 93 59 b1 bf 44 7c b6 bc 1e 69 d5 3e 5b 6e 2b 3f
       -1.3855461 -0.022276051 0.4168176 0.66965264
000360 42 78 a9 3e 66 ee 95 bf e7 62 a6 3e 73 72 20 3f
       0.33099562 -1.1713378 0.32497332 0.62674636
000370 60 e2 94 bf 79 7a ad bf 9b f4 cb 3e 95 be 10 3f
       -1.1631584 -1.3553001 0.39835057 0.56540805
000380 02 58 8f 3e 49 88 18 3f 6e 2a 9d 3f e5 53 99 3e
       0.27996832 0.59582955 1.2278574 0.2994682
000390 c3 96 f3 bf ab 48 26 be d8 23 b0 3e 07 d1 ea 3e
       -1.9030384 -0.16238658 0.34402347 0.458626
0003a0 f6 2e 3c 3f 9f cb a6 bf 3a 26 3e bf 93 a3 8c 3e
       0.73509157 -1.303089 -0.7427708 0.27468547
0003b0 f8 b0 31 3f 35 29 62 3f c4 97 72 bf 90 c7 84 3e
       0.6941066 0.88344127 -0.94762826 0.25933504
0003c0 e9 91 d1 bf cb e3 84 bf 83 e5 27 3f 52 f4 94 3f
       -1.6372653 -1.0382017 0.6558458 1.1637061
0003d0 70 c6 cd 3e 86 d0 b2 3e 48 ca a8 3e a7 11 9d bf
       0.40190458 0.34924716 0.32966828 -1.2271012
0003e0 fa cc 84 3e c2 46 eb 3e eb e0 d2 3e ae 7c 09 c0
       0.25937635 0.4595242 0.41187224 -2.1482348
0003f0 2d b3 46 bf 0d 10 8f bf 13 fa 5c be 4e af 96 3e
       -0.7761715 -1.1176773 -0.2157977 0.29430622

linear2.bias f4 [2]
000000 47 e4 8b 3e 10 d6 92 3e
       0.273226 0.28678942
