code/log/dqn/ckpt/596000.pth (torch, 15775 bytes, 4 tensors)

linear.weight f4 [512, 4]
-0.055710055 -0.25005794 -2.818682 -0.43893766 0.5126095 0.22210455 1.2064734 0.20101784
0.5698294 0.15046677 -0.39457962 0.08063834 -0.27228647 0.015854137 -0.2735913 0.014659783
0.2534835 0.24391687 -0.5797816 -0.019444846 0.45410794 0.79363495 2.4596086 0.65341127
0.5976202 0.20455593 -0.1670706 0.15503615 -0.089833274 0.7141925 1.8704624 0.7207897
-0.2732125 -0.23194852 -0.40828276 -0.28519082 -0.2477272 0.5557623 -0.038349543 0.06923948
0.8561494 -0.37612265 -1.8513116 -0.5915455 -0.2190908 -0.10104462 0.057099987 0.20114343
-0.22269848 0.051240485 -0.02049244 0.24403252 0.17287892 -0.12965731 -0.05659195 -0.19570537
-0.7467414 -0.87455946 -1.4150221 -0.31293362 0.5345515 0.6534088 0.8558136 0.5700921
0.11229512 -0.09650494 -1.4686487 -0.6369663 0.117422 0.24895976 -0.70916855 0.01674025
0.22803247 -0.22680433 1.9061632 1.2162381 -0.043784592 -0.47028503 -2.8632083 -0.9442174
-0.5253382 -0.24357493 -2.0786047 -0.25427184 0.5227844 0.08159576 -1.1976773 -0.21265957
0.051624656 -0.29283372 -0.116130695 -0.037031557 0.2531969 -0.10014286 -0.9374043 -0.12915625
0.1205597 -0.20439199 -2.3529446 -0.4489155 0.14106083 0.7518414 -0.17719537 -0.051948532
-0.7357033 -0.285458 -0.92179644 -0.40163422 0.594866 0.3396991 0.8916491 0.38058507
0.012226818 0.019454101 0.19238807 -0.45083606 -0.47442436 -0.08673923 -0.22180769 -0.21502846
0.08380924 -0.07328932 -0.50510323 0.061749496 -0.47281662 -0.40646243 -1.9717326 -0.57040024
-0.5004964 -0.47709337 -0.5886712 -0.5795131 -0.4463305 -0.34031802 -1.0150268 -0.3190627
-0.5145834 -0.42891115 0.37845317 -0.26235113 0.11843023 0.12740481 0.14489406 -0.21153998
-0.38465023 -0.74423337 -1.4646732 -0.54225457 -0.15354905 -0.45089516 -0.66768354 -0.28214878
0.06801574 -0.30267456 -2.223534 -0.35697177 0.28507662 -0.5321708 -0.43538105 -0.24335313
-0.13705757 -0.5634503 -3.7360497 -1.1202934 -0.47790912 -0.2775084 -1.0039816 -0.26295972
-1.6107467 -0.10273667 0.47761703 0.08587985 0.14606357 0.28717682 0.14819594 0.64184976
-0.17437373 -0.44209075 0.07588995 -0.3508191 -0.4780912 -0.50532943 0.6630119 -0.30977178
0.4332601 0.3171796 -0.21465078 0.19663924 -0.48571315 0.04691462 0.60192364 0.020690672
-0.66621757 -0.3284912 -0.4598252 -0.2351976 -0.23029506 0.11913755 -0.52226985 0.023224194
0.34235343 -0.03496767 -1.5404574 -0.20477764 -0.29952788 0.23169196 -0.36472452 0.4232587
0.16119155 0.072397664 -0.070801176 -0.10480944 -0.06502759 -0.23737569 -0.30398044 -0.053107616
-0.35552523 -0.5178277 -2.5319448 -0.44210815 -0.013193949 0.4354311 0.9860692 0.532695
-0.34675357 0.16727063 -0.4912134 0.022276005 -0.22970112 0.03427874 -0.11648639 0.28675586
0.14720075 -0.040938396 0.071891636 -0.33959103 0.13094223 -0.24667421 0.9470572 0.60656536
-0.028566642 0.3160748 -0.3202684 -0.0051267 0.29015574 -0.61231244 0.06762845 -0.3585186
-0.11193625 -0.25743133 -0.5287318 0.064914286 0.26246348 -0.45009306 -0.10920909 -0.114978604
00000000: 3a30 64bd 9807 80be 4965 34c0 70bc e0be
00000010: 603a 033f 606f 633e b86d 9a3f 9fd7 4d3e
00000020: 57e0 113f f613 1a3e 5706 cabe b725 a53d
00000030: 2269 8bbe 89e0 813c 2914 8cbe 962f 703c
00000040: 97c8 813e 58c5 793e 916c 14bf cc4a 9fbc
00000050: d680 e83e a92b 4b3f 3a6a 1d40 f645 273f
00000060: a3fd 183f 1c77 513e 8e14 2bbe ccc1 1e3e
00000070: 82fa b7bd 52d5 363f 506b ef3f ac85 383f
00000080: 82e2 8bbe ea83 6dbe 700a d1be 8804 92be
00000090: 33ac 7dbe 7046 0e3f 6914 1dbd 6ecd 8d3d
000000a0: 9b2c 5b3f 2693 c0be c7f7 ecbf 876f 17bf
000000b0: 5759 60be 7bf0 cebd ade1 693d 8bf8 4d3e
000000c0: 120b 64be 8be1 513d c3df a7bc a9e3 793e
000000d0: 2c07 313e e3c4 04be f6cc 67bd fd66 48be
000000e0: 722a 3fbf 21e3 5fbf 721f b5bf d638 a0be
000000f0: 5ed8 083f cd45 273f 9a16 5b3f 8ef1 113f
00000100: fcfa e53d 62a4 c5bd aefc bbbf 3910 23bf
00000110: f27a f03d 4fef 7e3e 128c 35bf d922 893c
00000120: 5881 693e 653f 68be 28fd f33f b1ad 9b3f
00000130: 7957 33bd 33c9 f0be ce3e 37c0 3bb8 71bf
00000140: 907c 06bf b56b 79be dc07 05c0 eb2f 82be
00000150: 33d5 053f ae1b a73d 7d4d 99bf 6ec3 59be
00000160: 6074 533d 4dee 95be eed5 edbd 67ae 17bd
00000170: 06a3 813e b317 cdbd baf9 6fbf 8941 04be
00000180: 01e8 f63d 224c 51be a596 16c0 41d8 e5be
00000190: 4072 103e ae78 403f b472 35be fcc7 54bd
000001a0: 0d57 3cbf 8d27 92be dafa 6bbf 00a3 cdbe
000001b0: 2349 183f 0aed ad3e 1e43 643f 0cdc c23e
000001c0: fe52 483c 355e 9f3c 6101 453e fcd3 e6be
000001d0: c0e7 f2be 56a4 b1bd 8e21 63be 6c30 5cbe
000001e0: 2ea4 ab3d b618 96bd 724e 01bf 0aed 7c3d
000001f0: 0515 f2be d81b d0be bc61 fcbf c005 12bf
00000200: 8820 00bf 9545 f4be 28b3 16bf f85a 14bf
00000210: 6e85 e4be 2a3e aebe 66ec 81bf 305c a3be
00000220: bdbb 03bf 3e9a dbbe 9dc4 c13e e352 86be
00000230: 8c8b f23d 6876 023e 1c5f 143e f09d 58be
00000240: e0f0 c4be 1486 3ebf 697a bbbf 32d1 0abf
00000250: f63b 1dbe bbdb e6be 4fed 2abf ce75 90be
00000260: d64b 8b3d 29f8 9abe 624e 0ec0 01c5 b6be
00000270: 90f5 913e 583c 08bf 44ea debe 9031 79be
00000280: d258 0cbe 473e 10bf 701b 6fc0 c665 8fbf
00000290: 81b0 f4be 9515 8ebe 7882 80bf a8a2 86be
000002a0: f32c cebf 9a67 d2bd 388a f43e c6e1 af3d
000002b0: b091 153e d708 933e adc0 173e 4450 243f
000002c0: 078f 32be b859 e2be 316c 9b3d 909e b3be
000002d0: 5fc8 f4be 455d 01bf 26bb 293f 689a 9ebe
000002e0: 45d4 dd3e 5d65 a23e 6acd 5bbe cc5b 493e
000002f0: 65af f8be 8b29 403d ab17 1a3f 7c7f a93c
00000300: 3c8d 2abf 0030 a8be 356e ebbe a4d7 70be
00000310: 78d2 6bbe 63fe f33d 7ab3 05bf aa40 be3c
00000320: f348 af3e 423a 0fbd b52d c5bf 3bb1 51be
00000330: b85b 99be a840 6d3e 2cbd babe 5db5 d83e
00000340: 660f 253e 3a45 943d 3500 91bd 55a6 d6bd
00000350: 2f2d 85bd 9d12 73be 53a3 9bbe 5f87 59bd
00000360: 6707 b6be 5b90 04bf 620b 22c0 005c e2be
00000370: 6f2b 58bc d3f0 de3e 086f 7c3f b35e 083f
00000380: af89 b1be fe48 2b3e 5380 fbbe 2b7c b63c
00000390: c536 6bbe dd67 0c3d 6b90 eebd aad1 923e
000003a0: cbbb 163e 05af 27bd ec3b 933d e0de adbe
000003b0: b815 063e 2a98 7cbe 5772 723f de47 1b3f
000003c0: 9704 eabc 8ed4 a13e 38fa a3be e0fd a7bb
000003d0: 4b8f 943e 82c0 1cbf c980 8a3d c08f b7be
000003e0: d53e e5bd 0ace 83be f85a 07bf c8f1 843d
000003f0: 9d61 863e 9972 e6be 04a9 dfbd e779 ebbd

linear.bias f4 [512]
-0.4359354 0.08920949 -0.4747412 0.76515955 1.0102875 -0.84570193 -1.0466373 -0.2959097
1.0168003 0.93197227 0.4730725 0.8123442 0.73628986 0.7836202 0.17830777 0.57486963
0.49718928 1.1185317 -0.5837574 -0.37486124 -0.9946657 -0.99552536 0.51078594 0.9366892
-0.56363875 0.9351219 0.73282635 -0.19518727 1.0427706 -0.8073887 0.6527406 -0.15438324
-0.31541064 -0.96327776 -1.0611916 1.0709052 0.31561282 0.6704193 -0.7698215 0.8513514
0.6074763 -0.96040446 0.37836754 0.8183013 0.90742975 -0.99372697 -0.7542435 -0.97036994
0.6421768 0.64427423 -0.73365194 0.93446594 -0.52480584 0.51012385 -0.7786284 0.674477
0.9472764 0.81180906 0.97104126 0.12173211 0.94936204 0.8468133 0.54445827 0.27703947
0.8297258 0.85309744 0.54753953 -0.9322438 -0.76616925 1.0504658 0.8947127 0.5707742
-0.9248397 0.7753831 -0.72402644 0.091117874 -0.968633 0.7734125 0.97375 0.44858843
0.87644476 0.6093026 0.7437979 -0.024717169 -0.61478066 0.49294618 0.7085491 0.7147374
0.8522556 -0.5124728 0.92526287 1.0898608 -1.0801741 0.96113265 -0.9729382 -1.0513855
-0.31553078 0.49632168 0.65146303 0.51659596 -0.7371362 0.3726125 0.89820504 0.9720648
0.37903056 0.5641136 0.8026295 -0.44315353 0.826998 -0.68385005 0.38980022 0.550628
0.8354085 0.56239176 -0.8914863 0.68058383 -1.0145216 -1.1633073 0.85895455 0.49413475
-0.95732397 0.89828545 -0.81334335 -0.23194171 1.1081947 0.6678797 -0.39422306 0.7478342
0.77348715 -0.6898997 0.6486576 0.0015578989 0.25869307 0.48855114 0.78530747 0.14146417
1.019338 1.1322987 0.7306703 0.6178228 0.74626166 0.52859795 -0.7366558 -0.8039639
-0.5838587 -0.4143887 0.40928736 1.0372785 0.50008684 -1.004697 -0.5669536 -0.49744922
0.8637583 -1.1784848 0.9166776 1.0643077 -0.9269441 0.819287 -0.5150864 -0.74373925
-0.25900674 0.48736593 0.5136641 0.8839082 0.9887814 -0.21352679 0.93581975 0.85237396
0.8365439 -0.6352722 -0.39686784 -1.030267 0.96559227 -1.2748222 0.006159114 0.12946568
-0.5319702 -0.82865876 0.93273175 0.056619722 1.0795132 -0.88863254 0.59068805 0.0036923613
0.6388133 -0.09959418 -1.3553824 0.77021486 0.91153675 0.93053037 0.9760997 0.6463345
-0.8247883 -1.014837 -0.42732164 -0.050482117 -0.42855868 0.7613452 0.8281013 0.54155046
0.7577543 -1.1955063 0.66207314 0.89004683 0.9086115 1.0095551 0.87054276 0.18317387
0.7927792 0.48283917 0.7062277 1.0017704 -0.09299133 -0.3401138 0.8868706 0.9952621
0.88676006 -0.3395796 0.6905346 0.7082048 -0.8954889 -0.7384842 0.9832622 0.84409577
0.6895225 0.9102099 0.14610608 0.7958544 0.056471936 -0.65878564 0.6084884 0.8030025
1.0164856 -0.9551235 -0.35296336 0.5294809 0.79765195 -0.38705128 -1.2713807 0.5969264
-0.79255617 -1.0265751 0.80522954 0.40889692 0.6830907 0.6334615 0.70580536 -0.18376881
0.59510034 0.6891665 0.79096866 -0.7973589 -0.8906113 -0.8691754 0.03873824 0.8847852
00000000: ed32 dfbe 77b3 b63d 4711 f3be 7fe1 433f
00000010: 1a51 813f ec7f 58bf 36f8 85bf 7a81 97be
00000020: 8326 823f bc95 6e3f 8f36 f23e caf5 4f3f
00000030: 7e7d 3c3f 559b 483f 5096 363e a82a 133f
00000040: 988f fe3e 0c2c 8f3f 2071 15bf d0ed bfbe
00000050: 69a2 7ebf c0da 7ebf dec2 023f ddca 6f3f
00000060: a14a 10bf 2664 6f3f 829a 3b3f 2cdf 47be
00000070: 8279 853f 07b1 4ebf 021a 273f a416 1ebe
00000080: 817d a1be 5f99 76bf 20d5 87bf 6c13 893f
00000090: 0198 a13e 99a0 2b3f 0613 45bf 2af2 593f
000000a0: 9183 1b3f 11dd 75bf 64b9 c13e 327c 513f
000000b0: 514d 683f e464 7ebf 1a16 41bf 2a6a 78bf
000000c0: b365 243f 28ef 243f 9dd0 3bbf 2939 6f3f
000000d0: ad59 06bf 7a97 023f 3154 47bf 86aa 2c3f
000000e0: b580 723f b8d2 4f3f 2996 783f af4e f93d
000000f0: 6409 733f c2c8 583f 9e61 0b3f 1ed8 8d3e
00000100: e968 543f 9864 5a3f 8d2b 0c3f 88a7 6ebf
00000110: ab23 44bf aa75 863f e40b 653f 421e 123f
00000120: 4bc2 6cbf 827f 463f cc59 39bf 029c ba3d
00000130: 55f8 77bf 5dfe 453f ae47 793f 62ad e53e
00000140: af5e 603f 41fb 1b3f 8a69 3e3f a97b cabc
00000150: 4462 1dbf 7163 fc3e 7963 353f 08f9 363f
00000160: 6c2d 5a3f 6b31 03bf 07de 6c3f 8f80 8b3f
00000170: 2543 8abf ca0c 763f 7a12 79bf cd93 86bf
00000180: 408d a1be e01d fe3e 48c6 263f a23f 043f
00000190: f5b4 3cbf 11c7 be3e c4f0 653f 3dd9 783f
000001a0: 4b10 c23e c069 103f 2079 4d3f 05e5 e2be
000001b0: 24b6 533f cc10 2fbf e593 c73e f5f5 0c3f
000001c0: 55dd 553f e8f8 0f3f 7238 64bf be3a 2e3f
000001d0: d8db 81bf 41e7 94bf 72e4 5b3f 3bff fc3e
000001e0: 2f13 75bf 09f6 653f 4537 50bf 2182 6dbe
000001f0: 53d9 8d3f 2afa 2a3f 9bd7 c9be 1072 3f3f
00000200: 4103 463f 449d 30bf 6d0e 263f 6a32 cc3a
00000210: 6b73 843e 6023 fa3e e909 493f fcdb 103e
00000220: ab79 823f 2aef 903f 350d 3b3f a329 1e3f
00000230: 010b 3f3f 3252 073f 7995 3cbf 94d0 4dbf
00000240: c477 15bf c12a d4be 1d8e d13e 8bc5 843f
00000250: b105 003f e999 80bf df23 11bf aab1 febe
00000260: 441f 5d3f 97d8 96bf 62ab 6a3f 3c3b 883f
00000270: 354c 6dbf cbbc 513f b4dc 03bf b265 3ebf
00000280: 889c 84be 0788 f93e 7e7f 033f cf47 623f
00000290: c720 7d3f c4a6 5abe e291 6f3f 2e35 5a3f
000002a0: be27 563f 33a1 22bf 4332 cbbe cadf 83bf
000002b0: 0e31 773f 602d a3bf 65d2 c93b a792 043e
000002c0: 332f 08bf fb22 54bf 82c7 6e3f 15ea 673d
000002d0: 7d2d 8a3f 6c7d 63bf 5537 173f 8bfb 713b
000002e0: 4589 233f 09f8 cbbd 2c7d adbf cd2c 453f
000002f0: 795a 693f 3d37 6e3f ace1 793f 2e76 253f
00000300: 5325 53bf 2ee6 81bf e7c9 dabe 56c6 4ebd
00000310: 0b6c dbbe 85e7 423f 72fe 533f 0da3 0a3f
00000320: 30fc 413f 5a06 99bf a07d 293f 1cda 633f
00000330: c39a 683f 1a39 813f e4db 5e3f ee91 3b3e
00000340: 94f3 4a3f b236 f73e 57cb 343f 033a 803f
00000350: 3d72 bebd 6523 aebe f409 633f 7fc9 7e3f
00000360: b502 633f 61dd adbe e0c6 303f e94c 353f
00000370: c33e 65bf 4d0d 3dbf 12b7 7b3f a916 583f
00000380: 8c84 303f 8403 693f d59c 153e 1dbd 4b3f
00000390: 1e4f 673d 2da6 28bf e5c5 1b3f 9291 4d3f
000003a0: 331c 823f f982 74bf 9db7 b4be 0f8c 073f
000003b0: eb32 4c3f 962b c6be 9abc a2bf 2bd0 183f
000003c0: f6e4 4abf d066 83bf 8623 4e3f f05a d13e
000003d0: 08df 2e3f 882a 223f a9af 343f e42d 3cbe
000003e0: 7f58 183f 376d 303f ec7c 4a3f b61f 4cbf
000003f0: 1aff 63bf 4782 5ebf fdab 1e3d 4881 623f

linear2.weight f4 [2, 512]
-1.9808954 -2.2248478 0.1698776 0.30278465 0.6627183 -1.8198459 -0.83416283 0.4822593
0.50181293 0.5419087 -1.1154364 0.24816155 0.21613924 0.6588234 0.14875647 0.9000997
-0.27206588 0.6787066 0.43115526 1.2661359 -1.1984004 -0.68261975 0.16778713 0.67408496
-0.40639034 0.5501972 0.67349386 -1.3057176 0.6767662 -1.0649981 0.335531 -0.19000635
-0.5117046 -1.4807298 -2.0805266 0.59546643 0.865644 0.51651585 0.7784695 0.310885
-1.3533512 -1.269397 0.90255225 -0.49995568 0.40709013 -2.0609748 -0.5953893 -2.0716326
0.7779739 0.548452 -0.7217088 0.2916225 -0.118617356 0.2840398 -1.2115927 -0.43834606
0.4733561 0.21142456 0.77609473 1.1612786 0.6205362 0.30861092 0.35114554 0.17831638
0.6803928 0.19176552 0.30081883 -0.8155194 -1.2934668 -0.6710965 0.23721173 0.5450238
-1.0164999 0.5562028 -0.43129233 0.658136 -1.2423965 0.5991469 0.26169506 0.45665064
0.5214364 -1.093006 -1.6991607 0.9079551 -0.9105199 0.9194494 -1.1762613 0.25618368
0.31800163 1.1389327 0.25973737 0.77991533 -0.5484693 0.41055164 -1.5089676 -1.5143754
-0.08822473 -1.1620662 0.26328322 0.5627967 -1.3987749 0.56470746 0.533582 0.61267996
0.39646786 0.2575205 0.36470914 -0.3552206 0.43057 -1.1667794 -0.52858907 -0.23321602
0.25592077 0.8024175 -0.6834417 0.74765223 -1.8420478 -2.0569293 0.6046822 0.2876234
-0.6430199 0.5814088 -0.665212 -1.2931681 -1.2122856 0.23741592 -0.6688009 0.28564337
0.32374808 -2.2859864 -0.79030806 -0.296947 -0.5597792 0.6943443 0.3494352 -1.5199741
-0.9353076 0.60960585 0.30822423 0.6271479 0.2680381 -0.52537036 -0.69751114 0.3300799
0.9399969 -0.72225934 0.33471498 0.8183546 -0.0005999632 -1.4588479 -0.40124008 -1.6154758
0.62230766 -1.8869451 0.42067724 0.59801155 -0.9892337 0.2677603 -0.009476103 -0.11213438
-0.4100703 -1.064841 0.62578905 -1.5074704 0.62658644 -0.6219503 0.39584962 0.5481107
0.22036241 -0.5993426 -0.12772083 -1.7681575 0.6327813 -1.4480084 -0.7366842 0.9808803
-1.7523133 -1.4171685 0.37600204 -1.6512651 0.4578177 -0.67210335 0.5045776 -1.1443222
0.43244427 -0.46907505 -0.90433186 0.33487788 0.4277148 0.75430435 0.3122218 0.16562536
-1.2903217 -2.1057296 -1.2824718 1.0707984 -0.7889803 0.31866893 -0.85959595 0.6082626
-0.7691953 -1.4159855 0.73252535 0.21825136 0.59927016 0.29816157 -1.1420953 0.45173833
0.297194 -0.38907772 -1.1051538 0.29530174 -1.3914473 -0.022276051 0.42142949 0.66912925
0.33246496 -1.046949 0.32993394 0.62422556 -1.1631584 -1.3449537 0.39975014 0.566415
0.28463337 0.5966655 1.222788 0.30491996 -1.9094061 -0.16238658 0.34618568 0.4592359
0.73455113 -1.303089 -0.7407946 0.27707094 0.6952783 0.8815282 -0.94762826 0.2472978
-1.6372653 -1.0382017 0.6564294 1.1599133 0.3992994 0.35343587 0.33302787 -1.2362474
0.26224524 0.460098 0.4078586 -2.1482348 -0.7761715 -1.1176773 -0.22415203 0.2952943
00000000: fb8d fdbf e863 0ec0 65f4 2d3e 9706 9b3e
00000010: e8a7 293f b6f0 e8bf b28b 55bf b1ea f63e
00000020: d076 003f 87ba 0a3f 9fc6 8ebf 101e 7e3e
00000030: 9b53 5d3e a6a8 283f 9e53 183e ef6c 663f
00000040: 384c 8bbe b7bf 2d3f 62c0 dc3e be10 a23f
00000050: 2f65 99bf 2bc0 2ebf 64d0 2b3e d590 2c3f
00000060: 6512 d0be b9d9 0c3f 186a 2c3f c121 a7bf
00000070: 8d40 2d3f dc51 88bf b8ca ab3e 0691 42be
00000080: 13ff 02bf 8e88 bdbf 5927 05c0 7d70 183f
00000090: d89a 5d3f 623a 043f c749 473f 522c 9f3e
000000a0: 9d3a adbf 9a7b a2bf aa0d 673f 31fa ffbe
000000b0: 1e6e d03e 03e7 03c0 6f6b 18bf a195 04c0
000000c0: 4c29 473f 5a67 0c3f e8c1 38bf 8b4f 953e
000000d0: a8ed f2bd aa6d 913e 7815 9bbf e56e e0be
000000e0: bb5b f23e ae7f 583e 25ae 463f c7a4 943f
000000f0: 76db 1e3f 4002 9e3e 59c9 b33e 9298 363e
00000100: 392e 2e3f 2e5e 443e ed04 9a3e e1c5 50bf
00000110: 5290 a5bf fbcc 2bbf a2e7 723e ae86 0b3f
00000120: ab1c 82bf 4f63 0e3f 59d2 dcbe 9a7b 283f
00000130: d906 9fbf b161 193f e5fc 853e 1dce e93e
00000140: db7c 053f 9fe7 8bbf 197e d9bf bf6f 683f
00000150: d517 69bf 0961 6b3f bb8f 96bf 822a 833e
00000160: 1cd1 a23e 8cc8 913f 4cfc 843e 88a8 473f
00000170: 7c68 0cbf d333 d23e da25 c1bf 0ed7 c1bf
00000180: 2baf b4bd 96be 94bf 0fcd 863e 7213 103f
00000190: 0e0b b3bf ab90 103f d498 083f 98d8 1c3f
000001a0: d6fd ca3e bad9 833e 28bb ba3e 79df b5be
000001b0: ac73 dc3e 0759 95bf 9d51 07bf 2ed0 6ebe
000001c0: 0c08 833e 3c6b 4d3f 09f6 2ebf 2366 3f3f
000001d0: 39c8 ebbf bba4 03c0 74cc 1a3f 6043 933e
000001e0: f49c 24bf 35d7 143f 554b 2abf 8886 a5bf
000001f0: 2d2c 9bbf 291d 733e 8936 2bbf d93f 923e
00000200: 4fc2 a53e 9a4d 12c0 a151 4abf 7009 98be
00000210: b14d 0fbf 8cc0 313f 2ce9 b23e 838e c2bf
00000220: 5270 6fbf 210f 1c3f 91cf 9d3e c48c 203f
00000230: 4a3c 893e ac7e 06bf 1790 32bf 3c00 a93e
00000240: a3a3 703f fde5 38bf c35f ab3e b07f 513f
00000250: d946 1dba 87bb babf 576f cdbe e9c7 cebf
00000260: 8e4f 1f3f 6b87 f1bf 0263 d73e 4917 193f
00000270: 6b3e 7dbf e117 893e a841 1bbc b6a6 e5bd
00000280: bcf4 d1be b64c 88bf b633 203f caf4 c0bf
00000290: f867 203f 2338 1fbf cdac ca3e fc50 0c3f
000002a0: afa6 613e 846e 19bf 40c9 02be fc52 e2bf
000002b0: f5fd 213f 5758 b9bf 5697 3cbf f91a 7b3f
000002c0: cd4b e0bf c765 b5bf 5783 c03e a85c d3bf
000002d0: 1567 ea3e f70e 2cbf ff2b 013f 2679 92bf
000002e0: 5669 dd3e 9b2a f0be 4b82 67bf 1d75 ab3e
000002f0: 6ffd da3e 171a 413f 89db 9f3e b299 293e
00000300: 4329 a5bf 46c4 06c0 0928 a4bf ec0f 893f
00000310: 9dfa 49bf 9328 a33e 7b0e 5cbf 19b7 1b3f
00000320: fce9 44bf 033f b5bf c886 3b3f 497d 5f3e
00000330: c569 193f a2a8 983e 2e30 92bf 3f4a e73e
00000340: d029 983e 3235 c7be ae75 8dbf ca31 973e
00000350: f21a b2bf 447c b6bc 9bc5 d73e 0e4c 2b3f
00000360: d938 aa3e 6d02 86bf 1aed a83e 3fcd 1f3f
00000370: 60e2 94bf 7127 acbf 0dac cc3e 9300 113f
00000380: 77bb 913e 12bf 183f 5184 9c3f 781e 9c3e
00000390: 6b67 f4bf ab48 26be 403f b13e f820 eb3e
000003a0: 8b0b 3c3f 9fcb a6bf b7a4 3dbf 3edc 8d3e
000003b0: c2fd 313f d5ab 613f c497 72bf a23b 7d3e
000003c0: e991 d1bf cbe3 84bf c20b 283f 0a78 943f
000003d0: f970 cc3e 8cf5 b43e a182 aa3e 5b3d 9ebf
000003e0: 0245 863e f791 eb3e d8d2 d03e ae7c 09c0
000003f0: 2db3 46bf 0d10 8fbf 1c88 65be d130 973e

linear2.bias f4 [2]
0.27468327 0.28832093
00000000: 49a3 8c3e cd9e 933e
