code/log/dqn/ckpt/620000.pth (torch, 15775 bytes, 4 tensors)

linear.weight f4 [512, 4]
0.07177926 -0.100443974 -2.719483 -0.3427189 0.53709275 0.13743845 0.9037542 0.056876577
0.6342631 0.10408355 -0.365986 0.07686052 -0.23640566 -0.0072203805 -0.4007405 -0.030381707
0.25504702 0.7852459 -0.35392013 0.08137869 0.447553 0.78833395 2.4581723 0.63261455
0.5976202 0.20455593 -0.1670706 0.15503615 0.03475741 0.8498809 1.9333644 0.6241623
-0.23749612 -0.25715572 -0.5354909 -0.33170852 -0.21198265 0.52961236 -0.16194086 0.020036109
0.6380511 -0.5630733 -2.2552216 -0.9894295 -0.18385172 -0.121299505 -0.07095029 0.15898734
-0.18676153 0.030441938 -0.14790627 0.20044227 0.20840305 -0.15647402 -0.18309218 -0.24407107
-0.7297936 -0.8957519 -1.6010427 -0.38909882 0.6077438 0.76450104 0.9058429 0.54866207
0.07480649 -0.269885 -1.3762499 -0.4795088 0.15279502 0.2218254 -0.83499265 -0.032167245
0.20075214 -0.38762614 1.7738303 1.2112428 -0.06897231 -0.55775255 -2.9387565 -0.54044694
-0.5633689 -0.09210742 -1.8544946 -0.19059275 0.5227844 0.08159576 -1.1976773 -0.21265957
0.087831035 -0.31303582 -0.2431477 -0.08080017 0.28856286 -0.12709557 -1.0650351 -0.1773784
0.15576184 -0.28581727 -2.6341836 -0.58843625 0.11302771 1.0136782 0.047008008 0.07040046
-0.6631088 -0.34603286 -1.0775989 -0.4318223 0.6319954 0.20096391 0.68214947 0.27429882
0.036281973 0.0033431335 0.09755015 -0.5445836 -0.45292494 0.11031614 -0.08102946 0.067616194
0.11882968 -0.0957667 -0.6338535 0.01829942 -0.45107517 -0.3528412 -1.9012318 -0.53527623
-0.46873367 -0.40005574 -0.50582606 -0.4980605 -0.48891735 -0.18346706 -0.9859327 -0.23769128
-0.51304424 -0.301186 0.4632518 -0.14850564 0.15372597 0.101461455 0.01831933 -0.25843996
-0.38310713 -0.7593416 -1.659397 -0.6273837 -0.117629685 -0.4766717 -0.79484737 -0.32973436
0.06801574 -0.30267456 -2.223534 -0.35697177 0.3204588 -0.55511624 -0.5640367 -0.28759432
-0.085431114 -0.39681745 -4.0053315 -1.28961 -0.49759507 -0.056446925 -0.825786 -0.13052274
-1.6334678 -0.14100035 0.2842482 -0.017778654 0.09232052 0.29702288 0.27958456 0.6878318
-0.13870893 -0.4660258 -0.051806428 -0.39603278 -0.4689806 -0.3767744 0.72717 -0.19770452
0.4332601 0.3171796 -0.21465078 0.19663924 -0.5285491 0.16841528 0.65397966 0.19531287
-0.581152 -0.3895057 -0.63177073 -0.2616053 -0.19429916 0.09206337 -0.64610714 -0.027347391
0.34235343 -0.03496767 -1.5404574 -0.20477764 -0.26403323 0.20971876 -0.49289155 0.3795545
0.16119155 0.072397664 -0.070801176 -0.10480944 -0.029380506 -0.25951192 -0.4320004 -0.097056694
-0.36044803 -0.48162267 -2.5190403 -0.47463018 -0.100466214 0.42304987 1.135487 0.59217274
-0.31119195 0.14260419 -0.618569 -0.023470957 -0.19459178 0.015026467 -0.2445294 0.24525201
0.17529781 -0.061376523 -0.031341553 -0.42428142 0.12187363 -0.30319956 0.7647593 0.5264724
0.006877123 0.28926575 -0.44547635 -0.053792007 0.32563758 -0.6352783 -0.060585544 -0.40289167
-0.076484405 -0.27991942 -0.6572457 0.021106752 0.27625322 -0.50504845 -0.25357068 -0.14622787
00000000: 0101 933d 92b5 cdbd 020c 2ec0 da78 afbe
00000010: e97e 093f aabc 0c3e 6f5c 673f 6af7 683d
00000020: 115f 223f c229 d53d 8462 bbbe 0c69 9d3d
00000030: 5314 72be f198 ecbb dc2d cdbe 0fe3 f8bc
00000040: 8695 823e e005 493f 0535 b5be dfa9 a63d
00000050: ab25 e53e 41d0 493f b252 1d40 07f3 213f
00000060: a3fd 183f 1c77 513e 8e14 2bbe ccc1 1e3e
00000070: c95d 0e3d cb91 593f 7c78 f73f 1ac9 1f3f
00000080: 2f32 73be eaa9 83be ee15 09bf b3d5 a9be
00000090: fb11 59be ad94 073f d3d3 25be c422 a43c
000000a0: 5157 233f 9225 10bf 8d55 10c0 404b 7dbf
000000b0: a043 3cbe e06b f8bd 634e 91bd 94cd 223e
000000c0: 6a3e 3fbe 5f61 f93c be74 17be bd40 4d3e
000000d0: 9c67 553e ba3a 20be 847c 3bbe c4ed 79be
000000e0: c1d3 3abf ff4f 65bf f8ee ccbf f637 c7be
000000f0: 1995 1b3f 57b6 433f 52e5 673f 1e75 0c3f
00000100: 2534 993d 5e2e 8abe f528 b0bf 2d82 f5be
00000110: 4c76 1c3e 3326 633e 14c2 55bf cdc1 03bd
00000120: f891 4d3e ef76 c6be df0c e33f 010a 9b3f
00000130: 5b41 8dbd dfc8 0ebf 9614 3cc0 bb5a 0abf
00000140: f238 10bf d1a2 bcbd 1460 edbf bf2a 43be
00000150: 33d5 053f ae1b a73d 7d4d 99bf 6ec3 59be
00000160: c2e0 b33d 3b46 a0be b6fb 78be 8f7a a5bd
00000170: 83be 933e 5725 02be 1253 88bf afa2 35be
00000180: 0880 1f3e a456 92be 7796 28c0 c2a3 16bf
00000190: 127b e73d 35c0 813f 788b 403d 1e2e 903d
000001a0: 80c1 29bf 382b b1be c3ee 89bf d017 ddbe
000001b0: 73ca 213f 7cc9 4d3e 59a1 2e3f e570 8c3e
000001c0: 689c 143d 7918 5b3b 5fc8 c73d d569 0bbf
000001d0: c7e5 e7be 6eed e13d c6f2 a5bd 5c7a 8a3d
000001e0: fa5c f33d 5521 c4bd 3944 22bf aae8 953c
000001f0: 53f3 e6be 9aa7 b4be 905b f3bf dd07 09bf
00000200: dcfd efbe 1bd4 ccbe d17d 01bf c901 ffbe
00000210: 6053 fabe cade 3bbe 1666 7cbf 5865 73be
00000220: de56 03bf 0d35 9abe 572f ed3e dd11 18be
00000230: 576a 1d3e 06cb cf3d 6b12 963c 3e52 84be
00000240: 9e26 c4be 3664 42bf 1f67 d4bf 389c 20bf
00000250: d5e7 f0bd 500e f4be 1e7b 4bbf f1d2 a8be
00000260: d64b 8b3d 29f8 9abe 624e 0ec0 01c5 b6be
00000270: 2d13 a43e 191c 0ebf b664 10bf 903f 93be
00000280: 82f6 aebd a82b cbbe ad2b 80c0 f111 a5bf
00000290: c8c4 febe e434 67bd b666 53bf c1a7 05be
000002a0: 7915 d1bf 6562 10be fb88 913e 8aa4 91bc
000002b0: 8a12 bd3d 6213 983e b525 8f3e bf15 303f
000002c0: b709 0ebe ef9a eebe fa32 54bd cfc4 cabe
000002d0: 3a1e f0be 93e8 c0be d027 3a3f 0e73 4abe
000002e0: 45d4 dd3e 5d65 a23e 6acd 5bbe cc5b 493e
000002f0: fe4e 07bf 0e75 2c3e 366b 273f 1900 483e
00000300: 61c6 14bf 4b6d c7be babb 21bf 21f1 85be
00000310: 5cf6 46be b88b bc3d 4767 25bf a307 e0bc
00000320: f348 af3e 423a 0fbd b52d c5bf 3bb1 51be
00000330: 5d2f 87be 84c0 563e 485c fcbe f854 c23e
00000340: 660f 253e 3a45 943d 3500 91bd 55a6 d6bd
00000350: 63af f0bc bfde 84be 282f ddbe a9c5 c6bd
00000360: a58c b8be 3f97 f6be f537 21c0 ba02 f3be
00000370: 3bc1 cdbd fe99 d83e a357 913f a298 173f
00000380: 8d54 9fbe d506 123e 8a5a 1ebf 2a46 c0bc
00000390: 1143 47be 9231 763c ea65 7abe 5823 7b3e
000003a0: 4581 333e f365 7bbd 0060 00bd 6a3b d9be
000003b0: e298 f93d f93c 9bbe 44c7 433f e5c6 063f
000003c0: 7d59 e13b a41a 943e 7a15 e4be 0255 5cbd
000003d0: f8b9 a63e 99a1 22bf 8c28 78bd d147 cebe
000003e0: dba3 9cbd 9951 8fbe 4141 28bf 11e8 ac3c
000003f0: 1071 8d3e db4a 01bf 04d4 81be c2bc 15be

linear.bias f4 [512]
-0.5943955 -0.02847799 -0.398092 0.73674154 0.9202688 -0.8581391 -1.0466373 -0.15192716
0.98922217 0.90404457 0.5514793 0.78437036 0.7071924 0.7561582 0.122165516 0.66868037
0.5554814 1.091117 -0.5403712 -0.3006706 -0.9586138 -0.99552536 0.48080856 0.90925777
-0.14557841 1.0068785 0.744973 -0.2880956 1.0216748 -0.8803794 0.6249111 -0.09148558
-0.2712404 -0.9155727 -1.0669162 1.0435464 0.24998766 0.6427043 -0.7698215 0.8231677
0.5584135 -0.96784693 0.34020194 0.85542774 0.8797046 -1.0013568 -0.7542435 -0.9843342
0.6634778 0.61638016 -0.73365194 0.9062488 -0.52480584 0.48185965 -0.5533457 0.7211834
0.9197433 0.783608 0.9479264 0.12289149 0.9218745 0.8186004 0.5167551 0.23958123
0.8034175 0.82595336 0.5190764 -0.9322438 -0.5420869 1.0747712 0.8665591 0.5533683
-0.89305717 0.7474999 -0.72402644 0.067489125 -0.96167105 0.7456395 0.94517 0.47072214
0.84839785 0.51744306 0.7775714 0.31083658 -0.54078543 0.4860431 0.7284691 0.6860972
0.8245141 -0.4564542 0.89702404 1.0625038 -1.0801741 0.933754 -0.9729382 -1.0513855
-0.39726397 0.5417806 0.6223416 0.49227762 -0.67863035 0.3042604 0.8703115 0.9445119
0.37370017 0.53554636 0.7752164 -0.38833296 0.798836 -0.69223434 0.40082526 0.6493288
0.80754876 0.6435696 -0.8914863 0.656018 -1.0145216 -1.2064751 0.83146125 0.5090792
-0.92967576 0.870894 -0.89257765 -0.13115746 1.13254 0.6800044 -0.46871248 0.72006947
0.74542904 -0.53894466 0.64012414 0.03284721 0.31073874 0.44365275 0.75743353 0.05813448
1.0520226 1.1046135 0.7035786 0.60006106 0.71687615 0.5959095 -0.6519597 -0.7531282
-0.6276242 -0.6401532 0.38013673 1.0108179 0.51643485 -0.9457758 -0.4911415 -0.7956178
0.8360197 -1.1784848 0.8892145 1.0407376 -0.8186869 0.7915206 -0.5150864 -0.63199425
-0.2639247 0.18188536 0.49154288 0.9106982 0.9612588 -0.18869434 0.90820795 0.824432
0.80909455 -0.60469097 -0.337196 -1.030267 0.9380338 -1.2748222 0.052732777 0.1114859
-0.51402515 -0.6181391 0.9049424 -0.11097792 1.0515047 -0.88863254 0.6041051 -0.13575698
0.610933 -0.010207413 -1.3553824 0.74216014 0.889626 0.9034667 0.947819 0.61733097
-0.62254757 -1.014837 -0.34779528 0.035845727 -0.5382191 0.73328805 0.8504186 0.51706696
0.781964 -1.1955063 0.6344741 0.8612362 0.8807675 0.9831054 0.8948692 0.30929977
0.76439184 0.48954797 0.8270665 0.97378445 -0.21155265 -0.3437469 0.85935175 0.96751845
0.86017776 -0.39281753 0.6627796 0.88661957 -0.8708502 -0.57510364 0.9561521 0.81663257
0.6611526 0.88269943 0.45155448 0.76801383 -0.055113155 -0.5685749 0.55388975 0.7753894
0.9890138 -0.9729455 -0.3054979 0.50063556 0.7699483 -0.5113892 -1.3052574 0.56841254
-0.7129846 -0.9355523 0.7778542 0.5385197 0.83161634 0.6051378 0.6779092 -0.25307938
0.56754774 0.66085273 0.7633064 -0.5739244 -0.89156634 -0.8720928 -0.02459834 0.85632455
00000000: 4e2a 18bf ac4a e9bc b7d2 cbbe 189b 3c3f
00000010: bc96 6b3f 01af 5bbf 36f8 85bf cb92 1bbe
00000020: aa3d 7d3f 776f 673f bf2d 0d3f 7fcc 483f
00000030: 900a 353f 9593 413f ea31 fa3d a32e 2b3f
00000040: 0734 0e3f b9a9 8b3f c455 0abf 7ff1 99be
00000050: b767 75bf c0da 7ebf 8a2c f63e 1ec5 683f
00000060: 8212 15be 65e1 803f 8db6 3e3f 4481 93be
00000070: 3dc6 823f 8b60 61bf 2dfa 1f3f cb5c bbbd
00000080: 06e0 8abe f962 6abf b690 88bf ee92 853f
00000090: c4fc 7f3e 4588 243f 0613 45bf 1ebb 523f
000000a0: 30f4 0e3f d1c4 77bf f32e ae3e 50fd 5a3f
000000b0: 5234 613f 762c 80bf 1a16 41bf 53fd 7bbf
000000c0: aed9 293f 17cb 1d3f 9dd0 3bbf ecff 673f
000000d0: ad59 06bf 4fb6 f63e 10a8 0dbf 7a9f 383f
000000e0: 4c74 6b3f 899a 483f 4eab 723f 89ae fb3d
000000f0: f8ff 6b3f cc8f 513f 104a 043f c854 753e
00000100: c5ac 4d3f ae71 533f 31e2 043f 88a7 6ebf
00000110: 35c6 0abf 1a92 893f d1d6 5d3f 8ba9 0d3f
00000120: 659f 64bf 275c 3f3f cc59 39bf bd37 8a3d
00000130: 1330 76bf 3be2 3e3f a9f6 713f 7e02 f13e
00000140: 9a30 593f 2677 043f eb0e 473f f925 9f3e
00000150: ea70 0abf a4da f83e f37c 3a3f 11a4 2f3f
00000160: 5b13 533f 5db4 e9be 5ea3 653f 2000 883f
00000170: 2543 8abf 810a 6f3f 7a12 79bf cd93 86bf
00000180: 2f66 cbbe 22b2 0a3f c751 1f3f d00b fc3e
00000190: b8ba 2dbf 05c8 9b3e bccc 5e3f 88cb 713f
000001a0: a155 bf3e 9119 093f 9574 463f 94d3 c6be
000001b0: 8480 4c3f 4536 31bf f838 cd3e 6a3a 263f
000001c0: 84bb 4e3f fac0 243f 7238 64bf ccf0 273f
000001d0: d8db 81bf c76d 9abf a5da 543f 0453 023f
000001e0: 3bff 6dbf e9f2 5e3f f87f 64bf 244e 06be
000001f0: 12f7 903f c514 2e3f 15fb efbe 7956 383f
00000200: 70d4 3e3f 47f8 09bf 2ddf 233f cc8a 063d
00000210: 2619 9f3e 7426 e33e 2ae7 413f 6c1e 6e3d
00000220: ada8 863f fa63 8d3f ba1d 343f 9a9d 193f
00000230: 3285 373f 868d 183f d5e6 26bf 02cd 40bf
00000240: fbab 20bf 15e1 23bf 48a1 c23e 7b62 813f
00000250: 1335 043f 5d1e 72bf e676 fbbe 9cad 4bbf
00000260: 6305 563f 97d8 96bf 90a3 633f e436 853f
00000270: 7795 51bf 18a1 4a3f b4dc 03bf 60ca 21bf
00000280: 2321 87be 2840 3a3e 82ab fb3e 8423 693f
00000290: 0f15 763f 1739 41be 5180 683f fa0d 533f
000002a0: d220 4f3f 07cd 1abf f4a4 acbe cadf 83bf
000002b0: fc22 703f 602d a3bf 53fe 573d b852 e43d
000002c0: 2797 03bf 5d3e 1ebf 4eaa 673f 6448 e3bd
000002d0: b597 863f 6c7d 63bf a2a6 1a3f e103 0bbe
000002e0: 1b66 1c3f fe3c 27bc 2c7d adbf 35fe 3d3f
000002f0: 88be 633f 9849 673f 44a4 723f 6709 1e3f
00000300: 475f 1fbf 2ee6 81bf 3912 b2be f8d2 123d
00000310: bac8 09bf c4b8 3b3f 09b5 593f 805e 043f
00000320: cb2e 483f 5a06 99bf e56c 223f fa79 5c3f
00000330: fb79 613f ccac 7b3f 2616 653f 8a5c 9e3e
00000340: 2faf 433f 08a6 fa3e a1ba 533f f049 793f
00000350: 42a1 58be 98ff afbe 7afe 5b3f 4aaf 773f
00000360: 9c34 5c3f 611f c9be edab 293f 80f9 623f
00000370: 0af0 5ebf fe39 13bf 62c6 743f d50e 513f
00000380: 4c41 293f 97f8 613f 2632 e73e 8e9c 443f
00000390: 55be 61bd 208e 11bf b8cb 0d3f eb7f 463f
000003a0: 0230 7d3f f512 79bf 396a 9cbe a729 003f
000003b0: 551b 453f 67ea 02bf ad12 a7bf 7c83 113f
000003c0: 2986 36bf 5b80 6fbf 7421 473f 6ddc 093f
000003d0: cfe4 543f 50ea 1a3f 758b 2d3f 9f93 81be
000003e0: cf4a 113f a52d 293f 0c68 433f b6ec 12bf
000003f0: b13d 64bf 7941 5fbf 7582 c9bc 1638 5b3f

linear2.weight f4 [2, 512]
-1.7987498 -2.214454 0.07292235 0.29003724 0.7522919 -1.8198459 -0.83416283 1.1197859
0.49969146 0.48888153 -1.1876463 0.23432563 0.19524643 0.65723306 0.12135491 1.0786154
-0.24927537 0.64891404 0.053626847 1.3580229 -1.2049023 -0.68261975 0.17477047 0.67159057
-0.61583775 0.716896 0.6799326 -1.3433434 0.6655186 -1.3496612 0.32800752 -0.09938186
-0.45306718 -1.4668927 -2.0797203 0.5756062 0.8831923 0.5250167 0.7784695 0.32677004
-1.3242679 -1.3111272 0.8258888 -0.5626026 0.4099409 -2.041042 -0.5953893 -2.510439
0.78542304 0.531455 -0.7217088 0.26233232 -0.118617356 0.28690112 -1.0911244 -0.54602885
0.4560545 0.19159019 0.7669928 1.1484054 0.58330077 0.32627913 0.3511257 0.24068296
0.6719936 0.16115014 0.30623218 -0.8155194 -1.2605683 -0.6826363 0.23495898 0.48809507
-1.0191549 0.55755407 -0.43129233 0.6703664 -1.2424551 0.5966639 0.25394365 0.43012428
0.50306845 -1.1748574 -1.6683053 0.9741164 -0.9319594 0.859837 -1.2929932 0.22844486
0.29967108 1.1433446 0.25049025 0.7605239 -0.5484693 0.40736815 -1.5089676 -1.5143754
-0.204415 -1.2204247 0.25036177 0.48265597 -1.3794693 0.57989734 0.51341045 0.6084876
0.3455941 0.26085103 0.38243604 -0.7757878 0.4416198 -0.91916573 -0.5156033 -0.3596179
0.2564961 0.92624015 -0.6834417 0.7536315 -1.8420478 -2.0809178 0.6168673 0.27245054
-0.6361454 0.5335646 -0.6977301 -1.3058168 -1.2450792 0.18523246 -0.54733866 0.26168904
0.31469226 -2.2672212 -0.831735 -0.268128 -0.63702947 0.6985389 0.34719607 -1.4855232
-0.99220175 0.5922181 0.32613066 0.633369 0.2497836 -0.5656045 -1.0453414 0.60773236
0.91698533 -0.57360137 0.3099562 0.8110263 -0.076254964 -1.7744802 -0.39195102 -1.2365726
0.6175845 -1.8869451 0.40371668 0.5836866 -0.89235604 0.24713129 -0.009476103 -0.06216078
-0.39829177 -0.8919554 0.61602396 -1.4939909 0.5790881 -0.5455802 0.3654245 0.52323294
0.19690149 -0.6282447 -0.12839508 -1.7681575 0.62381667 -1.4480084 -0.7222749 0.9877606
-1.9452477 -1.3905181 0.3694686 -1.6477715 0.46813035 -0.67210335 0.6443469 -1.1473464
0.44202945 -0.39281955 -0.90433186 0.3364836 0.5123531 0.73349 0.27980408 0.16935928
-1.1977594 -2.1057296 -1.3517506 1.0226732 -0.7867633 0.30447012 -0.88762987 0.61372995
-0.7618875 -1.4159855 0.73874485 0.21726014 0.54628706 0.2942919 -1.1317234 0.65253675
0.2954197 -0.4088889 -1.1964864 0.28495488 -1.4085739 0.06352927 0.42580953 0.65738904
0.3528407 -1.0575621 0.30790678 0.749796 -1.1283214 -1.3968866 0.35399204 0.5283365
0.26212308 0.57046956 1.26899 0.30039442 -1.8973212 -0.2006654 0.36707723 0.47755206
0.73186547 -1.2946167 -0.8126711 0.2857315 0.69902533 0.78208125 -0.9270997 0.2516238
-1.6145154 -1.0522685 0.6241289 1.2404562 0.571829 0.36086205 0.3398864 -1.2684919
0.26606357 0.46090192 0.41787064 -2.1206625 -0.8078303 -1.0934707 -0.378273 0.2993446
00000000: 6f3d e6bf 9db9 0dc0 5058 953d c37f 943e
00000010: 3496 403f b6f0 e8bf b28b 55bf 2555 8f3f
00000020: 8fd7 ff3e ae4e fa3e cb04 98bf 0ff3 6f3e
00000030: aeee 473e 6d40 283f ec88 f83d 1210 8a3f
00000040: 0b42 7fbe 3b1f 263f d3a7 5b3d b2d3 ad3f
00000050: 3d3a 9abf 2bc0 2ebf 08f7 323e 5ced 2b3f
00000060: 8ba7 1dbf 7f86 373f 1010 2e3f adf2 abbf
00000070: 6d5f 2a3f b3c1 acbf 9af0 a73e b788 cbbd
00000080: 6cf8 e7be 24c3 bbbf 231a 05c0 ee5a 133f
00000090: e418 623f 7f67 063f c749 473f 674e a73e
000000a0: 9c81 a9bf 04d3 a7bf 736d 533f b906 10bf
000000b0: c6e3 d13e 6fa0 02c0 6f6b 18bf 08ab 20c0
000000c0: 7c11 493f 6f0d 083f e8c1 38bf 6c50 863e
000000d0: a8ed f2bd b4e4 923e f7a9 8bbf 8cc8 0bbf
000000e0: fa7f e93e 3830 443e a459 443f f3fe 923f
000000f0: 3353 153f 0f0e a73e bfc6 b33e 9875 763e
00000100: c607 2c3f 8b04 253e 77ca 9c3e e1c5 50bf
00000110: 4d5a a1bf 41c1 2ebf 1699 703e 99e7 f93e
00000120: ab73 82bf ddbb 0e3f 59d2 dcbe 229d 2b3f
00000130: c508 9fbf f7be 183f e704 823e 4039 dc3e
00000140: 18c9 003f ba61 96bf 078b d5bf b15f 793f
00000150: e494 6ebf 471e 5c3f cd80 a5bf 73ed 693e
00000160: 7d6e 993e 1e59 923f 4240 803e b2b1 423f
00000170: 7c68 0cbf 8f92 d03e da25 c1bf 0ed7 c1bf
00000180: 2a52 51be e036 9cbf 6b2f 803e af1e f73e
00000190: 7392 b0bf 2774 143f de6e 033f d8c5 1b3f
000001a0: b6f1 b03e 448e 853e a8ce c33e 079a 46bf
000001b0: fe1b e23e 724e 6bbf 94fe 03bf d61f b8be
000001c0: 7553 833e 131e 6d3f 09f6 2ebf feed 403f
000001d0: 39c8 ebbf c22d 05c0 04eb 1d3f a37e 8b3e
000001e0: 6dda 22bf b197 083f 719e 32bf 0125 a7bf
000001f0: c15e 9fbf 94ad 3d3e 631e 0cbf 1bfc 853e
00000200: 581f a13e 271a 11c0 96ec 54bf 1348 89be
00000210: 5d14 23bf 72d3 323f afc3 b13e a025 bebf
00000220: ef00 7ebf 9b9b 173f 99fa a63e 7924 223f
00000230: 46c7 7f3e 75cb 10bf bfcd 85bf 5994 1b3f
00000240: 8dbf 6a3f 8ad7 12bf 94b2 9e3e 6b9f 4f3f
00000250: 902b 9cbd 2b22 e3bf cead c8be 0348 9ebf
00000260: 051a 1e3f 6b87 f1bf f4b3 ce3e 7c6c 153f
00000270: 7271 64bf fc0f 7d3e a841 1bbc 4d9c 7ebd
00000280: e6ec cbbe 3057 64bf bfb3 1d3f 183b bfbf
00000290: 1e3f 143f 25ab 0bbf ec18 bb3e 98f2 053f
000002a0: 8ba0 493e a5d4 20bf 007a 03be fc52 e2bf
000002b0: 73b2 1f3f 5758 b9bf 02e7 38bf e1dd 7c3f
000002c0: e0fd f8bf 7ffc b1bf fd2a bd3e 2dea d2bf
000002d0: c8ae ef3e f70e 2cbf ebf3 243f 3fdc 92bf
000002e0: af51 e23e a51f c9be 4b82 67bf 9447 ac3e
000002f0: 9329 033f 00c6 3b3f 7b42 8f3e 856c 2d3e
00000300: 2e50 99bf 46c4 06c0 2a06 adbf f5e6 823f
00000310: 5269 49bf 82e3 9b3e b63b 63bf 681d 1d3f
00000320: 0f0b 43bf 033f b5bf 621e 3d3f 7179 5e3e
00000330: 78d9 0b3f 6ead 963e 50dc 90bf a60c 273f
00000340: 4041 973e e359 d1be 7726 99bf 9be5 913e
00000350: 264c b4bf a21b 823d b503 da3e a64a 283f
00000360: 89a7 b43e 325e 87bf f5a5 9d3e a1f2 3f3f
00000370: d66c 90bf 2ecd b2bf 723e b53e 1041 073f
00000380: ff34 863e 4b0a 123f 446e a23f 4ccd 993e
00000390: 6cdb f2bf 3b7b 4dbe 8cf1 bb3e b481 f43e
000003a0: 895b 3b3f 00b6 a5bf 370b 50bf 664b 923e
000003b0: 53f3 323f 7a36 483f 6856 6dbf d6d4 803e
000003c0: 71a8 cebf bcb0 86bf e9c6 1f3f 45c7 9e3f
000003d0: 6363 123f e9c2 b83e 9705 ae3e f15d a2bf
000003e0: 7c39 883e 56fb eb3e 24f3 d53e efb8 07c0
000003f0: f7cd 4ebf d9f6 8bbf 00ad c1be b243 993e

linear2.bias f4 [2]
0.25912428 0.26686755
00000000: f0ab 843e dda2 883e
