code/log/dqn/ckpt/653000.pth (torch, 15775 bytes, 4 tensors)

linear.weight f4 [512, 4]
0	0x3d930101	0.07177926
1	0xbdcdb592	-0.100443974
2	0xc02e0c02	-2.719483
3	0xbeaf78da	-0.3427189
4	0x3f097ee9	0.53709275
5	0x3e0cbcaa	0.13743845
6	0x3f675c6f	0.9037542
7	0x3d68f76a	0.056876577
8	0x3f225f11	0.6342631
9	0x3dd529c2	0.10408355
10	0xbebb6284	-0.365986
11	0x3d9d690c	0.07686052
12	0xbe725237	-0.23664175
13	0xbc282779	-0.010263317
14	0xbed01e1e	-0.40647978
15	0xbcaa2604	-0.02077008
16	0x3ead1911	0.33808187
17	0x3f4918ee	0.78553665
18	0xbec9d263	-0.39418325
19	0x3e02c04b	0.12768666
20	0x3ee525ab	0.447553
21	0x3f49d041	0.78833395
22	0x401d52b2	2.4581723
23	0x3f21f307	0.63261455
24	0x3f18fda3	0.5976202
25	0x3e51771c	0.20455593
26	0xbe2b148e	-0.1670706
27	0x3e1ec1cc	0.15503615
28	0x3d0e5dc9	0.03475741
29	0x3f5991cb	0.8498809
30	0x3ff7787c	1.9333644
31	0x3f1fc91a	0.6241623
32	0xbe748871	-0.23880173
33	0xbe86066c	-0.26176775
34	0xbf099320	-0.5374012
35	0xbea4cc24	-0.32186997
36	0xbe5a8c26	-0.21342525
37	0x3f063ed8	0.5243964
38	0xbe20e138	-0.15710914
39	0x3cf6031d	0.030030781
40	0x3f119d32	0.56880486
41	0xbf17993c	-0.5921819
42	0xc012ff7f	-2.2968442
43	0xbf784111	-0.96974283
44	0xbe3c095e	-0.18362948
45	0xbdfcbb30	-0.12340391
46	0xbdacdf49	-0.08441026
47	0x3e2c3bf2	0.16819742
48	0xbe3e75c5	-0.18599613
49	0x3cec4214	0.028840102
50	0xbe214cab	-0.15751903
51	0x3e56b92b	0.20969073
52	0x3e5374f3	0.20650081
53	0xbe25e9c8	-0.16202462
54	0xbe380ba4	-0.1797319
55	0xbe6fcfb0	-0.2341907
56	0xbf3a9513	-0.7288372
57	0xbf65baf0	-0.8973837
58	0xbfd0dd62	-1.6317561
59	0xbec32376	-0.38112992
60	0x3f3fd156	0.74928796
61	0x3f5a51bd	0.8528097
62	0x3f7bbeb6	0.98337877
63	0x3f191461	0.5979672
64	0x3da1e594	0.07905117
65	0xbe8a93fe	-0.27066034
66	0xbfb64150	-1.4238682
67	0xbef2d604	-0.47428906
68	0x3e1a8125	0.15088327
69	0x3e5d5b9f	0.21616982
70	0xbf549b17	-0.8304915
71	0xbcb66699	-0.02226572
72	0x3e9cd55d	0.30631533
73	0xbe9f83ec	-0.31155336
74	0x400e2b27	2.2213838
75	0x3f93abd7	1.1536816
76	0xbd982a12	-0.07429899
77	0xbf0e68a4	-0.5562842
78	0xc0350617	-2.8284967
79	0xbf0f27d3	-0.5592014
80	0xbf13012c	-0.57423663
81	0xbdcf9416	-0.10135667
82	0xbfdc446e	-1.7208383
83	0xbe0db136	-0.13837132
84	0x3f05d533	0.5227844
85	0x3da71bae	0.08159576
86	0xbf994d7d	-1.1976773
87	0xbe59c36e	-0.21265957
88	0x3db5c724	0.08875874
89	0xbea0e05f	-0.31421182
90	0xbe809de3	-0.25120458
91	0xbd92f7e5	-0.071761884
92	0x3e92c35e	0.28664678
93	0xbe07c96a	-0.13260427
94	0xbf880372	-1.0626051
95	0xbe2b8c2b	-0.16752689
96	0x3e88cd20	0.26718998
97	0xbeab17c8	-0.3341658
98	0xc02872e0	-2.6320114
99	0xbeddfd37	-0.4335725
100	0x3d9540c0	0.07287741
101	0x3f812936	1.0090702
102	0x3ca73814	0.020412482
103	0x3ddd7338	0.10812992
104	0xbf2a2aa9	-0.66471344
105	0xbeb3b51b	-0.3509911
106	0xbf8a68cf	-1.0813235
107	0xbed80694	-0.4219252
108	0x3f21ca73	0.6319954
109	0x3e4dc97c	0.20096391
110	0x3f2ea159	0.68214947
111	0x3e8c70e5	0.27429882
112	0x3d032501	0.03201771
113	0xbaea9056	-0.0017895799
114	0x3e1a821f	0.150887
115	0xbf09d2b9	-0.5383716
116	0xbeed6bf8	-0.46371436
117	0x3e1b7bce	0.15183946
118	0x3eba82d0	0.36427927
119	0x3ddf25e2	0.108958974
120	0x3df22b21	0.118246324
121	0xbdca69a3	-0.0988343
122	0xbf24bdfb	-0.6435239
123	0x3ce2e1e1	0.027695598
124	0xbee70653	-0.45122012
125	0xbeb68e8b	-0.35655627
126	0xbfe9824c	-1.8242888
127	0xbf0483de	-0.51763713
128	0xbeed437b	-0.46340546
129	0xbec5dc44	-0.38644612
130	0xbee02b65	-0.43783107
131	0xbeef4c02	-0.46737677
132	0xbf055155	-0.5207723
133	0xbe4bd281	-0.1990452
134	0xbf8848cb	-1.0647215
135	0xbe69e04c	-0.22839469
136	0xbf0a9f0d	-0.5414894
137	0xbeae0207	-0.33985922
138	0x3ed7ef38	0.42174697
139	0xbdce4dd9	-0.10073442
140	0x3e1bbe07	0.15209208
141	0x3dc579de	0.09642385
142	0x3c969a64	0.018384166
143	0xbe7e7ee3	-0.24853091
144	0xbec55567	-0.3854172
145	0xbf441080	-0.76587677
146	0xbfd32d25	-1.6498152
147	0xbf1e1284	-0.61747
148	0xbdf3dcef	-0.11907374
149	0xbef6925d	-0.4815854
150	0xbf4b5a39	-0.79434544
151	0xbea3ca92	-0.31990486
152	0x3d8b4bd6	0.06801574
153	0xbe9af829	-0.30267456
154	0xc00e4e62	-2.223534
155	0xbeb6c501	-0.35697177
156	0x3ea3bd7d	0.31980506
157	0xbf0eee80	-0.5583267
158	0xbf123ebb	-0.5712697
159	0xbe8e6b32	-0.2781616
160	0xbda5ba1b	-0.080921374
161	0xbec6eddb	-0.38853344
162	0xc0810512	-4.031869
163	0xbfa5aa44	-1.2942586
164	0xbf05b3df	-0.52227587
165	0xbd9623e0	-0.07331061
166	0xbf4ae8c2	-0.7926141
167	0xbddc535f	-0.10758089
168	0xbfd1404c	-1.6347747
169	0xbe145859	-0.14486827
170	0x3e890038	0.2675798
171	0xbc07e018	-0.008293174
172	0x3dc2d506	0.09513287
173	0x3e9c5ea0	0.30540943
174	0x3e8f433e	0.2798099
175	0x3f2daf9b	0.6784608
176	0xbe0f00dc	-0.13965172
177	0xbef09cd4	-0.4699465
178	0xbd6935ec	-0.05693619
179	0xbec5cadc	-0.38631332
180	0xbef8f9a6	-0.48627967
181	0xbec9d99e	-0.3942384
182	0x3f27273d	0.6529425
183	0xbe39787a	-0.18112364
184	0x3eddd445	0.4332601
185	0x3ea2655d	0.3171796
186	0xbe5bcd6a	-0.21465078
187	0x3e495bcc	0.19663924
188	0xbf0af1e2	-0.54275334
189	0x3e6a6b6c	0.2289254
190	0x3f626aea	0.8844439
191	0x3e177772	0.14791659
192	0xbf153cf3	-0.58296126
193	0xbeca2693	-0.39482555
194	0xbf223e78	-0.6337657
195	0xbe80db93	-0.25167522
196	0xbe48a88c	-0.19595546
197	0x3db1172d	0.086469986
198	0xbf23589d	-0.6380709
199	0xbc8f38fa	-0.017483223
200	0x3eaf48f3	0.34235343
201	0xbd0f3a42	-0.03496767
202	0xbfc52db5	-1.5404574
203	0xbe51b13b	-0.20477764
204	0xbe872cfd	-0.2640151
205	0x3e5427d6	0.20718321
206	0xbf00aea9	-0.5026651
207	0x3ec7250a	0.38895446
208	0x3e250f66	0.16119155
209	0x3d94453a	0.072397664
210	0xbd910035	-0.070801176
211	0xbdd6a655	-0.10480944
212	0xbcf2bb73	-0.029630398
213	0xbe864f4d	-0.26232377
214	0xbee19a19	-0.4406288
215	0xbdb37318	-0.08762187
216	0xbeb71e96	-0.35765523
217	0xbef5cb5c	-0.48006713
218	0xc02017ea	-2.5014596
219	0xbee91cd1	-0.45529798
220	0xbdc38c9b	-0.09548303
221	0x3edddb12	0.433312
222	0x3f8f824f	1.1211642
223	0x3f14f4ae	0.5818585
224	0xbe9fe4ab	-0.31229147
225	0x3e0da9c6	0.13834295
226	0xbf1f6222	-0.62259114
227	0xbc5fd7ad	-0.013662261
228	0xbe468fce	-0.19390795
229	0x3c5d0d40	0.013491929
230	0xbe850a26	-0.25984305
231	0x3e8231ce	0.25428623
232	0x3e2f4bab	0.17118709
233	0xbd89e57e	-0.06733225
234	0x3c8b6edd	0.017020637
235	0xbed59175	-0.41712537
236	0x3dc9da08	0.09856039
237	0xbe9e4dbb	-0.3091868
238	0x3f7703e0	0.9649029
239	0x3f01d2b2	0.5071212
240	0x3ba8a25b	0.0051463074
241	0x3e915054	0.28381598
242	0xbee1fa3c	-0.44136226
243	0xbd33a15b	-0.043855052
244	0x3ea66354	0.32497656
245	0xbf2375a3	-0.63851374
246	0xbd898bfb	-0.06716152
247	0xbec96d66	-0.39341277
248	0xbd9de08d	-0.07708845
249	0xbe90fb46	-0.28316706
250	0xbf2aab01	-0.6666718
251	0x3cfa81a4	0.030579396
252	0x3e81e1af	0.25367495
253	0xbf03aa5e	-0.51431835
254	0xbe85adb7	-0.26109096
255	0xbe2316ae	-0.1592662

linear.bias f4 [512]
0	0xbf182a4e	-0.5943955
1	0xbce94aac	-0.02847799
2	0xbecbd2b7	-0.398092
3	0x3f3d533e	0.7395514
4	0x3f66b7ac	0.9012401
5	0xbf5baf01	-0.8581391
6	0xbf85f836	-1.0466373
7	0xbe1b92cb	-0.15192716
8	0x3f7e4d07	0.99336284
9	0x3f687cd2	0.9081546
10	0x3f185343	0.5950205
11	0x3f49623b	0.7866551
12	0x3f356fab	0.70873517
13	0x3f42c174	0.76076436
14	0x3dfe204f	0.12408506
15	0x3f1adb97	0.6049132
16	0x3f0dec3e	0.554386
17	0x3f8c3f7a	1.0956872
18	0xbf1cb859	-0.6121879
19	0xbe9a0e93	-0.30089244
20	0xbf78e2d3	-0.97221106
21	0xbf7edac0	-0.99552536
22	0x3ef6a721	0.48174384
23	0x3f69f3dc	0.91387725
24	0xbd1ab601	-0.03777123
25	0x3f7a239b	0.9771058
26	0x3f3fe898	0.74964285
27	0xbe938144	-0.2880956
28	0x3f834466	1.0255249
29	0xbf6a0f6d	-0.9142979
30	0x3f20c0d2	0.6279422
31	0xbd93f918	-0.07225245
32	0xbe9dbcd7	-0.30808136
33	0xbf67d4e3	-0.90559214
34	0xbf86807e	-1.0507963
35	0x3f862199	1.0479003
36	0x3e829d00	0.25510406
37	0x3f259efe	0.6469573
38	0xbf451306	-0.7698215
39	0x3f5381b2	0.82619774
40	0x3f0d6309	0.5522924
41	0xbf78ff1d	-0.9726427
42	0x3eb06938	0.34455276
43	0x3f5910c9	0.8479124
44	0x3f622613	0.88339347
45	0xbf8067c6	-1.0031669
46	0xbf41161a	-0.7542435
47	0xbf823573	-1.0172561
48	0x3f2b1a90	0.66837406
49	0x3f1ee320	0.62065315
50	0xbf3bd09d	-0.73365194
51	0x3f68a642	0.9087869
52	0xbf0659ad	-0.52480584
53	0x3ef81e2f	0.48460528
54	0xbf100a6c	-0.562659
55	0x3f3678b5	0.71277934
56	0x3f6c76b9	0.92368656
57	0x3f490c00	0.78533936
58	0x3f73bc2d	0.9520901
59	0x3e08d8d3	0.13363962
60	0x3f6d20c7	0.9262814
61	0x3f525628	0.82162714
62	0x3f052099	0.52002865
63	0x3e82496f	0.2544665
64	0x3f4ec16d	0.80763894
65	0x3f53dd07	0.82759136
66	0x3f059c7c	0.521919
67	0xbf6ea788	-0.9322438
68	0xbf0f8e70	-0.5607672
69	0x3f889033	1.0669006
70	0x3f5e6968	0.8687959
71	0x3f0e78ee	0.55653274
72	0xbf67ca01	-0.9054261
73	0x3f4076b2	0.75181115
74	0xbf3959cc	-0.72402644
75	0x3d93ecc5	0.072228946
76	0xbf7384f2	-0.95124733
77	0x3f4003f6	0.75006044
78	0x3f728e76	0.9474863
79	0x3ef2d4c2	0.47427946
80	0x3f5a3bb7	0.8524737
81	0x3ee70262	0.45119005
82	0x3f454705	0.7706149
83	0x3e76badf	0.24094723
84	0xbf0a70ea	-0.54078543
85	0x3efb5d77	0.49094746
86	0x3f3adbac	0.7299144
87	0x3f302d01	0.6881867
88	0x3f53d08c	0.8274009
89	0xbed82eb2	-0.42223126
90	0x3f6640fb	0.899429
91	0x3f88973f	1.0671157
92	0xbf8a4325	-1.0801741
93	0x3f6ff80b	0.9373786
94	0xbf79127a	-0.9729382
95	0xbf8693cd	-1.0513855
96	0xbecb662f	-0.39726397
97	0x3f09bc32	0.5380279
98	0x3f1fe67e	0.6246108
99	0x3efe326c	0.49647844
100	0xbf2dbab8	-0.67863035
101	0x3ea71ccd	0.3263916
102	0x3f5fdff4	0.874511
103	0x3f72ef85	0.9489673
104	0x3ec2f220	0.38075352
105	0x3f09bc2e	0.53802764
106	0x3f4751b0	0.7785902
107	0xbedc2189	-0.42994335
108	0x3f4d78c7	0.80262417
109	0xbf2ac9b0	-0.66714
110	0x3ecce6a8	0.40019727
111	0x3f24a7ad	0.6431835
112	0x3f4f5de9	0.8100267
113	0x3f20caf3	0.62809676
114	0xbf643872	-0.8914863
115	0x3f28ffca	0.66015303
116	0xbf81dbd8	-1.0145216
117	0xbf977d2a	-1.1835072
118	0x3f55ff7c	0.83592963
119	0x3f030922	0.5118581
120	0xbf6f3822	-0.93445027
121	0x3f600a38	0.8751559
122	0xbf63d19c	-0.88991714
123	0xbe14b922	-0.14523748
124	0x3f9012bd	1.1255718
125	0x3f2de8e7	0.67933506
126	0xbeeffb15	-0.46871248
127	0x3f38fcfe	0.72261035
128	0x3f3f9aec	0.7484577
129	0xbf0c74a0	-0.54865456
130	0x3f245015	0.64184695
131	0x3d135074	0.035965398
132	0x3e9bb130	0.3040862
133	0x3ee59148	0.44837403
134	0x3f42bd89	0.7607046
135	0x3d987154	0.074434906
136	0x3f85b92a	1.0447133
137	0x3f8ded5d	1.1088063
138	0x3f34e274	0.7065804
139	0x3f1ac19f	0.6045169
140	0x3f3814c5	0.7190669
141	0x3f182754	0.5943501
142	0xbf2a4026	-0.6650413
143	0xbf40cd02	-0.7531282
144	0xbf20abfb	-0.6276242
145	0xbf23e115	-0.6401532
146	0x3ec4392f	0.38324878
147	0x3f81f67c	1.0153346
148	0x3f030662	0.51181614
149	0xbf79f168	-0.9763398
150	0xbf0f7186	-0.560326
151	0xbf4bbb05	-0.79582244
152	0x3f571df4	0.8403008
153	0xbf96d897	-1.1784848
154	0x3f648be4	0.89275956
155	0x3f85b1cd	1.0444885
156	0xbf53a625	-0.8267539
157	0x3f4b41f5	0.7939752
158	0xbf03dcb4	-0.5150864
159	0xbf220fcb	-0.6330535
160	0xbe6586f7	-0.22414766
161	0x3e4117d9	0.18856753
162	0x3efda11e	0.49536985
163	0x3f67723e	0.90408695
164	0x3f7734ae	0.9656476
165	0xbe49af43	-0.19695763
166	0x3f695f19	0.9116073
167	0x3f5420f0	0.8286276
168	0x3f4fa066	0.81104124
169	0xbf1acd07	-0.60469097
170	0xbeaa353f	-0.3324375
171	0xbf83dfca	-1.030267
172	0x3f714b64	0.9425566
173	0xbfa32d60	-1.2748222
174	0x3d3a0c42	0.045421846
175	0x3def418c	0.11682424
176	0xbf079c8b	-0.5297324
177	0xbf281556	-0.65657556
178	0x3f688c91	0.9083949
179	0xbde34864	-0.11097792
180	0x3f871881	1.0554353
181	0xbf637d6c	-0.88863254
182	0x3f1ab45c	0.60431457
183	0xbe0b03e1	-0.13575698
184	0x3f1d6425	0.61480933
185	0x3c817983	0.015805012
186	0xbfad7d2c	-1.3553824
187	0x3f3ecfa2	0.7453557
188	0x3f61c7a5	0.8819526
189	0x3f686ff9	0.90795857
190	0x3f734ece	0.9504212
191	0x3f1e5561	0.6184903
192	0xbf222907	-0.6334385
193	0xbf81e62e	-1.014837
194	0xbeb21239	-0.34779528
195	0x3d58eb80	0.052958965
196	0xbf153aab	-0.58292645
197	0x3f3c759a	0.73616946
198	0x3f5f8fbb	0.8732869
199	0x3f057bcb	0.5214202
200	0x3f4691aa	0.77566016
201	0xbf99065a	-1.1955063
202	0x3f23a5ee	0.63925064
203	0x3f5cf51a	0.86311495
204	0x3f628f34	0.8849976
205	0x3f7c631a	0.98588717
206	0x3f63b199	0.8894287
207	0x3e4be6ff	0.19912337
208	0x3f44664a	0.7671858
209	0x3ef6d1d6	0.48206967
210	0x3f540c77	0.8283152
211	0x3f79f8f6	0.9764551
212	0xbe58a142	-0.21155265
213	0xbeb1a130	-0.3469329
214	0x3f5cf343	0.8630869
215	0x3f78cfaa	0.9719187
216	0x3f5cfffc	0.863281
217	0xbec91f61	-0.39281753
218	0x3f2a6fca	0.66576827
219	0x3f53de9d	0.82761556
220	0xbf64cf80	-0.8937912
221	0xbf1339fe	-0.57510364
222	0x3f759a4a	0.9593855
223	0x3f5222c7	0.82084316
224	0x3f29e70c	0.66368175
225	0x3f6317c5	0.88708144
226	0x3eea1d46	0.4572546
227	0x3f455abb	0.7709157
228	0xbd61be55	-0.055113155
229	0xbf166ec2	-0.58762753
230	0x3f0e618d	0.556176
231	0x3f47819f	0.7793216
232	0x3f7e593f	0.9935493
233	0xbf7912f5	-0.9729455
234	0xbe9c6a39	-0.3054979
235	0x3f00d6ee	0.50327957
236	0x3f464aeb	0.77458066
237	0xbf02ea67	-0.5113892
238	0xbfa83dc1	-1.3143846
239	0x3f122945	0.5709422
240	0xbf3b62c1	-0.7319756
241	0xbf7a9cf0	-0.9789572
242	0x3f484a71	0.7823859
243	0x3f034e60	0.51291466
244	0x3f470739	0.77745396
245	0x3f1bc70b	0.6085059
246	0x3f2e5ae2	0.68107426
247	0xbe81939f	-0.25307938
248	0x3f11f45e	0.570135
249	0x3f2a2ca9	0.66474396
250	0x3f445bc4	0.76702523
251	0xbf194fa5	-0.5988715
252	0xbf694b75	-0.91130763
253	0xbf5eec4d	-0.87079316
254	0x3bef1c15	0.007297049
255	0x3f5bed99	0.8590942

linear2.weight f4 [2, 512]
0	0xbfe63d6f	-1.7987498
1	0xc00db99d	-2.214454
2	0x3d955850	0.07292235
3	0x3e96beab	0.29442343
4	0x3f3f1e08	0.746552
5	0xbfe8f0b6	-1.8198459
6	0xbf558bb2	-0.83416283
7	0x3f8f5525	1.1197859
8	0x3f0109fb	0.50405854
9	0x3efb8323	0.49123487
10	0xbf987016	-1.1909206
11	0x3e75bd78	0.23998058
12	0x3e4d4f26	0.20049724
13	0x3f290356	0.66020715
14	0x3e0127c8	0.12612832
15	0x3f891b96	1.0711544
16	0xbe7c5b7c	-0.24644274
17	0x3f2672bd	0.65018827
18	0x3ef59192	0.47962624
19	0x3fabea40	1.3430862
20	0xbface65e	-1.3507802
21	0xbf2ec02b	-0.68261975
22	0x3e376712	0.17910412
23	0x3f2c233c	0.67241263
24	0xbf134b55	-0.5753682
25	0x3f306547	0.68904537
26	0x3f2f270e	0.6841897
27	0xbfabf2ad	-1.3433434
28	0x3f2b213f	0.66847605
29	0xbfe9b597	-1.8258542
30	0x3ea95fa5	0.33080783
31	0xbdca3106	-0.09872632
32	0xbee5a6d2	-0.44853836
33	0xbfc9a466	-1.5753295
34	0xc008c24b	-2.1368587
35	0x3f144516	0.57917917
36	0x3f62d984	0.8861315
37	0x3f07629e	0.5288485
38	0x3f4749c7	0.7784695
39	0x3ea91074	0.33020365
40	0xbfa9a146	-1.3252342
41	0xbfc08a53	-1.5042213
42	0x3f54f8b2	0.8319198
43	0xbf0da9ec	-0.55337405
44	0x3ed47a03	0.41499338
45	0xc00532bb	-2.0812213
46	0xbf186b6f	-0.5953893
47	0xc03e1a99	-2.9703734
48	0x3f4a48eb	0.79017514
49	0x3f08ba25	0.53409034
50	0xbf38c1e8	-0.7217088
51	0x3e88b260	0.2669859
52	0xbdf2eda8	-0.118617356
53	0x3e9505ae	0.29105896
54	0xbf8ca5ed	-1.0988137
55	0xbf0840c2	-0.5322381
56	0x3eeb8130	0.45997
57	0x3e49b47e	0.19697759
58	0x3f44f2b2	0.76932824
59	0x3f929dda	1.1454422
60	0x3f15d469	0.5852724
61	0x3ea93f11	0.33055928
62	0x3eb5eb2b	0.3553098
63	0x3e784ab7	0.24247251
64	0x3f2cc800	0.67492676
65	0x3e2a41fa	0.1662673
66	0x3e9e3aa7	0.30904123
67	0xbf50c5e1	-0.8155194
68	0xbfa2aa62	-1.2708247
69	0xbf2cc62a	-0.67489874
70	0x3e75425f	0.239511
71	0x3ef8a024	0.48559678
72	0xbf93f46f	-1.155897
73	0x3f0f5d89	0.560021
74	0xbedcd259	-0.43129233
75	0x3f2ca191	0.6743403
76	0xbfa76297	-1.3076962
77	0x3f18fc1e	0.597597
78	0x3e846c53	0.25863895
79	0x3edf2f23	0.4359065
80	0x3f010f30	0.504138
81	0xbf893cba	-1.0721657
82	0xbfd533c0	-1.6656418
83	0x3f94c176	1.162154
84	0xbf6e94e4	-0.9319594
85	0x3f5e0eca	0.86741316
86	0xbfa1ec5c	-1.2650256
87	0x3e6e5d36	0.23277745
88	0x3e9c3301	0.30507663
89	0x3f8ce0ab	1.1006063
90	0x3e82c1d1	0.25538495
91	0x3f437a78	0.7635875
92	0xbf0c687c	-0.5484693
93	0x3ed2bfec	0.4116205
94	0xbfc125da	-1.5089676
95	0xbfc1d70e	-1.5143754
96	0xbe51522a	-0.204415
97	0xbf9c3e77	-1.2206563
98	0x3e82275d	0.25420657
99	0x3ef972ba	0.48720342
100	0xbfb09273	-1.3794693
101	0x3f190f3e	0.5978888
102	0x3f0437ee	0.5164784
103	0x3f1c2d80	0.6100693
104	0x3eb68bb1	0.3565345
105	0x3e87ce70	0.26524687
106	0x3ec5aaee	0.38606972
107	0xbf8de150	-1.1084385
108	0x3ee2d0fb	0.44300064
109	0xbf67c0d4	-0.9052861
110	0xbf00fa52	-0.5038196
111	0xbeb596b9	-0.35466555
112	0x3e863fe8	0.26220632
113	0x3f6b344e	0.91876686
114	0xbf2ef609	-0.6834417
115	0x3f41e318	0.7573714
116	0xbfebc839	-1.8420478
117	0xc00cb7cd	-2.1987183
118	0x3f1eb16c	0.61989474
119	0x3e8b65bc	0.27226055
120	0xbf40ec00	-0.7536011
121	0x3f09232f	0.5356931
122	0xbf08b939	-0.5340763
123	0xbfa5f0c2	-1.2964098
124	0xbf9e0573	-1.2345413
125	0x3e3fab5b	0.1871771
126	0xbf0c1e63	-0.54733866
127	0x3e8878cc	0.2665466
128	0x3ea3da28	0.32002378
129	0xc0104283	-2.2540596
130	0xbf5693b1	-0.8381911
131	0xbe864c61	-0.26230147
132	0xbf204f26	-0.6262077
133	0x3f33b050	0.70190907
134	0x3eb444cc	0.35208738
135	0xbfb9d654	-1.4518533
136	0xbf7c0d19	-0.98457485
137	0x3f186307	0.59526104
138	0x3ea900b6	0.33008355
139	0x3f2353a1	0.6379948
140	0x3e81e564	0.25370324
141	0xbf10cbb1	-0.5656081
142	0xbf85cdbf	-1.0453414
143	0x3f1b9459	0.60773236
144	0x3f6abf8d	0.91698533
145	0xbf12d78a	-0.57360137
146	0x3ea1f873	0.31634864
147	0x3f501331	0.81279284
148	0xbd92933e	-0.071569905
149	0xc0105e08	-2.2557392
150	0xbecaebef	-0.39633128
151	0xbf9e476b	-1.2365545
152	0x3f1eca33	0.6202728
153	0xbff1876b	-1.8869451
154	0x3ed09499	0.4073837
155	0x3f1632a0	0.58671
156	0xbf56cb69	-0.8390413
157	0x3e81245b	0.2522305
158	0xbc1b41a8	-0.009476103
159	0xbd8451ef	-0.0646094
160	0xbe99d917	-0.3004844
161	0xbf506f35	-0.8141969
162	0x3f1f83c0	0.6231041
163	0xbfbeb6eb	-1.4899572
164	0x3f1496dc	0.58042693
165	0xbf0a14c3	-0.5393793
166	0x3ebc57f1	0.36785844
167	0x3f0674c5	0.52521926
168	0x3e4f980f	0.2027285
169	0xbf20d4a5	-0.6282447
170	0xbdfef181	-0.12448407
171	0xbfe252fc	-1.7681575
172	0x3f20728f	0.626748
173	0xbfb95857	-1.4480084
174	0xbf36f9e2	-0.7147504
175	0x3f7dd0f8	0.99146986
176	0xbffc561f	-1.9713782
177	0xbfb35633	-1.4010681
178	0x3ec001d1	0.37501386
179	0xbfd2ea2d	-1.6477715
180	0x3ef131c0	0.4710827
181	0xbf2c0ef7	-0.67210335
182	0x3f28a054	0.6586964
183	0xbf92dc3f	-1.1473464
184	0x3ee4a997	0.44660637
185	0xbecc394a	-0.39887458
186	0xbf67824b	-0.90433186
187	0x3eae820b	0.3408359
188	0x3f02caa1	0.5109044
189	0x3f3c35da	0.7351967
190	0x3e9107c5	0.2832624
191	0x3e317fc1	0.1733389
192	0xbf9a27d6	-1.2043407
193	0xc006c446	-2.1057296
194	0xbfad062a	-1.3517506
195	0x3f839825	1.0280806
196	0xbf34c041	-0.70605856
197	0x3e9e21d4	0.30885184
198	0xbf68c18a	-0.9092032
199	0x3f1eb683	0.6199724
200	0xbf418011	-0.7558604
201	0xbfb53f03	-1.4159855
202	0x3f3d7dd0	0.740201
203	0x3e638c33	0.2222145
204	0x3f0c2a6a	0.5475222
205	0x3e985877	0.29754993
206	0xbf9054c5	-1.127587
207	0x3f0d3059	0.551519
208	0x3e99358d	0.29923669
209	0xbecce3f6	-0.4001767
210	0xbf96d1fd	-1.1782833
211	0x3e944742	0.28960615
212	0xbfb44c26	-1.4085739
213	0x3d82e1e8	0.063907444
214	0x3edc92ca	0.4308074
215	0x3f292541	0.6607247
216	0x3eb58717	0.35454628
217	0xbf875e32	-1.0575621
218	0x3e9fc8e5	0.31207958
219	0x3f3bb1ba	0.73318064
220	0xbf94e589	-1.1632549
221	0xbfb2cd2e	-1.3968866
222	0x3eb60910	0.3555379
223	0x3f0791b3	0.52956694
224	0x3e888512	0.26664025
225	0x3f12bf2d	0.5732296
226	0x3f96b595	1.1774164
227	0x3e9ca002	0.30590826
228	0xbff2db6c	-1.8973212
229	0xbe441fa9	-0.19152702
230	0x3ebda814	0.37042296
231	0x3ef65b0e	0.48116344
232	0x3f3c2f1a	0.7350937
233	0xbfa5b600	-1.2946167
234	0xbf500b37	-0.8126711
235	0x3e93e548	0.28885865
236	0x3f335caa	0.7006327
237	0x3f48367a	0.78208125
238	0xbf871e99	-1.0556213
239	0x3e838e05	0.2569429
240	0xbfda2dd6	-1.7045238
241	0xbf8df279	-1.1089622
242	0x3f205fcc	0.62646174
243	0x3f962333	1.1729492
244	0x3f15b465	0.58478385
245	0x3ebb2f22	0.36559397
246	0x3eaff683	0.3436776
247	0xbfa25df1	-1.2684919
248	0x3e8acfa1	0.27111533
249	0x3eed42ac	0.4633993
250	0x3ed83cbd	0.4223384
251	0xc007f2e1	-2.1241992
252	0xbf7b236d	-0.9810093
253	0xbf910145	-1.1328512
254	0xbe7ed0e8	-0.24884379
255	0x3e9aea8d	0.30257073

linear2.bias f4 [2]
0	0x3e875daf	0.26438662
1	0x3e89f16e	0.2694201
