code/log/dqn/ckpt/703000.pth (torch, 15775 bytes, 4 tensors)

linear.weight f4 [512, 4]
0	0x3e9a0fad	0.30090085
1	0x3e652865	0.2237869
2	0xc0486817	-3.1313531
3	0xbf2054b5	-0.6262925
4	0x3ef628e6	0.48078078
5	0x3dc336ec	0.0953196
6	0x40046e1f	2.0692213
7	0x3ebbc9b9	0.3667734
8	0x3f458dd8	0.7716956
9	0x3e4ab3eb	0.19795196
10	0xbe9ed98b	-0.31025347
11	0x3e2d6c3a	0.16935816
12	0xbe893dfc	-0.26805103
13	0x3b2536e6	0.0025209724
14	0xbe93e112	-0.28882653
15	0x39311281	0.00016886929
16	0x3eddc515	0.43314424
17	0x3fc28f7a	1.5200036
18	0xbeeae832	-0.45880276
19	0x3e8af1fd	0.27137747
20	0x3eecb713	0.46233425
21	0x3f2ca88f	0.674447
22	0x4032d260	2.7940903
23	0x3f36d8ad	0.7142437
24	0x3f56757f	0.83773035
25	0x3ef956f6	0.48699158
26	0x3f01d99f	0.5072269
27	0x3e614a87	0.22001086
28	0xbd378a91	-0.04480988
29	0x3feef842	1.8669512
30	0x3f649b87	0.89299816
31	0xbe86287c	-0.26202762
32	0xbe906c06	-0.28207415
33	0xbe8e441d	-0.2778634
34	0xbed711bf	-0.42005727
35	0xbe9619f8	-0.29316688
36	0xbe7f26f6	-0.24917206
37	0x3f026807	0.50939983
38	0xbb7ff9e3	-0.0039058856
39	0x3d85985a	0.065231994
40	0x3f5009ed	0.81265146
41	0xbe742d9d	-0.23845525
42	0xc01b5c13	-2.4274948
43	0xbf9e27b1	-1.2355863
44	0xbe51bc5e	-0.20482013
45	0xbd9d08ed	-0.07667718
46	0x3c83bf15	0.016082326
47	0x3e240133	0.16016082
48	0xbe5531c7	-0.2081977
49	0x3d852851	0.0650183
50	0xbd18892e	-0.0372402
51	0x3e61aeab	0.22039287
52	0x3e2c9a1c	0.16855663
53	0xbe3d97cf	-0.18514942
54	0xbd158849	-0.036506925
55	0xbe4d3495	-0.2003959
56	0xbf57c648	-0.8428693
57	0xbfc11bcf	-1.5086612
58	0xbf9c206d	-1.2197396
59	0xbd7acb61	-0.061229113
60	0x3f7ff5d4	0.9998448
61	0x3fbf3899	1.4939147
62	0x3f5070b8	0.81421995
63	0x3f51cd6c	0.81954074
64	0x3d7169d8	0.05893883
65	0xbe14d2e9	-0.14533581
66	0xbfdd0eca	-1.7270138
67	0xbf20fed6	-0.6288885
68	0x3de8719f	0.113497965
69	0x3e48c0b7	0.19604765
70	0xbf2f268f	-0.6841821
71	0x3c449b2e	0.011999888
72	0x3c20d0e4	0.009815428
73	0xbfb1e974	-1.3899369
74	0x3fe9a23d	1.8252636
75	0x3f6e1e37	0.93014854
76	0xbef0aeb2	-0.47008282
77	0xbf80c529	-1.0060169
78	0xc00e7192	-2.2256818
79	0xbe1912da	-0.14948598
80	0xbf532c30	-0.824893
81	0xbe88a593	-0.26688823
82	0xbfc71d84	-1.5555882
83	0x3b8ac880	0.0042353272
84	0x3f092b9c	0.5358217
85	0x3e9ba800	0.3040161
86	0xbeeb47c6	-0.45953196
87	0x3c473711	0.012159125
88	0x3d8d3f02	0.068967834
89	0xbe97cc7e	-0.29648203
90	0xbe16321c	-0.14667553
91	0xbd4189fa	-0.047250725
92	0x3e7f78d2	0.24948433
93	0xbe1a6ebc	-0.15081304
94	0xbf6d1490	-0.926095
95	0xbe0ba1af	-0.13635896
96	0x3f0e858d	0.5567253
97	0x3e084ae9	0.13309826
98	0xc02f1a7a	-2.735991
99	0xbf5da8ad	-0.86585504
100	0xbda0f510	-0.07859242
101	0x3f5fbd5d	0.8739832
102	0xbd741a84	-0.0595956
103	0x3d57a21b	0.05264483
104	0xbf33bea3	-0.70212764
105	0xbf5aaa1e	-0.8541583
106	0xbf39d433	-0.72589415
107	0xbe660a48	-0.2246486
108	0x3f33fa53	0.7030384
109	0x3e86a2cc	0.2629608
110	0x3f969ff8	1.1767569
111	0x3e110af7	0.14164339
112	0xbc4adf09	-0.012382277
113	0xbdcb54fe	-0.0992832
114	0x3ecdd35d	0.4020032
115	0xbeeb9a0c	-0.46015966
116	0xbf0250b9	-0.50904423
117	0x3d74d2f6	0.0597715
118	0x3e8e5331	0.27797845
119	0x3e092ea4	0.13396698
120	0x3db82021	0.08990503
121	0xbd945784	-0.07243255
122	0xbf0c8610	-0.54892063
123	0x3d2293b9	0.03969166
124	0xbd728c73	-0.059215974
125	0x3dafe0ef	0.085878246
126	0xc02b0a6d	-2.6725113
127	0xbf2aff32	-0.6679565
128	0xbeef855e	-0.4678144
129	0xbe7d2ce0	-0.2472415
130	0xbeef0654	-0.46684515
131	0xbec71934	-0.38886416
132	0xbf2f82ab	-0.6855876
133	0xbeb54600	-0.35404968
134	0xbf8e3273	-1.1109146
135	0xbe8f7d0b	-0.28025088
136	0xbf0d6f5a	-0.55248034
137	0xbebc4ba1	-0.3677645
138	0x3ec43d8c	0.38328207
139	0xbdaf9d59	-0.085749336
140	0x3dedb5ba	0.11606927
141	0x3dae9af3	0.08525648
142	0x3e1c7223	0.15277915
143	0xbe618d57	-0.22026573
144	0xbf05703c	-0.5212438
145	0xbf9e9a0c	-1.2390761
146	0xbf6d6111	-0.92726237
147	0xbe8dd3e8	-0.27700734
148	0xbdc31dd9	-0.09527177
149	0xbf077710	-0.5291605
150	0xbf28d602	-0.6595155
151	0xbed60fb7	-0.41808864
152	0x3e02083d	0.12698455
153	0xbe78e0eb	-0.2430455
154	0xc00a6cdb	-2.162894
155	0xbe95d9a9	-0.29267624
156	0x3e95f3b9	0.29287508
157	0xbf0cea96	-0.5504545
158	0xbef155d4	-0.47135794
159	0xbe8497f3	-0.25897178
160	0x3e2c3080	0.16815376
161	0xbe23604c	-0.15954703
162	0xc08cb565	-4.397143
163	0xbfad40c1	-1.3535386
164	0xbf3be84f	-0.7340135
165	0xbe16fa55	-0.14743932
166	0xbf3b522b	-0.73172253
167	0xbe03f57c	-0.12886614
168	0xbfd8552c	-1.6900992
169	0xbecfa928	-0.40558743
170	0x3ef854ef	0.485023
171	0xbe2fdf2c	-0.17174977
172	0x3e0b38d3	0.13595895
173	0x3f0c637f	0.5483932
174	0x3e5e98e6	0.21738014
175	0x3f3d08ad	0.73841363
176	0xbe45379c	-0.19259495
177	0xbeefec97	-0.4686019
178	0x3d96dbd0	0.07366145
179	0xbecd5336	-0.40102547
180	0xbef8d07b	-0.48596558
181	0xbed66a64	-0.41878045
182	0x3f21fac9	0.6327329
183	0xbe2d0c5c	-0.16899246
184	0x3f2567ef	0.64611715
185	0x3f0ac707	0.5420994
186	0x3eea52e4	0.45766366
187	0x3e3c0342	0.18360618
188	0xbf2f73ec	-0.6853626
189	0x3df91d5d	0.12163804
190	0x3f314b4f	0.69255537
191	0x3e1d961e	0.15389296
192	0xbf113598	-0.567224
193	0xbf789c1c	-0.97113204
194	0xbe4fc770	-0.20290923
195	0x3daa977d	0.08329675
196	0xbe6f62e4	-0.23377568
197	0x3d7ed3c1	0.062213663
198	0xbef795b9	-0.48356417
199	0x3c9b6363	0.01896829
200	0x3ecf38ee	0.4047312
201	0x3e45cc73	0.19316272
202	0xbf3fd6d6	-0.7493719
203	0x3d856948	0.065142214
204	0xbe95c2cc	-0.2925018
205	0x3e757c3c	0.23973173
206	0xbec6953f	-0.3878574
207	0x3ecf37bc	0.4047221
208	0x3ebd756f	0.37003657
209	0x3c84edaa	0.016226608
210	0x3dd90763	0.10597112
211	0x3d712033	0.0588686
212	0xbd88a342	-0.06671764
213	0xbe8444ed	-0.25833836
214	0xbeb741dc	-0.35792434
215	0xbd93c4a0	-0.072152376
216	0x3e1b3ae5	0.15159185
217	0xbe6b6721	-0.2298856
218	0xc047dbb0	-3.1227837
219	0xbf3322e2	-0.699751
220	0xbe15b3e0	-0.14619398
221	0x3efcb894	0.49359572
222	0x3fc8e4f1	1.5694867
223	0x3f885d90	1.0653553
224	0xbeb213b3	-0.34780654
225	0x3e12ef74	0.14349157
226	0xbeff8008	-0.49902368
227	0x3bea0d48	0.0071426965
228	0xbe5ce0a6	-0.21570072
229	0x3d8fe33a	0.07025762
230	0xbe28eadb	-0.1649584
231	0x3e8059d9	0.25068548
232	0x3e005a47	0.12534438
233	0xbe24a645	-0.16079052
234	0x3e84ba6a	0.25923473
235	0xbeaf03fb	-0.34182724
236	0x3e368639	0.1782464
237	0xbf57d2b0	-0.8430586
238	0x3f1aa2de	0.60404766
239	0x3ddfb593	0.109233044
240	0xbd017586	-0.03160622
241	0x3e886780	0.26641464
242	0xbe96e0b9	-0.29468325
243	0xbc2d5e12	-0.01058151
244	0x3e985bb6	0.2975747
245	0xbf232938	-0.6373477
246	0x3d1e4989	0.038644347
247	0xbebe248a	-0.37137252
248	0xbdc2efb7	-0.09518378
249	0xbe809d99	-0.25120237
250	0xbf1478d5	-0.57996875
251	0xbdaf4f2a	-0.08560021
252	0x3eb2cc14	0.34921324
253	0xbf86155b	-1.0475267
254	0xbe603b12	-0.21897534
255	0xbd30d9a9	-0.043176327

linear.bias f4 [512]
0	0xbe90736a	-0.28213054
1	0x3e65a76c	0.22427148
2	0x3df5ce6b	0.12002262
3	0x3f4be6f3	0.79649276
4	0x3f026fc3	0.50951785
5	0xbf8dfbd9	-1.1092483
6	0xbf26f6ff	-0.65220636
7	0xbf1c00cd	-0.6093872
8	0x3f8557ba	1.0417397
9	0x3f77223e	0.96536624
10	0x3eafe2f7	0.34352848
11	0x3f58b4c8	0.8465085
12	0x3f45d32e	0.7727536
13	0x3f510d99	0.81661373
14	0x3e8a9384	0.2706567
15	0x3ea983a2	0.3310824
16	0x3f1bb8d1	0.6082888
17	0x3f9367a9	1.151601
18	0xbf5107a3	-0.8165228
19	0xbe5f9ed0	-0.21837926
20	0xbf1ba90d	-0.60804826
21	0xbf952fa1	-1.165516
22	0x3f0db3f7	0.5535273
23	0x3f782375	0.96929103
24	0xbdb2ae4e	-0.08724652
25	0x3f8f59bc	1.119926
26	0x3f0573bd	0.5212973
27	0xbe145255	-0.14484532
28	0x3f89f676	1.0778339
29	0xbf7353a3	-0.95049495
30	0x3f2f3ae6	0.68449247
31	0x3edd5a1a	0.43232805
32	0xbefb277a	-0.49053556
33	0xbf46225e	-0.7739619
34	0xbf89d88e	-1.0769212
35	0x3f8d288f	1.1028003
36	0x3eb49c1f	0.3527536
37	0x3f357b18	0.7089095
38	0xbf549daa	-0.83053076
39	0x3f635381	0.8879929
40	0x3ef42223	0.47682294
41	0xbf1f23f8	-0.6216426
42	0x3e5c0279	0.21485318
43	0x3f52c1aa	0.8232676
44	0x3f6c9d1d	0.92427236
45	0xbf858369	-1.0430728
46	0xbebfeb57	-0.37484238
47	0xbf6cc011	-0.9248057
48	0x3edb4331	0.428247
49	0x3f2da344	0.6782725
50	0xbf5bdaca	-0.8588072
51	0x3f771398	0.9651427
52	0xbeb5a65c	-0.35478485
53	0x3f092b4c	0.5358169
54	0xbf0edbb3	-0.55803984
55	0x3f09b985	0.53798705
56	0x3f79e89c	0.9762056
57	0x3f583021	0.8444844
58	0x3f80f9ad	1.0076195
59	0x3ea9dccd	0.3317627
60	0x3f7b827b	0.9824597
61	0x3f626094	0.88428617
62	0x3f141058	0.5783744
63	0x3e668821	0.22512867
64	0x3f5e76e4	0.8690016
65	0x3f60343f	0.8757972
66	0x3f1567b0	0.5836134
67	0xbf10a794	-0.56505704
68	0xbec5bff4	-0.3862301
69	0x3f84daf1	1.0379316
70	0x3f6d4bff	0.92694086
71	0x3f1cfc14	0.6132214
72	0xbf298a99	-0.6622711
73	0x3f4f950b	0.81086797
74	0xbe13f0a3	-0.14447264
75	0xbe575514	-0.21028548
76	0xbf4769cb	-0.778958
77	0x3f4ef11d	0.8083666
78	0x3f8141c9	1.0098201
79	0x3e9c749b	0.30557713
80	0x3f69c042	0.9130899
81	0x3ef72d29	0.48276642
82	0x3f2a4b8c	0.66521525
83	0x3e273001	0.16326906
84	0xbf5c8db4	-0.8615372
85	0x3ee1d86d	0.44110432
86	0x3f150733	0.5821411
87	0x3f3f6608	0.7476506
88	0x3f619e8a	0.88132536
89	0xbea9c533	-0.33158264
90	0x3f78e3e2	0.9722272
91	0x3f906b02	1.1282656
92	0xbf8c4b91	-1.0960561
93	0x3f7bec69	0.9840761
94	0xbf926553	-1.1437172
95	0xbf98e2df	-1.1944236
96	0xbf007c2b	-0.50189465
97	0x3e44ce39	0.19219293
98	0x3f30ed10	0.6911173
99	0x3e7afac7	0.24509726
100	0xbf6b2629	-0.918551
101	0x3ee4d760	0.44695568
102	0x3f6eb019	0.93237454
103	0x3f80b585	1.0055395
104	0x3f0845f7	0.5323176
105	0x3f1801cc	0.5937774
106	0x3f559f0e	0.83445823
107	0xbce069e2	-0.027394239
108	0x3f5d03ce	0.8633393
109	0xbf74007f	-0.95313257
110	0x3f2e3e9f	0.680643
111	0x3f1bb35f	0.60820574
112	0x3f5d8a75	0.86539394
113	0x3e8ca7c4	0.27471745
114	0xbf8793cc	-1.0591979
115	0x3e70e169	0.23523487
116	0xbf546710	-0.8296976
117	0xbf9e0163	-1.2344173
118	0x3f645069	0.89185196
119	0x3f1b2d08	0.6061559
120	0xbf3a3f90	-0.7275324
121	0x3f6e29ec	0.9303272
122	0xbf3b46ea	-0.7315508
123	0xbddf6ba0	-0.109092
124	0x3f5bc9bf	0.85854715
125	0x3f3958e5	0.7240127
126	0xbf24679c	-0.64220595
127	0x3f46bb41	0.77629477
128	0x3f4f1b29	0.8090082
129	0xbf3fd394	-0.7493222
130	0x3ea6bc56	0.32565564
131	0x3ec3a213	0.3820959
132	0x3e97fe41	0.29686168
133	0x3da46826	0.08027677
134	0x3f52579e	0.82164943
135	0x3d8edd14	0.06975761
136	0x3f791fda	0.97314227
137	0x3f95fe0e	1.1718156
138	0x3f42b512	0.7605754
139	0x3e874df5	0.26426664
140	0x3f48539f	0.78252596
141	0x3f1b4529	0.60652405
142	0x3da797e8	0.08183271
143	0xbf3e0b8f	-0.74236387
144	0xbe9c3075	-0.3050572
145	0xbebc1971	-0.3673816
146	0x3ea050e6	0.3131172
147	0x3f89d12f	1.0766963
148	0x3f1130c6	0.5671505
149	0xbf6f43e7	-0.93462986
150	0xbe9e98d0	-0.30975962
151	0xbf1f0e0e	-0.6213082
152	0x3f6734e5	0.90315086
153	0xbf92d781	-1.1472017
154	0x3f72a90d	0.947892
155	0x3f8d3771	1.1032544
156	0xbf73b96a	-0.95204794
157	0x3f58bd17	0.8466353
158	0xbf03dcb4	-0.5150864
159	0xbf2a28ca	-0.6646849
160	0xbefcd9e9	-0.49385002
161	0x3e995e2f	0.2995467
162	0x3e9dfa13	0.30854854
163	0x3f86a554	1.0519204
164	0x3f82e4a6	1.0226028
165	0xbde4cccd	-0.11171875
166	0x3f76ee8b	0.9645774
167	0x3f633a8c	0.8876121
168	0x3f5cc3b1	0.862361
169	0xbe3e4d4a	-0.18584171
170	0xbe7def47	-0.24798308
171	0xbf622c8f	-0.8834924
172	0x3f7fd3f4	0.9993279
173	0xbfba95cf	-1.4576968
174	0xbd566290	-0.05234009
175	0xbebbe6c9	-0.36699513
176	0x3e4e70c0	0.20160198
177	0xbf3e1bcd	-0.7426117
178	0x3f74aab7	0.9557299
179	0x3e36d62a	0.17855135
180	0x3f8ecfb9	1.1157142
181	0xbf2f7ddb	-0.68551415
182	0x3f1b5f78	0.6069255
183	0x3e563de5	0.20922048
184	0x3f27ca7f	0.6554336
185	0x3f042e5a	0.51633227
186	0xbfc65a6a	-1.5496342
187	0x3f4fcf20	0.8117542
188	0x3f7bc0c8	0.98341036
189	0x3f781909	0.969132
190	0x3f811fc9	1.0087825
191	0x3f2f0945	0.6837352
192	0xbeefdfb1	-0.4685035
193	0xbf5e3b42	-0.8680917
194	0xbe530144	-0.20605952
195	0x3d514ac1	0.05109668
196	0xbeea3721	-0.45745185
197	0x3f4b299a	0.79360354
198	0x3f6f92bc	0.93583274
199	0x3ebe27dd	0.37139788
200	0x3f41f839	0.7576938
201	0xbfaa1632	-1.3288023
202	0x3f326b15	0.69694644
203	0x3f6d42f4	0.9268029
204	0x3f71e9b7	0.94497246
205	0x3f84890a	1.0354321
206	0x3f8517e5	1.0397917
207	0x3e393229	0.18085541
208	0x3f53be67	0.82712406
209	0x3ef76bbb	0.4832438
210	0x3f3fc9ed	0.7491749
211	0x3f84744d	1.0347992
212	0x3e5b0935	0.21390231
213	0xbef8e3b8	-0.48611236
214	0x3f674ce2	0.9035169
215	0x3f848b8c	1.0355086
216	0x3f69b522	0.9129201
217	0x3d2b4d4f	0.041821774
218	0x3f381174	0.7190163
219	0x3ed72c75	0.42026106
220	0xbf49a6e9	-0.7877031
221	0xbec86331	-0.39138177
222	0x3f814f72	1.010237
223	0x3f603ebb	0.8759572
224	0x3f38868b	0.72080296
225	0x3f7167d7	0.9429907
226	0x3e2d5c13	0.16929655
227	0x3f5447c1	0.8292199
228	0x3e932a24	0.28743088
229	0xbeaebe6f	-0.34129664
230	0x3f0bdf04	0.5463717
231	0x3f561df3	0.8363945
232	0x3f871fbb	1.0556558
233	0xbf7912f5	-0.9729455
234	0xbe0f2fb1	-0.13983037
235	0x3f11517b	0.56764954
236	0x3f55931b	0.8342759
237	0xbe91a45c	-0.2844571
238	0xbf9b013a	-1.2109749
239	0x3ebb844a	0.36624366
240	0xbef9ff5b	-0.48827633
241	0xbf6fa13d	-0.93605405
242	0x3f565deb	0.8373706
243	0x3e198463	0.14991908
244	0x3e898a11	0.2686315
245	0x3f22c10f	0.63575834
246	0x3f3d1286	0.7385639
247	0xbe050e04	-0.12993628
248	0x3f20223d	0.62552243
249	0x3f3a193e	0.72694767
250	0x3f583ddd	0.84469396
251	0xbf43d5be	-0.7649802
252	0xbec9c467	-0.39407656
253	0xbf3876b3	-0.7205612
254	0x3e730be9	0.23735012
255	0x3f6beeed	0.92161447

linear2.weight f4 [2, 512]
0	0xc01677bf	-2.3510587
1	0xc01b1d63	-2.4236686
2	0x3d047beb	0.03234474
3	0x3eb95672	0.36198765
4	0x3f45de92	0.7729274
5	0xc00159e7	-2.0211122
6	0xbf829474	-1.0201554
7	0x400aa8f4	2.166562
8	0x3f0eb730	0.5574827
9	0x3f0c8a7a	0.548988
10	0xbfa4c53f	-1.2872695
11	0x3e9b9e31	0.30394128
12	0x3e8982ab	0.26857504
13	0x3f31216c	0.6919162
14	0x3ea4ea2a	0.32209903
15	0x3f9fec61	1.2494012
16	0xbe653123	-0.22382025
17	0x3f2cb301	0.6746064
18	0x3f4cb4e0	0.79963493
19	0x3f9fdf09	1.248994
20	0xbfbe09d7	-1.4846753
21	0xbf7f14b4	-0.99640965
22	0x3e66dda7	0.22545491
23	0x3f30427a	0.68851435
24	0xbf6fe2e4	-0.9370558
25	0x3f37b752	0.717641
26	0x3f4858db	0.7826058
27	0xbfb10f55	-1.3832804
28	0x3f3569b8	0.7086444
29	0xc002a76f	-2.0414693
30	0x3ebadf0e	0.36498302
31	0xbe86e58b	-0.26347002
32	0xbf0d374a	-0.5516249
33	0xbfedb22f	-1.8570002
34	0xc00ba081	-2.1816714
35	0x3f1cd532	0.6126281
36	0x3f7a2895	0.97718173
37	0x3f193efe	0.59861743
38	0x3f3cd9d5	0.73769885
39	0x3eb5d9a2	0.35517603
40	0xbfb7970a	-1.4342968
41	0xbfc8ace5	-1.5677763
42	0x3f85eb2f	1.0462397
43	0xbf1a242c	-0.60211444
44	0x3eedde70	0.4645877
45	0xc006af13	-2.1044357
46	0xbf43246c	-0.7622745
47	0xc0512916	-3.2681327
48	0x3f7341e9	0.95022446
49	0x3f198c00	0.5997925
50	0xbf8bd945	-1.092568
51	0x3eaa266f	0.33232448
52	0xbed180d2	-0.40918595
53	0x3eb0f3b5	0.34560934
54	0xbfc971c0	-1.5737839
55	0xbf3f8bf0	-0.748229
56	0x3f069412	0.5256969
57	0x3e85ff80	0.26171494
58	0x3f4cee0f	0.8005075
59	0x3fcf7749	1.6208278
60	0x3f1fbd93	0.6239864
61	0x3eb952cc	0.36195982
62	0x3eca2483	0.3948098
63	0x3f32d355	0.6985372
64	0x3f3959e9	0.72402817
65	0x3e74f5c6	0.2392188
66	0x3eb16a8a	0.34651595
67	0xbf7e84f1	-0.994216
68	0xbfd71793	-1.6804069
69	0xbf31c315	-0.69438297
70	0x3e8d19c0	0.27558708
71	0x3f090544	0.5352366
72	0xbfa500e4	-1.2890897
73	0x3f175024	0.5910666
74	0xbf2a9526	-0.6663383
75	0x3f824cd9	1.0179702
76	0xbfcbb881	-1.5915681
77	0x3f1f0462	0.6211606
78	0x3e95ce99	0.29259184
79	0x3f1ef699	0.6209503
80	0x3f089c54	0.5336354
81	0xbfe4d974	-1.7878861
82	0xbfdd6719	-1.7297088
83	0x3fce734a	1.6128933
84	0xbf719ccd	-0.94379884
85	0x3f789714	0.97105527
86	0xbfecbf42	-1.8495867
87	0x3e9a0cfb	0.30088028
88	0x3eb938ea	0.36176234
89	0x3fad5cbf	1.3543929
90	0x3e993b26	0.2992794
91	0x3f4ad6b2	0.7923385
92	0xbf0857d9	-0.53259045
93	0x3eeebea9	0.46629837
94	0xbfdd2551	-1.7277013
95	0xbfdc3e41	-1.7206498
96	0x3f9224d3	1.1417488
97	0xbfa135e1	-1.2594568
98	0x3e9ef4af	0.31046054
99	0x3f1dfb58	0.61711645
100	0xbfc56fc7	-1.5424737
101	0x3f7ded9c	0.9919069
102	0x3f12b4ff	0.5730743
103	0x3f20d70d	0.6282814
104	0x3f107b50	0.5643816
105	0x3ea3afe2	0.31970125
106	0x3ed3d771	0.41375306
107	0xbf9e899e	-1.2385747
108	0x3eeb85e3	0.46000585
109	0xbf9112ab	-1.1333822
110	0xbef5e08a	-0.48022872
111	0xbebe1091	-0.37122014
112	0x3e9d3134	0.30701602
113	0x3f860453	1.047007
114	0xbf625ed6	-0.8842596
115	0x3f460335	0.77348644
116	0xc003adb5	-2.0574772
117	0xc00f41c4	-2.238389
118	0x3f25675e	0.6461085
119	0x3eadc161	0.339366
120	0xbf842afd	-1.0325619
121	0x3f157c08	0.5839238
122	0xbf33768c	-0.70102763
123	0xbfbcf8ef	-1.4763469
124	0xbfb8745d	-1.4410511
125	0x3e8aafb7	0.27087185
126	0xbefa66c6	-0.48906535
127	0x3ea35e14	0.31907713
128	0x3ec21139	0.37903765
129	0xc01054de	-2.25518
130	0xbf726ebd	-0.94700223
131	0xbd8c32fb	-0.06845661
132	0xbfb016bc	-1.3756938
133	0x3f53c658	0.82724524
134	0x3ec5a4d2	0.3860231
135	0xbfcfd4fb	-1.6236871
136	0xbf80f4e9	-1.0074741
137	0x3f2491d9	0.64285046
138	0x3eb880b0	0.3603568
139	0x3f3da7f8	0.74084425
140	0x3ea3be9a	0.31981355
141	0xbf1294fb	-0.57258576
142	0xbfcac6d7	-1.5841931
143	0x3ed32a36	0.41243142
144	0x3fa83df8	1.3143911
145	0xbf8281aa	-1.019582
146	0x3f0adc76	0.54242647
147	0x3f552faf	0.83275884
148	0x3be76b1e	0.00706233
149	0xc038af64	-2.885705
150	0xbf3bc239	-0.73343235
151	0xbfe56b53	-1.7923378
152	0x3f294a71	0.66129214
153	0xc006f8ba	-2.108931
154	0x3ee2b503	0.44278726
155	0x3f221d35	0.63325816
156	0xbf686117	-0.9077315
157	0x3ea6a7e7	0.32549974
158	0xbc1b41a8	-0.009476103
159	0xbe8654eb	-0.26236662
160	0xbf45202e	-0.7700223
161	0xbf6d9c28	-0.928164
162	0x3f57a832	0.8424102
163	0xbfc17bff	-1.5115966
164	0x3f1eaf11	0.6198588
165	0xbf64f534	-0.8943665
166	0x3ed8e0f9	0.4235914
167	0x3f12fa6c	0.57413363
168	0x3e86684a	0.2625144
169	0xbf3690e1	-0.7131482
170	0x3c87f677	0.016597016
171	0xbffe0ce3	-1.9847683
172	0x3f28bfe3	0.65917796
173	0xbfd678b1	-1.6755582
174	0xbf64b7ee	-0.89343154
175	0x3fadf722	1.3591044
176	0xc0352385	-2.830293
177	0xbfc938ae	-1.5720422
178	0x3ee0aa58	0.43879962
179	0xbfeeab6c	-1.8646064
180	0x3efb8b77	0.4912984
181	0xbf5927c0	-0.8482628
182	0x3f2a76c5	0.6658748
183	0xbfac36e4	-1.3454251
184	0x3f0642ba	0.52445567
185	0xbf2e891c	-0.6817796
186	0xbf8f37e6	-1.1188934
187	0x3ebe29d5	0.3714129
188	0x3f0e1dfa	0.5551449
189	0x3f46aede	0.77610576
190	0x3ea1650f	0.31522414
191	0x3e543653	0.20723848
192	0xbfcf2e4f	-1.6186007
193	0xc0159819	-2.3374083
194	0xbfd904fb	-1.6954645
195	0x3fa239b8	1.2673864
196	0xbf7f1332	-0.99638665
197	0x3eb5f12a	0.35535556
198	0xbf77cce5	-0.9679702
199	0x3f596a02	0.8492738
200	0xbf489462	-0.78351414
201	0xbfd3381c	-1.6501498
202	0x3f44981a	0.7679459
203	0x3e868253	0.26271304
204	0x3f197810	0.59948826
205	0x3ea5fbee	0.3241877
206	0xbf92dd1f	-1.1473731
207	0x3f75bcec	0.95991397
208	0x3eac771b	0.3368462
209	0xbec5db25	-0.38643757
210	0xbfe6069f	-1.7970771
211	0x3ea404b1	0.3203483
212	0xbfc38f38	-1.5278082
213	0x3e8201c6	0.25391978
214	0x3ef42e0e	0.47691387
215	0x3f2e9018	0.6818862
216	0x3ebc1e7c	0.36742008
217	0xbfa8e8b6	-1.3196018
218	0x3ec439eb	0.38325438
219	0x3f3d2c91	0.7389613
220	0xbfbae75b	-1.4601854
221	0xbfb6f521	-1.4293557
222	0x3ecb7c2a	0.39743167
223	0x3f11ed34	0.5700257
224	0x3eadebc0	0.33968925
225	0x3f1e3e1c	0.6181352
226	0x3faf4362	1.3692439
227	0x3eb75535	0.35807195
228	0xc00ae9c9	-2.170519
229	0xbee3768c	-0.44426382
230	0x3f4891ae	0.7834729
231	0x3f02d010	0.5109873
232	0x3f431706	0.76207006
233	0xbfa5b600	-1.2946167
234	0xbf91ddac	-1.1395774
235	0x3ea7ae7b	0.32750306
236	0x3f3b5185	0.73171264
237	0x3f661d7c	0.8988874
238	0xbf8c9ef4	-1.0986009
239	0x3f0ef809	0.5584722
240	0xbffadcb2	-1.9598601
241	0xbfac96b7	-1.3483495
242	0x3f2b11ab	0.66823834
243	0x3fa7c693	1.3107475
244	0x3f40dd76	0.7533792
245	0x3ed98d36	0.42490548
246	0x3ec25cad	0.3796133
247	0xbfa8dc63	-1.3192257
248	0x3ea49a19	0.32148817
249	0x3efe944e	0.49722522
250	0x3efd1d42	0.49436384
251	0xc011ff43	-2.281205
252	0xbf86aeea	-1.052213
253	0xbfb57c10	-1.4178486
254	0xbef27616	-0.47355717
255	0x3ea674ae	0.32510895

linear2.bias f4 [2]
0	0x3e95b512	0.29239708
1	0x3e96811f	0.29395387
