code/log/dqn/ckpt/709000.pth (torch, 15775 bytes, 4 tensors)

linear.weight f4 [512, 4]
0.27469122 0.2411854 -3.100585 -0.6658025 0.5252358 0.06644439 1.7636564 0.305643
0.78374416 0.21264915 -0.3734665 0.12588876 -0.272012 0.029975297 -0.2771252 0.014814253
0.33397558 1.5055044 -0.33044875 0.31430215 0.46233425 0.674447 2.7940903 0.7142437
0.83773035 0.48699158 0.5072269 0.22001086 -0.010511269 1.8417158 0.871554 -0.21518163
-0.28618073 -0.25037527 -0.40432778 -0.27832413 -0.2535006 0.53703487 0.022723798 0.0806152
0.8374829 -0.30678815 -2.1159415 -1.1555995 -0.20856065 -0.049442757 0.018777855 0.1743013
-0.21209006 0.09249383 -0.026444485 0.23497917 0.1642407 -0.15760416 -0.012693299 -0.18517603
-0.8453309 -1.484199 -1.2578709 -0.046479944 0.91879046 1.5038252 0.9982696 0.86079985
0.058999795 -0.124959715 -1.8240314 -0.625167 0.10916014 0.22362334 -0.65930474 0.027282506
-0.026314035 -1.3476918 1.9284242 0.8107157 -0.48124588 -0.9800286 -2.1051466 -0.25872648
-0.82405615 -0.2689677 -1.4513522 -0.024470096 0.5358217 0.3040161 -0.45953196 0.012159125
0.06516918 -0.26917186 -0.13896532 -0.03289394 0.24521393 -0.12329728 -0.90511894 -0.12126758
0.57400924 0.07398722 -2.5957282 -0.7729872 -0.082563944 0.90125346 -0.053131007 0.06705237
-0.70654917 -0.8259003 -0.7015738 -0.2092986 0.7030384 0.2629608 1.1767569 0.14164339
-0.017019678 -0.076709986 0.4834077 -0.44391036 -0.4692177 0.08641022 0.2847336 0.14678314
0.08610942 -0.04527567 -0.5467277 0.05380862 -0.055255517 0.066428736 -2.5995593 -0.68732893
-0.4694676 -0.26180005 -0.39567053 -0.3642654 -0.6888192 -0.3834627 -1.056104 -0.22270261
-0.5310941 -0.36613944 0.37003386 -0.053995725 0.11184816 0.11276142 0.1719042 -0.20524122
-0.52564913 -1.2108384 -0.90510714 -0.26175067 -0.09949744 -0.5016079 -0.63779366 -0.40297854
0.12698455 -0.2430455 -2.162894 -0.29267624 0.28900197 -0.5232541 -0.4654768 -0.24468486
0.14907372 -0.19724365 -4.4224987 -1.3724217 -0.7180374 -0.14927055 -0.6514971 -0.12698865
-1.694218 -0.37762582 0.49223527 -0.15715769 0.15926181 0.5506486 0.21707305 0.70957917
-0.19658504 -0.44120497 0.08506326 -0.38641104 -0.45843714 -0.41706455 0.6245797 -0.11132403
0.64611715 0.5420994 0.45766366 0.18360618 -0.6779715 0.13049579 0.68419695 0.12600236
-0.5717486 -0.9428141 -0.17331861 0.09886793 -0.23812835 0.089855306 -0.45506915 0.034400966
0.4047312 0.19316272 -0.7493719 0.065142214 -0.2964042 0.26715004 -0.37895453 0.41921878
0.37003657 0.016226608 0.10597112 0.0588686 -0.07054246 -0.23105931 -0.35219586 -0.057858575
0.16160451 -0.22373992 -3.114073 -0.6887142 -0.1646291 0.4582652 1.4655182 1.0153512
-0.35187247 0.17096192 -0.48532408 0.021898163 -0.219355 0.097436175 -0.16494182 0.2646815
0.12064198 -0.1369806 0.33603123 -0.325485 0.16623746 -0.7977333 0.69456536 0.1126627
-0.0359236 0.29400435 -0.27013534 0.0046951245 0.29364532 -0.61009 0.047124013 -0.3569484
-0.09894777 -0.22402781 -0.5778787 -0.0714979 0.364509 -1.0105916 -0.059651256 -0.022610977
00000000: 54a4 8c3e 4ef9 763e fc6f 46c0 0872 2abf
00000010: da75 063f ff13 883d 7ebf e13f 3d7d 9c3e
00000020: 75a3 483f b3c0 593e 0037 bfbe fce8 003e
00000030: 2845 8bbe c18e f53c 5be3 8dbe 7bb7 723c
00000040: d9fe aa3e 5eb4 c03f 9430 a9be 36ec a03e
00000050: 13b7 ec3e 8fa8 2c3f 60d2 3240 add8 363f
00000060: 7f75 563f f656 f93e 9fd9 013f 874a 613e
00000070: 7537 2cbc 58bd eb3f 2a1e 5f3f 9358 5cbe
00000080: 4886 92be 3031 80be 0d04 cfbe 8080 8ebe
00000090: d5ca 81be 1e7b 093f 4227 ba3c 9519 a53d
000000a0: 4865 563f 5613 9dbe 966b 07c0 afea 93bf
000000b0: ec90 55be 7d84 4abd 04d4 993c 0a7c 323e
000000c0: 232e 59be 686d bd3d 1ba2 d8bc 619e 703e
000000d0: b72e 283e fc62 21be 8ef7 4fbc c99e 3dbe
000000e0: 9b67 58bf 3cfa bdbf ea01 a1bf c161 3ebd
000000f0: da35 6b3f 587d c03f 998e 7f3f 615d 5c3f
00000100: c5a9 713d e1ea ffbd dc79 e9bf f20a 20bf
00000110: 5a8f df3d 84fd 643e 32c8 28bf 907f df3c
00000120: 8890 d7bc 2a81 acbf 9bd6 f63f 108b 4f3f
00000130: dc65 f6be 28e3 7abf b9ba 06c0 cc77 84be
00000140: 58f5 52bf 22b6 89be e9c5 b9bf 8375 c8bc
00000150: 9c2b 093f 00a8 9b3e c647 ebbe 1137 473c
00000160: 6b77 853d e5d0 89be ed4c 0ebe ccbb 06bd
00000170: 5c19 7b3e 4983 fcbd e0b5 67bf 235b f8bd
00000180: 45f2 123f 9d86 973d 6920 26c0 7de2 45bf
00000190: 4917 a9bd 8cb8 663f e69f 59bd c152 893d
000001a0: 68e0 34bf 346e 53bf 579a 33bf 5f52 56be
000001b0: 53fa 333f cca2 863e f89f 963f f70a 113e
000001c0: da6c 8bbc 201a 9dbd 3781 f73e 3848 e3be
000001d0: 4d3d f0be d7f7 b03d 9ac8 913e 524e 163e
000001e0: 235a b03d fb72 39bd 59f6 0bbf 6d66 5c3d
000001f0: 9c53 62bd ca0b 883d 2e5f 26c0 caf4 2fbf
00000200: 0f5e f0be a80a 86be 5495 cabe ff80 babe
00000210: 7556 30bf 3955 c4be 6a2e 87bf 270c 64be
00000220: c8f5 07bf a176 bbbe 1475 bd3e 9f2a 5dbd
00000230: a610 e53d 76ef e63d a807 303e c12a 52be
00000240: f190 06bf c1fc 9abf 1ab5 67bf 2f04 86be
00000250: 50c5 cbbd 6069 00bf 7246 23bf 3453 cebe
00000260: 3d08 023e ebe0 78be db6c 0ac0 a9d9 95be
00000270: 11f8 933e fbf3 05bf fa52 eebe ab8e 7abe
00000280: c8a6 183e 3dfa 49be 1c85 8dc0 84ab afbf
00000290: 4dd1 37bf 61da 18be 84c8 26bf 5009 02be
000002a0: 23dc d8bf 2c58 c1be 4306 fc3e f2ed 20be
000002b0: 8715 233e 4ff7 0c3f 6648 5e3e fba6 353f
000002c0: 974d 49be 9ee5 e1be a535 ae3d abd7 c5be
000002d0: 46b8 eabe 7c89 d5be 75e4 1f3f dafd e3bd
000002e0: ef67 253f 07c7 0a3f e452 ea3e 4203 3c3e
000002f0: 8a8f 2dbf b0a0 053e 8827 2f3f c306 013e
00000300: 1e5e 12bf 445c 71bf 6f7a 31be 457b ca3d
00000310: ebd7 73be 0f06 b83d d3fe e8be 07e8 0c3d
00000320: ee38 cf3e 73cc 453e d6d6 3fbf 4869 853d
00000330: 4bc2 97be e4c7 883e 5406 c2be d8a3 d63e
00000340: 6f75 bd3e aaed 843c 6307 d93d 3320 713d
00000350: 9178 90bd d09a 6cbe 0453 b4be 1dfd 6cbd
00000360: a77b 253e 141c 65be f94c 47c0 934f 30bf
00000370: 8894 28be bca1 ea3e 1a96 bb3f 07f7 813f
00000380: a128 b4be a410 2f3e 667c f8be c763 b33c
00000390: 999e 60be 9e8c c73d 82e6 28be 5584 873e
000003a0: 2413 f73d a444 0cbe 490c ac3e f8a5 a6be
000003b0: 273a 2a3e 4038 4cbf 09cf 313f b4bb e63d
000003c0: a024 13bd bd87 963e 2e4f 8abe 8fd9 993b
000003d0: ae58 963e dc2e 1cbf 1c05 413d f1c1 b6be
000003e0: 21a5 cabd 8c67 65be dcef 13bf 7e6d 92bd
000003f0: eca0 ba3e 115b 81bf e054 74bd a83a b9bc

linear.bias f4 [512]
-0.26616314 0.21946852 0.13142312 0.79327404 0.55218345 -1.1092483 -0.65220636 -0.639674
1.0386008 0.96220404 0.35007045 0.8433418 0.7694398 0.8134921 0.26696065 0.40030771
0.6070225 1.1484728 -0.85728425 -0.2094015 -0.59748465 -1.165516 0.550175 0.9661627
-0.18698515 1.1168736 0.5181925 -0.14484532 1.0757843 -0.9976217 0.681368 0.4336179
-0.47496748 -0.7562207 -1.0968952 1.0996575 0.34966955 0.70577806 -0.83053076 0.8848154
0.48736042 -0.6428647 0.21181327 0.81918955 0.92112654 -1.070284 -0.37484238 -0.926303
0.42518932 0.67514944 -0.8588072 0.9619208 -0.35478485 0.5326503 -0.568048 0.54850394
0.9730607 0.8413048 1.0054704 0.33985025 0.97931844 0.88109076 0.5752862 0.18735358
0.8664435 0.87282455 0.58041435 -0.56505704 -0.39247975 1.0400687 0.9238168 0.61110806
-0.6729043 0.8077214 -0.14447264 -0.19703786 -0.77056426 0.80522794 1.0065619 0.30250525
0.909921 0.49199176 0.66803044 0.15628903 -0.8615372 0.43847486 0.5888315 0.74439645
0.87815934 -0.3348653 0.9690525 1.1254681 -1.0960561 0.9809996 -1.1437172 -1.1944236
-0.45188963 0.20992903 0.68784183 0.24650054 -0.918551 0.4529101 0.9292316 1.0023905
0.529523 0.5905876 0.8313933 -0.05547899 0.8601497 -0.95313257 0.68164855 0.6106256
0.86224085 0.32036802 -1.0591979 0.23161782 -0.8296976 -1.282085 0.88872 0.60332453
-0.7307059 0.9271675 -0.7315508 -0.09619346 0.86078155 0.7223523 -0.64220595 0.773152
0.8058102 -0.778519 0.3719484 0.3821684 0.29827917 0.07869634 0.8185153 0.09757419
0.9654833 1.1689553 0.75760907 0.25796974 0.77922153 0.6092282 0.07502333 -0.74236387
-0.2980935 -0.35877275 0.30997044 1.0741533 0.56861174 -0.9307221 -0.30547553 -0.6404218
0.9002501 -1.1472017 0.94475436 1.1009768 -0.9680816 0.8434988 -0.5150864 -0.6627982
-0.49385002 0.3083987 0.30558816 1.0548255 1.0194685 -0.14095181 0.96143466 0.88447744
0.8592915 -0.18584171 -0.26272246 -0.8834924 0.99619997 -1.4576968 -0.03896175 -0.37796602
0.20271082 -0.7528216 0.95255774 0.12900595 1.1125289 -0.68551415 0.60849136 0.20097794
0.65227437 0.5184347 -1.5496342 0.80860686 0.9802979 0.96637 1.0055511 0.6805358
-0.46998107 -0.8680917 -0.27187747 0.046773646 -0.47127002 0.79040885 0.93760544 0.3683098
0.7603819 -1.3288023 0.6938868 0.92355126 0.94189805 1.0326358 1.042433 0.17916076
0.82392573 0.48408234 0.7594271 1.0316192 0.20594093 -0.5066739 0.90039974 1.0326784
0.91014993 0.062311262 0.7158666 0.43784556 -0.7914587 -0.39138177 1.0071979 0.87279713
0.71756965 0.9398473 0.11038355 0.8260642 0.2778978 -0.33143887 0.56782913 0.8332573
1.0528705 -0.9729455 -0.19625938 0.5644097 0.8312495 -0.2844571 -1.2148356 0.36527038
-0.47690874 -0.9538658 0.8342415 0.10143232 0.32317644 0.6325556 0.73543584 -0.12993628
0.6224609 0.72376114 0.84154886 -0.7910617 -0.38835114 -0.6799564 0.2492279 0.91839194
00000000: 8946 88be 5bbc 603e c893 063e 0214 4b3f
00000010: e55b 0d3f d9fb 8dbf fff6 26bf adc1 23bf
00000020: dff0 843f 0153 763f 6f3c b33e 40e5 573f
00000030: 02fa 443f 0541 503f 11af 883e 22f5 cc3e
00000040: d465 1b3f 2801 933f fb76 5bbf 596d 56be
00000050: c1f4 18bf a12f 95bf 45d8 0c3f 7056 773f
00000060: 0979 3fbe b7f5 8e3f 44a8 043f 5552 14be
00000070: 4db3 893f 2364 7fbf 226e 2e3f 2a03 de3e
00000080: f02e f3be ae97 41bf 1067 8cbf 94c1 8c3f
00000090: e307 b33e dfad 343f aa9d 54bf 4383 623f
000000a0: 4e87 f93e c892 24bf 94e5 583e 68b6 513f
000000b0: f3ce 6b3f 11ff 88bf 57eb bfbe 3222 6dbf
000000c0: 6ab2 d93e 98d6 2c3f cada 5bbf 7140 763f
000000d0: 5ca6 b5be c55b 083f 986b 11bf c16a 0c3f
000000e0: 821a 793f c05f 573f 41b3 803f da00 ae3e
000000f0: 9db4 7a3f 2a8f 613f f545 133f 9ed9 3f3e
00000100: 3ecf 5d3f 6e71 5f3f 0996 143f 94a7 10bf
00000110: 1bf3 c8be f920 853f 427f 6c3f 9471 1c3f
00000120: 7543 2cbf d4c6 4e3f a3f0 13be 4bc4 49be
00000130: b343 45bf 6b23 4e3f 05d7 803f f8e1 9a3e
00000140: 95f0 683f 58e6 fb3e 0b04 2b3f 3b0a 203e
00000150: b48d 5cbf c77f e03e a9bd 163f c490 3e3f
00000160: 0dcf 603f 7773 abbe d313 783f 570f 903f
00000170: 914b 8cbf ca22 7b3f 5365 92bf dfe2 98bf
00000180: 145e e7be a3f7 563e 6716 303f a36a 7c3e
00000190: 2926 6bbf d5e3 e73e 1fe2 6d3f 554e 803f
000001a0: d28e 073f c030 173f 31d6 543f f03d 63bd
000001b0: c532 5c3f 7f00 74bf 8580 2e3f f651 1c3f
000001c0: d1bb 5c3f 4707 a43e cc93 87bf 392d 6d3e
000001d0: 1067 54bf 5c1b a4bf 2783 633f 7a73 1a3f
000001e0: 8b0f 3bbf d95a 6d3f ea46 3bbf 1401 c5bd
000001f0: 2e5c 5c3f 15ec 383f 9c67 24bf 4aed 453f
00000200: 9449 4e3f 054d 47bf 0570 be3e 94ab c33e
00000210: 0cb8 983e 8c2b a13d 388a 513f fad4 c73d
00000220: ea29 773f 54a0 953f abf2 413f 9c14 843e
00000230: 107b 473f 61f6 1b3f d5a5 993d 8f0b 3ebf
00000240: b69f 98be 10b1 b7be 72b4 9e3e db7d 893f
00000250: 8a90 113f ce43 6ebf 4a67 9cbe aff2 23bf
00000260: ca76 663f 81d7 92bf 6cdb 713f cfec 8c3f
00000270: 32d4 77bf 8aef 573f b4dc 03bf 25ad 29bf
00000280: e9d9 fcbe 6fe6 9d3e 0d76 9c3e 8604 873f
00000290: f27d 823f ac55 10be 9520 763f 1d6d 623f
000002a0: 87fa 5b3f 4a4d 3ebe 8f83 86be 8f2c 62bf
000002b0: f606 7f3f cf95 babf 5b96 1fbd c384 c1be
000002c0: 6d93 4f3e ebb8 40bf d3da 733f 231a 043e
000002d0: 5967 8e3f db7d 2fbf 17c6 1b3f 29cd 4d3e
000002e0: 74fb 263f 23b8 043f 6a5a c6bf dc00 4f3f
000002f0: cef4 7a3f 0664 773f e6b5 803f 9837 2e3f
00000300: 5ca1 f0be 423b 5ebf 8633 8bbe b995 3f3d
00000310: 4e4a f1be 3c58 4a3f e906 703f 1a93 bc3e
00000320: 63a8 423f 3216 aabf 91a2 313f db6d 6c3f
00000330: 3b20 713f 692d 843f 726e 853f eb75 373e
00000340: ccec 523f a4d9 f73e d069 423f 190c 843f
00000350: 2ee2 523e 61b5 01bf 9980 663f ce2e 843f
00000360: 96ff 683f 183a 7f3d 0943 373f 4b2d e03e
00000370: 0a9d 4abf 3163 c8be dceb 803f a26f 5f3f
00000380: a5b2 373f d599 703f c510 e23d f278 533f
00000390: 9f48 8e3e 5bb2 a9be 405d 113f 5a50 553f
000003a0: 76c4 863f f512 79bf 38f8 48be 277d 103f
000003b0: c4cc 543f 5ca4 91be bc7f 9bbf b804 bb3e
000003c0: 622d f4be 8d30 74bf da90 553f c0bb cf3d
000003d0: 6277 a53e 2aef 213f 8645 3c3f 040e 05be
000003e0: 9959 1f3f 6948 393f bf6f 573f 0583 4abf
000003f0: f6d5 c6be 9f11 2ebf 9935 7f3e bc1b 6b3f

linear2.weight f4 [2, 512]
-2.333675 -2.395736 -0.052241012 0.36140525 0.7579046 -2.0211122 -1.0201554 2.131709
0.55530196 0.5501906 -1.3518366 0.30369735 0.26907843 0.68788105 0.3191991 1.2813745
-0.23213331 0.6724743 0.7971472 1.2352395 -1.4778403 -0.99640965 0.22107011 0.68330246
-0.9019411 0.7190575 0.7803957 -1.3832804 0.7062984 -2.07294 0.36158642 -0.27311045
-0.51874864 -1.8364564 -2.1772654 0.61058784 0.97220254 0.593435 0.73769885 0.34800437
-1.4521749 -1.5474145 1.0491569 -0.59831655 0.461734 -2.107792 -0.7622745 -3.2449422
0.94844186 0.5991413 -1.092568 0.33333823 -0.40918595 0.34223962 -1.5724168 -0.7297059
0.5254005 0.262041 0.7973249 1.6064595 0.62312394 0.35494262 0.39136747 0.66727746
0.7220658 0.2405303 0.34154537 -0.994216 -1.6523495 -0.69831824 0.2726652 0.5352799
-1.2656966 0.5864862 -0.6663383 1.0148109 -1.5691377 0.61628324 0.29004914 0.6231646
0.5306905 -1.7677517 -1.7423643 1.5875745 -0.94379884 0.9746028 -1.8360114 0.30168808
0.36173457 1.3567839 0.2976832 0.79021275 -0.53259045 0.46421674 -1.7277013 -1.7206498
1.0767251 -1.2735226 0.30933422 0.6298345 -1.5424737 0.9795608 0.57241106 0.62360436
0.5619978 0.31539327 0.40634724 -1.2383854 0.4529752 -1.1333822 -0.47039846 -0.36549205
0.30414668 1.0458295 -0.8842596 0.7682156 -2.0574772 -2.263301 0.6397656 0.33918408
-1.0083278 0.5841167 -0.70102763 -1.478819 -1.431104 0.27377152 -0.48906535 0.31921023
0.37796637 -2.326068 -1.0169259 -0.081679754 -1.3657467 0.8244526 0.3834683 -1.711672
-1.0060738 0.6416239 0.35295746 0.7385504 0.31963143 -0.5742963 -1.5769775 0.41243142
1.3318719 -0.98498505 0.5417581 0.82883424 0.009068267 -2.85613 -0.73290503 -1.7873785
0.65818644 -2.108931 0.440521 0.6316109 -0.9893289 0.32602334 -0.009476103 -0.24325606
-0.7700223 -0.9082128 0.8426509 -1.516676 0.6195448 -0.94857347 0.42326954 0.57318544
0.2631858 -0.7131482 0.018385416 -1.9847683 0.6559685 -1.6755582 -0.8871631 1.3568525
-2.8238447 -1.5556293 0.437698 -1.8700922 0.48505476 -0.8482628 0.6723351 -1.3161582
0.51907355 -0.6911383 -1.1188934 0.3678554 0.5555926 0.7742571 0.3146191 0.20273422
-1.6439193 -2.3374083 -1.6885102 1.269825 -0.9918953 0.35396707 -0.97415596 0.8492657
-0.78904897 -1.6501498 0.76225764 0.25973555 0.60010946 0.3200014 -1.1519737 0.9143908
0.33358872 -0.388082 -1.7814454 0.31790075 -1.4976616 0.24381262 0.47374466 0.6791556
0.3582484 -1.32293 0.38352832 0.7397751 -1.4447467 -1.4293557 0.39699954 0.56903243
0.3402107 0.6169802 1.3659378 0.35626668 -2.1333387 -0.44075295 0.76583546 0.5036414
0.75825596 -1.2946167 -1.1330209 0.32216662 0.726704 0.8988874 -1.0865095 0.55264467
-1.9512862 -1.3335886 0.66725945 1.2782475 0.7873689 0.42053926 0.37486 -1.3192257
0.31805477 0.49284914 0.48897284 -2.2757797 -1.0510936 -1.3976489 -0.36186585 0.31994542
00000000: ee5a 15c0 bd53 19c0 acfa 55bd 1c0a b93e
00000010: 0906 423f e759 01c0 7494 82bf ec6d 0840
00000020: 4528 0e3f 4bd9 0c3f fb08 adbf 387e 9b3e
00000030: a6c4 893e f918 303f 106e a33e 1404 a43f
00000040: 5bb4 6dbe 4727 2c3f d711 4c3f 541c 9e3f
00000050: df29 bdbf b414 7fbf 3460 623e e9ec 2e3f
00000060: 9de5 66bf 2714 383f 03c8 473f 550f b1bf
00000070: f9cf 343f 0dab 04c0 db21 b93e 22d5 8bbe
00000080: b6cc 04bf 0111 ebbf 5158 0bc0 7c4f 1c3f
00000090: 44e2 783f 5beb 173f d5d9 3c3f a12d b23e
000000a0: dee0 b9bf ae11 c6bf c64a 863f 462b 19bf
000000b0: 6668 ec3e 10e6 06c0 6c24 43bf 22ad 4fc0
000000c0: 16cd 723f 5361 193f 45d9 8bbf 4fab aa3e
000000d0: d280 d1be 083a af3e f444 c9bf 02ce 3abf
000000e0: a680 063f 3d2a 863e 7c1d 4c3f 77a0 cd3f
000000f0: 0d85 1f3f 0abb b53e 5161 c83e b2d2 2a3f
00000100: 4ed9 383f 934d 763e 09df ae3e f184 7ebf
00000110: 3080 d3bf fcc4 32bf c69a 8b3e 1b08 093f
00000120: 5902 a2bf f623 163f 2695 2abf 53e5 813f
00000130: 81d9 c8bf bdc4 1d3f 5281 943e b787 1f3f
00000140: 55db 073f b045 e2bf cb05 dfbf a435 cb3f
00000150: cd9c 71bf 927f 793f 6c02 ebbf dc76 9a3e
00000160: 4635 b93e 18ab ad3f ef69 983e 624b 4a3f
00000170: d957 08bf d1ad ed3e 5125 ddbf 413e dcbf
00000180: 21d2 893f ca02 a3bf 0e61 9e3e d53c 213f
00000190: c76f c5bf 7fc4 7a3f 8889 123f 89a4 1f3f
000001a0: 16df 0f3f 3a7b a13e bf0c d03e 6a83 9ebf
000001b0: 5eec e73e ab12 91bf 11d8 f0be c621 bbbe
000001c0: 1db9 9b3e bedd 853f d65e 62bf c7a9 443f
000001d0: b5ad 03c0 ecd9 10c0 aec7 233f 89a9 ad3e
000001e0: e310 81bf ac88 153f 8c76 33bf f149 bdbf
000001f0: 6a2e b7bf c82b 8c3e c666 fabe 866f a33e
00000200: cf84 c13e 4cde 14c0 a12a 82bf b747 a7bd
00000210: cad0 aebf 530f 533f f555 c43e 1118 dbbf
00000220: 07c7 80bf 7741 243f d7b6 b43e a411 3d3f
00000230: bba6 a33e 1505 13bf 66da c9bf 362a d33e
00000240: c77a aa3f fb27 7cbf a9b0 0a3f 7b2e 543f
00000250: 1293 143c d5ca 36c0 aa9f 3bbf d2c8 e4bf
00000260: e87e 283f baf8 06c0 f88b e13e 40b1 213f
00000270: a944 7dbf 88ec a63e a841 1bbc 1e18 79be
00000280: 2e20 45bf a280 68bf f8b7 573f 7022 c2bf
00000290: 7d9a 1e3f b6d5 72bf c9b6 d83e 48bc 123f
000002a0: 4ac0 863e e190 36bf 039d 963c e30c febf
000002b0: 8ded 273f b178 d6bf 1f1d 63bf 58ad ad3f
000002c0: dfb9 34c0 dc1e c7bf f419 e03e 2e5f efbf
000002d0: 1959 f83e c027 59bf 271e 2c3f df77 a8bf
000002e0: 01e2 043f 71ee 30bf e637 8fbf 8b57 bc3e
000002f0: 513b 0e3f b735 463f c115 a13e 8f99 4f3e
00000300: f36b d2bf 1998 15c0 1a21 d8bf a089 a23f
00000310: daec 7dbf 2c3b b53e 4962 79bf 7a69 593f
00000320: 1dff 49bf 1c38 d3bf 5123 433f 0ffc 843e
00000330: c6a0 193f 39d7 a33e e073 93bf 8415 6a3f
00000340: 24cc aa3e afb2 c6be 6706 e4bf e3c3 a23e
00000350: 60b3 bfbf 04aa 793e a98e f23e 24dd 2d3f
00000360: 566c b73e c555 a9bf d35d c43e e761 3d3f
00000370: 76ed b8bf 21f5 b6bf 8643 cb3e 1cac 113f
00000380: 1930 ae3e 6af2 1d3f 0dd7 ae3f 9668 b63e
00000390: 9f88 08c0 5faa e1be cb0d 443f a5ee 003f
000003a0: 101d 423f 00b6 a5bf d406 91bf 06f3 a43e
000003b0: 4609 3a3f 7c1d 663f be12 8bbf 1f7a 0d3f
000003c0: bfc3 f9bf 08b3 aabf 84d1 2a3f 9d9d a33f
000003d0: 0291 493f ec50 d73e a6ed bf3e 63dc a8bf
000003e0: 13d8 a23e b956 fc3e a65a fa3e 60a6 11c0
000003f0: 3c8a 86bf 29e6 b2bf 7b46 b9be e3cf a33e

linear2.bias f4 [2]
0.29096508 0.29230186
00000000: 60f9 943e 97a8 953e
