code/log/dqn/ckpt/840000.pth (torch, 15775 bytes, 4 tensors)

linear.weight f4 [512, 4]
00000000: c499 8e3c ac7b b03e a0c8 acbf e4a0 f9be
00000010: 773e f13e 6c10 4b3e 6b46 9d3f 9329 963e
00000020: 9a73 ab3e 78fd f13e 57fd 1c3d 5cb3 903e
00000030: 71c8 9cbe 9332 213d da7a bbbe a1c9 ab3c
00000040: a5b4 ea3e ee2d 933f 9154 8dbf ed10 5b3e
00000050: a90e fd3e 0aa9 573f 84a5 3b40 f2a5 223f
00000060: ff3b 543f 2043 173f 2b83 2e3f f3ba b93e
00000070: 6b90 a0bd a2a6 be3f 0a12 47bf 8268 933d
00000080: 344e a4be 4a6d 75be 3113 fbbe ffe2 8abe
00000090: 9bff 94be 7673 0e3f b791 50bd b9d0 ba3d
000000a0: e38e 0b3f e7e8 13be 47f8 39bf c40f 68bf
000000b0: ac98 77be b83b 42bd 8d97 a3bd 7d80 363e
000000c0: d868 7dbe 9153 d33d 975d ebbd 2bde 763e
000000d0: ae0e 023e 24b6 11be 8e84 b9bd 0737 34be
000000e0: a95b 83bf d8a1 8fbf dcc3 c0bf 4b9d bebe
000000f0: 8211 9b3f 32a5 aa3f bcd3 b63f a08d 633f
00000100: 89fb 6e3d 72b9 11be 3321 f1bf 153a 1cbf
00000110: 40e2 923d e973 753e 0873 3cbf b2a6 163d
00000120: b54d 3abe 8655 a2bf 00a6 2440 0692 3e3f
00000130: 1484 0fbf 7712 57bf 5704 dabf 0ae2 06bf
00000140: a878 4fbf 4e43 f7be 837d bcbf 8f39 6abe
00000150: be87 0a3f d489 bb3e a391 82be 0342 723e
00000160: 6ef3 ea3c 7a95 87be 5dce 6dbe 8dee e8bc
00000170: dd7c 553e 7f75 e3bd dfa2 7cbf 018e e7bd
00000180: d8fa f73e 7942 b33e acd9 cdbf 4340 02bf
00000190: 8a08 5abd 894b 823f 0cb3 3a3e 695f 3b3e
000001a0: 80a0 43bf 2cd1 25bf 196d e3be 38de 3bbe
000001b0: ba09 633f 83bc aa3e 3800 7f3f dd3a 5e3e
000001c0: cff3 65bd 5bff 36bc 8b60 f83e b31f d9be
000001d0: d97d f8be 6a6f 943d 5114 903e c762 f83d
000001e0: 5a75 563d fdea 4abd 2c41 26bf e63d 6a3d
000001f0: 4926 0dbd 27e1 793d 46e2 0cc0 54ba 00bf
00000200: 82aa edbe 8972 fabe 5283 b0be b61f d0be
00000210: 4bac 2bbf c16e 28bf cde1 8bbf 1ee2 77be
00000220: 5377 c8be aa0c 51be ded1 fe3e 005a ddbd
00000230: b4e0 993d e8cf fe3d 1b84 b53d 91a5 49be
00000240: 31dd 25bf 3dd5 67bf 20a1 11bf c99f bebe
00000250: 7b73 0abe fd36 f9be bfa3 37bf 5c21 cabe
00000260: 3d08 023e ebe0 78be db6c 0ac0 a9d9 95be
00000270: 2525 823e d754 06bf 8b61 10bf d78d 76be
00000280: 72bf 123e 71ab 9bbe f8cd 81c0 1a78 95bf
00000290: 9ee4 39bf a66b debe 9123 34bf abd2 44be
000002a0: 8eab dcbf 6020 84be 1f5d c73c fb20 bb3c
000002b0: aee8 a93d 739a dc3e 23a1 e3bc 231b 043f
000002c0: 8146 6cbe 8c20 debe a90e b4bb d4ca c2be
000002d0: 564b a3be 4a1e 8ebe 66ad 443f c164 3ebd
000002e0: a983 183f 9191 333f 446d fe3e d6a1 763e
000002f0: abbb 2fbf 4a16 b23d 9cff 173f 08bc 273c
00000300: 88b6 42bf c098 2fbf 722c 203e a1dc 363d
00000310: 2aa6 8cbe 17c6 e33d 05b7 06bf 34e1 363d
00000320: 0a9d d13e 3e65 913e 8343 07bf 9b68 3c3e
00000330: 6462 a9be 1381 8c3e 6124 f1be a474 d93e
00000340: a620 a83e 41c9 843d e720 cfbc 966b 193e
00000350: df0a d5bd e92f 6abe 24c9 e5be 9821 5cbd
00000360: 3d51 213e e074 a1be 31f6 40c0 bd40 0fbf
00000370: 5c6d 24bd 0a18 b63e 698a 9a3f 692c 553f
00000380: f7be c5be 6cb8 383e b3d0 12bf 96c9 ea3c
00000390: 362e 81be 340a c73d ae54 88be 3d39 893e
000003a0: 05f4 a53d 279b 9fbd 1a8e a73e 7c89 9cbe
000003b0: a9a5 ed3d 7f8f 2ebf 47cb 773f b1af 5e3c
000003c0: 071a 96bd 7ced 9e3e 99aa b1be a303 6b3c
000003d0: d824 843e 9abd 1bbf 192b 44bd 2648 b4be
000003e0: f85a 06be a335 67be efe1 2dbf 2ec7 8bbd
000003f0: cf74 bc3e b77a 60bf 8577 b13e b7e6 ecbe
0.017407306 0.34469354 -1.3498726 -0.48755562 0.4711797 0.19830483 1.2287115 0.29328594
0.33486634 0.47263694 0.03832754 0.2826184 -0.30621675 0.039354872 -0.36617166 0.020970168
0.45840946 1.1498392 -1.1041433 0.21393175 0.49425247 0.8424231 2.9319773 0.6353446
0.82904047 0.590868 0.68168896 0.36275443 -0.078400455 1.4894602 -0.777619 0.07197668
-0.32090914 -0.23967472 -0.4903808 -0.2712631 -0.29101261 0.5564493 -0.050920215 0.09121842
0.545149 -0.14444314 -0.72644466 -0.90649056 -0.24179333 -0.047420233 -0.079878904 0.17822452
-0.24747026 0.103186734 -0.1149246 0.24108188 0.12700912 -0.14229637 -0.09058486 -0.17599116
-1.0262347 -1.1221266 -1.5059772 -0.3722938 1.2114718 1.3331664 1.4283366 0.8888798
0.05834535 -0.14230898 -1.8838257 -0.61026126 0.0717206 0.23969997 -0.73613024 0.036780067
-0.18193705 -1.268235 2.5726318 0.74441564 -0.5606091 -0.8401255 -1.7032574 -0.5268866
-0.8104348 -0.48293537 -1.4725803 -0.2287352 0.54113376 0.36628592 -0.25501737 0.23657994
0.02868053 -0.2648123 -0.23223253 -0.028434062 0.20848413 -0.11106395 -0.9868602 -0.11306382
0.48433566 0.35011652 -1.6082053 -0.50879306 -0.0532308 1.0179302 0.18232363 0.18298115
-0.7641678 -0.64772296 -0.44419172 -0.18346488 0.88686717 0.33346948 0.9960971 0.21702142
-0.056140717 -0.01116928 0.48511156 -0.42406997 -0.48533514 0.07247813 0.281405 0.12128215
0.05235801 -0.04954051 -0.64943194 0.057187937 -0.03446034 0.061005738 -2.2013106 -0.50284314
-0.4641915 -0.48915508 -0.3447519 -0.40649194 -0.67059773 -0.65794 -1.0928284 -0.2420735
-0.39153537 -0.20414987 0.4976949 -0.10808182 0.07513562 0.12441999 0.08863088 -0.19692065
-0.64790636 -0.9055975 -0.5688648 -0.3723128 -0.13520615 -0.48674765 -0.7173423 -0.39478576
0.12698455 -0.2430455 -2.162894 -0.29267624 0.25418964 -0.52473205 -0.5639884 -0.24077545
0.14330843 -0.30404237 -4.0563927 -1.1677277 -0.7261447 -0.43441504 -0.7036677 -0.19220988
-1.7239854 -0.2580595 0.024336396 0.022842875 0.08296333 0.43086585 -0.027786797 0.5160391
-0.2307377 -0.43384206 -0.0054949117 -0.3804537 -0.31893414 -0.27757484 0.76827085 -0.046482805
0.595759 0.7014399 0.49692738 0.24085173 -0.68645734 0.086956576 0.59374404 0.010237701
-0.7605977 -0.68592453 0.15641955 0.044644002 -0.27470523 0.11121767 -0.52623016 0.044648364
0.40940124 0.28397554 -0.5283739 0.18399279 -0.3308288 0.27442226 -0.47098067 0.42471802
0.3283741 0.06483699 -0.025284244 0.14982447 -0.10402464 -0.22869839 -0.4488002 -0.053742975
0.15753646 -0.3153448 -3.0150263 -0.5595816 -0.040143356 0.35565215 1.207349 0.8327089
-0.38622257 0.18039101 -0.573497 0.028660577 -0.2523057 0.09718743 -0.26627105 0.26801482
0.08103184 -0.07793265 0.32725602 -0.30573642 0.11603863 -0.6818771 0.9679455 0.013591693
-0.07329183 0.3104056 -0.34700468 0.014344129 0.2580936 -0.60836184 -0.047892664 -0.35211295
-0.1312064 -0.22579055 -0.6792287 -0.068251 0.36807868 -0.8768725 0.346615 -0.4626977

linear.bias f4 [512]
00000000: 5ffd ddbe efdb 823e 43ef ed3d bf53 4d3f
00000010: ce48 2f3f a9a4 97bf b036 22bf a642 75bf
00000020: c18f 863f a976 793f a0ea d93e eef5 593f
00000030: 5f19 463f 98e1 533f 56bb b53e 371c 813e
00000040: 6b2e 1b3f ffcc 943f 8ac2 46bf 3b80 c3be
00000050: d67d 95be f8d4 a1bf e85c 0d3f 4ef6 7a3f
00000060: e806 aabe 2116 8c3f 3f4b 313f 687b f0bc
00000070: 17d2 8b3f 2caa 7cbf ca45 313f d137 ef3e
00000080: e71f 12be 85de d7be 2ee6 9cbf 4276 8e3f
00000090: dd76 043f 3700 383f aa9d 54bf 8a0b 653f
000000a0: 16cc 0e3f 915b 60be 3104 c53e 64da 5c3f
000000b0: a4bb 6e3f de6a 9abf af0f c7be cc96 74bf
000000c0: 299f 013f 323b 303f 6942 76bf 2c50 783f
000000d0: d978 02bf 90b8 0a3f 0667 21bf 8b9a 0c3f
000000e0: fc45 7c3f e015 593f 56f6 823f fe0c d03e
000000f0: fb20 7e3f c1f8 633f ea3c 163f 7f3d 333e
00000100: 3728 623f d8ea 613f d3f2 163f 2108 1fbf
00000110: f426 c1be 923b 843f 5c53 683f c51a 203f
00000120: 2057 6abe 6117 523f 59e1 79bc d6e5 3fbe
00000130: e3c2 ffbe f58d 513f bab4 813f 574c d53e
00000140: 4f08 6c3f cde4 1f3f f240 253f df32 ee3d
00000150: c7e0 94bf 3177 063f beae 253f ea44 403f
00000160: 68cc 5a3f 8567 8dbe 96ba 723f a042 923f
00000170: 914b 8cbf 2f64 7e3f cb0e a4bf 1683 adbf
00000180: 9660 20bf 73be 983e 31c1 313f 4284 183e
00000190: 8221 8ebf 064a 023f ea1f 713f 5e08 823f
000001a0: 5082 163f 7f4b 193f d71a 583f 6113 2fbd
000001b0: 6f11 5f3f f35f 7fbf 5a10 2b3f bc8b 1a3f
000001c0: 7493 5c3f a2c5 c33d 8d02 90bf 3f32 bc3e
000001d0: f462 8ebf 4d35 9cbf 5206 673f 815e 243f
000001e0: d7f1 9fbe 6f9f 703f 542a 3bbf ba5d cb3b
000001f0: bcf1 4f3f f361 3a3f 9c67 24bf 0d0b 433f
00000200: 9ca8 503f 11c5 3dbf 5b58 083f 890f b53e
00000210: ec79 bb3e 99d4 de3d 613c 543f 72dc a2bd
00000220: 3521 7f3f 4a98 973f 6358 453f f3ec cd3e
00000230: 1c15 493f 12e9 173f 4b5e 1bbd 217d 78bf
00000240: c698 03bf c23e d2be c547 e63e 21ce 8b3f
00000250: ece8 ed3e 24ee 81bf 8c4e d0bd 35b8 3bbf
00000260: 1568 6a3f 08e1 babf 50e5 743f dcf8 8e3f
00000270: d484 84bf 6058 5a3f b4dc 03bf 5ee6 37bf
00000280: ef93 2cbf 6265 ba3e e6d2 e83e 6144 903f
00000290: 1a35 843f e65f 6fbd cefe 783f 59b0 653f
000002a0: 3901 543f 66e4 b6bd d9f4 bfbe 8e59 9abf
000002b0: 8848 813f a086 cbbf 98ee 48be 7146 fdbe
000002c0: 076c 573e 474b 53bf 3497 763f f944 a3bc
000002d0: f4e0 8f3f 1e46 57bf 9fb5 353f f3f4 5b3e
000002e0: 4a07 2a3f dd31 013f 742b d6bf e299 513f
000002f0: e411 7e3f 22bf 7b3f 96c2 813f 97df 293f
00000300: 53e0 1bbf af56 97bf 79ed dbbe e4c5 263e
00000310: 497f fabe 79b7 4c3f c7e4 6a3f 33d0 0b3f
00000320: ecae 3b3f 56fd bcbf 5688 353f e4e0 6d3f
00000330: 4ba3 743f 690a 863f 4789 8c3f fc09 c93d
00000340: 2432 553f f9c6 e63e 6358 523f da34 853f
00000350: 7690 653e 3979 3fbf 2299 693f a84b 863f
00000360: 17fd 6c3f e3c3 fd3d 46ed 393f 0409 eb3e
00000370: c9fd 48bf 68f0 e6be 1292 823f 33b1 623f
00000380: 6fbf 393f 2bfc 733f fb83 03bd dc62 4b3f
00000390: 42a3 bb3e dd02 3fbe 1332 193f 0588 583f
000003a0: 1af2 883f f512 79bf 517f 28bd 6384 123f
000003b0: 52b0 583f de1d 89be 804b 9dbf 491d ec3e
000003c0: ce4c 3abe 7ed6 80bf df1d 593f d7fb 563d
000003d0: a594 993e 7e78 243f 0213 3f3f a56c 11bc
000003e0: cf0d 223f b133 3c3f 1678 5a3f 5252 59bf
000003f0: 13c9 e8bd 6694 92be 20ca d53e 8e4a 6d3f
-0.4335737 0.2555842 0.11617901 0.8020591 0.68470466 -1.1847125 -0.63364697 -0.9580482
1.051262 0.97446686 0.42561817 0.85140884 0.77382463 0.82766104 0.35494488 0.2521684
0.60617703 1.162506 -0.77640593 -0.3818377 -0.29197568 -1.2643118 0.5521989 0.9803208
-0.33208394 1.0944253 0.6925544 -0.02935572 1.0923489 -0.9869716 0.69247115 0.46722272
-0.14269982 -0.42161956 -1.2257745 1.112984 0.5174387 0.7187533 -0.83053076 0.8947073
0.5578016 -0.2190993 0.3847976 0.8627074 0.93255067 -1.2063863 -0.38879153 -0.955426
0.50633484 0.68840325 -0.96195084 0.9699733 -0.5096565 0.5418787 -0.63047826 0.54923314
0.9854429 0.84799004 1.0231426 0.40634912 0.99269074 0.89051443 0.586867 0.17503928
0.88342613 0.8824897 0.5896427 -0.6212178 -0.3772503 1.033068 0.90752196 0.6254085
-0.22884798 0.82066923 -0.015251481 -0.18740019 -0.49953374 0.81857234 1.0133278 0.41659805
0.9220018 0.624585 0.64552224 0.11630797 -1.1631097 0.5252562 0.6471976 0.75105155
0.8546815 -0.27618042 0.9481596 1.1426582 -1.0960561 0.9937162 -1.2817014 -1.3555629
-0.6264738 0.298328 0.6943541 0.14894202 -1.1103976 0.508942 0.9418932 1.0158803
0.5879259 0.5988082 0.84415954 -0.04274309 0.87135977 -0.9975578 0.66821826 0.6036947
0.86162496 0.0955918 -1.1250778 0.36757085 -1.1123948 -1.2203766 0.9024402 0.642067
-0.31239197 0.93993276 -0.7311146 0.0062062414 0.8122823 0.7280571 -0.64220595 0.7618874
0.8150728 -0.74128824 0.5325982 0.35363415 0.36616457 0.108803935 0.8290463 -0.07952203
0.99660045 1.184335 0.7708799 0.4021984 0.78547835 0.5934001 -0.03793172 -0.9706593
-0.5140499 -0.41063505 0.4497663 1.092228 0.46466768 -1.01508 -0.101712316 -0.7332795
0.91565067 -1.4599924 0.95662403 1.1169696 -1.0353036 0.852911 -0.5150864 -0.7183589
-0.6741323 0.36405474 0.45473403 1.1270868 1.0328705 -0.058441065 0.972638 0.8972221
0.82814366 -0.08930282 -0.3749149 -1.205858 1.010026 -1.5900459 -0.19622266 -0.49467805
0.21037303 -0.8253674 0.9632447 -0.01993035 1.1240525 -0.84091365 0.70980257 0.2148016
0.6641737 0.5046671 -1.6732011 0.8187543 0.9924605 0.9833852 1.0137508 0.66356796
-0.60889167 -1.1823329 -0.42954615 0.16286427 -0.48925236 0.7996746 0.91755337 0.5461456
0.73313785 -1.4764812 0.7091116 0.9292128 0.95561665 1.0471927 1.0979394 0.098163575
0.83279634 0.4507368 0.8216612 1.0406754 0.22418389 -0.74794346 0.9124929 1.0491838
0.92573684 0.12390878 0.72627676 0.45905316 -0.78512245 -0.4510529 1.0200827 0.88551635
0.7255773 0.9530665 -0.03210829 0.7944772 0.36647993 -0.18653436 0.5984203 0.8458255
1.0698884 -0.9729455 -0.041137043 0.57233256 0.84644043 -0.267806 -1.2288666 0.46116093
-0.18193361 -1.0065458 0.84811205 0.052486267 0.2999622 0.64246356 0.7463838 -0.0088760005
0.6330232 0.73516375 0.85339487 -0.84891236 -0.11366477 -0.28628844 0.41755772 0.92691886

linear2.weight f4 [2, 512]
00000000: b972 aabf 7657 1ac0 e41d c9be 295b c63e
00000010: 3d44 353f f748 1ec0 4333 82bf 2904 f13f
00000020: 3cb0 143f afb5 153f 5d28 a0bf c7cc a83e
00000030: 4753 973e 91aa 313f 8524 883e 3bd4 8a3f
00000040: 4169 64be 4150 313f a2a8 3d3f a6f5 9a3f
00000050: c691 b2bf 25ae bdbf 27de 673e f1fe 2f3f
00000060: 6126 873e b8da 4e3f 7bd5 483f 61b3 d0bf
00000070: de98 383f eabf 0bc0 aed5 be3e d1a7 86be
00000080: 397c dabe fb62 dbbf a96b 06c0 66f2 203f
00000090: e20a 743f 281e 1d3f d5d9 3c3f e50d af3e
000000a0: ef97 bbbf 704c b7bf dd46 853f b631 07bf
000000b0: 60c6 f83e 0a4b 02c0 9c76 48bf 15b4 4fc0
000000c0: 03f3 713f 7248 1f3f f376 c4bf d5e6 b93e
000000d0: 8880 e2be 4cf5 b83e 2948 abbf 3461 0dbf
000000e0: 676e 0d3f ab4f 943e dca2 4e3f 8878 cc3f
000000f0: 62ff 253f 793c b23e 1683 d33e 8677 153f
00000100: 7fa0 3d3f 746f 8c3e c4a2 b03e ee0b 82bf
00000110: 0819 bcbf 5830 2dbf b1fb 953e 5d17 0f3f
00000120: 9007 94bf 7b6b 173f b6f0 70bf 3d78 643f
00000130: 442b b1bf 4901 1f3f 5f10 9b3e af5d 2c3f
00000140: 0ab1 0b3f 9fe4 d0bf 0747 dbbf 1af2 ca3f
00000150: 866b 87bf 9fae 833f 8fda dabf d617 a93e
00000160: 1880 c63e 09c4 cd3f dfd6 a43e a53b 4e3f
00000170: d957 08bf c14a fb3e 4bc2 07c0 fd3b 07c0
00000180: 4268 b53e 2f07 9bbf d44f aa3e 22ac 613f
00000190: 4cbb f6bf fed8 723f c2f3 183f 5420 213f
000001a0: e347 133f bd84 ab3e 4798 cc3e 2452 9bbf
000001b0: 53aa e53e a674 9cbf 9922 d7be fed8 90be
000001c0: edb9 a33e 41f7 533f d328 aebf 20da 413f
000001d0: 096b 04c0 e3e6 1fc0 7ef5 223f 4ba5 d13e
000001e0: db8a 62bf 2585 1d3f 7563 ebbe 9d92 debf
000001f0: 1be3 a2bf 4242 ac3e c666 fabe 51c4 b03e
00000200: 2b96 cd3e cc21 1ec0 8fae 8ebf d922 b9be
00000210: 6d9c 9dbf 5446 413f d051 d03e f443 04c0
00000220: 2b40 8abf 97f2 293f ff5e b13e c272 3c3f
00000230: 4ac0 b03e 6cd8 08bf 606b 99bf 6ba4 f43d
00000240: fbd7 b73f 4b87 373f 76ac 0a3f 4de8 553f
00000250: 9a1b 293d 074e 48c0 b8a9 36bf 6e19 9cbf
00000260: 2bc7 2b3f 2d7f 14c0 f96b ea3e 1994 263f
00000270: 3c50 4fbf a5a4 b53e a841 1bbc c34c 5cbd
00000280: d16c 25bf 541c 44bf 6de6 5e3f c548 d1bf
00000290: ba0b 263f 241a 6cbf 6918 e83e 6bda 183f
000002a0: 6a6c 953e 7fbb 43bf 528d 6a3c e8cb 01c0
000002b0: b3fa 2a3f 6a61 06c0 d955 d3be cded b63f
000002c0: c74f 30c0 8647 b8bf 0d6a ed3e a761 d6bf
000002d0: b51c f73e 0de7 5dbf 6a18 1f3f 328e a8bf
000002e0: 27a7 093f 9ac6 2fbf 9e7c c4bf 30d8 c73e
000002f0: a0bb 183f 9508 4b3f 01da ad3e d5b5 573e
00000300: f351 89bf 70b2 17c0 3428 b3bf b14d 913f
00000310: c060 a9be f909 bf3e 7bf0 83bf 48fc 5a3f
00000320: 6d84 49bf 60fa 03c0 c223 433f c677 8b3e
00000330: 2cd7 213f 8f29 a93e 533c a2bf af57 723f
00000340: ea4c b23e d608 b3be b776 d6bf 27be a93e
00000350: 70c6 9abf e4a1 843e 03a5 fe3e ad6a 303f
00000360: 56c5 b23e 2c25 a7bf 78bd d23e f3fa 193f
00000370: 0914 9fbf a5e9 babf 0c97 db3e 1241 183f
00000380: 8530 bc3e 3bd7 233f 65cd c53f d8c1 c33e
00000390: d8e3 f6bf 13dd c5be 80e2 443f 078e fe3e
000003a0: a699 433f 00b6 a5bf a91a 03bf 97ad a63e
000003b0: a98b 3b3f 20b3 7e3f 4cec 85bf 05b4 053f
000003c0: fe03 f1bf 4e59 96bf 2bbb 303f 2e3b bd3f
000003d0: 7613 0d3f a466 e13e 68fc c43e 5589 c8bf
000003e0: 8774 a93e b4d9 fe3e 8a8d 023f 7399 0fc0
000003f0: ee5e 7fbf 8b05 a9bf 947f 85bc 35cd a43e
-1.331626 -2.4115882 -0.39280617 0.38741425 0.7080725 -2.4732034 -1.0171894 1.8829395
0.5808141 0.5848035 -1.2512318 0.32968733 0.29555723 0.6940089 0.26590362 1.0846018
-0.22305776 0.6926308 0.7408544 1.2106216 -1.3950737 -1.481877 0.22643338 0.68748385
0.26396468 0.8080249 0.78450745 -1.6304742 0.72108257 -2.1835885 0.372724 -0.2629991
-0.426729 -1.7139581 -2.100321 0.6286987 0.95329106 0.6137414 0.73769885 0.34190288
-1.4655741 -1.4320202 1.0412251 -0.5281023 0.48588848 -2.03583 -0.78305984 -3.2453663
0.9451143 0.6221992 -1.53488 0.36308923 -0.44238687 0.36124647 -1.3381397 -0.55226445
0.55246586 0.28967032 0.80717254 1.5974283 0.6484281 0.34811762 0.41310948 0.58385503
0.7407302 0.27428782 0.3449918 -1.0159891 -1.4695139 -0.6765189 0.29293588 0.55895025
-1.1564808 0.5914838 -0.94117296 0.8924597 -1.3841329 0.62111336 0.30285928 0.6733045
0.54567015 -1.631977 -1.7131051 1.5855134 -1.0579689 1.0287665 -1.7097949 0.33025998
0.38769603 1.607545 0.32195184 0.8055976 -0.53259045 0.4908047 -2.1212337 -2.1130364
0.35431105 -1.2111567 0.3326403 0.8815328 -1.9275908 0.94862354 0.59746945 0.62939954
0.57531565 0.3349971 0.39959928 -1.2134442 0.4485651 -1.2223098 -0.42018583 -0.28290552
0.31977788 0.82799155 -1.3606209 0.7572346 -2.069033 -2.4984672 0.6365584 0.4094642
-0.88493127 0.6153129 -0.45974317 -1.7388493 -1.2725557 0.336443 -0.48906535 0.34524778
0.40153632 -2.4708128 -1.1147021 -0.361594 -1.2313362 0.7549794 0.40687418 -2.0666475
-1.0800833 0.6638579 0.3464279 0.73612607 0.34521705 -0.53455234 -1.1985893 0.11945423
1.4362787 0.71690816 0.54169405 0.8355759 0.04128609 -3.1297624 -0.7135272 -1.219526
0.6710078 -2.3202622 0.45785502 0.6506973 -0.809818 0.35477176 -0.009476103 -0.053784143
-0.64619166 -0.76605725 0.8707035 -1.6350332 0.64861643 -0.9222739 0.45331123 0.5970828
0.29184276 -0.7645797 0.01431592 -2.0280704 0.66788787 -2.0996957 -0.41276434 1.4291321
-2.7548692 -1.4396827 0.46369973 -1.6748551 0.4826409 -0.8668068 0.6214663 -1.3168395
0.5377068 -0.68662417 -1.535053 0.39032125 0.59661293 0.7930997 0.33955386 0.21065457
-1.0728134 -2.370266 -1.3996644 1.1351835 -0.33081627 0.37312296 -1.0307764 0.855412
-0.7871769 -2.0621567 0.7622644 0.27239817 0.6321895 0.3303952 -1.267466 0.94665045
0.34824306 -0.3496768 -1.6754979 0.33152887 -1.2091808 0.25904763 0.4973527 0.68912774
0.3491618 -1.3058219 0.41160178 0.60148543 -1.2427989 -1.4602553 0.42888677 0.5947429
0.36755767 0.6400029 1.5453306 0.3823383 -1.9288282 -0.3864523 0.7690811 0.49717733
0.76406324 -1.2946167 -0.51212555 0.32554314 0.7325998 0.99492073 -1.0462737 0.52227813
-1.8829343 -1.1746004 0.69035596 1.4783685 0.5510782 0.4402362 0.3847382 -1.566691
0.33096716 0.4977547 0.5099722 -2.2437408 -0.99754226 -1.3204817 -0.016296186 0.3218781

linear2.bias f4 [2]
00000000: bf60 a03e 8fa4 9d3e
0.3132381 0.3078961
