code/log/dqn/ckpt/88000.pth (torch, 15775 bytes, 4 tensors)

linear.weight f4 [512, 4]
0	0x3c3aceb5	0.011401822
1	0xbdeb5510	-0.11490834
2	0xbfdae1e9	-1.7100192
3	0xbf5e38c7	-0.86805385
4	0xbf333ff0	-0.70019436
5	0x3c0c4ab2	0.008562731
6	0x3e134836	0.14383015
7	0x3e5a0519	0.21291007
8	0x3f878a2c	1.0589042
9	0x3eb6fbd1	0.35738996
10	0xbeb13167	-0.34608003
11	0x3e3f45b4	0.18678933
12	0xbe642bee	-0.22282383
13	0xbe18c37e	-0.14918324
14	0xbd582880	-0.052773
15	0xbd023c3b	-0.03179572
16	0x3e128cb5	0.14311488
17	0xbd73d5fc	-0.059530243
18	0xbf278f8d	-0.65453416
19	0xbdb8836c	-0.09009442
20	0x3d342c76	0.043987714
21	0x3f24b1a9	0.6433359
22	0x3fb7a1e6	1.4346282
23	0x3f3d40e3	0.73927134
24	0xbd7210ef	-0.05909818
25	0xbef16955	-0.47150674
26	0xbf8acaa7	-1.0843095
27	0xbf5b2c2e	-0.8561429
28	0xbe0ceb75	-0.13761695
29	0x3b8f94d7	0.0043817568
30	0x3bb63dc3	0.005561562
31	0x3e767c6a	0.24070898
32	0xbe8693bc	-0.26284587
33	0xbe8b92ad	-0.27260342
34	0xbe73b289	-0.23798575
35	0xbe74c838	-0.23904502
36	0xbeb1cbb9	-0.3472574
37	0x3f095c0a	0.53656065
38	0x3db9cf13	0.090726994
39	0xbb007e68	-0.0019606594
40	0x3d3fc791	0.04682118
41	0xbf22c1d4	-0.6357701
42	0xbfb1589b	-1.3855165
43	0xbf5c89ad	-0.86147577
44	0xbe2ee3e4	-0.17079121
45	0xbe5309b3	-0.20609169
46	0x3e9761fe	0.2956695
47	0x3e63325d	0.22187181
48	0xbdd966ab	-0.106152855
49	0x3d95168d	0.07279692
50	0x3e959729	0.2921689
51	0x3e83d9a1	0.25751975
52	0x3dd93d29	0.106073685
53	0xbdc3e17a	-0.095644906
54	0x3ddd2d2b	0.10799631
55	0xbe826c61	-0.25473312
56	0x3e2f9b38	0.17149055
57	0xbf407bf7	-0.75189155
58	0xbfed93d7	-1.8560742
59	0xbf091207	-0.5354313
60	0x3f09b81e	0.53796566
61	0x3e97cf13	0.29650173
62	0xbeb8106a	-0.35950023
63	0x3dbbcba5	0.091697015
64	0xbd7d3c02	-0.061824806
65	0x3d21196e	0.039330892
66	0x3dc708fa	0.09718509
67	0xbe115479	-0.1419238
68	0xbb0f81b4	-0.0021897377
69	0x3e6512c0	0.22370434
70	0xbf20938a	-0.62725127
71	0xbdb3456f	-0.08753478
72	0x3e81125b	0.25209317
73	0x3f119b01	0.5687714
74	0x3f6a78c2	0.9159051
75	0x3f243e1a	0.6415726
76	0x3e010a46	0.12601575
77	0xbec30cba	-0.38095647
78	0x3dea1bfc	0.11431119
79	0xbd9514d3	-0.072793625
80	0xbee30993	-0.44343242
81	0x3a14ca36	0.0005675884
82	0xbf52a343	-0.8228037
83	0xbf2ee5c6	-0.68319356
84	0x3ebacbca	0.36483604
85	0xbebc8e0e	-0.3682713
86	0xbfe1b0dd	-1.7632099
87	0xbf19ad43	-0.6003
88	0x3e5e641b	0.21717875
89	0xbe8d319b	-0.27576908
90	0x3e1f4ddf	0.15557049
91	0x3b43ba3f	0.002986565
92	0x3e5fcd03	0.2185555
93	0xbdb762b7	-0.08954375
94	0xbf454fbd	-0.77074796
95	0xbe31e359	-0.17371882
96	0x3eee7ba1	0.46578696
97	0xbe852e59	-0.26011923
98	0xbfbae6ec	-1.4601722
99	0xbf495caf	-0.7865705
100	0x3f111dbd	0.56686
101	0x3ea62c16	0.3245551
102	0xbe91757f	-0.28409955
103	0xbdabed97	-0.08394926
104	0xbeba5ef8	-0.3640058
105	0xbd81a81f	-0.06330895
106	0xbe9204a5	-0.28519168
107	0xbe193ee1	-0.14965393
108	0x3d802eaf	0.06258904
109	0x3ebb4e1d	0.36583033
110	0x3f8d1df6	1.1024768
111	0x3f2b383c	0.6688268
112	0xbe09a925	-0.1344343
113	0x3d603448	0.05473736
114	0x3db59e6a	0.08868106
115	0xbe4841d3	-0.1955636
116	0xbf1b84a8	-0.6074929
117	0xbe1730aa	-0.14764658
118	0x3e9dc8ba	0.30817205
119	0x3dd818a8	0.10551578
120	0x3e54694b	0.20743291
121	0x3e910bb4	0.2832924
122	0xbe966f74	-0.29381907
123	0xbe9caa4a	-0.3059867
124	0xbececae4	-0.40389168
125	0xbf0462c3	-0.517132
126	0xbfb0af53	-1.3803505
127	0xbf02d920	-0.51112556
128	0xbf1d34dc	-0.6140878
129	0xbf3d361f	-0.7391071
130	0xbf103e77	-0.56345314
131	0xbe6d67e0	-0.23184156
132	0xbf0dd41a	-0.55401766
133	0xbea83684	-0.32854092
134	0xbed493dc	-0.41519058
135	0xbe7d4374	-0.24732763
136	0xbe82b364	-0.2552749
137	0xbe073cd2	-0.13206795
138	0x3f67ed2f	0.9059629
139	0x3e908522	0.28226572
140	0x3edec0dd	0.43506518
141	0x3e938664	0.2881347
142	0x3eb095d0	0.34489298
143	0xbe251e31	-0.16124798
144	0xbf23378e	-0.63756645
145	0xbf0c7312	-0.54863083
146	0xbf0d4c82	-0.55194867
147	0xbe7c3647	-0.2463008
148	0xb9e5e2dc	-0.00043847307
149	0xbebda1d6	-0.37037534
150	0xbea7f3bf	-0.3280315
151	0xbdb7ce33	-0.08974876
152	0xbe7dd34d	-0.24787636
153	0xbe85ca8d	-0.26131096
154	0xbf6d6b35	-0.9274171
155	0xbf71ff49	-0.9453016
156	0x3eb67ac5	0.3564054
157	0xbef9422d	-0.486833
158	0xbe08d8f5	-0.13364013
159	0xbe18c94a	-0.14920536
160	0x38f6e60a	0.00011773042
161	0xbf2e5033	-0.68091124
162	0xc0055213	-2.0831344
163	0xbf459b3f	-0.7719001
164	0xbf1a0ab5	-0.6017259
165	0xbe37a4ee	-0.1793401
166	0xbdd474c8	-0.10373837
167	0x3c1a3bd2	0.009413676
168	0xbf39a72f	-0.72520727
169	0xbe1d186b	-0.15341346
170	0x3e7fb32c	0.24970692
171	0xbec8ace2	-0.391944
172	0x3ef0610e	0.46949047
173	0x3e90ae45	0.28257957
174	0x3db4fa9a	0.08836861
175	0x3f267220	0.6501789
176	0xbddef9fc	-0.108875245
177	0xbec09c8e	-0.37619442
178	0x3ec98f1c	0.39366996
179	0xbec05bf4	-0.37570155
180	0xbe8a1cc1	-0.26975062
181	0xbe71198a	-0.23544899
182	0x3f988877	1.1916646
183	0x3dc7fdb9	0.09765191
184	0x3fb142aa	1.3848469
185	0x3e701454	0.23445255
186	0xbe949916	-0.29023045
187	0x3e208c4e	0.15678522
188	0xbf572374	-0.8403847
189	0x3c0200db	0.007934774
190	0x3f13cc57	0.5773367
191	0x3eb6cc25	0.35702625
192	0xbe79e98c	-0.24405497
193	0xbdb8c906	-0.09022717
194	0xbe9ef825	-0.31048694
195	0xbda35735	-0.07975618
196	0xbe6b2e1a	-0.22966805
197	0x3e4e2fa9	0.20135368
198	0xbec55b99	-0.38546446
199	0x3c7961e7	0.015221096
200	0x3e1557da	0.14584294
201	0xbdc5386e	-0.09629904
202	0xbfd37365	-1.6519591
203	0xbf48af8f	-0.7839288
204	0xbe8006b3	-0.2500511
205	0x3e9feb71	0.31234315
206	0xbdcc4f39	-0.09976048
207	0x3ee4bbd6	0.44674557
208	0x3e328849	0.17434801
209	0x3dd750d1	0.105134614
210	0xbc9d2ef4	-0.019187428
211	0xbe238070	-0.15966964
212	0x3d88e5bb	0.066844426
213	0xbe1b9b0a	-0.15195861
214	0x3d26832a	0.04065243
215	0x3d129c23	0.035793435
216	0xbf09897f	-0.5372543
217	0xbf2e1384	-0.6799853
218	0xbf247e78	-0.64255476
219	0xbee4359c	-0.4457215
220	0x3f4e81c6	0.8066677
221	0x3f10a2f5	0.5649865
222	0x3d9587c5	0.073012866
223	0x3dbb6cac	0.09151587
224	0xbec3afb6	-0.38219994
225	0x3dda5995	0.10661618
226	0xbeba25cc	-0.36356962
227	0xbdc775eb	-0.09739288
228	0xbe721a6e	-0.23642895
229	0xbd4d26a2	-0.05008567
230	0x3e274adc	0.1633715
231	0x3e9246ec	0.28569734
232	0x3d806472	0.062691584
233	0x3d53d7ab	0.05171935
234	0x3d2b87f9	0.04187772
235	0xbe705b14	-0.23472244
236	0x3eb5bbf3	0.35494956
237	0xbee831a8	-0.45350385
238	0xbf4b57b3	-0.79430693
239	0x3ede80dc	0.43457687
240	0xbddbd110	-0.10733235
241	0x3e838599	0.25687864
242	0xbe976212	-0.2956701
243	0xbd366e64	-0.04453887
244	0x3e9bc144	0.30420887
245	0xbf187c26	-0.59564435
246	0x3e96f92d	0.2948698
247	0xbebc6ade	-0.36800283
248	0x3b5a4d20	0.003331013
249	0xbe1d91e0	-0.15387678
250	0xbe77016e	-0.24121639
251	0x3ceb8abf	0.028752683
252	0x3ee04b21	0.4380732
253	0xbe034183	-0.1281796
254	0xbdb545d7	-0.088512115
255	0xbc7e9848	-0.015539236

linear.bias f4 [512]
0	0xbf0ef6ac	-0.5584514
1	0xbedc03ae	-0.42971557
2	0xbd85f80a	-0.0654145
3	0x3f651e14	0.8949902
4	0x3f448cb5	0.767772
5	0xbe48e140	-0.19617176
6	0xbdcbb19b	-0.09945985
7	0x3eb9ff78	0.3632772
8	0x3f86deb5	1.0536715
9	0x3f6709e1	0.9024945
10	0xbf0eda35	-0.5580171
11	0x3f283004	0.65698266
12	0x3f396fd3	0.72436255
13	0x3f4236e8	0.7586503
14	0xbebbcfff	-0.36682126
15	0x3e317ad4	0.17332011
16	0x3edb6725	0.4285213
17	0x3f891dc8	1.0712214
18	0xbf272fef	-0.65307516
19	0x3f07dc8c	0.530709
20	0xbf22b3fb	-0.6355588
21	0xbe61ca89	-0.22049917
22	0x3f0ce1f0	0.55032253
23	0x3f677ab6	0.9042162
24	0xbf5273ed	-0.8220814
25	0x3ecbfcb0	0.39841223
26	0x3f84fcc4	1.0389638
27	0xbe950778	-0.2910726
28	0x3f622ec1	0.8835259
29	0xbee9c57f	-0.4565849
30	0x3ebfd912	0.374703
31	0xbed22e83	-0.4105111
32	0x3db28fc8	0.0871883
33	0x3f0092bc	0.502239
34	0xbf186a4a	-0.59537184
35	0x3f1d55b2	0.61458886
36	0x3e60a279	0.21936978
37	0x3f4e7b40	0.80656815
38	0xbca8b277	-0.020592911
39	0x3f4bea87	0.79654735
40	0x3e4ad636	0.19808277
41	0xbebc1c32	-0.3674026
42	0xbd1d2179	-0.038362
43	0xbf24328b	-0.6413962
44	0x3f6692f6	0.90067995
45	0xbf12b26a	-0.5730349
46	0xbd69d852	-0.057091065
47	0x3ea9f04a	0.33191139
48	0x3f4acf7c	0.79222846
49	0x3f1fffa1	0.62499434
50	0x3e300a70	0.17191482
51	0x3f69b013	0.9128429
52	0xbf2eb0bd	-0.6823843
53	0x3f038256	0.5137075
54	0x3e22bf55	0.158933
55	0xbe0046d5	-0.1252702
56	0x3f60ac46	0.8776287
57	0x3f295c80	0.6615677
58	0x3f54656c	0.8296726
59	0x3d44d2d1	0.048052613
60	0x3f650fb0	0.8947706
61	0x3f43adaf	0.76436895
62	0x3f079db9	0.5297504
63	0xbed51548	-0.416178
64	0x3f324d63	0.6964933
65	0x3f45cdf9	0.77267414
66	0x3f06fca9	0.5272928
67	0xbd664129	-0.056214485
68	0xbf053c85	-0.5204547
69	0x3ccb683d	0.024829978
70	0x3f53cf9f	0.8273868
71	0x3f074600	0.52841187
72	0xbdab9d1b	-0.08379575
73	0x3f3c7c11	0.7362681
74	0xbe5bfede	-0.21483943
75	0x3d6df179	0.058091614
76	0xbf1bb6c2	-0.6082574
77	0x3f41880a	0.75598204
78	0x3f7163e4	0.94293046
79	0x3f420a33	0.7579681
80	0x3f62613a	0.88429606
81	0xbf28bed8	-0.65916204
82	0x3e6b8d36	0.23003086
83	0x3e4f821a	0.20264474
84	0xbf21da17	-0.63223404
85	0x3f1ce7b1	0.61291033
86	0xbe0150b3	-0.1262844
87	0x3f2ee85f	0.6832332
88	0x3f5a6b55	0.85320026
89	0xbedafeb6	-0.42772454
90	0x3f6d5f84	0.9272387
91	0x3f74fbd3	0.95696753
92	0xbf6110ee	-0.8791646
93	0x3f8089ac	1.0042014
94	0xbf19d8c9	-0.6009641
95	0xbf18169c	-0.594095
96	0xbe94b0de	-0.2904119
97	0xbecb005c	-0.39648712
98	0x3ef064d9	0.4695194
99	0xbefb170d	-0.49041024
100	0xbf04421e	-0.51663387
101	0xbf042bd9	-0.51629406
102	0x3f5a6944	0.8531687
103	0x3f6fa3f4	0.9360955
104	0x3f3ca450	0.7368822
105	0x3ec54e0b	0.38536105
106	0x3f25ea26	0.6481041
107	0xbec55a54	-0.38545477
108	0x3f477b80	0.7792282
109	0xbef5f171	-0.48035768
110	0xbf145b88	-0.57952166
111	0xbe5a6d98	-0.21330869
112	0x3f571bed	0.84026986
113	0x3ef106bb	0.47075447
114	0x3db03714	0.08604255
115	0x3f5504fe	0.8321074
116	0xbf10035d	-0.5625513
117	0xbf34160d	-0.70346147
118	0x3f421a70	0.7582159
119	0x3dd94cbb	0.10610338
120	0x3ddb4dd5	0.10708205
121	0x3f5225a3	0.8208868
122	0xbec5483c	-0.38531673
123	0xbf112cc1	-0.56708914
124	0x3f3c53fd	0.73565656
125	0x3f35ac8d	0.70966417
126	0xbea76a33	-0.3269821
127	0x3f3b885c	0.7325494
128	0x3f45f5d4	0.7732823
129	0x3d723a14	0.05913742
130	0xbd6a85d2	-0.057256527
131	0x3e2e72f6	0.17036042
132	0xbed443ee	-0.41458076
133	0x3dc9b625	0.098491944
134	0x3f40d5dc	0.75326324
135	0xbe969312	-0.2940908
136	0xbe3b637e	-0.18299672
137	0x3f85fa36	1.0466983
138	0x3f153a22	0.5829183
139	0x3f07bd7e	0.5302352
140	0x3f3f2fa9	0.746821
141	0xbec34fba	-0.38146764
142	0xbe8012ad	-0.25014248
143	0x3e81b292	0.2533155
144	0xbee6c9ec	-0.4507593
145	0xbcd54b19	-0.026036786
146	0x3ef41b25	0.4767696
147	0x3f66aa6c	0.90103793
148	0x3ea2f872	0.31830174
149	0xbf22db87	-0.6361622
150	0xbec4e6fc	-0.38457477
151	0xbf0f6cd5	-0.5602544
152	0x3f4ea50f	0.8072061
153	0xbf163d86	-0.5868763
154	0x3f403a90	0.7508936
155	0x3f6e51ce	0.93093574
156	0x3d4cce47	0.05000141
157	0x3e9c6e10	0.3055272
158	0xbf1fa481	-0.6236039
159	0xbe75f82e	-0.24020454
160	0x3ed3400c	0.412598
161	0xbedc3b00	-0.43013763
162	0x3f280ad0	0.656415
163	0xbdfefc79	-0.12450499
164	0x3f612007	0.87939495
165	0xbf405a35	-0.75137645
166	0x3f6a9e0a	0.916474
167	0x3f50c219	0.8154617
168	0x3f4f072a	0.80870306
169	0x3e800965	0.25007167
170	0x3e66cce0	0.22539091
171	0xbf1c8c87	-0.6115193
172	0x3f724de7	0.9465012
173	0xbf0e9c04	-0.5570681
174	0xbee5360a	-0.4476779
175	0x3e8190f6	0.2530591
176	0x3e19b8dc	0.15011925
177	0xbf0d4e0c	-0.55197215
178	0x3f828d30	1.0199337
179	0xbf279b68	-0.65471506
180	0x3f757a56	0.95889795
181	0xbd8dc707	-0.06922727
182	0xbe2bd54d	-0.16780587
183	0xbe8482af	-0.25880954
184	0x3f369f06	0.713364
185	0x3f22a52b	0.63533276
186	0xbef077cd	-0.469664
187	0x3f4cfdbb	0.8007466
188	0x3f20b34f	0.62773603
189	0x3f604f05	0.87620574
190	0x3f7da4f9	0.99079853
191	0x3f0251ec	0.5090625
192	0x3dc7af86	0.09750275
193	0xbedcad17	-0.43100807
194	0xbf50b609	-0.81527764
195	0xbf161de0	-0.58639336
196	0x3e867e05	0.2626802
197	0x3f40abb8	0.7526202
198	0xbd7bad6e	-0.061444692
199	0x3f2d5e5e	0.6772212
200	0x3f187551	0.5955401
201	0xbed42ea2	-0.41441828
202	0x3f185b1e	0.59514034
203	0x3f5a3cea	0.852492
204	0x3f645d2f	0.89204687
205	0x3f6fe64b	0.93710774
206	0xbe858cd8	-0.26084018
207	0x3c20cf35	0.009815027
208	0x3f418500	0.75593567
209	0x3e65c93d	0.22440048
210	0xbe13dae7	-0.14438973
211	0x3f76f7f2	0.96472085
212	0xbedecb3a	-0.43514425
213	0xbe9fa486	-0.3118021
214	0x3f60faa2	0.87882435
215	0x3e4f3f2d	0.20238943
216	0x3f4b5358	0.7942405
217	0xbec9a812	-0.3938604
218	0x3e415073	0.18878345
219	0x3ec064bb	0.3757685
220	0xbe7ab836	-0.24484333
221	0xbf077aba	-0.5292164
222	0x3f652486	0.89508855
223	0x3f3485cb	0.7051665
224	0x3e3ccfa5	0.18438585
225	0x3eb7f6b9	0.35930422
226	0x3f196d24	0.5993216
227	0x3f45c1ae	0.77248657
228	0x3f13b460	0.57697105
229	0xbede9c45	-0.434786
230	0x3f14ffd7	0.5820288
231	0x3f1cbe3e	0.61227787
232	0x3f6513f1	0.89483553
233	0x3f437bd3	0.76360816
234	0xbf009e46	-0.50241506
235	0x3e1b1b6c	0.1514718
236	0x3f45dccd	0.7729004
237	0xbec8827a	-0.39162046
238	0xbf67a736	-0.9048952
239	0x3f1b5c3a	0.606876
240	0xbf4e2946	-0.8053173
241	0x3dad5a75	0.08464519
242	0x3f2f7a55	0.6854604
243	0x3df76c7c	0.120812386
244	0x3ee3e57d	0.44511023
245	0x3f3d0af9	0.7384487
246	0x3f1b3c8e	0.60639274
247	0xbf2320ab	-0.6372172
248	0x3f0de097	0.5542082
249	0x3f2c060c	0.67196727
250	0x3f606ddf	0.8766765
251	0xbf132a52	-0.5748645
252	0xbea48f96	-0.32140797
253	0xbf49b769	-0.78795487
254	0xbe90e492	-0.28299385
255	0x3f548cf3	0.8302757

linear2.weight f4 [2, 512]
0	0xbf7cd824	-0.98767304
1	0xbec18018	-0.3779304
2	0xbed0c22f	-0.4077315
3	0x3e53a458	0.20668161
4	0x3f18f42a	0.59747565
5	0xbf2e4d3c	-0.680866
6	0xbeec397b	-0.46137604
7	0xbe228ffc	-0.15875238
8	0x3ed04eb8	0.40685058
9	0x3e9d1a19	0.30683973
10	0xbfa38cb8	-1.2777319
11	0x3d84a138	0.064760625
12	0x3e45d4b0	0.19319415
13	0x3f051c49	0.51996285
14	0xbf419049	-0.75610787
15	0x3c891050	0.016731411
16	0x3deefc00	0.11669159
17	0x3ee88f26	0.45421714
18	0xbe92f643	-0.28703508
19	0x3e882d97	0.26597282
20	0xbf575f73	-0.8413002
21	0xbf31c1cd	-0.6943634
22	0x3e47de85	0.19518478
23	0x3efc7969	0.4931138
24	0xbf03ddcb	-0.51510304
25	0x3df59394	0.11991039
26	0x3ed8f183	0.4237176
27	0xbefbfaf8	-0.4921491
28	0x3f0dd1ae	0.5539807
29	0xbee4c5d1	-0.44682172
30	0xbdd22287	-0.10260492
31	0xbf1b6f2c	-0.6071651
32	0xbe82c785	-0.25542846
33	0xbec4eaa5	-0.3846027
34	0xbf10b6dc	-0.5652902
35	0x3e076b1e	0.13224456
36	0xbe57dd7e	-0.21080586
37	0x3ed2912f	0.4112639
38	0xbee434d2	-0.4457155
39	0x3ea6bbda	0.32565194
40	0xbf0fb0c0	-0.56129074
41	0xbec5e399	-0.38650206
42	0xbeb6a6a0	-0.35674
43	0xbe5da4dd	-0.21644922
44	0x3ebc5752	0.3678537
45	0xbf6ad462	-0.9173032
46	0xbef30667	-0.47465822
47	0xbec4995d	-0.38398257
48	0x3ecf4f87	0.40490362
49	0x3ec04abd	0.3755702
50	0xbef7ffea	-0.48437434
51	0x3e89c7ca	0.2691024
52	0xbd99c1e8	-0.07507688
53	0x3e8cc0a6	0.2749073
54	0xbe5f691f	-0.21817444
55	0xbe532821	-0.20620777
56	0x3ea6b816	0.3256232
57	0x3ca09ed1	0.01960698
58	0x3f24712f	0.64235204
59	0x3ee45bde	0.4460134
60	0x3ec63e19	0.38719252
61	0x3eba099d	0.3633546
62	0x3e95cbf4	0.29257166
63	0xbe81628e	-0.25270504
64	0x3f0b0d2b	0.5431697
65	0x3e5afdf7	0.21385942
66	0x3e8d32a9	0.27577713
67	0xbea3679a	-0.3191498
68	0xbf6481a3	-0.8926031
69	0x3ecd15ed	0.4005579
70	0x3e59bc53	0.21263246
71	0x3ea159ec	0.31513917
72	0xbe9c70f0	-0.30554914
73	0x3ee973ef	0.45596263
74	0x3dcffa36	0.10155146
75	0x3e1fc3b5	0.15602
76	0xbea144c1	-0.31497768
77	0x3edf069d	0.43559733
78	0x3e8f00e9	0.27930382
79	0x3e92f4a2	0.28702265
80	0x3ebb1986	0.3654291
81	0xbe6a06d1	-0.22854163
82	0xbec4782c	-0.38372934
83	0x3dde12f3	0.10843458
84	0xbe49bade	-0.1970019
85	0x3e66aee9	0.2252766
86	0xbec5ea75	-0.3865544
87	0x3e623906	0.22092065
88	0x3ea5ca96	0.32381123
89	0x3c1c1384	0.009526137
90	0x3e0abe57	0.13549171
91	0x3f14e1fb	0.5815732
92	0xbf135392	-0.57549393
93	0x3e9c228e	0.30495113
94	0xbe440b58	-0.19144952
95	0xbece5ed5	-0.40306726
96	0xbf7b26ad	-0.9810589
97	0xbf6907d0	-0.91027546
98	0x3dc840a8	0.09777957
99	0xbe72e589	-0.23720373
100	0xbedcd7b5	-0.4313332
101	0xbea8b78e	-0.3295254
102	0x3ec817ae	0.39080566
103	0x3edf039b	0.43557438
104	0x3e33806f	0.17529462
105	0x3de75f91	0.11297525
106	0x3ecbbd68	0.39792943
107	0xbc349a40	-0.011023104
108	0x3eec0883	0.46100244
109	0xbee70baa	-0.45126086
110	0xbe5fb505	-0.21846397
111	0x3ed040dd	0.40674487
112	0x3e783a42	0.24240974
113	0xbe18e8e4	-0.1493259
114	0xbe09cb0a	-0.1345636
115	0x3edaea1f	0.42756745
116	0xbeb2da10	-0.34931993
117	0xbebf5c02	-0.37374884
118	0x3f070733	0.5274536
119	0x3e83d67f	0.25749585
120	0xbe653789	-0.22384466
121	0x3ea44f24	0.3209163
122	0xbec13c93	-0.37741527
123	0xbeb188fb	-0.3467482
124	0xbd2b8105	-0.04187109
125	0x3e957127	0.2918789
126	0xbed20bea	-0.41024715
127	0x3e87151d	0.26383296
128	0x3e893663	0.26799306
129	0x3d0e8b32	0.034800716
130	0x3ee25fcf	0.4421372
131	0xbead8c26	-0.33895987
132	0xbf0f91ab	-0.56081647
133	0xbe1527af	-0.1456592
134	0x3e80ae13	0.25132808
135	0xbf3fb3c6	-0.7488369
136	0xbe9fe1d5	-0.31226984
137	0x3ee47bff	0.44625852
138	0x3ea5fbc1	0.32418635
139	0x3e97170c	0.2950977
140	0x3dd702fc	0.10498616
141	0xbeb2304f	-0.34802482
142	0xbf2306b5	-0.6368211
143	0xbddcf2d6	-0.10788505
144	0xbe852192	-0.26002175
145	0xbe6b50c2	-0.22980025
146	0x3daed183	0.08536055
147	0x3f21c39a	0.6318909
148	0x3e9507cd	0.29107514
149	0xbedfc82a	-0.437074
150	0xbe6de473	-0.23231678
151	0xbf72d01b	-0.94848794
152	0x3eceacbc	0.4036616
153	0xbe94a2b7	-0.29030392
154	0x3e43d801	0.19125368
155	0x3eed8472	0.4639011
156	0xbea2c2f9	-0.31789377
157	0x3e0d2a93	0.13785772
158	0xbe317351	-0.17329146
159	0xbe50a1d3	-0.20374231
160	0xbed6ee91	-0.41978887
161	0x3d2c1979	0.04201648
162	0x3ee285b2	0.44242626
163	0xbeb60244	-0.35548604
164	0x3e9241f6	0.2856595
165	0xbfacddb4	-1.3505158
166	0x3e4bc9e0	0.19901228
167	0x3ecab7fe	0.395935
168	0x3e6fdbc4	0.23423678
169	0xbe6ab486	-0.22920427
170	0xbe94d401	-0.29067996
171	0xbdc58bac	-0.09645781
172	0x3efab4b5	0.48965994
173	0xbe917cd6	-0.28415555
174	0xbecfb49b	-0.4056748
175	0xbece817d	-0.40333167
176	0xbe7c1fd7	-0.24621521
177	0xbeec3356	-0.46132916
178	0x3e9737f5	0.2953488
179	0xbf968096	-1.1757991
180	0x3ea62963	0.3245345
181	0xbf1cca97	-0.6124663
182	0x3e397000	0.18109131
183	0xbe8b0835	-0.271547
184	0x3ed47631	0.41496423
185	0xbed1a423	-0.4094554
186	0xbeb6c06a	-0.35693675
187	0x3e9029e7	0.2815697
188	0x3db3484c	0.08754024
189	0x3f032ebf	0.51243204
190	0x3e92ff38	0.2871034
191	0x3e2f2042	0.17102149
192	0xbefd6d22	-0.49497324
193	0xbed4d441	-0.41568187
194	0xbef2e4e1	-0.47440246
195	0xbf2bd4ca	-0.67121565
196	0xbf0d6d93	-0.5524532
197	0x3ea83261	0.32850936
198	0xbebad298	-0.36488795
199	0x3e36ccc8	0.17851555
200	0x3f172188	0.5903554
201	0xbead1ec0	-0.33812523
202	0x3f184271	0.5947638
203	0x3e6247c3	0.22097687
204	0x3ea5030e	0.32228893
205	0x3ec7692d	0.3894743
206	0xbedb976a	-0.42888957
207	0x3e79566e	0.24349377
208	0x3e880e64	0.2657348
209	0xbe2c21e2	-0.168098
210	0xbea73931	-0.3266082
211	0x3e9936bf	0.2992458
212	0xbf0d180f	-0.55114836
213	0xbf2e4270	-0.68070126
214	0x3ec13e9b	0.37743077
215	0x3e8639a1	0.26215842
216	0x3eedf198	0.46473384
217	0x3ebe6482	0.37186056
218	0x3e4ee633	0.20205002
219	0x3ded6e36	0.11593287
220	0xbe435144	-0.19073969
221	0xbea025fa	-0.31278974
222	0x3e278ba9	0.1636187
223	0x3e713bd2	0.23557976
224	0x3e0edcee	0.13951465
225	0x3e1520a0	0.14563227
226	0x3f03c439	0.51471287
227	0x3e8d059e	0.27543348
228	0xbf3db667	-0.7410645
229	0xbe85d1c8	-0.26136613
230	0x3e60bad7	0.21946274
231	0x3ec871d1	0.39149335
232	0x3f113c3e	0.5673255
233	0xbf18d622	-0.5970174
234	0x3e6af3c2	0.22944549
235	0x3e78c3e5	0.24293478
236	0x3eed9ac3	0.46407136
237	0x3c867a0f	0.016415624
238	0xbe94a57b	-0.29032502
239	0x3e84cc09	0.25936916
240	0xbf8be35f	-1.0928763
241	0xbf0d1b15	-0.5511945
242	0x3ecc92c1	0.39955714
243	0x3e21401c	0.15747112
244	0x3ca9287e	0.020649191
245	0x3e999e7c	0.30003726
246	0x3e9b7b12	0.30367333
247	0xbf48bfc2	-0.784176
248	0x3e8fa077	0.28052112
249	0x3ec06c3a	0.3758257
250	0x3ec37a5b	0.38179287
251	0xbf840be2	-1.0316126
252	0xbeb6a811	-0.356751
253	0xbc4f6521	-0.012658388
254	0xbede2d77	-0.43394062
255	0x3e8b7cc0	0.27243614

linear2.bias f4 [2]
0	0x3e815727	0.25261804
1	0x3e8421c3	0.25807008
