code/log/dqn/ckpt/890000.pth (torch, 15775 bytes, 4 tensors)

linear.weight f4 [512, 4]
00000000: 16ea d1bd 9261 e83e f345 a6bf 9390 9cbe
00000010: 90f4 213e 5e8e 9e3e 888b d43f 502c 753e
00000020: 55a5 263e eb95 013f aa5b 973e 894d e03e
00000030: 12aa 9cbe 0712 8a3d 99bd 86be 63b9 383d
00000040: 8a91 423f 830f 493f 0bc6 d5bf ec77 5c3e
00000050: a90e fd3e 0aa9 573f 84a5 3b40 f2a5 223f
00000060: ff3b 543f 2043 173f 2b83 2e3f f3ba b93e
00000070: b14f d13d 6811 b83f 8bde 6ebf 0f6c 5cbc
00000080: a44a a4be 36d2 58be 5bb5 c6be c011 7dbe
00000090: 6d0d 95be c4ca 153f b24b 4b3d c153 ec3d
000000a0: f7d3 a53e 84ce 2abe c984 b93d b205 debe
000000b0: fe4e 77be 8d46 a1bc 1433 c73c 9703 4f3e
000000c0: f80e 7dbe fcfa 063e a468 40bc 20b1 873e
000000d0: a2c8 013e 6b6c e9bd 82fc 2c3c 4985 1bbe
000000e0: 0d63 7abf 1a6d 8dbf 4da0 c2bf 1884 b7be
000000f0: 47bf b23f f470 943f 1e7e e63f d1fd 733f
00000100: df35 933d 2fc8 c8bd fc76 eabf 8e92 28bf
00000110: 2251 923d 434a 893e 2e8e 22bf d4a4 793d
00000120: 93ac 4ebd 341d 92bf 639e 2340 324a 5c3f
00000130: 7492 02bf fb4a 68bf 9495 e6bf 7757 17bf
00000140: 8a9e 63bf 269c ddbe 4c38 9cbf 3072 79be
00000150: be87 0a3f d489 bb3e a391 82be 0342 723e
00000160: 36d9 ee3c db40 72be 0a81 03be f6fe 9fbb
00000170: ee2e 553e 78ef a9bd e98a 62bf e2fd b5bd
00000180: 6c36 263f 39c3 753e 893c aebf 2294 0fbf
00000190: 59f4 4cbd aeaf 863f 4af3 983e bfc8 503e
000001a0: 3933 43bf 56f0 1bbf ae6d adbe 06b1 2cbe
000001b0: c496 593f 49b9 de3e 1cbd 713f bb9e 873e
000001c0: 6f67 64bd 74f1 883c 37c1 113f 7c39 d0be
000001d0: 353b febe dd49 72bd fd7b ac3b 2468 043d
000001e0: 88a1 563d 215e b8bc 0e6f 0bbf f862 a63d
000001f0: ae84 3abd 6c13 cfbc d9fd 0fc0 b103 cfbe
00000200: 8cfd abbe d3d2 0fbf 87f8 80bf 0f4d cebe
00000210: 72f4 0abf e5b8 1abf 27ca 5cbf 2efb f5be
00000220: 5377 c8be aa0c 51be ded1 fe3e 005a ddbd
00000230: 1b6c 993d f921 1c3e 8856 433e 22b5 30be
00000240: 0fe8 22bf 0463 56bf 0019 ecbe 5cfe c5be
00000250: 336d 0abe 44c6 eabe 94bc 1dbf 81e1 bdbe
00000260: 3d08 023e ebe0 78be db6c 0ac0 a9d9 95be
00000270: 0228 823e 60c6 febe 7373 ebbe c717 5ebe
00000280: 83d0 a83d 4471 b0be 6189 79c0 660e 8abf
00000290: e24d 49bf 3a8e ccbe 1831 07bf 6ee6 4fbe
000002a0: 7247 c9bf 4604 6dbe 66b4 803e 8ef6 063d
000002b0: 8f1f ab3d 5ada ce3e 52f9 02be b1db fb3e
000002c0: 7621 6cbe 7bf4 cfbe 0e5d c73d 2e75 b6be
000002d0: 564b a3be 4a1e 8ebe 66ad 443f c164 3ebd
000002e0: 5ffd 2d3f bb97 4e3f bcd7 13be 9112 8b3e
000002f0: bd0e 1fbf 339f 1fba 633f a73e 28cc 31bd
00000300: 7e34 39bf 47e8 21bf 672d 453d 14af d53d
00000310: 2fad 8cbe 6c5d 0f3e dd3e dabe bb4a 8c3d
00000320: 0a9d d13e 3e65 913e 8343 07bf 9b68 3c3e
00000330: b74a a9be f8f2 9a3e 8013 bcbe fbc5 e53e
00000340: a620 a83e 41c9 843d e720 cfbc 966b 193e
00000350: 7076 d4bd dafc 4dbe 079f b0be 67bd f4bc
00000360: 3d51 213e e074 a1be 31f6 40c0 bd40 0fbf
00000370: b65b 34bb 3984 ba3e 2d54 843f 5551 4b3f
00000380: 84bb c5be bc4a 553e 8104 f1be aca6 583d
00000390: 3f02 81be 1abf ff3d 5777 25be 027d 953e
000003a0: 720f a63d 201d 4bbd 048e d33e 1e21 93be
000003b0: 62e8 763d 8501 ffbe 9bb2 833f ac86 14be
000003c0: d681 96bd 4c80 ad3e f4ca 7bbe acdb 1d3d
000003d0: 8727 843e 89bc 14bf ed4b 643d be06 a8be
000003e0: 0d22 06be 7883 4bbe e930 13bf df96 35bd
000003f0: 392a 013f 15b5 68bf 338a ebbe 891a 19bf
-0.102497265 0.4538694 -1.2990097 -0.3057905 0.1581595 0.30967993 1.6605082 0.23942685
0.16274007 0.5061938 0.29562122 0.43809155 -0.30598503 0.0674172 -0.26316527 0.045098674
0.76003325 0.78539294 -1.6701063 0.21530122 0.49425247 0.8424231 2.9319773 0.6353446
0.82904047 0.590868 0.68168896 0.36275443 0.10220278 1.4380312 -0.93308324 -0.013453498
-0.32088196 -0.21173939 -0.38810238 -0.24713802 -0.29111806 0.5851252 0.049632736 0.11539412
0.3238828 -0.16680342 0.0905853 -0.4336372 -0.24151227 -0.019686962 0.024316348 0.20216213
-0.24712741 0.1318168 -0.011743698 0.26502323 0.12674192 -0.11397632 0.010558249 -0.15187563
-0.9780739 -1.104892 -1.520517 -0.35842967 1.3964623 1.159697 1.8007238 0.9530917
0.071880095 -0.09803807 -1.8317561 -0.65848625 0.07144381 0.2681447 -0.634982 0.060948208
-0.05045755 -1.1415162 2.5565422 0.86050713 -0.5100472 -0.9073941 -1.8014398 -0.59117836
-0.88913786 -0.43283194 -1.220468 -0.24359965 0.54113376 0.36628592 -0.25501737 0.23657994
0.029156309 -0.23657553 -0.12842193 -0.0048826886 0.20818684 -0.08297628 -0.8849321 -0.08886315
0.6492679 0.24000253 -1.3612224 -0.5608541 -0.050037716 1.0522363 0.29873115 0.20389079
-0.76250035 -0.609136 -0.3387274 -0.16864404 0.84995675 0.43500736 0.94429183 0.2648829
-0.055762704 0.016716696 0.5693545 -0.40668857 -0.49654546 -0.059152473 0.005263804 0.03232588
0.052400142 -0.022505822 -0.5446633 0.081243455 -0.04553669 -0.025277816 -2.2498686 -0.40432504
-0.33591878 -0.5618107 -1.0075845 -0.40293166 -0.54279244 -0.60438377 -0.8624596 -0.48043197
-0.39153537 -0.20414987 0.4976949 -0.10808182 0.074913226 0.15247335 0.19075978 -0.17256597
-0.63635343 -0.83744836 -0.46112823 -0.38670623 -0.13518219 -0.4585439 -0.6161587 -0.37086108
0.12698455 -0.2430455 -2.162894 -0.29267624 0.2542115 -0.49760723 -0.45986518 -0.21688758
0.082428955 -0.34461415 -3.89901 -1.0785644 -0.78634465 -0.3995226 -0.52809286 -0.20302746
-1.5724928 -0.23146161 0.25137633 0.032949977 0.08355629 0.40400964 -0.1279042 0.4919105
-0.2305964 -0.4061621 0.09734546 -0.35636276 -0.31893414 -0.27757484 0.76827085 -0.046482805
0.6796474 0.8070027 -0.14437765 0.27162603 -0.62131864 -0.0006089091 0.32665548 -0.04340759
-0.7234572 -0.6324505 0.048139002 0.10433784 -0.2747588 0.14000481 -0.42626086 0.06850191
0.40940124 0.28397554 -0.5283739 0.18399279 -0.33064815 0.30263495 -0.36733627 0.4487761
0.3283741 0.06483699 -0.025284244 0.14982447 -0.10374153 -0.20115986 -0.34496328 -0.02987547
0.15753646 -0.3153448 -3.0150263 -0.5595816 -0.0027520484 0.36429003 1.0338188 0.7942098
-0.38619626 0.2082929 -0.4707375 0.052893326 -0.25197026 0.124876216 -0.16158806 0.29196936
0.08108415 -0.049588323 0.41319287 -0.28736204 0.06028021 -0.49805847 1.0288881 -0.14504498
-0.07348983 0.33886945 -0.24589139 0.038539574 0.25811407 -0.5810018 0.05573647 -0.32817644
-0.13098927 -0.1987437 -0.57496506 -0.044333335 0.5045505 -0.9090131 -0.46003875 -0.59806114

linear.bias f4 [512]
00000000: 04ed 06bf 5297 e93e 54dd 2f3e 9106 523f
00000010: a560 203f a9a4 97bf b036 22bf eb35 64bf
00000020: 4afa 883f a34e 7e3f d3dd 0c3f 4194 5e3f
00000030: aaae 4a3f 7dc2 583f 9dec d23e f2fe 643d
00000040: 679d 193f 023e 973f 2364 3fbf 809f acbe
00000050: dd4c 82be f8d4 a1bf 1ac2 113f b6d5 7f3f
00000060: 034f 4bbe 8834 8e3f f3a1 363f c86c 1a3d
00000070: fad2 8d3f f538 85bf 23e8 353f 033b f53e
00000080: 83e6 85be 8f67 10bf 2ee6 9cbf 09e4 903f
00000090: cd98 0c3f 66d9 3c3f aa9d 54bf eea2 693f
000000a0: a9a9 1c3f 450f 52be 60bb e33e a964 573f
000000b0: 0681 733f de6a 9abf 55d2 c4be 83e0 8dbf
000000c0: 4888 0d3f 3b15 353f 6942 76bf 73fd 7c3f
000000d0: d978 02bf aa5d 0f3f 0667 21bf 79e7 093f
000000e0: 628c 803f 1ca4 5d3f c70e 853f f900 f53e
000000f0: e27f 813f 5294 683f 15eb 1a3f ad2e e43d
00000100: 97b7 663f 1765 663f ea8f 1b3f 2108 1fbf
00000110: 616d ebbe 2ecc 853f 843b 6d3f a31c 243f
00000120: c2d8 52be b2ec 563f 79e1 453d be4c 5cbe
00000130: 29f2 e0be 4567 563f 11fe 833f 3b36 d33e
00000140: a3d8 703f 61a6 1a3f 356e 2b3f befa a93d
00000150: c7e0 94bf 3b1b 0b3f 6295 2b3f d3e7 443f
00000160: 657a 5f3f 5e0b cabe 8b50 773f 32a4 943f
00000170: 914b 8cbf ed91 813f cb0e a4bf 1683 adbf
00000180: 0ebc 1abf 9f2a 9c3e 6163 363f e8b4 583e
00000190: 8221 8ebf 8ff9 143f 99f7 753f 2776 843f
000001a0: 3289 1f3f 18e7 1d3f 31ba 5c3f d6ab c2bc
000001b0: 51cc 633f f35f 7fbf 24c7 123f 0392 153f
000001c0: 5718 623f b05b 99bd 8d02 90bf 4eec ca3e
000001d0: f462 8ebf 1d00 a8bf b9df 6b3f e3af 293f
000001e0: 816b a5be c37b 753f 50f0 43bf 11e0 413b
000001f0: a33d 533f cc74 3d3f 9c67 24bf dba7 473f
00000200: 885e 553f 88c7 4fbf a659 2f3f 2688 e03e
00000210: 8104 cd3e d6b6 103e 23ee 583f 533d 2fbd
00000220: bd76 8c3f bef5 993f 5bdb 493f 7cf8 e73e
00000230: 05bc 4d3f b122 133f 43ea 13bd 217d 78bf
00000240: 575e 19bf 88ce e8be 8941 003f 4e19 8e3f
00000250: dc16 f03e 64f6 94bf 32f1 c9bd 35b8 3bbf
00000260: 0e29 6f3f 08e1 babf b0a1 793f c514 913f
00000270: 3753 6ebf effd 5e3f b4dc 03bf 600d 4fbf
00000280: ef93 2cbf 9be3 af3e 2289 f23e 8ba7 8d3f
00000290: 20a4 863f 9172 adbd 43bd 7d3f 5f87 6a3f
000002a0: ad84 583f 12b2 65bc b4aa e9bd 8e59 9abf
000002b0: aab7 833f a086 cbbf 2e30 68be 45e8 f5be
000002c0: f1ba 473e 848a 6ebf d05a 7b3f 956b 313e
000002d0: 5142 923f 1e46 57bf 5004 453f 644b d63e
000002e0: 60d5 2e3f 33d3 fc3e 742b d6bf 4646 563f
000002f0: b873 813f 783e 803f be14 843f 9538 2f3f
00000300: b188 1fbf af56 97bf 6603 13bf 062b 003e
00000310: 2b41 e6be 5263 513f 1995 863f 112c 113f
00000320: 118f 363f 56fd bcbf 766b 3a3f cb63 723f
00000330: 5577 793f 3541 883f db09 8a3f 58e2 6ebc
00000340: d7d3 593f c944 df3e 8c20 4f3f 1f83 873f
00000350: dde1 be3e 09ee 1fbf 935d 6e3f a1a5 883f
00000360: dc61 713f fa11 ca3d c9a3 3e3f 1651 023f
00000370: 6efe 65bf 40bd fabe ade8 843f a189 673f
00000380: 436e 3e3f 05da 783f 368b 72bd 2e0e 503f
00000390: c79a fa3e 9629 5fbe 3b79 f83e 2b48 5d3f
000003a0: e64e 8b3f f512 79bf cd1c 28be d51c 173f
000003b0: b28b 5d3f 310d 99be fc58 acbf 98d8 fe3e
000003c0: b654 d4bd 1518 8dbf ac00 5e3f 85d6 8a3d
000003d0: d4f7 463e 8435 293f 32b9 433f 0bc8 363d
000003e0: 5c9e 263f 98fa 403f 1f40 5f3f 4977 6fbf
000003f0: 9e84 1abd df52 babe a5cd 0e3f e9e0 713f
-0.5270541 0.4562326 0.17174274 0.8204127 0.6264747 -1.1847125 -0.63364697 -0.8914477
1.0701382 0.9933874 0.55025977 0.8694497 0.79172766 0.84671766 0.41196147 0.055907197
0.600058 1.1815798 -0.7476217 -0.3371544 -0.25449267 -1.2643118 0.569368 0.9993547
-0.1985436 1.1109781 0.71340865 0.037701398 1.108001 -1.0408007 0.7105734 0.47896585
-0.2615243 -0.5640802 -1.2257745 1.1319591 0.54920655 0.73769224 -0.83053076 0.91264236
0.6119638 -0.20513637 0.44478893 0.8413797 0.9511875 -1.2063863 -0.3844172 -1.108414
0.55286074 0.7073552 -0.96195084 0.9882423 -0.5096565 0.56002295 -0.63047826 0.53868824
1.0042841 0.86578536 1.0395135 0.47852305 1.0117152 0.9085132 0.60514957 0.11141715
0.90123886 0.89998 0.6076647 -0.6212178 -0.45981887 1.0452936 0.9266894 0.64106196
-0.20590499 0.8395492 0.04831073 -0.2151365 -0.43934754 0.83751327 1.031191 0.41252312
0.9408056 0.60410124 0.6696504 0.082997784 -1.1631097 0.54338425 0.67024815 0.76916236
0.87296134 -0.39461797 0.96607274 1.1612608 -1.0960561 1.0122658 -1.2817014 -1.3555629
-0.604432 0.30501267 0.7124539 0.2116276 -1.1103976 0.58193296 0.9608093 1.0348557
0.6231872 0.61680746 0.86221606 -0.023763578 0.8898364 -0.9975578 0.57335114 0.5842592
0.8831839 -0.07488191 -1.1250778 0.3963341 -1.1123948 -1.3125035 0.9213825 0.66284007
-0.3230858 0.9589197 -0.7653856 0.0029583017 0.82515925 0.7400634 -0.64220595 0.779905
0.8334737 -0.81163836 0.6849617 0.43853873 0.400425 0.14132246 0.8473837 -0.042783093
1.0973736 1.202812 0.78850335 0.45306766 0.8036502 0.5747481 -0.03611208 -0.9706593
-0.59909576 -0.4547007 0.501 1.1101472 0.4689244 -1.1637692 -0.098604575 -0.7332795
0.9342202 -1.4599924 0.9751234 1.1334463 -0.93095726 0.8710622 -0.5150864 -0.80879784
-0.6741323 0.34353337 0.4737025 1.1066755 1.0518837 -0.084691174 0.99116915 0.9161281
0.8457745 -0.014019506 -0.11409512 -1.205858 1.0290425 -1.5900459 -0.22674629 -0.4802877
0.19504906 -0.9318011 0.98185444 0.17326196 1.1426488 -0.84091365 0.76959705 0.41854393
0.68294334 0.49379882 -1.6732011 0.8370098 1.011344 1.0019064 1.031883 0.6844571
-0.6231795 -1.1823329 -0.5742706 0.12516412 -0.44971594 0.81792176 1.0514251 0.56707865
0.7131205 -1.4764812 0.7282022 0.9468352 0.9744771 1.06449 1.0784258 -0.014580332
0.85088867 0.43607166 0.8090904 1.058689 0.37281695 -0.6247259 0.9311153 1.0675546
0.94289947 0.0986671 0.74468666 0.5090498 -0.89841354 -0.4897251 1.0383507 0.9044438
0.74386996 0.9720767 -0.059214793 0.81271636 0.4894621 -0.21793208 0.48529992 0.86438245
1.0883453 -0.9729455 -0.16417237 0.5902837 0.86541283 -0.29892877 -1.3464656 0.49774623
-0.1036772 -1.1022974 0.86719775 0.067791976 0.19430476 0.66097283 0.7645446 0.04462437
0.6508539 0.75382376 0.87207216 -0.9354139 -0.03772413 -0.3639135 0.5578254 0.9448381

linear2.weight f4 [2, 512]
00000000: 8b21 c5bf e758 25c0 dffb 15bf 022d cb3e
00000010: a129 273f f748 1ec0 4333 82bf 2be0 be3f
00000020: f14f 163f b4be 1a3f afd6 96bf 7913 ae3e
00000030: 16a9 9d3e 0f58 343f 876b 873e 3780 693f
00000040: 13bf 63be 6f27 363f 6aaf 2b3f 9327 a73f
00000050: d0d0 afbf 25ae bdbf fdf1 6b3e b681 323f
00000060: a552 043f 546e 5a3f 2659 483f 2dba dabf
00000070: fdcb 3b3f be25 1cc0 068a c43e 373e 86be
00000080: 96dc c4be b625 babf a96b 06c0 fd86 253f
00000090: 8e65 723f 2028 1d3f d5d9 3c3f 4afa ad3e
000000a0: 854d bdbf 4605 b6bf 0591 753f d47e fabe
000000b0: e103 fb3e 0a4b 02c0 512d c3bf 7913 53c0
000000c0: 145f 6f3f 37d0 213f f376 c4bf 9809 c13e
000000d0: 8880 e2be 5a22 bb3e 2948 abbf 3bf3 02bf
000000e0: 962f 103f b39b 9a3e 71dd 513f 2948 ca3f
000000f0: 84de 2a3f f8b0 b03e 03a1 d53e 8bc5 153f
00000100: d4d4 3f3f 6e30 943e 5757 b33e ee0b 82bf
00000110: 3074 97bf 0664 3ebf 94a0 983e bfb2 133f
00000120: 2644 91bf 2455 193f 2380 81bf fc8a 533f
00000130: c5ce afbf 865d 213f 0022 a13e 04eb 2c3f
00000140: d15a 0f3f ebc3 ccbf e41f ddbf fc0c ba3f
00000150: 866b 87bf 2aec 843f 9bfa d5bf fc03 b03e
00000160: fa39 cc3e 9048 c83f 9de0 a83e 59b9 523f
00000170: d957 08bf 4bc2 fe3e 4bc2 07c0 fd3b 07c0
00000180: 22a6 48bd 99e1 98bf de27 af3e b78c 753f
00000190: 4cbb f6bf 8db2 6b3f 1f13 1c3f fb0f 243f
000001a0: 59cb 113f 1799 ac3e da11 cb3e d37e 9bbf
000001b0: 6796 e63e a674 9cbf 4bc9 d3be 4017 7dbe
000001c0: 2afa a53e 57a2 4b3f d328 aebf 39bf 3e3f
000001d0: 096b 04c0 597e 2ac0 115e 233f 2480 da3e
000001e0: 9a37 53bf deb8 223f 2750 1dbf 0b4d e8bf
000001f0: 4155 9fbf 5527 b43e c666 fabe 1263 b73e
00000200: d5dd d13e eb3d 2ac0 6c9b 92bf 35de c3be
00000210: 698e 99bf 7bbe 3a3f f30a d33e 44d2 00c0
00000220: 5228 9fbf 3906 2d3f 9fa5 af3e b9cf 313f
00000230: da62 b63e fa3c 04bf a8bf 8ebf 6ba4 f43d
00000240: 7527 8c3f c528 973f e389 093f b023 593f
00000250: 87d2 083d 99d7 4bc0 ca86 40bf 6e19 9cbf
00000260: f82b 2e3f 2d7f 14c0 412e f33e 48bc 293f
00000270: d371 80bf 00e9 bb3e a841 1bbc f1a4 44be
00000280: d16c 25bf a841 3bbf 5bde 5f3f 6e59 d1bf
00000290: 7f46 2b3f 0036 69bf 230b f03e 613a 1c3f
000002a0: 0f01 9c3e 5ea4 3cbf d78b 763e e8cb 01c0
000002b0: e745 2e3f 6a61 06c0 8750 e1be 1112 b93f
000002c0: 0a20 2ec0 97d2 cabf 163f f13e 7311 ddbf
000002d0: 75aa f83e 0de7 5dbf 255d f73e 03d2 babf
000002e0: 6d5f 093f daf4 2ebf 9e7c c4bf 45ad c93e
000002f0: 4566 203f 1d87 4e3f 1a37 b73e deb9 593e
00000300: 744a 87bf 70b2 17c0 4349 aabf c22e 873f
00000310: c291 ebbe 5565 c53e 7ca7 8ebf 645b 5b3f
00000320: 05d4 47bf 60fa 03c0 f22b 443f 8446 8f3e
00000330: b8d4 263f b257 b03e b833 a2bf 5c51 793f
00000340: f4bb b53e 9016 a8be 1518 d2bf 4dc3 b03e
00000350: 6420 9bbf 33ca f43e ad49 003f 15d1 343f
00000360: cfb4 af3e 2af3 a1bf 0e09 d93e 9e8c e13e
00000370: b9b1 b3bf 4041 b5bf efd2 e53e 62ec 1c3f
00000380: f39c c23e 1dfd 273f 7e4a c13f 33c1 c63e
00000390: 0558 06c0 2f1c e4be f379 363f 14ed fc3e
000003a0: 239a 463f 00b6 a5bf 7825 dbbe 9efa a73e
000003b0: f4fe 3c3f c234 6e3f 0c1d 94bf 7814 033f
000003c0: d2d3 eebf 233b acbf 6c4c 353f 0e64 c53f
000003d0: e09f 033f 45d7 e13e 5583 c63e 19f2 d0bf
000003e0: 0038 ac3e ea71 013f 195c 023f 3340 1cc0
000003f0: e015 7bbf 9a2e 9fbf 165d 03be 61b6 a73e
-1.5400862 -2.5835512 -0.5858745 0.39682776 0.65297896 -2.4732034 -1.0171894 1.4912161
0.5871573 0.6044724 -1.1784266 0.3399923 0.30793065 0.70446867 0.26449224 0.91211265
-0.22240858 0.7115392 0.67064536 1.3058952 -1.37356 -1.481877 0.2304153 0.69729173
0.51688606 0.853246 0.7826103 -1.7088066 0.73358136 -2.4398036 0.38386554 -0.2621934
-0.38449544 -1.4542758 -2.100321 0.646591 0.9468621 0.6138935 0.73769885 0.33980018
-1.4789282 -1.4220359 0.9592441 -0.48924887 0.49026397 -2.03583 -1.5248204 -3.2980635
0.9350445 0.63208336 -1.53488 0.37702632 -0.44238687 0.36549646 -1.3381397 -0.5115239
0.5632261 0.30196914 0.8197852 1.5803272 0.6674578 0.34510016 0.41724405 0.5850455
0.74934125 0.289432 0.35027573 -1.0159891 -1.1832333 -0.74371374 0.2981001 0.5769462
-1.1348922 0.5989554 -1.0117229 0.8263395 -1.3734976 0.6303333 0.31471252 0.67546105
0.5599795 -1.599729 -1.7275357 1.4535213 -1.0579689 1.0384572 -1.6717104 0.3437804
0.39887983 1.5647144 0.32983866 0.8231407 -0.53259045 0.4975761 -2.1212337 -2.1130364
-0.04898656 -1.1943847 0.34210104 0.9591784 -1.9275908 0.9206932 0.60966676 0.64086884
0.5695091 0.33710548 0.39662057 -1.2148079 0.45036623 -1.2223098 -0.41364512 -0.247159
0.32417423 0.79544586 -1.3606209 0.7451053 -2.069033 -2.6639616 0.6381541 0.4267589
-0.82506716 0.63563335 -0.6145043 -1.8148512 -1.2447892 0.35186258 -0.48906535 0.35817772
0.40989557 -2.6600292 -1.1453681 -0.38255468 -1.1996585 0.729469 0.4121929 -2.0128336
-1.243418 0.6758762 0.34306046 0.69457585 0.35622293 -0.5165554 -1.1152239 0.11945423
1.0949541 1.1809317 0.53726023 0.8482008 0.0334039 -3.185034 -0.7520567 -1.219526
0.6803584 -2.3202622 0.47496226 0.6630292 -1.0034736 0.36701202 -0.009476103 -0.19203545
-0.64619166 -0.7314706 0.8744866 -1.6355417 0.66904444 -0.9109802 0.46883497 0.6102658
0.30469558 -0.73688304 0.24076782 -2.0280704 0.6807541 -2.0996957 -0.4400675 1.4458638
-2.7207055 -1.5845517 0.47118443 -1.727095 0.48567548 -0.8668068 0.4831325 -1.459534
0.53661233 -0.68342364 -1.535053 0.39390007 0.6265605 0.80674917 0.35784227 0.21262309
-1.0569596 -2.370266 -1.3303608 1.0561144 -0.46009642 0.38553873 -1.1144862 0.85686326
-0.7805789 -2.0621567 0.76629555 0.27983487 0.65168333 0.34441906 -1.2672033 0.9738977
0.3549496 -0.32829714 -1.6413599 0.34524003 -1.211926 0.47810516 0.5011242 0.70631534
0.34317634 -1.2652333 0.4238972 0.44052595 -1.4038612 -1.4160538 0.44887492 0.6129819
0.38010368 0.65620595 1.5100858 0.38819274 -2.0991223 -0.44552752 0.7127983 0.49399626
0.77578944 -1.2946167 -0.42802024 0.32808393 0.7382653 0.9304925 -1.1571364 0.5120311
-1.8658392 -1.3455547 0.70819736 1.5421159 0.51415825 0.4410955 0.38772073 -1.6323882
0.33636475 0.50564444 0.5092178 -2.4414184 -0.98080254 -1.2436097 -0.12828478 0.32756332

linear2.bias f4 [2]
00000000: 95c4 a73e f362 a43e
0.32767168 0.32106742
