code/log/dqn/ckpt/92000.pth (torch, 15775 bytes, 4 tensors)

linear.weight f4 [512, 4]
-0.027129345 -0.16274057 -1.7027961 -0.8816432 -0.70794314 0.0028967748 0.13891867 0.1934001
1.0589042 0.35738996 -0.34608003 0.18678933 -0.22288166 -0.14447516 -0.07199367 -0.02945487
0.14190389 -0.054178715 -0.6630169 -0.08438477 0.044342544 0.644188 1.4345858 0.7361476
-0.06795933 -0.4843115 -1.0713655 -0.8443908 -0.13473485 0.0033005923 -0.0035686614 0.23111549
-0.2634857 -0.2676469 -0.25445458 -0.23547752 -0.34764412 0.5413287 0.0725592 0.00095158006
0.025618555 -0.6618884 -1.382293 -0.83888304 -0.1701475 -0.20239885 0.27346587 0.22149953
-0.10620911 0.07779396 0.2740477 0.26027307 0.10517263 -0.090541035 0.09370597 -0.25047082
0.16055764 -0.760373 -1.8430446 -0.54396635 0.5612883 0.31302112 -0.37060547 0.044058
-0.061430715 0.043545738 0.07599577 -0.14093374 -0.0030413158 0.2288779 -0.64137036 -0.08323665
0.25209317 0.5687714 0.9159051 0.6415726 0.12562163 -0.37575 0.09803651 -0.069213115
-0.45744434 -0.024969224 -0.8196527 -0.63638854 0.3650427 -0.36855656 -1.7628763 -0.599689
0.21707141 -0.27067146 0.13798116 0.0059758234 0.21754555 -0.08423394 -0.7825684 -0.16880886
0.46578696 -0.26011923 -1.4601722 -0.7865705 0.5180929 0.3267601 -0.32984188 -0.113112636
-0.36473763 -0.05822074 -0.30052263 -0.14572091 0.06294617 0.3666893 1.1024338 0.6656824
-0.1356907 0.059890762 0.08741866 -0.18834408 -0.61248624 -0.15267849 0.30968988 0.096253976
0.21060546 0.28350037 -0.31959894 -0.32644716 -0.41798136 -0.52981883 -1.3882062 -0.5196506
-0.61164844 -0.7437046 -0.55073637 -0.23531638 -0.55244994 -0.3327042 -0.3956597 -0.25091994
-0.26897526 -0.13994794 0.9239881 0.258111 0.42202884 0.2974859 0.32651812 -0.17653577
-0.63583475 -0.5523749 -0.53048736 -0.24943285 -0.0012135758 -0.36516026 -0.34231973 -0.085529126
-0.2466559 -0.2615158 -0.918347 -0.9511056 0.35574564 -0.48151007 -0.1477862 -0.14499721
0.0014541098 -0.6852439 -2.0632212 -0.77506286 -0.6121657 -0.18595922 -0.11118193 -0.01665195
-0.72429186 -0.15638249 0.24266128 -0.3818848 0.46949047 0.28257957 0.08836861 0.6501789
-0.109460644 -0.37120548 0.37717363 -0.3721591 -0.28394485 -0.24205343 1.1990657 0.062380828
1.3848469 0.23445255 -0.29023045 0.15678522 -0.8391642 0.004003522 0.5996787 0.3543431
-0.24463233 -0.08541173 -0.32788715 -0.07651401 -0.23039177 0.20661066 -0.3997478 0.01944105
0.15700275 -0.0965341 -1.6620208 -0.7663392 -0.2504083 0.31735113 -0.11698728 0.4499455
0.17434801 0.105134614 -0.019187428 -0.15966964 0.066457905 -0.14692545 0.023669314 0.03908019
-0.5358672 -0.6836117 -0.6192232 -0.44811985 0.8066677 0.5649865 0.073012866 0.09151587
-0.38262808 0.11142098 -0.38149688 -0.09437613 -0.23549604 -0.04673 0.14097464 0.2842202
0.06135811 0.056768592 0.040751755 -0.22745441 0.34361932 -0.45076272 -0.7579669 0.43611056
-0.107998006 0.2619254 -0.31152177 -0.04077686 0.3034964 -0.59038126 0.28063428 -0.36379105
0.0028910337 -0.14881216 -0.25788453 0.032171275 0.4380732 -0.1281796 -0.088512115 -0.015539236
00000000: 5c3e debc 77a5 26be 39f5 d9bf 5eb3 61bf
00000010: c33b 35bf d1d7 3d3b b240 0e3e ad0a 463e
00000020: 2c8a 873f d1fb b63e 6731 b1be b445 3f3e
00000030: 173b 64be 4cf1 13be 6b71 93bd 574b f1bc
00000040: 414f 113e 80ea 5dbd 7abb 29bf ecd1 acbd
00000050: 87a0 353d 81e9 243f 82a0 b73f 2b74 3c3f
00000060: 432e 8bbd adf7 f7be 8122 89bf ff29 58bf
00000070: eff7 09be c04e 583b 34e0 69bb 8aa9 6c3e
00000080: 99e7 86be 0409 89be df47 82be 0521 71be
00000090: 69fe b1be 8594 0a3f eb99 943d 7573 793a
000000a0: 01de d13c 8571 29bf faee b0bf 0ac1 56bf
000000b0: 253b 2ebe a541 4fbe b803 8c3e c6d0 623e
000000c0: 2984 d9bd 7152 9f3d fb4f 8c3e 8342 853e
000000d0: bf64 d73d 946d b9bd eae8 bf3d b63d 80be
000000e0: 3969 243e cea7 42bf e3e8 ebbf 6141 0bbf
000000f0: 97b0 0f3f 4e44 a03e 00c0 bdbe 2976 343d
00000100: c69e 7bbd 045d 323d aca3 9b3d ef50 10be
00000110: d050 47bb f85e 6a3e d930 24bf fa77 aabd
00000120: 5b12 813e 019b 113f c278 6a3f 1a3e 243f
00000130: f5a2 003e 4e62 c0be 5ec7 c83d 9bbf 8dbd
00000140: 2536 eabe 428c ccbc c2d4 51bf 5cea 22bf
00000150: e0e6 ba3e 72b3 bcbe eea5 e1bf 3885 19bf
00000160: f847 5e3e 7395 8abe ef4a 0d3e d7d0 c33b
00000170: 43c4 5e3e d882 acbd 6756 48bf 3bdc 2cbe
00000180: a17b ee3e 592e 85be ece6 babf af5c 49bf
00000190: bca1 043f 1a4d a73e 09e1 a8be 99a7 e7bd
000001a0: e4be babe df78 6ebd 1ade 99be dd37 15be
000001b0: ece9 803d b3be bb3e 8d1c 8d3f 296a 2a3f
000001c0: 81f2 0abe 0450 753d 8e08 b33d 45dd 40be
000001d0: e6cb 1cbf c057 1cbe ac8f 9e3e ce20 c53d
000001e0: f5a8 573e f626 913e 79a2 a3be 1524 a7be
000001f0: a701 d6be 35a2 07bf beb0 b1bf d207 05bf
00000200: fe94 1cbf 6d63 3ebf 0ffd 0cbf c7f6 70be
00000210: 5c6d 0dbf 3458 aabe e893 cabe 9478 80be
00000220: 20b7 89be 834e 0fbe 7c8a 6c3f 2027 843e
00000230: 2a14 d83e 1250 983e 622d a73e cbc5 34be
00000240: 11c6 22bf 7168 0dbf 05ce 07bf 536b 7fbe
00000250: d910 9fba 49f6 babe 8844 afbe e529 afbd
00000260: 5d93 7cbe 66e5 85be ca18 6bbf a87b 73bf
00000270: 4b24 b63e 7d88 f6be 4455 17be 267a 14be
00000280: d497 be3a 256c 2fbf d10b 04c0 856a 46bf
00000290: e4b6 1cbf 186c 3ebe 5ab3 e3bd ac69 88bc
000002a0: 316b 39bf bb22 20be 337c 783e 6886 c3be
000002b0: 0e61 f03e 45ae 903e 9afa b43d 2072 263f
000002c0: e72c e0bd a50e bebe e71c c13e a38b bebe
000002d0: 3861 91be dbdc 77be fc7a 993f 0a83 7f3d
000002e0: aa42 b13f 5414 703e 1699 94be 4e8c 203e
000002f0: 77d3 56bf fa2f 833b 8b84 193f 756c b53e
00000300: e680 7abe 58ec aebd d3e0 a7be 61b3 9cbd
00000310: d2eb 6bbe bf91 533e beab ccbe d642 9f3c
00000320: 54c5 203e acb3 c5bd 19bd d4bf ce2e 44bf
00000330: 8435 80be d97b a23e 0797 efbd 425f e63e
00000340: 4988 323e d150 d73d f42e 9dbc 7080 23be
00000350: 151b 883d a073 16be 26e6 c13c 8d12 203d
00000360: 982e 09bf 2d01 2fbf 6985 1ebf f76f e5be
00000370: c681 4e3f f5a2 103f c587 953d ac6c bb3d
00000380: d4e7 c3be af30 e43d 8f53 c3be 4648 c1bd
00000390: e025 71be f567 3fbd a85b 103e 4f85 913e
000003a0: a452 7b3d 2f86 683d 50eb 263d cfe9 68be
000003b0: dfee af3e 5fca e6be 1e0a 42bf e249 df3e
000003c0: 0f2e ddbd 161b 863e c87f 9fbe a305 27bd
000003d0: e163 9b3e 3a23 17bf 4caf 8f3e d242 babe
000003e0: 7f77 3d3b 3762 18be 7109 84be 07c6 033d
000003f0: 214b e03e 8341 03be d745 b5bd 4898 7ebc

linear.bias f4 [512]
-0.55031854 -0.44263425 -0.0654145 0.89398926 0.7677428 -0.19813159 -0.11185352 0.3609695
1.0533758 0.9018648 -0.5672306 0.6558385 0.7230192 0.7585331 -0.38536206 0.10696144
0.42720765 1.0709611 -0.65307516 0.52978146 -0.6598664 -0.2221782 0.5488632 0.90402234
-0.8220814 0.3752509 1.0387013 -0.2930497 0.8833813 -0.47696656 0.36979422 -0.40226555
0.08383846 0.5004597 -0.61655027 0.5917461 0.21720211 0.8062494 -0.025003351 0.7958322
0.19680792 -0.3714352 -0.038374607 -0.6413962 0.90026546 -0.5922624 -0.057091065 0.33053693
0.79194087 0.62454873 0.17406037 0.91198045 -0.6823843 0.51284766 0.15724275 -0.1252702
0.87711686 0.6602776 0.82961434 0.043398883 0.89433926 0.763841 0.52899957 -0.416178
0.69640476 0.7719002 0.52636814 -0.056214485 -0.540656 0.009967617 0.8262243 0.5276647
-0.12743904 0.73599565 -0.21483943 0.057339255 -0.6354818 0.7556437 0.94205517 0.75728244
0.8837391 -0.65916204 0.26012468 0.101699375 -0.63223404 0.61181194 -0.1262844 0.6820839
0.8526069 -0.42772454 0.92601055 0.9569373 -0.91324055 1.0036861 -0.6009641 -0.594095
-0.3004326 -0.4144894 0.46809617 -0.49041024 -0.51663387 -0.51629406 0.8527633 0.9357608
0.735517 0.38412926 0.6477146 -0.38545477 0.77896774 -0.4815644 -0.59502184 -0.2150268
0.8392121 0.46379566 0.082563125 0.8318597 -0.5625513 -0.7333673 0.7580985 0.10566192
0.10466776 0.8203366 -0.39345154 -0.56708914 0.7338004 0.7090848 -0.3339507 0.7316642
0.7723937 0.06449853 -0.076275714 0.16849653 -0.41656834 0.09693869 0.7524383 -0.28433636
-0.18299672 1.0464112 0.5822702 0.5296414 0.74523014 -0.38146764 -0.25579578 0.24942668
-0.46524262 -0.051727228 0.47572118 0.9010169 0.31764382 -0.66110265 -0.3961957 -0.58968407
0.80681187 -0.5868763 0.74991715 0.9306794 0.04708577 0.30455714 -0.6236039 -0.2856171
0.41072777 -0.43013763 0.65621054 -0.12450499 0.8785674 -0.7672818 0.91543156 0.815042
0.80787575 0.25561947 0.22312601 -0.6115193 0.9463151 -0.5570681 -0.4476779 0.25188532
0.14770521 -0.5393929 1.0193589 -0.67617834 0.9581766 -0.082766905 -0.18658265 -0.2811543
0.71305996 0.63376915 -0.469664 0.7999192 0.6109463 0.8760612 0.98996466 0.5065962
0.09623894 -0.43100807 -0.81527764 -0.6198254 0.261875 0.75201035 -0.061444692 0.6758971
0.5955297 -0.41441828 0.59512043 0.85124725 0.8913851 0.9366554 -0.26090875 -0.013715153
0.7549637 0.22069064 -0.14438973 0.9640038 -0.46875212 -0.32541373 0.8784519 0.039797183
0.7939878 -0.3938604 0.18803333 0.3582067 -0.2718496 -0.5292164 0.89405876 0.7041655
0.18308493 0.3435648 0.5991695 0.77167165 0.5754713 -0.46015707 0.58065933 0.61184675
0.8947717 0.76197916 -0.50241506 0.15742075 0.77271867 -0.39162046 -0.9291396 0.60606277
-0.82995677 0.08077633 0.685085 0.01465992 0.4279166 0.7377337 0.60568553 -0.6756936
0.5535066 0.6714545 0.87630224 -0.602945 -0.3318816 -0.78795487 -0.29090938 0.8292837
00000000: ade1 0cbf f5a0 e2be 0af8 85bd 7bdc 643f
00000010: cb8a 443f 02e3 4abe 7513 e5bd ffd0 b83e
00000020: 05d5 863f 9de0 663f 0636 11bf 08e5 273f
00000030: c917 393f 3a2f 423f 2d4e c5be 990e db3d
00000040: f6ba da3e 4115 893f ef2f 27bf c29f 073f
00000050: 01ed 28bf af82 63be 4c82 0c3f 026e 673f
00000060: ed73 52bf e320 c03e 2af4 843f 9c0a 96be
00000070: 4725 623f f634 f4be ab55 bd3e c0f5 cdbe
00000080: 80b3 ab3d 201e 003f 3dd6 1dbf ac7c 173f
00000090: 3b6a 5e3e 5c66 4e3f d4d3 ccbc a9bb 4b3f
000000a0: 0488 493e c12c bebe b12e 1dbd 8b32 24bf
000000b0: cc77 663f 829e 17bf 52d8 69bd 233c a93e
000000c0: a3bc 4a3f 6de2 1f3f e23c 323e 8d77 693f
000000d0: bdb0 2ebf fc49 033f 3e04 213e d546 00be
000000e0: bb8a 603f f407 293f 9b61 543f 07c3 313d
000000f0: 6bf3 643f 158b 433f 846c 073f 4815 d5be
00000100: 9547 323f 409b 453f 10c0 063f 2941 66bd
00000110: 6e68 0abf 374f 233c 7083 533f 0915 073f
00000120: 617f 02be 366a 3c3f defe 5bbe 91dc 6a3d
00000130: efae 22bf de71 413f 872a 713f 43dd 413f
00000140: ba3c 623f d8be 28bf 102f 853e c347 d03d
00000150: 17da 21bf b59f 1c3f b350 01be 0d9d 2e3f
00000160: 7244 5a3f b6fe dabe 070f 6d3f d8f9 743f
00000170: 22ca 69bf c978 803f c9d8 19bf 9c16 18bf
00000180: 4dd2 99be f437 d4be 4daa ef3e 0d17 fbbe
00000190: 1e42 04bf d92b 04bf b24e 5a3f 058e 6f3f
000001a0: d84a 3c3f 97ac c43e a0d0 253f 545a c5be
000001b0: 6e6a 473f 9c8f f6be 5a53 18bf fc2f 5cbe
000001c0: 9bd6 563f a076 ed3e db16 a93d c2f4 543f
000001d0: 5d03 10bf f6bd 3bbf be12 423f 4765 d83d
000001e0: 0d5c d63d 9401 523f 7b72 c9be c12c 11bf
000001f0: 58da 3b3f 9586 353f 96fb aabe 584e 3b3f
00000200: 98bb 453f ce17 843d 7136 9cbd 5b8a 2c3e
00000210: 7248 d5be cb87 c63d cc9f 403f 8994 91be
00000220: 7e63 3bbe cdf0 853f a90f 153f 9496 073f
00000230: 67c7 3e3f ba4f c3be aaf7 82be b569 7f3e
00000240: 4834 eebe eedf 53bd ba91 f33e 0ba9 663f
00000250: 36a2 a23e 063e 29bf 2ada cabe 89f5 16bf
00000260: 398b 4e3f 863d 16bf 92fa 3f3f 0141 6e3f
00000270: 02dd 403d eaee 9b3e 81a4 1fbf 683c 92be
00000280: e94a d23e 003b dcbe 6afd 273f 79fc febd
00000290: cbe9 603f 946c 44bf b959 6a3f 98a6 503f
000002a0: f2d0 4e3f 8ee0 823e 257b 643e 878c 1cbf
000002b0: b541 723f 049c 0ebf 0a36 e5be 1df7 803e
000002c0: 0940 173e a715 0abf 5a7a 823f 061a 2dbf
000002d0: 104b 753f b281 a9bd 860f 3fbe 75f3 8fbe
000002e0: 198b 363f b23e 223f cd77 f0be 81c7 4c3f
000002f0: fa66 1c3f 8c45 603f 536e 7d3f 4ab0 013f
00000300: ec18 c53d 17ad dcbe 09b6 50bf e1ac 1ebf
00000310: 7b14 863e c083 403f 6ead 7bbd 9807 2d3f
00000320: a274 183f a22e d4be d059 183f 57eb 593f
00000330: d031 643f a6c8 6f3f d595 85be 85b5 60bc
00000340: 4d45 413f bafc 613e e7da 13be f4c8 763f
00000350: 4700 f0be a19c a6be 39e2 603f 5f02 233d
00000360: c942 4b3f 12a8 c9be cf8b 403e de66 b73e
00000370: df2f 8bbe ba7a 07bf 09e1 643f 3144 343f
00000380: 9e7a 3b3e bae7 af3e 2c63 193f 468c 453f
00000390: 1652 133f b599 ebbe 17a6 143f fda1 1c3f
000003a0: c20f 653f 1111 433f 469e 00bf e832 213e
000003b0: e4d0 453f 7a82 c8be 18dc 6dbf ee26 1b3f
000003c0: 0c78 54bf 0f6e a53d bb61 2f3f 2930 703c
000003d0: e217 db3e 1edc 3c3f 350e 1b3f 41fa 2cbf
000003e0: 9cb2 0d3f 71e4 2b3f 5855 603f 9b5a 1abf
000003f0: 63ec a9be 69b7 49bf 13f2 94be f04b 543f

linear2.weight f4 [2, 512]
-1.0143642 -0.38711414 -0.4077315 0.20708963 0.59693646 -0.680866 -0.46456578 -0.15633571
0.40682182 0.30880663 -1.3118665 0.06558905 0.19454885 0.51938105 -0.78388166 -0.06439849
0.11736257 0.4548454 -0.28703508 0.2645703 -0.8610062 -0.69427216 0.19401364 0.49244812
-0.51510304 0.09463385 0.42412636 -0.4921491 0.55412227 -0.4571266 -0.11348644 -0.618132
-0.25589955 -0.38446257 -0.6065009 0.11606687 -0.21106125 0.41064397 -0.4468721 0.3237006
-0.5652441 -0.39593247 -0.35630438 -0.21644922 0.36729482 -0.9632045 -0.47465822 -0.3820619
0.4052699 0.37670645 -0.48539793 0.27112147 -0.07507688 0.27465656 -0.21921061 -0.20620777
0.3264583 0.021024952 0.6420683 0.41310397 0.3881899 0.36101854 0.29242292 -0.25270504
0.54312927 0.21611099 0.2750839 -0.3191498 -0.9046196 0.37478527 0.21261309 0.3174203
-0.30855608 0.45497328 0.10155146 0.1582952 -0.33735785 0.434853 0.27957466 0.2877585
0.36565447 -0.22854163 -0.42096484 0.030575812 -0.1970019 0.22569026 -0.3865544 0.22278006
0.3250903 0.009526137 0.13597721 0.581688 -0.6148257 0.3051126 -0.19144952 -0.40306726
-0.9826859 -0.9219374 0.098345175 -0.23720373 -0.4313332 -0.3295254 0.39183703 0.4348759
0.1762898 0.11187451 0.39550588 -0.011023104 0.46002734 -0.46265405 -0.22761665 0.4139936
0.2420105 -0.16253206 -0.16637282 0.42758366 -0.34931993 -0.39639148 0.5255135 0.26070404
-0.22354257 0.3226632 -0.3869772 -0.3467482 -0.040534142 0.2941326 -0.41024715 0.26538432
0.26827925 0.036768824 0.47932214 -0.33908886 -0.56081647 -0.14813048 0.25108555 -0.75938547
-0.31226984 0.44681957 0.32164705 0.2952043 0.10580991 -0.34802482 -0.6368211 -0.106696635
-0.26810533 -0.23269151 0.08531941 0.631096 0.29320833 -0.44856024 -0.24080256 -0.96686983
0.4034883 -0.29030392 0.19179732 0.46449098 -0.31850356 0.13925108 -0.17329146 -0.2098686
-0.41919637 0.04201648 0.44258934 -0.35548604 0.28713304 -1.4025754 0.20096233 0.39709672
0.23598194 -0.27134907 -0.29321438 -0.09645781 0.48947302 -0.28415555 -0.4056748 -0.40079576
-0.24489082 -0.5036336 0.29536438 -1.227969 0.32266077 -0.61469823 0.279213 -0.27810863
0.41397834 -0.40912813 -0.35693675 0.28146067 0.06949546 0.5129416 0.28861102 0.16967213
-0.4969143 -0.41568187 -0.47440246 -0.68816656 -0.55560285 0.32926825 -0.36488795 0.17842653
0.58738214 -0.33812523 0.59347266 0.22083437 0.3240676 0.38835907 -0.42884704 0.24037656
0.26569116 -0.1700364 -0.3266082 0.29967707 -0.5733423 -0.69274545 0.37676823 0.21122763
0.4628568 0.37186056 0.20368941 0.07292964 -0.19616894 -0.31278974 0.16570294 0.23699664
0.1409635 0.12646993 0.51284087 0.27549738 -0.7396405 -0.26965326 0.21763131 0.388319
0.5664219 -0.5947318 0.22944549 0.23553523 0.46359614 0.016415624 -0.3123934 0.25868115
-1.1306473 -0.5507466 0.4007594 0.12927812 -0.0059965854 0.29915312 0.30257973 -0.8138183
0.28017715 0.37491438 0.38088977 -1.0542984 -0.36553526 -0.012658388 -0.43394062 0.27166423
00000000: b0d6 81bf d333 c6be 2fc2 d0be 4e0f 543e
00000010: d4d0 183f 3c4d 2ebf 91db edbe 7816 20be
00000020: f34a d03e e71b 9e3e 3eeb a7bf 8d53 863d
00000030: d037 473e 28f6 043f 78ac 48bf 5be3 83bd
00000040: c95b f03d 7fe1 e83e 43f6 92be c275 873e
00000050: e76a 5cbf d2bb 31bf 83ab 463e 2922 fc3e
00000060: cbdd 03bf 64cf c13d 1727 d93e f8fa fbbe
00000070: f5da 0d3f 7f0c eabe 946b e8bd e63d 1ebf
00000080: 4405 83be 47d8 c4be a543 1bbf 78b4 ed3d
00000090: 7120 58be ed3f d23e 6bcc e4be 16bc a53e
000000a0: d6b3 10bf a9b7 cabe 876d b6be dda4 5dbe
000000b0: 110e bc3e 9294 76bf 6706 f3be 9e9d c3be
000000c0: 897f cf3e abdf c03e 1486 f8be 6fd0 8a3e
000000d0: e8c1 99bd c99f 8c3e bf78 60be 2128 53be
000000e0: 8b25 a73e 853c ac3c 975e 243f 5d82 d33e
000000f0: d4c0 c63e 6cd7 b83e 75b8 953e 8e62 81be
00000100: 850a 0b3f 334c 5d3e ccd7 8c3e 9a67 a3be
00000110: 2695 67bf dbe3 bf3e 3fb7 593e ea84 a23e
00000120: 10fb 9dbe 42f2 e83e 36fa cf3d 2318 223e
00000130: 2bba acbe 0da5 de3e 6924 8f3e 1555 933e
00000140: 1037 bb3e d106 6abe b488 d7be 207a fa3c
00000150: deba 49be 591b 673e 75ea c5be 7520 643e
00000160: 3c72 a63e 8413 1c3c 9c3d 0b3e 81e9 143f
00000170: 3865 1dbf b837 9c3e 580b 44be d55e cebe
00000180: 4e91 7bbf 1704 6cbf 3269 c93d 89e5 72be
00000190: b5d7 dcbe 8eb7 a8be dd9e c83e 0ea8 de3e
000001a0: 5085 343e 771e e53d bf7f ca3e 409a 34bc
000001b0: b488 eb3e fee0 ecbe 5714 69be f8f6 d33e
000001c0: 9ad1 773e ce6e 26be a35d 2abe 3fec da3e
000001d0: 10da b2be d3f3 cabe 0e88 063f 007b 853e
000001e0: 58e8 64be 1c34 a53e e021 c6be fb88 b1be
000001f0: 2107 26bd 8c98 963e ea0b d2be 74e0 873e
00000200: e65b 893e e89a 163d b669 f53e 0e9d adbe
00000210: ab91 0fbf 84af 17be 498e 803e 1667 42bf
00000220: d5e1 9fbe 89c5 e43e ecae a43e 0525 973e
00000230: deb2 d83d 4f30 b2be b506 23bf c483 dabd
00000240: 1a45 89be af46 6ebe f1bb ae3d 828f 213f
00000250: 671f 963e b0a9 e5be f294 76be c884 77bf
00000260: 0596 ce3e b7a2 94be 8466 443e c3d1 ed3e
00000270: e612 a3be d697 0e3e 5173 31be cbe7 56be
00000280: e8a0 d6be 7919 2c3d 129b e23e 4402 b6be
00000290: 1a03 933e 9787 b3bf 12c9 4d3e 4350 cb3e
000002a0: 40a5 713e 44ee 8abe 3220 96be ac8b c5bd
000002b0: 359c fa3e d67c 91be 9bb4 cfbe 1a35 cdbe
000002c0: a9c4 7abe 22ee 00bf 003a 973e 172e 9dbf
000002d0: cb33 a53e dd5c 1dbf 02f5 8e3e 4164 8ebe
000002e0: f8f4 d33e 3e79 d1be 6ac0 b6be 9d1b 903e
000002f0: a353 8e3d 2450 033f d3c4 933e 88be 2d3e
00000300: 8d6b febe 41d4 d4be e1e4 f2be af2b 30bf
00000310: fd3b 0ebf d995 a83e 98d2 babe 72b5 363e
00000320: ad5e 163f c01e adbe d3ed 173f 6822 623e
00000330: 30ec a53e 00d7 c63e d791 dbbe 4625 763e
00000340: ac08 883e 061e 2ebe 3139 a7be 466f 993e
00000350: 90c6 12bf c457 31bf c4e7 c03e 0e4c 583e
00000360: 91fb ec3e 8264 be3e f593 503e 235c 953d
00000370: 83e0 48be fa25 a0be 08ae 293e 3faf 723e
00000380: bc58 103e 5581 013e 8a49 033f fe0d 8d3e
00000390: 1459 3dbf fe0f 8abe beda 5e3e bfd1 c63e
000003a0: 0701 113f 5840 18bf c2f3 6a3e 2630 713e
000003b0: 795c ed3e 0f7a 863c 07f2 9fbe db71 843e
000003c0: 0db9 90bf bbfd 0cbf 5630 cd3e 7c61 043e
000003d0: 017f c4bb 992a 993e bbeb 9a3e 6556 50bf
000003e0: 6173 8f3e c7f4 bf3e fc03 c33e 40f3 86bf
000003f0: 7027 bbbe 2165 4fbc 772d debe 9317 8b3e

linear2.bias f4 [2]
0.25313115 0.2582087
00000000: 689a 813e ee33 843e
