code/log/dqn/ckpt/942000.pth (torch, 15775 bytes, 4 tensors)

linear.weight f4 [512, 4]
0	0x3e816ce5	0.25278392
1	0x3f04b112	0.5183269
2	0xbf936d97	-1.1517819
3	0xbe9d0131	-0.3066497
4	0x3c21b292	0.009869235
5	0x3f0c9a57	0.54923004
6	0x400cfdc4	2.2029886
7	0x3ef2baef	0.47408244
8	0x3ec786a0	0.38969898
9	0x3f188429	0.5957666
10	0x3f07eb59	0.5309349
11	0x3ef69660	0.48161602
12	0xbeba9b6a	-0.36446697
13	0xbc0a017d	-0.008423206
14	0xbeddbf3d	-0.43309966
15	0x3b9a825e	0.004715248
16	0x3fa51ce8	1.2899446
17	0x3f1b58c7	0.6068234
18	0xbfc5a479	-1.5440818
19	0x3ebfb0d7	0.37439606
20	0x3efd0ea9	0.49425247
21	0x3f57a90a	0.8424231
22	0x403ba584	2.9319773
23	0x3f22a5f2	0.6353446
24	0x3f543bff	0.82904047
25	0x3f174320	0.590868
26	0x3f2e832b	0.68168896
27	0x3eb9baf3	0.36275443
28	0xbf289660	-0.65854454
29	0x3fbfd300	1.4986267
30	0xbe18c840	-0.1492014
31	0x3f501fd1	0.8129855
32	0xbec2c643	-0.38041887
33	0xbe94630b	-0.28981814
34	0xbf0e6e2e	-0.5563687
35	0xbe93836a	-0.28811198
36	0xbeb66cc9	-0.3562987
37	0x3f015b78	0.50530195
38	0xbddb8c11	-0.10720075
39	0x3da7a3fb	0.08185574
40	0x3eb5be36	0.35496682
41	0xbcb43436	-0.021997552
42	0x3da0b539	0.078470655
43	0xbe955aca	-0.2917083
44	0xbe98016a	-0.2968858
45	0xbdbdf55e	-0.09275316
46	0xbe195df9	-0.14977254
47	0x3e23607b	0.15954773
48	0xbe9cca2f	-0.30623004
49	0x3d6851f1	0.05671877
50	0xbe36495a	-0.17801419
51	0x3e683f62	0.22680429
52	0x3d84659b	0.06464692
53	0xbe473438	-0.19453514
54	0xbe1abeca	-0.15111843
55	0xbe42f8e3	-0.19040255
56	0xbf815c5f	-1.0106314
57	0xbf8f14d4	-1.1178231
58	0xbfe0c858	-1.756114
59	0xbef3f968	-0.4765122
60	0x3fcab1d1	1.5835515
61	0x3f964777	1.1740559
62	0x3fcd8314	1.6055627
63	0x3f5e1e71	0.867652
64	0x3ca3f028	0.020011976
65	0xbe892ff6	-0.26794404
66	0xbff73b35	-1.9314944
67	0xbeef6a68	-0.4676087
68	0x3c08fb41	0.008360685
69	0x3e40c050	0.18823361
70	0xbf4bf05f	-0.7966365
71	0x3cc4d649	0.02402796
72	0xbcbbd1b4	-0.022927143
73	0xbf9a908e	-1.2075365
74	0x4017e832	2.373547
75	0x3f385a58	0.72012854
76	0xbf06905e	-0.52564037
77	0xbf6dd40a	-0.9290167
78	0xbfabafb7	-1.3412999
79	0xbf0c4f15	-0.5480817
80	0xbf54effa	-0.83178675
81	0xbeb9bcab	-0.36276755
82	0xbfa40f78	-1.2817221
83	0xbe91bd4a	-0.2846473
84	0x3f0a87be	0.54113376
85	0x3ebb89d4	0.36628592
86	0xbe8291a3	-0.25501737
87	0x3e724203	0.23657994
88	0xbccbf90a	-0.024899025
89	0xbe9f0292	-0.31056648
90	0xbe99ef17	-0.30065224
91	0xbd46e562	-0.0485586
92	0x3e172e86	0.14763841
93	0xbe25dd5d	-0.16197725
94	0xbf86b326	-1.0523422
95	0xbe043cb1	-0.12913777
96	0x3f501c42	0.8129312
97	0x3dba32db	0.09091731
98	0xbfc8ba48	-1.5681849
99	0xbe782f2b	-0.24236743
100	0x3e257578	0.16158092
101	0x3fb4e71e	1.4133031
102	0x3f5a8235	0.8535493
103	0x3f39a60f	0.7251901
104	0xbf51a60f	-0.8189401
105	0xbf28be8a	-0.6591574
106	0xbf09db5a	-0.5385033
107	0xbe76502c	-0.2405402
108	0x3f171ecb	0.5903136
109	0x3f083044	0.5319865
110	0x3fc893b3	1.5670074
111	0x3edac346	0.42727107
112	0xbe0bbcf5	-0.136463
113	0xbda2f48a	-0.079567984
114	0x3f01bba6	0.50676954
115	0xbed3d3d4	-0.4137255
116	0xbf09e261	-0.5386105
117	0x3e0a7fe4	0.13525349
118	0x3ea88c06	0.3291933
119	0x3e024ca6	0.12724552
120	0xb9ac5bd9	-0.00032874828
121	0xbdbf297a	-0.09334083
122	0xbf3a1058	-0.7268119
123	0x3d12107c	0.035660252
124	0x3d7b5e5d	0.06136929
125	0x3daf3bd1	0.08556331
126	0xc035f7bc	-2.8432455
127	0xbeb688fc	-0.35651386
128	0xbebc4cba	-0.36777288
129	0xbf03dbb5	-0.5150712
130	0xbf86d590	-1.0533924
131	0xbed1805b	-0.4091824
132	0xbf0fadab	-0.5612437
133	0xbf142ed0	-0.5788393
134	0xbf28330c	-0.6570289
135	0xbedaf67d	-0.4276618
136	0xbeb97f08	-0.3622973
137	0xbe317c4b	-0.1733257
138	0x3f0383d7	0.51373047
139	0xbdf30dd8	-0.11867875
140	0x3c6899d7	0.0141968345
141	0x3d9832f8	0.074315965
142	0x3cd1d157	0.025612516
143	0xbe583191	-0.21112658
144	0xbf30de44	-0.6908915
145	0xbf5e943c	-0.8694494
146	0xbf2cbb40	-0.6747322
147	0xbef70a2d	-0.4824995
148	0xbe492b0a	-0.19645324
149	0xbf09f445	-0.5388835
150	0xbf47d8e1	-0.78065306
151	0xbed27298	-0.41103053
152	0xbdb8f3ec	-0.090308994
153	0xbf10a407	-0.56500286
154	0xc01de3dc	-2.4670324
155	0xbf03dc92	-0.5150844
156	0x3e4f0553	0.20216875
157	0xbf120884	-0.57044244
158	0xbf23c8da	-0.6397835
159	0xbe873247	-0.26405546
160	0x3e2d714c	0.1693775
161	0xbe71eb4e	-0.23624918
162	0xc084e642	-4.1531076
163	0xbf76c50d	-0.96394426
164	0xbf37bbce	-0.7177094
165	0xbea6ae2b	-0.32554755
166	0xbf0eb06a	-0.55737936
167	0xbe615220	-0.22003984
168	0xbfcf5c5a	-1.6200058
169	0xbe8247b1	-0.2544532
170	0x3cae4762	0.021274272
171	0xbd9e44e4	-0.077279836
172	0xbc9371fc	-0.017998688
173	0x3ead8d35	0.33896795
174	0xbd15d6e2	-0.03658188
175	0x3efd7f3a	0.4951113
176	0xbe937d7a	-0.2880667
177	0xbef740a1	-0.48291495
178	0xbd965e12	-0.07342161
179	0xbecc3edf	-0.39891717
180	0xbe91bb37	-0.28463146
181	0xbe77c0b3	-0.24194603
182	0x3f875620	1.0573158
183	0x3dfe0a46	0.12404303
184	0x3f813b4d	1.0096222
185	0x3f6ba980	0.9205551
186	0xbe93b96b	-0.288524
187	0x3e25e793	0.1620162
188	0xbf37fb51	-0.71867853
189	0x3df2230a	0.118230894
190	0x3f264a8d	0.64957505
191	0x3e0fa2b4	0.1402691
192	0xbf47245c	-0.77789855
193	0xbf230f15	-0.6369489
194	0xbe3ffa11	-0.18747737
195	0xbd32a7b3	-0.04361696
196	0xbeadfeda	-0.339835
197	0x3d6de88f	0.058083113
198	0xbf153f37	-0.58299583
199	0x3d067e0b	0.032835048
200	0x3ed19d0a	0.40940124
201	0x3e91653e	0.28397554
202	0xbf074383	-0.5283739
203	0x3e3c689b	0.18399279
204	0xbec7371d	-0.38909236
205	0x3e6a0110	0.22851968
206	0xbf09b370	-0.53789425
207	0x3ed18e5e	0.4092893
208	0x3ea820a6	0.3283741
209	0x3d84c941	0.06483699
210	0xbccf20e7	-0.025284244
211	0x3e196b96	0.14982447
212	0xbe22866c	-0.1587159
213	0xbe8d00bd	-0.27539626
214	0xbf05434d	-0.5205582
215	0xbd981778	-0.07426351
216	0x3ee0389c	0.4379319
217	0xbe05c9a7	-0.13065206
218	0xc03d27af	-2.955547
219	0xbeb4f757	-0.35344955
220	0xbe80d40d	-0.25161782
221	0x3e731257	0.23737465
222	0x3f97e74d	1.1867462
223	0x3f544e2a	0.8293177
224	0xbee41c80	-0.44552994
225	0x3e06cd4f	0.13164257
226	0xbf240a81	-0.6407853
227	0x3c4bb52e	0.012433333
228	0xbe9d0246	-0.30665797
229	0x3d5bfe16	0.053709112
230	0xbead0431	-0.3379226
231	0x3e7fb2dd	0.24970575
232	0x39d153cd	0.00039926023
233	0xbe14fcaf	-0.14549516
234	0x3ead4a50	0.33845758
235	0xbe98b5ce	-0.29826206
236	0xbc2be24e	-0.010490967
237	0xbf02a38b	-0.51030797
238	0x3f55476f	0.83312124
239	0xbe895dd9	-0.26829413
240	0xbe0c229b	-0.13685076
241	0x3e84b9c0	0.25922966
242	0xbed043bd	-0.4067668
243	0x3b199890	0.0023436882
244	0x3e51dacd	0.20493622
245	0xbf27c81f	-0.65539736
246	0xbdf63d1a	-0.12023373
247	0xbebf9910	-0.37421465
248	0xbe3cf7c9	-0.18453898
249	0xbe8b07a2	-0.2715426
250	0xbf413980	-0.75478363
251	0xbdb8f680	-0.09031391
252	0x3ecc7220	0.3993082
253	0xbf7c548a	-0.98566496
254	0xbf8738d2	-1.0564215
255	0xbf728f33	-0.94749755

linear.bias f4 [512]
0	0xbf16fb19	-0.58976895
1	0x3e46f4de	0.19429347
2	0x3d615ad3	0.055018257
3	0x3f4991b0	0.78737926
4	0x3f469407	0.7756962
5	0xbf97a4a9	-1.1847125
6	0xbf2236b0	-0.63364697
7	0xbf3f2a53	-0.74673957
8	0x3f84aace	1.0364625
9	0x3f7672b4	0.96268773
10	0x3f37c1d2	0.7178012
11	0x3f563903	0.8368074
12	0x3f42711a	0.7595383
13	0x3f5039a6	0.81337965
14	0x3ecd1dee	0.40061897
15	0xbe97a3a0	-0.29617023
16	0x3f30c4de	0.69050395
17	0x3f932477	1.1495503
18	0xbf6ac544	-0.91707253
19	0xbea37448	-0.31924653
20	0xbe88bc15	-0.26705995
21	0xbfa1d4f8	-1.2643118
22	0x3f08db1c	0.53459334
23	0x3f774fc8	0.9660611
24	0xbd876818	-0.06611651
25	0x3f8be824	1.0930219
26	0x3f32667e	0.6968764
27	0x3dc5c374	0.0965642
28	0x3f89f44b	1.0777677
29	0xbf7b3478	-0.98126936
30	0x3f2d9e41	0.678196
31	0x3f00ce64	0.5031493
32	0xbdb156da	-0.08659144
33	0xbefd6182	-0.49488455
34	0xbfa0aada	-1.255214
35	0x3f8ccdf8	1.1000357
36	0x3f0b4d1d	0.5441454
37	0x3f340123	0.70314234
38	0xbf52b0c2	-0.8230096
39	0x3f60dec4	0.87839913
40	0x3f2e4527	0.6807427
41	0xbe7a75c8	-0.24458992
42	0x3ee2bb98	0.44283748
43	0x3f743c8c	0.9540489
44	0x3f6ad42b	0.9172999
45	0xbf9a5056	-1.2055767
46	0xbe906944	-0.2820531
47	0xbf71e7c7	-0.9449429
48	0x3f10efd5	0.56615955
49	0x3f2c86ce	0.67393196
50	0xbf764269	-0.96195084
51	0x3f74e723	0.95665187
52	0xbf0278d9	-0.5096565
53	0x3f06ac27	0.52606434
54	0xbf0f119d	-0.5588625
55	0x3f050965	0.5196746
56	0x3f78b793	0.9715511
57	0x3f557de3	0.8339521
58	0x3f8113f5	1.0084215
59	0x3ef70d16	0.4825217
60	0x3f7ae0c2	0.97999203
61	0x3f5fbd0d	0.87397844
62	0x3f125307	0.5715794
63	0x3e955c1d	0.2917184
64	0x3f5e279a	0.8677918
65	0x3f5ec44e	0.8701829
66	0x3f12f227	0.57400745
67	0xbf1f0821	-0.6212178
68	0x3e3cd5e1	0.18440963
69	0x3f95922a	1.1685231
70	0x3f6abd87	0.91695446
71	0x3f1caa6a	0.6119753
72	0xbe73bd61	-0.23802711
73	0x3f4e453d	0.805744
74	0x3dc9dced	0.098565914
75	0xbe776346	-0.24158964
76	0xbe410a77	-0.18851648
77	0x3f4dd18a	0.80397856
78	0x3f7fa66a	0.998633
79	0x3ed67d07	0.41892263
80	0x3f687562	0.9080411
81	0x3ee45c1e	0.4460153
82	0x3f2099f8	0.6273494
83	0x3e80021b	0.25001606
84	0xbf94e0c7	-1.1631097
85	0x3f144bca	0.57928145
86	0x3f3ab4eb	0.7293231
87	0x3f3cce0b	0.73751897
88	0x3f5c8579	0.86141163
89	0xbe5ad6e5	-0.21371038
90	0x3f74d965	0.9564422
91	0x3f907825	1.1286665
92	0xbf871486	-1.0553138
93	0x3f7aa96b	0.9791476
94	0xbfa40ecb	-1.2817014
95	0xbfad8316	-1.3555629
96	0xbe6d05a0	-0.23146677
97	0x3ec163f5	0.37771574
98	0x3f2dda3b	0.6791112
99	0x3eb9c81b	0.3628548
100	0xbf8e2182	-1.1103976
101	0x3f160984	0.5860827
102	0x3f6d84c2	0.927807
103	0x3f803932	1.0017455
104	0x3f232f3d	0.63743955
105	0x3f15187d	0.5824049
106	0x3f541a4b	0.8285262
107	0xbd45f604	-0.048330322
108	0x3f5b169e	0.85581386
109	0xbf4954ac	-0.78644824
110	0x3f1a74ef	0.60334677
111	0x3f282568	0.6568208
112	0x3f63c08e	0.8896569
113	0xbec9e684	-0.39433682
114	0xbf90028d	-1.1250778
115	0x3eba2601	0.3635712
116	0xbf8e62f4	-1.1123948
117	0xbf53ee03	-0.8278505
118	0x3f632be6	0.8873886
119	0x3f2cec22	0.6754781
120	0xbe2753a4	-0.163405
121	0x3f6d8ef2	0.9279624
122	0xbf4355ad	-0.76302606
123	0x3d7a7edf	0.06115615
124	0x3f5fa579	0.87361866
125	0x3f37bebc	0.7177541
126	0xbf29cda0	-0.66329384
127	0x3f4419b8	0.76601744
128	0x3f4ccbbc	0.79998374
129	0xbf03d654	-0.51498914
130	0x3f43ac14	0.76434445
131	0x3ef09f4c	0.46996534
132	0x3eea4e99	0.4576309
133	0x3de5733c	0.1120362
134	0x3f504cef	0.8136739
135	0xbe6bd479	-0.2303027
136	0x3f95f5b4	1.1715608
137	0x3f95b0c8	1.1694574
138	0x3f415461	0.75519377
139	0x3eea609f	0.4577684
140	0x3f455060	0.7707577
141	0x3f1aa4ca	0.604077
142	0x3dbb6c31	0.09151495
143	0xbf787d21	-0.9706593
144	0xbf23506d	-0.63794595
145	0xbf0f0171	-0.55861574
146	0x3f02eada	0.51139605
147	0x3f89e2f6	1.0772388
148	0x3ef866d0	0.4851594
149	0xbf641bfb	-0.89105195
150	0xbdc1394d	-0.094347574
151	0xbf4c10bf	-0.7971305
152	0x3f667bb2	0.90032494
153	0xbfbae108	-1.4599924
154	0x3f719a77	0.9437632
155	0x3f8d0a2a	1.1018727
156	0xbf1f053d	-0.6211737
157	0x3f56e060	0.8393612
158	0xbf03dcb4	-0.5150864
159	0xbec2fee0	-0.3808508
160	0xbf3a1470	-0.72687435
161	0x3ecb7a8a	0.39741927
162	0x3ef404de	0.47659963
163	0x3f91d0a0	1.1391792
164	0x3f82a153	1.0205482
165	0xbe055b23	-0.13023047
166	0x3f781e54	0.9692128
167	0x3f621a11	0.88321024
168	0x3f5565b9	0.8335834
169	0xbdb2b642	-0.08726169
170	0x3dcc1c4d	0.099663354
171	0xbf9a598e	-1.205858
172	0x3f7efb44	0.9960215
173	0xbfcb86a0	-1.5900459
174	0xbe1dd16d	-0.15411921
175	0xbebebe89	-0.37254742
176	0x3e873772	0.2640949
177	0xbf09b8c9	-0.53797585
178	0x3f72c429	0.94830567
179	0x3e3b8aa7	0.1831461
180	0x3f8de79a	1.1086304
181	0xbf57461e	-0.84091365
182	0x3f1abbc1	0.6044274
183	0x3dc9774a	0.09837206
184	0x3f25ed12	0.64814866
185	0x3f0f87a0	0.5606632
186	0xbfd62b74	-1.6732011
187	0x3f4d92b4	0.80301976
188	0x3f8cb18a	1.0991681
189	0x3f7803b1	0.9688063
190	0x3f8027d0	1.001215
191	0x3f2aaada	0.6666695
192	0xbf31d710	-0.69468784
193	0xbf9756af	-1.1823329
194	0xbeef9adf	-0.46797845
195	0x3df50d84	0.119654685
196	0xbf341e39	-0.70358616
197	0x3f4916ea	0.7855059
198	0x3f94d2c5	1.1626822
199	0x3f134545	0.5752757
200	0x3f3c43cf	0.7354097
201	0xbfbcfd56	-1.4764812
202	0x3f31a851	0.69397455
203	0x3f69ca0d	0.9132393
204	0x3f717a6d	0.9432743
205	0x3f869d06	1.051667
206	0x3f8e0c1a	1.1097443
207	0x3e0b1db1	0.13585545
208	0x3f5138b5	0.81727153
209	0x3eeacd49	0.45859745
210	0x3f67a152	0.9048053
211	0x3f836c1d	1.0267369
212	0x3ef844e9	0.48490074
213	0xbf423fec	-0.7587879
214	0x3f65b6fb	0.8973233
215	0x3f8474db	1.0348161
216	0x3f691613	0.9104931
217	0x3d9ce6a6	0.0766118
218	0x3f36763e	0.71274173
219	0x3f5aa453	0.8540699
220	0xbed9eba0	-0.4256258
221	0xbe91cfe8	-0.28478932
222	0x3f81163a	1.0084908
223	0x3f5f7318	0.87284994
224	0x3f36400d	0.71191484
225	0x3f709a2f	0.93985265
226	0xbe44ea3b	-0.19229977
227	0x3f51bece	0.8193177
228	0xbc9e48e4	-0.019321866
229	0xbe065a4b	-0.13120382
230	0x3edaf850	0.42767572
231	0x3f54884a	0.8302046
232	0x3f87083f	1.0549392
233	0xbf7b1b67	-0.9808869
234	0xbe21791e	-0.15768859
235	0x3f0e4eda	0.5558907
236	0x3f54c751	0.8311663
237	0xbef24b67	-0.47323152
238	0xbf8c254e	-1.0948884
239	0x3f00f5b4	0.50374913
240	0xbda6af25	-0.08138875
241	0xbf1b2a11	-0.60611063
242	0x3f55c999	0.8351074
243	0x3e5e5f9f	0.21716164
244	0x3f433ace	0.76261604
245	0x3f2049c2	0.62612545
246	0x3f3b1342	0.7307626
247	0x3de3956e	0.11112486
248	0x3f1e1cff	0.61762995
249	0x3f384ff2	0.71996987
250	0x3f566c68	0.83759165
251	0xbeee0212	-0.46485955
252	0xbd7d6ed8	-0.061873287
253	0xbe82ffb5	-0.25585714
254	0x3e82ef0b	0.25573
255	0x3f694942	0.9112741

linear2.weight f4 [2, 512]
0	0xbfd09d6e	-1.6298044
1	0xc03a3f62	-2.9101186
2	0xbf67dc1f	-0.90570253
3	0x3ec8ce25	0.39219776
4	0x3f8805bf	1.0626754
5	0xc01e48f7	-2.4732034
6	0xbf823343	-1.0171894
7	0x3fd40ad1	1.6565801
8	0x3f17cd2f	0.5929746
9	0x3f0ef7a8	0.55846643
10	0xbfb5f990	-1.4216785
11	0x3eac936d	0.33706227
12	0x3e973bbe	0.29537767
13	0x3f2f4086	0.6845783
14	0x3eaee4e7	0.34159014
15	0x3f323232	0.6960784
16	0xbe5c552e	-0.21516868
17	0x3f2cb3d4	0.67461896
18	0x3f52ef98	0.8239684
19	0x3faa0dec	1.3285499
20	0xbfab35b0	-1.3375759
21	0xbfbdae25	-1.481877
22	0x3e7569cb	0.23966138
23	0x3f2d883b	0.67785996
24	0x3eeecf97	0.46642753
25	0x3f92e40a	1.1475842
26	0x3f553496	0.83283365
27	0xc00b0113	-2.1719406
28	0x3f358352	0.70903504
29	0xc037e204	-2.87317
30	0x3ebd3831	0.36956933
31	0xbeb64133	-0.35596618
32	0xbed75141	-0.4205418
33	0xbfbc087e	-1.4690092
34	0xc007ed12	-2.1238446
35	0x3f1c81d2	0.6113559
36	0x3f81657d	1.0109097
37	0x3f23b42c	0.63946795
38	0x3f980550	1.1876621
39	0x3eb0803b	0.34472832
40	0xbfcb49cb	-1.5881895
41	0xbfade5cc	-1.3585753
42	0x3f80cfc9	1.0063411
43	0xbf074fae	-0.52855957
44	0x3f0062e9	0.50150925
45	0xc00fe912	-2.2486005
46	0xbfd4ced8	-1.6625624
47	0xc06e0922	-3.7193074
48	0x3f762227	0.9614586
49	0x3f1fd09b	0.6242768
50	0xbfc476f3	-1.53488
51	0x3eb7577b	0.3580893
52	0xbee28088	-0.44238687
53	0x3ec3f2b1	0.38271096
54	0xbfa5276d	-1.2902657
55	0xbf003ccf	-0.50092787
56	0x3f0d2a4b	0.5514266
57	0x3e94df58	0.29076648
58	0x3f4b3e5c	0.7939203
59	0x3fca8850	1.5822849
60	0x3f21018c	0.62892985
61	0x3eb2c00f	0.34912154
62	0x3edf259c	0.4358338
63	0x3f36dbe5	0.7142928
64	0x3f3e8352	0.7441913
65	0x3e84cf9b	0.2593964
66	0x3eb365ee	0.35038704
67	0xbf820bee	-1.0159891
68	0xbfb26913	-1.3938316
69	0xbf442bc4	-0.7662928
70	0x3ea27a10	0.3173375
71	0x3f08eec8	0.5348935
72	0xbf8b1215	-1.0864893
73	0x3f16af01	0.58860785
74	0xbfb51063	-1.4145626
75	0x3f661705	0.89878875
76	0xbfb4fc53	-1.4139503
77	0x3f1d4651	0.6143542
78	0x3e99652a	0.29959995
79	0x3f32ebb2	0.6989089
80	0x3f089a95	0.53360873
81	0xbfc734f7	-1.5563039
82	0xbfdf60b1	-1.7451383
83	0x3f808251	1.003977
84	0xbf876b86	-1.0579689
85	0x3f7f41f3	0.99710006
86	0xbfdd96cd	-1.7311646
87	0x3ea6adf1	0.32554582
88	0x3ecb9713	0.39763698
89	0x3fd097f2	1.629637
90	0x3eaf3bab	0.3422521
91	0x3f4a0d6a	0.7892672
92	0xbf20fe59	-0.62888104
93	0x3f00ab25	0.50261146
94	0xc007c24b	-2.1212337
95	0xc0073bfd	-2.1130364
96	0x3ccd18d1	0.025036247
97	0xbfae775a	-1.3630173
98	0x3eafd4c0	0.34342003
99	0x3faa4510	1.3302326
100	0xbff6bb4c	-1.9275908
101	0x3f6ce4e0	0.92536736
102	0x3f17885e	0.59192455
103	0x3f1e21d9	0.617704
104	0x3f0e55bc	0.5559957
105	0x3eb82014	0.35961974
106	0x3ecdc423	0.40188703
107	0xbf9573dc	-1.1675982
108	0x3ee48175	0.44630018
109	0xbf73fec5	-0.9531062
110	0xbee1f9cc	-0.44135892
111	0xbe7e2033	-0.2481697
112	0x3ea902b2	0.3300987
113	0x3f1dc85f	0.6163387
114	0xbfae28d3	-1.3606209
115	0x3f52077c	0.8204267
116	0xc0046b09	-2.069033
117	0xc01fe7b3	-2.4985168
118	0x3f228f42	0.63499844
119	0x3ecb0dcd	0.39658967
120	0xbf574ef7	-0.84104866
121	0x3f17633d	0.591358
122	0xbf33f4f2	-0.7029563
123	0xbfe47d3d	-1.785072
124	0xbfa7127e	-1.3052518
125	0x3e9c5a8b	0.3053783
126	0xbefa66c6	-0.48906535
127	0x3eb575d1	0.3544145
128	0x3ed4b7bf	0.41546437
129	0xc02ad1e9	-2.669062
130	0xbfa91653	-1.3209938
131	0xbea5d043	-0.32385454
132	0xbf9d18a6	-1.2273147
133	0x3f46912c	0.77565265
134	0x3edb3f26	0.42821616
135	0xc00bd88a	-2.1850915
136	0xbfd188a5	-1.6369826
137	0x3f2897c7	0.65856594
138	0x3eb3f20c	0.35145605
139	0x3f4094f6	0.75227296
140	0x3eb11be9	0.34591606
141	0xbf1fd2c7	-0.62430996
142	0xbf8dccdb	-1.1078142
143	0x3df4a46b	0.11945423
144	0x3f6bba69	0.92081314
145	0x3fbd6f74	1.4799638
146	0x3f0fc551	0.56160456
147	0x3f5291b7	0.82253593
148	0x3d67cdd6	0.056592785
149	0xc0771d24	-3.8611536
150	0xbf2c8cbf	-0.6740226
151	0xbfaea13a	-1.3642952
152	0x3f2ad1e3	0.6672651
153	0xc0147f2d	-2.3202622
154	0x3ee1f952	0.4413553
155	0x3f23f2c1	0.6404229
156	0xbf5cfafc	-0.8632047
157	0x3eb2c6d3	0.34917316
158	0xbc1b41a8	-0.009476103
159	0xbe872785	-0.26397339
160	0xbf514987	-0.8175282
161	0xbf47f885	-0.78113586
162	0x3f60885d	0.87708074
163	0xbfcb739b	-1.5894655
164	0x3f20603d	0.6264685
165	0xbf56fee6	-0.83982694
166	0x3edf9b59	0.43673208
167	0x3f171c5c	0.5902765
168	0x3e99167f	0.29899976
169	0xbf6cf1c8	-0.9255643
170	0x3eaa2ae6	0.33235854
171	0xc001cbe8	-2.0280704
172	0x3f280959	0.65639263
173	0xc006616a	-2.0996957
174	0xbef7056e	-0.4824633
175	0x3fc2302e	1.5170953
176	0xc02d8c80	-2.7117004
177	0xbfc5177e	-1.5397794
178	0x3ef3407d	0.47510138
179	0xbf9baa7d	-1.2161404
180	0x3ef425c8	0.47685075
181	0xbf5de70d	-0.8668068
182	0x3f3e7348	0.74394655
183	0xbfd21210	-1.6411762
184	0x3f1061ce	0.5639924
185	0xbf502f62	-0.813223
186	0xbfc47c9e	-1.535053
187	0x3ed4b2d6	0.4154269
188	0x3f6720b1	0.9028426
189	0x3f482a7e	0.7818984
190	0x3ea7ef87	0.32799932
191	0x3e68532a	0.22687975
192	0xbf9a1187	-1.2036599
193	0xc017b270	-2.370266
194	0xbfc87c70	-1.5662975
195	0x3f8b3549	1.0875636
196	0xbecc9881	-0.399601
197	0x3ebe8153	0.37208042
198	0xbf93ad79	-1.1537315
199	0x3f5f6011	0.8725596
200	0xbf55b5a4	-0.83480287
201	0xc003fa60	-2.0621567
202	0x3f440ed6	0.7658514
203	0x3e8fcda3	0.28086576
204	0x3f1b7dcc	0.60738826
205	0x3ea2448a	0.31692916
206	0xbf9cf6b5	-1.2262789
207	0x3f73e7d8	0.9527564
208	0x3eb980de	0.3623113
209	0xbebfb599	-0.37443236
210	0xbfd781cf	-1.683649
211	0x3ea61bf1	0.32443193
212	0xbfa9f743	-1.3278583
213	0x3f0e72ba	0.5564381
214	0x3f03b8e3	0.5145399
215	0x3f2dafd8	0.6784644
216	0x3eb564fc	0.35428607
217	0xbfad3376	-1.353133
218	0x3ecfd8b6	0.40595025
219	0x3f800b67	1.000348
220	0xbfb86d69	-1.4408389
221	0xbfcfe1ac	-1.6240745
222	0x3ecfd4e4	0.4059211
223	0x3f1362d3	0.5757267
224	0x3eb8b1e9	0.36073235
225	0x3f1fc2ba	0.62406504
226	0x3facf18f	1.3511218
227	0x3ecbe4c6	0.39822978
228	0xc012d748	-2.2943897
229	0xbedd996d	-0.43281117
230	0x3f3ccbcf	0.7374849
231	0x3efff613	0.49992427
232	0x3f4048c5	0.7511104
233	0xbfa5b600	-1.2946167
234	0xbed77e4a	-0.42088538
235	0x3eae84be	0.3408565
236	0x3f3bd387	0.7336964
237	0x3f4d5a56	0.80215967
238	0xbf697f44	-0.91209817
239	0x3f06e8d0	0.52698994
240	0xbfeac581	-1.8341523
241	0xbfa9b6c3	-1.32589
242	0x3f2c46e1	0.6729565
243	0x3fee02ba	1.8594582
244	0x3fa445c7	1.2833794
245	0x3eede5c9	0.46464375
246	0x3ece13ea	0.40249568
247	0xc002c528	-2.0432835
248	0x3eafa5aa	0.3430608
249	0x3efd5197	0.4947631
250	0x3f095f9c	0.53661513
251	0xc019d544	-2.4036417
252	0xbf6aa397	-0.9165587
253	0xbfa1de0c	-1.2645888
254	0xbe88599c	-0.26630867
255	0x3ea512d8	0.3224094

linear2.bias f4 [2]
0	0x3e9b1a3a	0.30293447
1	0x3e9711c0	0.2950573
